trained_weights/cadets/gat1.pth (torch, 322516 bytes, 27 tensors)

convs.0.att_src f4 [1, 4, 64]
-0.003927718 -0.11340062 0.00054004916 0.06550198 0.2071221 -0.1574802 -0.10493735 0.24091615
0.16396941 0.059134413 -0.117162436 -0.1876435 0.0953905 -0.26339117 -0.20039077 -0.032501653
0.18798856 0.21041277 0.10180699 0.24111322 0.083731584 0.05081708 0.24033976 -0.16235456
0.005305147 -0.103657775 0.19131508 -0.15731421 0.10213572 -0.21602537 -0.13994202 0.08320262
0.03452456 -0.10272768 -0.08629875 0.22386147 -0.13474415 -0.2533078 -0.022616206 -0.13086677
0.09257713 -0.2027547 -0.2298996 -0.055495184 -0.05481132 -0.00032505227 0.11603761 0.026387742
-0.07922862 0.23426811 0.07478714 0.20977189 0.065929174 0.01709913 -0.18686312 0.17665853
0.124510854 0.073861025 -0.24981667 -0.049710948 -0.0006352774 0.029251778 -0.008929743 -0.15375987
-0.018404048 -0.25510815 -0.063871436 0.12159621 -0.25784308 -0.08591432 -0.1549856 0.08346782
-0.11569045 -0.038461745 0.26792967 -0.19080974 -0.057580028 -0.1394951 -0.1060275 0.14941591
0.21250004 -0.05221061 0.23416716 0.0052147475 0.14413266 -0.132701 0.0752115 -0.21430822
-0.14102343 -0.05051802 -0.1275064 0.15950705 0.05415539 -0.27452523 -0.014055756 0.2833342
0.07995988 0.15676863 0.19037078 0.020853601 0.23436923 -0.2394333 -0.25967667 -0.24808197
-0.18191929 -0.28230673 0.072531976 0.20128125 -0.09734909 0.23291972 0.09301532 0.15980683
-0.29227066 -0.16132224 -0.16735472 -0.047097158 -0.036849793 -0.11840863 -0.2259283 0.11363849
0.08334934 -0.13221595 -0.06506211 -0.21974955 0.08670451 0.21770416 0.2803984 -0.1188496
0.093433924 -0.1897097 0.11143968 0.020012667 0.028726095 -0.13706456 -0.20215766 0.021774478
-0.21858881 0.078125894 0.215493 0.1824448 -0.028232943 0.040616345 0.23686334 -0.014070841
0.18005711 -0.1676945 -0.08944133 0.21357773 -0.22966568 -0.022240568 -0.14519203 -0.1312564
-0.07099676 0.074531816 -0.02766046 0.28021005 0.17483887 -0.17186391 0.0570417 0.28321543
0.0054956125 -0.24606356 -0.27178717 0.1813365 -0.0067624175 0.27280045 -0.0607605 -0.11960656
0.063860744 -0.17504175 0.13817906 -0.118512206 -0.0027545772 -0.122684956 -0.12858807 0.10451501
0.19878943 -0.03357562 0.0882937 -0.09119474 -0.25771385 -0.048211835 0.14520529 0.09550192
0.094393924 0.16318318 -0.18127096 -0.19858131 0.15947978 0.27471808 0.12786916 0.1546489
0.07070026 -0.2650736 -0.15984148 0.06763521 0.1681324 -0.044085525 -0.22548135 0.2885151
-0.10326405 -0.2850663 0.025951153 0.2577994 0.2582091 0.21978989 -0.28288668 -0.12794086
-0.23007032 -0.08762 -0.14946914 0.20744617 -0.120273076 -0.16976486 -0.053589586 -0.21199264
0.083156385 0.1851394 0.10686596 0.23375352 0.2238092 0.20401637 0.20753162 -0.18172163
0.08987872 -0.051737454 -0.21997514 -0.15358102 -0.22148028 -0.098306514 -0.24278376 0.18892387
-0.114537075 -0.12042935 0.2097435 0.041404866 -0.108719505 0.13141766 0.02446613 0.21715315
-0.20573135 0.070897155 -0.124338776 0.11925653 -0.19169077 -0.056071803 -0.18506692 -0.19594857
0.09165736 0.034504753 -0.008458948 0.22847609 0.13795078 -0.10287887 -0.25499496 -0.23222943
00000000: 16b4 80bb 963e e8bd 1692 0d3a e725 863d
00000010: d117 543e 7d42 21be 65e9 d6bd b9b2 763e
00000020: 99e7 273e ed36 723d dcf2 efbd 9e25 40be
00000030: 185c c33d 35db 86be 3d33 4dbe 7420 05bd
00000040: 1380 403e 7276 573e 2f80 d03d 62e6 763e
00000050: 777b ab3d 9225 503d a01b 763e 4640 26be
00000060: ccd6 ad3b 874a d4bd 1ae8 433e fa16 21be
00000070: 882c d13d c135 5dbe f64c 0fbe 2366 aa3d
00000080: a069 0d3d e462 d2bd 66bd b0bd f13b 653e
00000090: 5ffa 09be 8fb1 81be 9f45 b9bc f001 06be
000000a0: 1499 bd3d ee9e 4fbe cd6a 6bbe eb4e 63bd
000000b0: d681 60bd c76b aab9 20a5 ed3d 1b2b d83c
000000c0: 9d42 a2bd fbe3 6f3e 002a 993d 71ce 563e
000000d0: e005 873d 7a13 8c3c 0c59 3fbe f9e5 343e
000000e0: 8cff fe3d 7344 973d f1cf 7fbe b59d 4bbd
000000f0: bf88 26ba 6da1 ef3c 0f4e 12bc 3a73 1dbe
00000100: 16c4 96bc 899d 82be 07cf 82bd 6f07 f93d
00000110: 0204 84be d9f3 afbd 8cb4 1ebe 2df1 aa3d
00000120: 1def ecbd 108a 1dbd 142e 893e a163 43be
00000130: 09d9 6bbd ced7 0ebe f224 d9bd 7c00 193e
00000140: 9c99 593e cbda 55bd 84c9 6f3e 79e0 aa3b
00000150: 8397 133e c5e2 07be 7d08 9a3d 9d73 5bbe
00000160: 7268 10be fceb 4ebd 0a91 02be d155 233e
00000170: 0bd2 5d3d 928e 8cbe 1d4a 66bc 2e11 913e
00000180: 01c2 a33d f587 203e 8ff0 423e 2cd5 aa3c
00000190: 7dfe 6f3e 012e 75be 57f4 84be 3309 7ebe
000001a0: 0d49 3abe 828a 90be a58b 943d ac1c 4e3e
000001b0: f65e c7bd 8282 6e3e d17e be3d 67a4 233e
000001c0: 80a4 95be a831 25be 095f 2bbe f3e8 40bd
000001d0: cfef 16bd 3980 f2bd c059 67be 4cbb e83d
000001e0: 0fb3 aa3d 9e63 07be 493f 85bd 0706 61be
000001f0: 2292 b13d d7ed 5e3e 6190 8f3e 6b67 f3bd
00000200: 495a bf3d 4243 42be 7d3a e43d 9bf1 a33c
00000210: fd52 eb3c a75a 0cbe 6b02 4fbe 6460 b23c
00000220: bfd5 5fbe 7800 a03d 32aa 5c3e cfd2 3a3e
00000230: c648 e7bc 535d 263d 4e8c 723e 6289 66bc
00000240: e460 383e 1bb8 2bbe 042d b7bd 1fb4 5a3e
00000250: 7b2d 6bbe da31 b6bc 38ad 14be 1468 06be
00000260: c066 91bd 23a4 983d 3098 e2bc b177 8f3e
00000270: f608 333e 18fd 2fbe 8fa4 693d 9d01 913e
00000280: 8a14 b43b 16f8 7bbe b027 8bbe 47b0 393e
00000290: 4597 ddbb 80ac 8b3e 01e0 78bd 49f4 f4bd
000002a0: 6cc9 823d 253e 33be d07e 0d3e 87b6 f2bd
000002b0: 2386 34bb 4042 fbbd 97ac 03be f70b d63d
000002c0: 758f 4b3e 9786 09bd 54d3 b43d 4fc4 babd
000002d0: 12f3 83be c679 45bd b2b0 143e 8396 c33d
000002e0: 9a51 c13d 7e19 273e 189f 39be e658 4bbe
000002f0: ab4e 233e d9a7 8c3e 22f0 023e 485c 1e3e
00000300: 4ccb 903d bab7 87be 7cad 23be 5484 8a3d
00000310: e62a 2c3e 0693 34bd 95e4 66be 40b8 933e
00000320: 1a7c d3bd 36f4 91be 8397 d43c 48fe 833e
00000330: fc33 843e 9a10 613e 86d6 90be ee02 03be
00000340: 8e97 6bbe 1d72 b3bd 700e 19be c56c 543e
00000350: bb51 f6bd d7d6 2dbe c180 5bbd 9914 59be
00000360: e54d aa3d 2f95 3d3e 8adc da3d 155d 6f3e
00000370: 3d2e 653e abe9 503e 2b83 543e 3c15 3abe
00000380: 5612 b83d a7ea 53bd 2a41 61be 5844 1dbe
00000390: bacb 62be ed54 c9bd 4e9c 78be 4275 413e
000003a0: 6a92 eabd aaa3 f6bd 00c7 563e 2698 293d
000003b0: 55a8 debd 5a92 063e 326d c83c 655d 5e3e
000003c0: 3dab 52be 8732 913d 54a5 febd c53c f43d
000003d0: 964a 44be 8cab 65bd 2f82 3dbe bea6 48be
000003e0: dbb6 bb3d db54 0d3d 6697 0abc a3f5 693e
000003f0: f842 0d3e 28b2 d2bd b38e 82be 8dcd 6dbe

convs.0.att_dst f4 [1, 4, 64]
0.07165105 -0.053855073 0.12233947 -0.07713619 -0.21467221 0.19648558 -0.21148553 -0.15553811
-0.017761417 0.07693188 -0.22709258 0.18067658 -0.0007229839 0.11960509 0.08266782 0.061406203
-0.079381846 0.10333913 -0.13412662 0.23284473 -0.15725255 -0.1253214 0.08982528 -0.0024686405
-0.1126671 0.21777478 -0.24219039 0.020781448 0.1711221 0.14282304 -0.04963283 -0.028862994
0.14708957 -0.08505574 0.21968006 0.006992101 -0.0025381544 0.02864669 0.19095343 0.018705726
0.21460092 0.13639994 0.1736228 0.21569318 -0.14434631 0.24967861 0.0019689042 -0.05162736
-0.26064342 -0.22995678 -0.17893732 0.07176683 0.071272925 -0.05324966 -0.1400154 -0.020058576
0.11053912 6.3363805e-05 -0.049625777 0.18466851 0.18279202 -0.0027083824 0.085600756 -0.25870547
-0.12123628 0.013076938 0.0663696 0.23810576 0.21044658 0.12192625 0.27766192 -0.22803313
0.21001789 -0.10688249 0.18118288 -0.25506288 0.27404743 0.079838686 0.091062374 0.16538739
-0.2845258 -0.095439956 0.26581892 0.2067361 0.097648166 0.120976396 0.19062108 -0.17515397
0.011535117 -0.07293653 -0.004452243 -0.1571305 0.23032011 0.25931424 -0.120533824 -0.066733174
-0.15117869 0.22671919 0.22919643 -0.24766478 0.24530657 -0.20161049 -0.16234262 0.013250909
0.16770124 0.011381552 0.1404758 -0.23610216 -0.010478705 -0.1299308 -0.1541398 -0.123099625
-0.21677712 0.17280948 -0.16520683 0.0017249896 -0.06463617 -0.28342363 0.23308063 -0.1167393
-0.019273886 -0.07182787 0.25752762 0.13288546 0.19533406 0.22831291 -0.26269653 0.1476507
0.08768298 -0.13257459 -0.20841862 0.10322378 0.114251986 0.13147433 -0.2507693 0.06370396
-0.1363543 -0.25456214 0.0378634 0.08061069 0.13295716 -0.13621902 0.14263056 -0.02695956
0.29473224 0.21735667 0.23279542 -0.07976554 -0.19162567 -0.05037817 -0.14256924 0.16875759
0.19419503 0.18211737 0.032067467 0.08845837 0.27657402 -0.10034217 -0.15406261 0.16435875
-0.14633717 0.22512245 0.19971848 -0.2961362 -0.2714215 0.17843205 0.08424561 -0.08512505
-0.009418038 -0.24871673 -0.09607641 0.22887944 0.25410578 0.18393771 -0.17318274 -0.14153045
0.26220542 -0.05045658 0.24919583 0.20580192 -0.17416148 0.036896348 -0.10496476 -0.21228234
0.065764144 0.16312204 -0.2600485 0.0063316477 -0.05204053 0.03121475 0.011433115 -0.08954233
-0.13089904 -0.16578421 0.21642414 0.14846833 0.033389714 0.2641355 0.20044732 -0.051802393
0.071547255 -0.22523482 -0.150606 -0.09771153 0.04340232 -0.057124313 0.011285022 0.019434799
-0.24690384 -0.21023327 0.00089508976 -0.13811573 0.16917413 0.1472073 0.073704354 0.17056422
-0.23724745 -0.13474497 0.165235 -0.007569206 -0.19155006 0.12946504 0.12038624 -0.011335647
0.021268481 0.0146056665 -0.14377671 -0.25395554 -0.21273318 -0.083358504 0.20086008 0.1298381
0.08834431 0.24749972 -0.22458683 0.07840084 0.06843886 -0.01765559 -0.14137997 0.16944033
0.052385535 0.10834913 0.15797493 0.09318909 -0.2602806 -0.19810331 -0.15839148 0.0034845565
-0.15563071 0.012629734 -0.2216345 0.05854565 -0.120703086 -0.068153 -0.026570918 0.02218515
00000000: c9bd 923d 2397 5cbd 1e8d fa3d 94f9 9dbd
00000010: 08d3 5bbe 8433 493e aa8f 58be 6245 1fbe
00000020: 6480 91bc 768e 9d3d f58a 68be 4803 393e
00000030: a186 3dba 83f3 f43d bf4d a93d 1285 7b3d
00000040: f392 a2bd 77a3 d33d 7d58 09be d96e 6e3e
00000050: d006 21be 4154 00be 51f6 b73d eac8 21bb
00000060: 02be e6bd 5a00 5f3e c200 78be db3d aa3c
00000070: a23a 2f3e 3440 123e cb4b 4bbd 1672 ecbc
00000080: a69e 163e b431 aebd cff3 603e ff1d e53b
00000090: 2a57 26bb 77ac ea3c 4c89 433e c03c 993c
000000a0: 58c0 5b3e 6dac 0b3e 2dca 313e acde 5c3e
000000b0: 85cf 13be c0ab 7f3e bb08 013b 3677 53bd
000000c0: 0e73 85be ca79 6bbe 583b 37be 7dfa 923d
000000d0: 8af7 913d 511c 5abd 3260 0fbe e251 a4bc
000000e0: 5662 e23d 2fe2 8438 6644 4bbd be19 3d3e
000000f0: d52d 3b3e 1e7f 31bb 734f af3d 0b75 84be
00000100: ba4a f8bd a740 563c c9ec 873d ffd1 733e
00000110: 4f7f 573e 78b4 f93d b429 8e3e 8481 69be
00000120: ee0e 573e 35e5 dabd 0188 393e 9a97 82be
00000130: f24f 8c3e 7782 a33d e97e ba3d 505b 293e
00000140: 5ead 91be 0676 c3bd 6b19 883e a1b2 533e
00000150: c3fb c73d 79c2 f73d 2c32 433e 905b 33be
00000160: cafd 3c3c bf5f 95bd 1fe4 91bb d1e6 20be
00000170: 09d9 6b3e d6c4 843e 70da f6bd 67ab 88bd
00000180: 96ce 1abe 1329 683e 78b2 6a3e d69b 7dbe
00000190: a531 7b3e fb72 4ebe 253d 26be 571a 593c
000001a0: e0b9 2b3e b079 3a3c e3d8 0f3e c4c4 71be
000001b0: e0ae 2bbc 940c 05be d3d6 1dbe a81b fcbd
000001c0: d2fa 5dbe f8f4 303e fb2b 29be 0c19 e23a
000001d0: f85f 84bd e71c 91be b0ac 6e3e 0415 efbd
000001e0: 45e4 9dbc 7e1a 93bd a9da 833e 2013 083e
000001f0: a705 483e dcca 693e 2980 86be bf31 173e
00000200: 2293 b33d a2c1 07be b16b 55be fd66 d33d
00000210: f2fc e93d 35a1 063e d564 80be 3977 823d
00000220: 76a0 0bbe f855 82be a716 1b3d 3817 a53d
00000230: ec25 083e 007d 0bbe bf0d 123e 4cda dcbc
00000240: 25e7 963e bf92 5e3e ec61 6e3e 1e5c a3bd
00000250: 8539 44be 5759 4ebd acfd 11be cace 2c3e
00000260: 10db 463e fa7c 3a3e 2d59 033d a929 b53d
00000270: 1c9b 8d3e 3280 cdbd 97c2 1dbe a94d 283e
00000280: 69d9 15be 8086 663e 0083 4c3e 2a9f 97be
00000290: c2f7 8abe e4b6 363e f688 ac3d 0b56 aebd
000002a0: 1d4e 1abc 99af 7ebe b5c3 c4bd 5f5f 6a3e
000002b0: 271a 823e 2b5a 3c3e d156 31be 5ced 10be
000002c0: ca3f 863e 8fab 4ebd 312d 7f3e bdbd 523e
000002d0: 6357 32be a020 173d c4f7 d6bd 8b60 59be
000002e0: 5aaf 863d 7709 273e 1425 85be b679 cf3b
000002f0: 7328 55bd 13b6 ff3c f651 3b3c f861 b7bd
00000300: 660a 06be 56c3 29be 4a9e 5d3e 1508 183e
00000310: a7c3 083d c53c 873e 1042 4d3e bf2e 54bd
00000320: 5e87 923d f5a3 66be 7638 1abe fc1c c8bd
00000330: a2c6 313d 2ffb 69bd d0e4 383c ba35 9f3c
00000340: 5cd4 7cbe 6447 57be 75a4 6a3a 366e 0dbe
00000350: fc3b 2d3e 83bd 163e 4ff2 963d 63a8 2e3e
00000360: fff0 72be 96fa 09be 5d33 293e 1a07 f8bb
00000370: b325 44be 7c92 043e 108d f63d 26b9 39bc
00000380: 3d3b ae3c 9b4c 6f3c 343a 13be 7606 82be
00000390: bad6 59be ddb7 aabd 44ae 4d3e 47f4 043e
000003a0: dded b43d 9170 7d3e 17fa 65be 9f90 a03d
000003b0: ac29 8c3d 75a2 90bc e9c5 10be c481 2d3e
000003c0: 3792 563d 26e6 dd3d 2ec4 213e ecd9 be3d
000003d0: 8043 85be 98db 4abe 6031 22be 285d 643b
000003e0: a85d 1fbe f2ec 4e3c 28f4 62be 90cd 6f3d
000003f0: 2e33 f7bd cd93 8bbd 41ab d9bc a2bd b53c

convs.0.bias f4 [256]
0.005526663 -0.0033676752 -0.0019609127 -0.0041376306 0.0006092501 -0.0066816234 0.016541377 -0.008338825
-0.018950418 0.003366649 0.008910427 0.001066085 -0.0002650449 0.0037807126 0.0043088486 -0.0030654268
0.0009945756 -0.0001456297 0.01402115 -0.0013322954 0.002804192 -0.003794115 0.007861361 0.0070147305
0.0068156477 0.0145314075 -0.013984443 -0.002303451 0.001995187 -0.001411347 -0.010626532 -0.0010305084
-0.007498094 -0.00060325663 -0.007534826 -0.003575841 0.007409909 -0.00085017196 -0.00760986 0.0064463587
0.002559521 0.0042375606 0.007852694 0.002757622 -0.0048976904 0.005468025 -0.008567526 0.0045370744
0.0023954348 0.00036243937 -0.003012478 -0.0062408405 0.007123978 -0.007730443 -0.004790828 0.0015760441
0.0067351568 -0.016737578 -0.00012289453 -0.0038431638 -0.005198213 -0.0013384221 -0.0013501527 -0.014904237
-0.0055368645 -0.0013623564 -0.0002396501 0.00073586253 0.0039946465 0.0011548346 -0.0015897824 -0.0009063967
0.0021159668 0.002934536 -0.0014602916 0.0041203406 0.0018417482 -0.0069195195 -0.0022596105 0.00073080324
-0.0039686672 0.0015953293 0.0019183216 -0.009504219 0.000124963 0.00411981 -0.0036629827 -0.002814257
0.005835139 0.0064620976 0.00056452025 -0.0024426454 -0.009737345 -0.0032832439 -0.0042069964 -0.0017299666
-0.01208331 0.0025502166 -0.007922457 -0.00022635578 -0.0028148065 0.0032448354 0.0075652506 -0.005523396
0.007763901 -0.0024514704 0.0062539456 0.0019117689 -0.0064273616 0.0060228 -0.0037539739 -0.0023484468
-0.011551107 -0.004625865 -0.0026150998 -0.0032119718 0.008175981 -0.0027134877 0.0054583587 0.008402415
0.00324685 -0.00041058043 0.001901963 -0.0001308524 0.0018963313 -0.004692597 0.009316355 -0.003546204
0.0010193443 0.0013073559 -0.0015654498 0.004966947 -0.008262794 0.0034878384 -0.00694136 0.0028452897
-0.004234024 0.01171494 0.008025981 -0.0032312693 0.00094516395 -0.00551733 -0.0035240569 -0.0035809116
0.0025253769 0.005462671 -0.0041793925 -0.00237927 -0.0030787105 0.002467266 -0.00086409255 -0.001672536
0.002067726 0.004615 -0.006547919 -0.010899766 0.0018832162 -0.0074417046 0.020659417 0.007485545
0.0050666365 -0.008310219 -0.0037957563 0.004706131 0.0032602134 -0.0056477543 9.9870405e-05 0.0021371203
-0.004420788 -0.001154061 -0.008032879 -0.009299686 -0.0013257908 -0.006910605 -2.9416116e-05 -0.001352338
0.0049075666 -0.0020636215 -0.0026328987 -0.0014701831 -0.0053939237 0.0003190886 -0.0019756255 -0.0014636131
0.005429206 -0.0025401055 -0.003077465 -0.00893144 0.0030757962 -0.013445747 0.009037152 -0.0050581014
-0.003822294 -0.005319298 0.006113108 -0.0037393614 0.0064693615 0.009942063 0.013294592 -0.009323661
-0.0006127144 -0.005027579 -0.0055277627 -0.0010915815 0.0014014171 -0.0025835438 0.00329259 0.00085751433
0.007844206 0.0019938801 -0.010427816 -0.0032012155 0.0031990297 0.0015292551 -0.004157675 0.0005186482
0.004625261 -0.00422136 0.0010066736 -0.0070965765 0.00014202336 -0.001570296 -0.01369652 0.0028885938
-0.006774493 -0.002876082 0.003949424 -0.002836205 0.0028188913 0.0036958645 -0.0009196106 0.0011424444
-0.0021602472 0.006941445 0.00027353983 -0.0033850172 -0.0039284467 0.00032660205 0.00839422 0.0036681222
-0.012045518 0.0027425531 0.006919366 0.008772329 0.00021931331 -0.0044351052 0.001346321 -0.0010927542
-0.0010758304 0.0024612371 0.0048082867 -0.00048506437 -0.004561764 -0.00317409 0.00479121 0.0028881568
00000000: 0219 b53b 37b4 5cbb a882 00bb f694 87bb
00000010: 15b6 1f3a 85f1 dabb c881 873c 919f 08bc
00000020: e83d 9bbc ffa2 5c3b 0afd 113c e0bb 8b3a
00000030: b9f5 8ab9 d5c5 773b 3e31 8d3b 54e5 48bb
00000040: 6b5c 823a 2db4 18b9 f7b8 653c 6aa0 aeba
00000050: 89c6 373b b0a6 78bb f0cc 003c d3db e53b
00000060: cc55 df3b 2415 6e3c 011f 65bc 7ff5 16bb
00000070: afc1 023b f2fc b8ba e81a 2ebc 2012 87ba
00000080: 92b2 f5bb de23 1eba b4e6 f6bb a858 6abb
00000090: d2ce f23b 13de 5eba 225c f9bb fa3b d33b
000000a0: a3bd 273b 3cdb 8a3b 96a8 003c 38b9 343b
000000b0: ce7c a0bb 1e2d b33b cf5e 0cbc bdab 943b
000000c0: bafc 1c3b ca05 be39 fe6c 45bb f77f ccbb
000000d0: 4270 e93b a84f fdbb 61fc 9cbb 4493 ce3a
000000e0: 97b2 dc3b 3f1d 89bc 40dd 00b9 97dd 7bbb
000000f0: c555 aabb fe6d afba 9bf7 b0ba e730 74bc
00000100: 966e b5bb 1891 b2ba 954a 7bb9 e6e6 403a
00000110: 86e5 823b d25d 973a 3f60 d0ba 419b 6dba
00000120: 08ac 0a3b 5851 403b 4167 bfba ec03 873b
00000130: d166 f13a 23bd e2bb f915 14bb 6093 3f3a
00000140: 980b 82bb 5e1a d13a 3170 fb3a 95b7 1bbc
00000150: 8008 0339 79ff 863b a70e 70bb 666f 38bb
00000160: b234 bf3b 01c0 d33b 50fc 133a ca14 20bb
00000170: 6389 1fbc b12b 57bb d8da 89bb 0cc0 e2ba
00000180: 13f9 45bc 8921 273b 31cd 01bc eb59 6db9
00000190: 9e78 38bb 4ea7 543b ece5 f73b 9bfd b4bb
000001a0: 5268 fe3b d9a8 20bb e6ed cc3b 5294 fa3a
000001b0: 9e9c d2bb e95a c53b 3b05 76bb 66e8 19bb
000001c0: db40 3dbc 9194 97bb 1862 2bbb f27f 52bb
000001d0: 8df4 053c c5d4 31bb 08dc b23b 48aa 093c
000001e0: 1bc9 543b 2c43 d7b9 4a4b f93a 6c35 09b9
000001f0: 528e f83a 5bc4 99bb a0a3 183c 6e67 68bb
00000200: 859b 853a 965b ab3a c72f cdba c5c1 a23b
00000210: ac60 07bc 3894 643b 5974 e3bb 0a78 3a3b
00000220: 91bd 8abb 05f0 3f3c 677f 033c b4c3 53bb
00000230: e1c4 773a b8ca b4bb ddf3 66bb baad 6abb
00000240: cb80 253b 3500 b33b 49f3 88bb 87ed 1bbb
00000250: 31c4 49bb dbb1 213b 4584 62ba ff38 dbba
00000260: b082 073b 6d39 973b ed8f d6bb ef94 32bc
00000270: 40d6 f63a 8bd9 f3bb f03d a93c 4d49 f53b
00000280: 0706 a63b 9627 08bc 39c2 78bb e335 9a3b
00000290: 4ea9 553b cc10 b9bb 8471 d138 ee0e 0c3b
000002a0: 42dc 90bb dd43 97ba 569c 03bc b65d 18bc
000002b0: 28c6 adba 5b72 e2bb a1c2 f6b7 ef40 b1ba
000002c0: a7cf a03b d33d 07bb b68c 2cbb 29b3 c0ba
000002d0: 83bf b0bb 594b a739 7f79 01bb b5d6 bfba
000002e0: 7be7 b13b e677 26bb 4caf 49bb 2d55 12bc
000002f0: 4c93 493b 8d4b 5cbc 9010 143c 6ebe a5bb
00000300: 747f 7abb 814d aebb 7750 c83b 1310 75bb
00000310: f0fc d33b 09e4 223c 8fd1 593c 45c2 18bc
00000320: 919e 20ba 64be a4bb 3c22 b5bb 6613 8fba
00000330: c1af b73a ac50 29bb 7ec8 573b d0ca 603a
00000340: fc84 003c c2ab 023b 6ed9 2abc 7ccb 51bb
00000350: d0a6 513b 4971 c83a 1b3d 88bb e4f5 073a
00000360: 808f 973b 5653 8abb 5cf2 833a 668a e8bb
00000370: 1bec 1439 64d2 cdba 5e67 60bc 904e 3d3b
00000380: 91fc ddbb a67c 3cbb 2b6a 813b a0df 39bb
00000390: 26bd 383b 5136 723b 0612 71ba 13be 953a
000003a0: ef92 0dbb 1075 e33b e569 8f39 2ad7 5dbb
000003b0: 33ba 80bb c93b ab39 e987 093c e164 703b
000003c0: 905a 45bc 68bc 333b d9bb e23b d1b9 0f3c
000003d0: 78f7 6539 5c54 91bb 0977 b03a bf3a 8fba
000003e0: e102 8dba b54c 213b d58e 9d3b 3d50 feb9
000003f0: da7a 95bb 6504 50bb 95ff 9c3b 3b47 3d3b

convs.0.lin_src.weight f4 [256, 6]
-0.0008629922 0.045236774 0.039370973 -0.14389405 0.06636103 -0.124827236 -0.042422388 -0.04584806
0.1444836 0.0380006 -0.09825944 0.02248524 0.12980923 0.055282 -0.009596198 -0.031124314
-0.07171758 -0.0015223688 0.045756318 -0.13970542 0.0039876825 -0.09731235 -0.022030592 0.029636314
-0.052838705 0.002701083 -0.020346822 -0.071530476 0.077542156 -0.07281341 -0.074841484 0.14479434
-0.03111968 -0.018899769 -0.12942736 -0.018236527 0.12832335 -0.04391636 0.037184652 0.12821023
0.11228318 -0.073435 0.113466375 0.04095194 0.13779019 -0.053907305 -0.13008025 -0.0357813
-0.084073626 0.07325431 -0.10940151 0.154727 0.03770139 0.103054866 0.12587763 0.066174634
0.09888493 -0.08208869 -0.15041241 0.09032442 -0.015133826 0.13424662 0.07766396 0.0852294
-0.14428125 -0.0888098 -0.030010737 -0.03803307 -0.11191815 -0.09707793 0.024797058 -0.005177
0.13201673 -0.028814655 -0.14050409 0.033110615 0.1110094 0.0941811 0.047435965 -0.091358624
0.016558561 -0.081818275 -0.04593569 0.094105296 -0.009260762 -0.06596234 0.07005077 0.09924228
0.1256763 -0.0058277585 0.0071636043 0.11254881 0.14274378 -0.015597984 0.104464315 -0.099020146
-0.12171767 -0.14584516 -0.1484845 -0.056893554 0.009620231 -0.123507306 0.084631875 0.106932335
0.12429406 0.00689556 -0.06140573 0.05457427 -0.07959028 0.08286861 -0.08343546 0.10729133
0.13807867 0.004204775 0.034902003 -0.079448946 -0.09547496 -0.052624784 0.08839409 -0.09413247
0.07311976 0.017431224 0.071718074 -0.11376758 0.08015925 0.11279999 0.0019787636 0.12420638
0.14275081 -0.019791516 -0.07133482 -0.00011696142 -0.12808348 0.05157025 0.018380998 -0.07237459
-0.0048325486 -0.00031235078 -0.15084097 -0.024541743 -0.077660106 0.078698345 0.05829447 0.016600054
-0.12004382 0.089637786 0.13846578 0.017554872 0.00012496345 0.07442746 0.065407366 0.15205723
-0.014772496 0.076952204 0.038769994 -0.06064248 -0.048035886 0.0822172 -0.13924704 -0.0998424
0.13850702 -0.02663406 0.12059904 0.1297538 -0.016482018 -0.022437355 0.016032869 -0.11008665
-0.08531712 -0.13336842 0.1284374 -0.13179891 0.116928145 -0.08991146 0.0013989498 0.05658258
-0.016149046 0.15139684 0.12836996 -0.03842824 0.113030456 0.14504865 -0.047600254 0.06379596
0.08318246 -0.06543031 0.13007654 -0.00928511 0.07401755 -0.11047401 0.010674894 -0.0123456875
-0.08088285 0.034609925 -0.028998602 0.09646252 -0.12841375 -0.11738633 0.06134028 -0.08250596
0.06376638 0.09412237 0.093680024 -0.025651343 -0.111707985 -0.08504768 0.12599815 -0.040292185
0.016280456 -0.0134591395 0.07960636 -0.11027856 -0.10797419 0.1322835 -0.07712807 -0.00058696506
-0.010286235 -0.0110605 -0.062231842 0.11490323 -0.08844143 0.07792814 0.038418602 -0.059390366
-0.08134028 -0.03837663 -0.007708571 -0.0675543 -0.07338457 -0.16130361 -0.03550067 0.099304065
0.017449388 0.044891603 0.11078165 -0.052294053 0.024383035 0.0014390838 0.007847911 0.067461066
0.13385351 0.14348203 -0.08176304 -0.1462378 0.0912224 0.08796085 -0.09219044 -0.11627951
0.1200367 -0.05833387 0.028012924 -0.00415662 0.034871142 -0.050183803 -0.09916796 0.07151822
00000000: 6d3a 62ba 324a 393d 7543 213d f658 13be
00000010: 4be8 873d 6ca5 ffbd 19c3 2dbd 2dcb 3bbd
00000020: 82f3 133e 84a6 1b3d 3f3c c9bd f732 b83c
00000030: b6ec 043e 616f 623d 5f39 1dbc 6bf8 febc
00000040: abe0 92bd 388a c7ba fa6a 3b3d f00e 0fbe
00000050: 1bab 823b b34b c7bd 8079 b4bc dbc7 f23c
00000060: 666d 58bd a704 313b 61ae a6bc 927e 92bd
00000070: 6cce 9e3d 321f 95bd 7e46 99bd f844 143e
00000080: b3ee febc b0d3 9abc 9b88 04be c564 95bc
00000090: 3267 033e a4e1 33bd ef4e 183d 8b49 033e
000000a0: b9f4 e53d 1765 96bd 0f61 e83d 39bd 273d
000000b0: df18 0d3e e8cd 5cbd c233 05be 6a8f 12bd
000000c0: cb2e acbd 5b06 963d e60d e0bd c170 1e3e
000000d0: c66c 1a3d 6e0e d33d 11e6 003e 9186 873d
000000e0: 2f84 ca3d 1d1e a8bd b605 1abe 02fc b83d
000000f0: def3 77bc f277 093e 480e 9f3d c08c ae3d
00000100: 77be 13be eae1 b5bd 14d9 f5bc 90c8 1bbd
00000110: 5835 e5bd cbd0 c6bd 3323 cb3c d3a3 a9bb
00000120: 652f 073e b60c ecbc 4ee0 0fbe ff9e 073d
00000130: e558 e33d 05e2 c03d 374c 423d 3b1a bbbd
00000140: d2a5 873c 5790 a7bd 1027 3cbd 47ba c03d
00000150: 73ba 17bc 4317 87bd c776 8f3d 893f cb3d
00000160: 4ab1 003e c8f6 bebb abbc ea3b fe7f e63d
00000170: 6d2b 123e b08e 7fbc 63f1 d53d 13cb cabd
00000180: 1d47 f9bd 6f58 15be 520c 18be 3709 69bd
00000190: 2c9e 1d3c 66f1 fcbd 7a53 ad3d 57ff da3d
000001a0: e28d fe3d 26f4 e13b 9384 7bbd 4589 5f3d
000001b0: 3b00 a3bd 05b7 a93d 36e0 aabd 8fbb db3d
000001c0: 7f64 0d3e 36c8 893b 67f5 0e3d 21b6 a2bd
000001d0: 6088 c3bd 168d 57bd f607 b53d 86c8 c0bd
000001e0: d0bf 953d edcb 8e3c ede0 923d fafe e8bd
000001f0: 882a a43d ae03 e73d 25ae 013b ea5f fe3d
00000200: 452d 123e d121 a2bc fd17 92bd 2f49 f5b8
00000210: 5128 03be 543b 533d bf93 963c 2139 94bd
00000220: 5b5a 9ebb 03c3 a3b9 0e76 1abe c40b c9bc
00000230: 430c 9fbd 992c a13d 2fc6 6e3d d6fc 873c
00000240: 89d9 f5bd 0494 b73d f9c9 0d3e 3ccf 8f3c
00000250: 9f08 0339 6d6d 983d 4cf4 853d e4b4 1b3e
00000260: 5708 72bc 1e99 9d3d 49cd 1e3d 4064 78bd
00000270: 47c1 44bd 7e61 a83d c796 0ebe 2c7a ccbd
00000280: c9d4 0d3e ac2f dabc a1fc f63d 2ede 043e
00000290: 4c05 87bc 8bce b7bc 5d57 833c 1c75 e1bd
000002a0: beba aebd bb91 08be 1885 033e 4bf6 06be
000002b0: 0678 ef3d 8023 b8bd f75c b73a 23c3 673d
000002c0: 014b 84bc c607 1b3e 6a73 033e ee66 1dbd
000002d0: 837c e73d a287 143e 7cf8 42bd 75a7 823d
000002e0: 915b aa3d 5400 86bd c932 053e 9320 18bc
000002f0: 8396 973d 3340 e2bd c0e5 2e3c 9145 4abc
00000300: e8a5 a5bd 23c3 0d3d 7a8e edbc 248e c53d
00000310: e57e 03be 3f68 f0bd f23f 7b3d e2f8 a8bd
00000320: f397 823d 3bc3 c03d 50db bf3d c422 d2bc
00000330: 28c7 e4bd 7a2d aebd a905 013e 6b09 25bd
00000340: 975e 853c b983 5cbc a908 a33d bad9 e1bd
00000350: 9221 ddbd 5375 073e 52f5 9dbd 8fde 19ba
00000360: 9987 28bc 1937 35bc d1e6 7ebd 6252 eb3d
00000370: c820 b5bd ca98 9f3d d35c 1d3d 5043 73bd
00000380: bc95 a6bd d030 1dbd 2e98 fcbb e959 8abd
00000390: a64a 96bd c62c 25be 2769 11bd ee5f cb3d
000003a0: 05f2 8e3c 42e0 373d 7de1 e23d 4a32 56bd
000003b0: eebe c73c a49f bc3a 8694 003c 0729 8a3d
000003c0: e510 093e f4ec 123e 6173 a7bd 5dbf 15be
000003d0: cfd2 ba3d d124 b43d 57ce bcbd f423 eebd
000003e0: cdd5 f53d 7fef 6ebd 5c7b e53c 4134 88bb
000003f0: 0bd5 0e3d 888d 4dbd 9218 cbbd 2578 923d

convs.0.lin_dst.weight f4 [256, 6]
-0.0008629922 0.045236774 0.039370973 -0.14389405 0.06636103 -0.124827236 -0.042422388 -0.04584806
0.1444836 0.0380006 -0.09825944 0.02248524 0.12980923 0.055282 -0.009596198 -0.031124314
-0.07171758 -0.0015223688 0.045756318 -0.13970542 0.0039876825 -0.09731235 -0.022030592 0.029636314
-0.052838705 0.002701083 -0.020346822 -0.071530476 0.077542156 -0.07281341 -0.074841484 0.14479434
-0.03111968 -0.018899769 -0.12942736 -0.018236527 0.12832335 -0.04391636 0.037184652 0.12821023
0.11228318 -0.073435 0.113466375 0.04095194 0.13779019 -0.053907305 -0.13008025 -0.0357813
-0.084073626 0.07325431 -0.10940151 0.154727 0.03770139 0.103054866 0.12587763 0.066174634
0.09888493 -0.08208869 -0.15041241 0.09032442 -0.015133826 0.13424662 0.07766396 0.0852294
-0.14428125 -0.0888098 -0.030010737 -0.03803307 -0.11191815 -0.09707793 0.024797058 -0.005177
0.13201673 -0.028814655 -0.14050409 0.033110615 0.1110094 0.0941811 0.047435965 -0.091358624
0.016558561 -0.081818275 -0.04593569 0.094105296 -0.009260762 -0.06596234 0.07005077 0.09924228
0.1256763 -0.0058277585 0.0071636043 0.11254881 0.14274378 -0.015597984 0.104464315 -0.099020146
-0.12171767 -0.14584516 -0.1484845 -0.056893554 0.009620231 -0.123507306 0.084631875 0.106932335
0.12429406 0.00689556 -0.06140573 0.05457427 -0.07959028 0.08286861 -0.08343546 0.10729133
0.13807867 0.004204775 0.034902003 -0.079448946 -0.09547496 -0.052624784 0.08839409 -0.09413247
0.07311976 0.017431224 0.071718074 -0.11376758 0.08015925 0.11279999 0.0019787636 0.12420638
0.14275081 -0.019791516 -0.07133482 -0.00011696142 -0.12808348 0.05157025 0.018380998 -0.07237459
-0.0048325486 -0.00031235078 -0.15084097 -0.024541743 -0.077660106 0.078698345 0.05829447 0.016600054
-0.12004382 0.089637786 0.13846578 0.017554872 0.00012496345 0.07442746 0.065407366 0.15205723
-0.014772496 0.076952204 0.038769994 -0.06064248 -0.048035886 0.0822172 -0.13924704 -0.0998424
0.13850702 -0.02663406 0.12059904 0.1297538 -0.016482018 -0.022437355 0.016032869 -0.11008665
-0.08531712 -0.13336842 0.1284374 -0.13179891 0.116928145 -0.08991146 0.0013989498 0.05658258
-0.016149046 0.15139684 0.12836996 -0.03842824 0.113030456 0.14504865 -0.047600254 0.06379596
0.08318246 -0.06543031 0.13007654 -0.00928511 0.07401755 -0.11047401 0.010674894 -0.0123456875
-0.08088285 0.034609925 -0.028998602 0.09646252 -0.12841375 -0.11738633 0.06134028 -0.08250596
0.06376638 0.09412237 0.093680024 -0.025651343 -0.111707985 -0.08504768 0.12599815 -0.040292185
0.016280456 -0.0134591395 0.07960636 -0.11027856 -0.10797419 0.1322835 -0.07712807 -0.00058696506
-0.010286235 -0.0110605 -0.062231842 0.11490323 -0.08844143 0.07792814 0.038418602 -0.059390366
-0.08134028 -0.03837663 -0.007708571 -0.0675543 -0.07338457 -0.16130361 -0.03550067 0.099304065
0.017449388 0.044891603 0.11078165 -0.052294053 0.024383035 0.0014390838 0.007847911 0.067461066
0.13385351 0.14348203 -0.08176304 -0.1462378 0.0912224 0.08796085 -0.09219044 -0.11627951
0.1200367 -0.05833387 0.028012924 -0.00415662 0.034871142 -0.050183803 -0.09916796 0.07151822
00000000: 6d3a 62ba 324a 393d 7543 213d f658 13be
00000010: 4be8 873d 6ca5 ffbd 19c3 2dbd 2dcb 3bbd
00000020: 82f3 133e 84a6 1b3d 3f3c c9bd f732 b83c
00000030: b6ec 043e 616f 623d 5f39 1dbc 6bf8 febc
00000040: abe0 92bd 388a c7ba fa6a 3b3d f00e 0fbe
00000050: 1bab 823b b34b c7bd 8079 b4bc dbc7 f23c
00000060: 666d 58bd a704 313b 61ae a6bc 927e 92bd
00000070: 6cce 9e3d 321f 95bd 7e46 99bd f844 143e
00000080: b3ee febc b0d3 9abc 9b88 04be c564 95bc
00000090: 3267 033e a4e1 33bd ef4e 183d 8b49 033e
000000a0: b9f4 e53d 1765 96bd 0f61 e83d 39bd 273d
000000b0: df18 0d3e e8cd 5cbd c233 05be 6a8f 12bd
000000c0: cb2e acbd 5b06 963d e60d e0bd c170 1e3e
000000d0: c66c 1a3d 6e0e d33d 11e6 003e 9186 873d
000000e0: 2f84 ca3d 1d1e a8bd b605 1abe 02fc b83d
000000f0: def3 77bc f277 093e 480e 9f3d c08c ae3d
00000100: 77be 13be eae1 b5bd 14d9 f5bc 90c8 1bbd
00000110: 5835 e5bd cbd0 c6bd 3323 cb3c d3a3 a9bb
00000120: 652f 073e b60c ecbc 4ee0 0fbe ff9e 073d
00000130: e558 e33d 05e2 c03d 374c 423d 3b1a bbbd
00000140: d2a5 873c 5790 a7bd 1027 3cbd 47ba c03d
00000150: 73ba 17bc 4317 87bd c776 8f3d 893f cb3d
00000160: 4ab1 003e c8f6 bebb abbc ea3b fe7f e63d
00000170: 6d2b 123e b08e 7fbc 63f1 d53d 13cb cabd
00000180: 1d47 f9bd 6f58 15be 520c 18be 3709 69bd
00000190: 2c9e 1d3c 66f1 fcbd 7a53 ad3d 57ff da3d
000001a0: e28d fe3d 26f4 e13b 9384 7bbd 4589 5f3d
000001b0: 3b00 a3bd 05b7 a93d 36e0 aabd 8fbb db3d
000001c0: 7f64 0d3e 36c8 893b 67f5 0e3d 21b6 a2bd
000001d0: 6088 c3bd 168d 57bd f607 b53d 86c8 c0bd
000001e0: d0bf 953d edcb 8e3c ede0 923d fafe e8bd
000001f0: 882a a43d ae03 e73d 25ae 013b ea5f fe3d
00000200: 452d 123e d121 a2bc fd17 92bd 2f49 f5b8
00000210: 5128 03be 543b 533d bf93 963c 2139 94bd
00000220: 5b5a 9ebb 03c3 a3b9 0e76 1abe c40b c9bc
00000230: 430c 9fbd 992c a13d 2fc6 6e3d d6fc 873c
00000240: 89d9 f5bd 0494 b73d f9c9 0d3e 3ccf 8f3c
00000250: 9f08 0339 6d6d 983d 4cf4 853d e4b4 1b3e
00000260: 5708 72bc 1e99 9d3d 49cd 1e3d 4064 78bd
00000270: 47c1 44bd 7e61 a83d c796 0ebe 2c7a ccbd
00000280: c9d4 0d3e ac2f dabc a1fc f63d 2ede 043e
00000290: 4c05 87bc 8bce b7bc 5d57 833c 1c75 e1bd
000002a0: beba aebd bb91 08be 1885 033e 4bf6 06be
000002b0: 0678 ef3d 8023 b8bd f75c b73a 23c3 673d
000002c0: 014b 84bc c607 1b3e 6a73 033e ee66 1dbd
000002d0: 837c e73d a287 143e 7cf8 42bd 75a7 823d
000002e0: 915b aa3d 5400 86bd c932 053e 9320 18bc
000002f0: 8396 973d 3340 e2bd c0e5 2e3c 9145 4abc
00000300: e8a5 a5bd 23c3 0d3d 7a8e edbc 248e c53d
00000310: e57e 03be 3f68 f0bd f23f 7b3d e2f8 a8bd
00000320: f397 823d 3bc3 c03d 50db bf3d c422 d2bc
00000330: 28c7 e4bd 7a2d aebd a905 013e 6b09 25bd
00000340: 975e 853c b983 5cbc a908 a33d bad9 e1bd
00000350: 9221 ddbd 5375 073e 52f5 9dbd 8fde 19ba
00000360: 9987 28bc 1937 35bc d1e6 7ebd 6252 eb3d
00000370: c820 b5bd ca98 9f3d d35c 1d3d 5043 73bd
00000380: bc95 a6bd d030 1dbd 2e98 fcbb e959 8abd
00000390: a64a 96bd c62c 25be 2769 11bd ee5f cb3d
000003a0: 05f2 8e3c 42e0 373d 7de1 e23d 4a32 56bd
000003b0: eebe c73c a49f bc3a 8694 003c 0729 8a3d
000003c0: e510 093e f4ec 123e 6173 a7bd 5dbf 15be
000003d0: cfd2 ba3d d124 b43d 57ce bcbd f423 eebd
000003e0: cdd5 f53d 7fef 6ebd 5c7b e53c 4134 88bb
000003f0: 0bd5 0e3d 888d 4dbd 9218 cbbd 2578 923d

convs.1.att_src f4 [1, 4, 64]
-0.080496676 0.09230961 0.14946492 -0.21849124 0.18484698 0.118517496 -0.14546452 -0.18382303
-0.25810546 0.27971828 -0.28393382 -0.047255367 -0.21827793 0.053294312 0.023091467 0.16969529
0.09331353 -0.26737937 0.10682777 -0.28316256 0.25717422 0.18821393 -0.011748558 -0.03468237
-0.2429283 0.20678867 -0.26935327 0.14110987 0.038488522 -0.29070756 -0.14067313 0.17635506
0.14032751 0.027053664 -0.045370944 -0.19529234 0.17966864 0.0924365 0.12991163 -0.23721616
0.11603594 -0.22878358 0.12505352 0.19949806 0.21633399 -0.18963648 0.10238109 -0.045815814
-0.24664043 -0.26387548 0.1850855 -0.26925105 0.1326442 -0.23209225 0.053551096 -0.22428183
0.1890592 0.12232001 -0.28882265 -0.014810959 0.19190115 0.21338472 0.25403827 -0.17300598
0.10684209 0.12230905 -0.21759674 -0.1257838 -0.26887947 0.0693541 0.18923289 -0.21583574
0.071500875 -0.15059486 0.106423505 -0.0892006 -0.17553616 0.20517142 0.06523941 0.19183497
-0.17798524 0.30014136 0.1876595 -0.23179255 0.08022357 -0.20760332 0.2756013 0.26214364
0.2780105 -0.08643987 -0.16508052 0.28745946 0.2019797 0.05758727 -0.21656954 0.022840858
-0.019650932 -0.07995848 -0.009256843 0.1482874 0.14862278 -0.067693636 -0.062918425 0.12445153
-0.09543808 -0.14665614 -0.026612038 -0.28566718 0.004749961 0.28678554 0.10035205 -0.10677876
-0.20260839 0.13292097 0.15475373 -0.23724364 0.08247159 -0.14584969 -0.25413483 0.26429045
0.21437287 -0.08388407 0.027322348 -0.19603975 0.04002017 0.2791167 -0.0447582 -0.11155558
0.2889993 -0.282939 -0.10338061 -0.01724264 0.25143915 0.08455913 -0.064379305 0.14113182
0.12491091 0.22410364 0.13199024 -0.21611248 -0.024778847 0.0052294685 -0.2562276 0.28716347
0.24059615 0.28522378 -0.20784378 -0.0631186 -0.25809777 -0.06307602 0.0610824 0.25476116
-0.013084102 -0.15175733 0.10997347 0.09073722 -0.06654457 -0.15126693 -0.15815257 -0.1815296
0.042339504 0.2816211 -0.004938942 -0.19390662 0.09790196 0.077372044 -0.21636868 0.20346037
-0.005991801 -0.22826019 0.13112088 0.17490873 0.1418666 -0.25715348 -0.10020194 -0.20656787
0.005650661 -0.0028151367 -0.13635121 0.07752341 -0.16221114 0.047396626 -0.019290214 0.1115714
0.044107046 -0.10553848 0.030843772 -0.15107043 0.27674395 -0.15689743 0.16767785 0.23236173
0.066344954 0.16177508 0.16619498 0.25159174 0.29699805 -0.07782638 0.17074798 0.045177978
0.14978388 -0.11457044 0.16181266 0.1487888 -0.23505224 -0.1226565 -0.2820281 -0.24892703
0.19453128 -0.20939186 0.057800665 -0.2792964 0.13181515 0.16824526 -0.26416722 0.26818246
-0.28094593 0.2853647 0.12896445 -0.14690435 -0.01286508 -0.20648175 0.059941247 -0.1932862
-0.2484772 0.1830981 -0.13570829 -0.09865689 0.24368873 -0.025041286 0.042476043 -0.11644734
0.037539992 -0.06418197 0.22151142 0.2104745 -0.14791527 0.036372993 0.028851412 0.29694778
-0.2141304 -0.0071053896 0.11697675 0.16270085 0.04748433 -0.1292486 -0.25998163 -0.2223071
-0.13131145 -0.258116 0.04420474 -0.07037231 0.0031210436 -0.15036486 -0.2670759 -0.24831748
00000000: 71db a4bd d20c bd3d 550d 193e 2bbc 5fbe
00000010: 8748 3d3e 4db9 f23d a7f4 14be 1b3c 3cbe
00000020: 6626 84be 3c37 8f3e c65f 91be d88e 41bd
00000030: 4084 5fbe 234b 5a3d 512a bd3c 9ac4 2d3e
00000040: 2a1b bf3d f3e5 88be 85c8 da3d affa 90be
00000050: 57ac 833e 27bb 403e 067d 40bc 1a0f 0ebd
00000060: 32c2 78be 69c0 533e ace8 89be 1b7f 103e
00000070: 24a6 1d3d 9fd7 94be 9e0c 10be 6c96 343e
00000080: 04b2 0f3e a59f dd3c e2d6 39bd b7fa 47be
00000090: 0efb 373e 594f bd3d 8e07 053e cbe8 72be
000000a0: 40a4 ed3d 3e46 6abe 080e 003e 3849 4c3e
000000b0: a886 5d3e 1130 42be 2dad d13d 5da9 3bbd
000000c0: 4f8f 7cbe b01a 87be 0e87 3d3e 46db 89be
000000d0: e2d3 073e 97a9 6dbe 6558 5b3d 23aa 65be
000000e0: bc98 413e ea82 fa3d 90e0 93be aaa9 72bc
000000f0: bc81 443e 8681 5a3e 4e11 823e 7b28 31be
00000100: 07d0 da3d 2b7d fa3d aed1 5ebe 78cd 00be
00000110: 92aa 89be 8609 8e3d 44c6 413e 0b04 5dbe
00000120: 0d6f 923d 8a35 1abe 91f4 d93d ceae b6bd
00000130: c0bf 33be 7518 523e 3d9c 853d 6370 443e
00000140: c341 36be 21ac 993e d029 403e 075b 6dbe
00000150: 414c a43d f795 54be 9d1b 8d3e b137 863e
00000160: 6457 8e3e 6307 b1bd de0a 29be e32d 933e
00000170: c4d3 4e3e a1e0 6b3d 68c4 5dbe c01c bb3c
00000180: fefa a0bc 46c1 a3bd 03aa 17bc a7d8 173e
00000190: 9230 183e f6a2 8abd 60db 80bd 72e0 fe3d
000001a0: 0a75 c3bd 072d 16be 7d01 dabc f842 92be
000001b0: 90a5 9b3b 8ed5 923e 6085 cd3d d3ae dabd
000001c0: 9378 4fbe 6f1c 083e c377 1e3e ffef 72be
000001d0: dde6 a83d 9f59 15be f61d 82be 1451 873e
000001e0: 9084 5b3e 69cb abbd 1ed3 df3c a5be 48be
000001f0: 31ec 233d 62e8 8e3e 6054 37bd 4077 e4bd
00000200: b7f7 933e 61dd 90be 37b9 d3bd 7040 8dbc
00000210: a2bc 803e 562d ad3d 4cd9 83bd dc84 103e
00000220: 4bd1 ff3d 6d7b 653e 7328 073e 974c 5dbe
00000230: 02fd cabc f65b ab3b 4430 83be 1707 933e
00000240: d65e 763e da08 923e 00d5 54be 5344 81bd
00000250: 6425 84be 002e 81bd 8a31 7a3d 0e70 823e
00000260: b45e 56bc 4666 1bbe c539 e13d 70d4 b93d
00000270: 8548 88bd b8e5 1abe bff2 21be e5e2 39be
00000280: 306c 2d3d a430 903e d9d6 a1bb 758f 46be
00000290: d380 c83d 3c75 9e3d c08f 5dbe ea57 503e
000002a0: df56 c4bb 0abd 69be 8d44 063e 461b 333e
000002b0: 7a45 113e 9fa9 83be ad36 cdbd 8786 53be
000002c0: 2e29 b93b 287e 38bb a79f 0bbe 98c4 9e3d
000002d0: ad1a 26be f722 423d 8306 9ebc 8c7f e43d
000002e0: 97a9 343d 8f24 d8bd 14ac fc3c 35b2 1abe
000002f0: 62b1 8d3e b8a9 20be beb3 2b3e 3cf0 6d3e
00000300: dddf 873d 5ea8 253e 042f 2a3e a2d0 803e
00000310: 2110 983e 7063 9fbd 8fd8 2e3e 8b0c 393d
00000320: f260 193e e8a3 eabd 38b2 253e 175c 183e
00000330: 89b1 70be 5533 fbbd fd65 90be bae6 7ebe
00000340: 3533 473e d26a 56be 64c0 6c3d f0ff 8ebe
00000350: 8dfa 063e 7c48 2c3e ed40 87be 364f 893e
00000360: 25d8 8fbe 521b 923e 420f 043e 186e 16be
00000370: 0ec8 52bc f46f 53be f484 753d d1ec 45be
00000380: cf70 7ebe 117e 3b3e 1df7 0abe a00c cabd
00000390: 8a89 793e 6223 cdbc 5cfb 2d3d f17b eebd
000003a0: 89c3 193d d671 83bd e4d3 623e a186 573e
000003b0: 1a77 17be d9fb 143d cc59 ec3c 8a09 983e
000003c0: 0045 5bbe 54d4 e8bb 8291 ef3d 0d9b 263e
000003d0: ee7e 423d bf59 04be 501c 85be 79a4 63be
000003e0: 8276 06be c827 84be 0810 353d 5c1f 90bd
000003f0: 6c8a 4c3b 3ff9 19be 2cbe 88be f046 7ebe

convs.1.att_dst f4 [1, 4, 64]
-0.060621742 -0.011828013 0.17840861 0.00021609598 -0.24277821 -0.007946792 -0.13202165 0.252021
0.01774068 0.024025898 -0.015493361 0.2426025 -0.012278548 0.18027738 0.057364203 -0.16144346
0.2707535 -0.24072209 -0.25806525 -0.2625711 0.14886138 -0.20975518 -0.26343492 -0.14412008
0.16645849 0.21465434 -0.094159305 0.2737243 -0.28209364 -0.26804352 -0.24172163 -0.13573006
-0.2171795 -0.08959119 0.119827114 -0.05765453 0.07515994 -0.16246003 0.062635206 -0.2571271
0.22306289 -0.010069146 0.050087314 0.11386477 0.06926608 0.12419894 0.23281483 0.27582288
0.29344997 -0.27214256 0.14374542 0.14441141 0.26932383 -0.04396877 0.13842285 0.24676737
-0.2868818 -0.21865802 0.20595726 0.2769876 -0.27292582 -0.14257698 0.023504427 0.2619691
0.11571799 -0.2172945 -0.26619163 0.13561432 -0.25296497 0.13688654 -0.11875234 -0.17938423
-0.01928679 0.038977787 0.052766908 0.0016448197 -0.032027014 -0.23137578 -0.07272022 -0.004635256
-0.026420906 0.28616762 0.18969263 -0.28139827 -0.13968667 -0.053210843 -0.09100361 0.2522855
-0.10671256 -0.09320868 0.08435223 0.1806949 0.27986673 0.17887169 -0.12989067 0.18253224
0.025717188 -0.097475655 -0.032606255 -0.1917383 -0.02542161 -0.2669439 0.21099488 -0.05723557
0.24035834 -0.17076124 -0.012785481 -0.27982447 -0.0014731922 0.27718616 -0.20676444 -0.17449978
0.12741674 0.12989947 0.11534579 -0.1617132 -0.2574232 0.12387836 -0.015584868 -0.18299434
0.096788466 -0.2080003 -0.075006105 -0.176484 -0.14352928 0.16514312 0.1393898 -0.09025776
0.07554208 0.15640867 -0.14731395 0.13226211 0.19575405 -0.093793064 -0.02722839 0.18792692
-0.22301018 -0.06391495 -0.11894148 0.03594449 -0.18004619 -0.26499465 0.1314206 0.14010951
-0.26947016 -0.0868554 -0.06704408 0.0073587797 -0.14532562 0.12874067 0.011478458 0.10663446
0.24852207 0.012251136 -0.12432073 -0.2143106 0.022440948 0.15418643 0.14000742 0.11507211
-0.18796633 -0.17014942 -0.08193754 0.17339927 0.18283312 -0.08809808 -0.058366906 -0.02890869
-0.11936178 -0.11571035 -0.056674283 -0.15594336 -0.018981982 -0.21652883 0.007071989 -0.06358219
0.008882613 0.10222997 -0.05223812 -0.18784693 0.20434909 0.20368558 -0.21677417 0.12524702
-0.13286337 0.26937678 0.142911 -0.08918095 -0.19852234 0.18099287 0.25917056 0.20835884
-0.17284517 -0.040064245 -0.12958252 0.09178629 0.065192305 0.031951863 0.0636758 -0.07445872
-0.011378026 0.055323683 -0.12752941 -0.20951736 -0.09481747 -0.16952027 0.084985696 0.11748164
0.24986587 -0.013274076 0.2161367 -0.24974109 0.21002242 0.25533658 0.1909239 0.13660242
0.06969756 -0.13565642 0.06268614 -0.13451965 -0.18564619 -0.064207844 0.23836118 0.27308136
-0.28051627 0.14242552 -0.11551684 -0.06539918 -0.11165665 0.22301327 0.19007334 0.012719792
0.14948326 -0.24670674 0.2887266 0.055607986 0.062973686 0.08128689 -0.2416709 -0.0600994
-0.20993768 -0.09584246 -0.020679705 0.0927365 -0.23463552 0.03855865 -0.14336444 0.048637018
0.2405079 -0.061781276 0.22340547 -0.18032773 0.03511461 -0.034670606 -0.084598176 0.19430764
00000000: 814e 78bd 48ca 41bc bfb0 363e d397 6239
00000010: da9a 78be 4333 02bc af30 07be e608 813e
00000020: e754 913c f6d1 c43c ded7 7dbc ca6c 783e
00000030: f72b 49bc a29a 383e baf6 6a3d 6f51 25be
00000040: 34a0 8a3e da7f 76be 2121 84be b86f 86be
00000050: 1e6f 183e 10ca 56be f1e0 86be 3794 13be
00000060: 1874 2a3e 59ce 5b3e 98d6 c0bd 9725 8c3e
00000070: 946e 90be 003d 89be e085 77be d2fc 0abe
00000080: 4e64 5ebe 967b b7bd eb67 f53d 2827 6cbd
00000090: 74ed 993d ec5b 26be e346 803d 2aa6 83be
000000a0: 996a 643e 0ff9 24bc 5b28 4d3d ef31 e93d
000000b0: 60db 8d3d 045c fe3d 0367 6e3e a838 8d3e
000000c0: 133f 963e 4556 8bbe 0032 133e 96e0 133e
000000d0: d0e4 893e 9918 34bd b8be 0d3e 96b0 7c3e
000000e0: 2ce2 92be e3e7 5fbe 76e6 523e 52d1 8d3e
000000f0: efbc 8bbe b3ff 11be 5b8c c03c d020 863e
00000100: 8efd ec3d 7382 5ebe 454a 88be 7bde 0a3e
00000110: a084 81be fc2b 0c3e 6d34 f3bd 80b0 37be
00000120: 55ff 9dbc 2ca7 1f3d 1d22 583d fe96 d73a
00000130: c22e 03bd c6ed 6cbe 57ee 94bd 58e3 97bb
00000140: a870 d8bc 9084 923e c93e 423e 6f13 90be
00000150: 060a 0fbe 9df3 59bd 1a60 babd 912b 813e
00000160: 1d8c dabd 31e4 bebd ddc0 ac3d 1508 393e
00000170: b14a 8f3e 242a 373e 0f02 05be bbe9 3a3e
00000180: daac d23c 51a1 c7bd 238e 05bd 0b57 44be
00000190: fb40 d0bc dfac 88be 0b0f 583e d86f 6abd
000001a0: 7f20 763e 09dc 2ebe 327a 51bc 2745 8fbe
000001b0: 2118 c1ba 58eb 8d3e 0fba 53be 12b0 32be
000001c0: 8979 023e 5e04 053e 6a3a ec3d 2598 25be
000001d0: f9cc 83be f0b3 fd3d ad57 7fbc de62 3bbe
000001e0: 0839 c63d 08fe 54be cd9c 99bd 39b8 34be
000001f0: 57f9 12be 471b 293e 33bc 0e3e 0fd9 b8bd
00000200: ceb5 9a3d 9829 203e 78d9 16be b86f 073e
00000210: c073 483e 9416 c0bd 130e dfbc ea6f 403e
00000220: c85c 64be d7e5 82bd 9797 f3bd 883a 133d
00000230: 075e 38be 61ad 87be 1f93 063e de78 0f3e
00000240: fef7 89be 3ee1 b1bd 684e 89bd eb21 f13b
00000250: 3dd0 14be 98d4 033e 2410 3c3c 2b63 da3d
00000260: 927c 7e3e fdb8 483c de9b febd 3d74 5bbe
00000270: 14d6 b73c 0ce3 1d3e 1b5e 0f3e edaa eb3d
00000280: 3f7a 40be a63b 2ebe dece a7bd 948f 313e
00000290: 9b38 3b3e c46c b4bd 2312 6fbd ebd1 ecbc
000002a0: f373 f4bd 8cf9 ecbd 4b23 68bd 9eaf 1fbe
000002b0: 1a80 9bbc bcb9 5dbe 25bc e73b 6137 82bd
000002c0: 6188 113c f25d d13d a4f7 55bd f25a 40be
000002d0: e340 513e f492 503e 0cfa 5dbe c140 003e
000002e0: 560d 08be c1eb 893e 4357 123e 80a4 b6bd
000002f0: 7149 4bbe 3256 393e 01b2 843e 055c 553e
00000300: 53fe 30be 681a 24bd 48b1 04be 73fa bb3d
00000310: 8b83 853d f5df 023d 7568 823d d07d 98bd
00000320: e66a 3abc 169b 623d 1297 02be b88b 56be
00000330: a92f c2bd b996 2dbe fb0c ae3d 379a f03d
00000340: d7dc 7f3e 837b 59bc f052 5d3e 21bc 7fbe
00000350: 1e10 573e 7abb 823e 8e81 433e 81e1 0b3e
00000360: 98bd 8e3d 84e9 0abe 9761 803d 85bf 09be
00000370: 091a 3ebe 677f 83bd f414 743e 52d1 8b3e
00000380: d49f 8fbe ffd7 113e 1894 ecbd 01f0 85bd
00000390: 3eac e4bd 975d 643e 96a2 423e ad66 503c
000003a0: 2412 193e b1a0 7cbe f9d3 933e 33c5 633d
000003b0: 59f8 803d be79 a63d 9478 77be ca2a 76bd
000003c0: e7f9 56be 0d49 c4bd 7c68 a9bc a2ec bd3d
000003d0: 4b44 70be adef 1d3d 21ce 12be 9c37 473d
000003e0: b447 763e 5d0e 7dbd 67c4 643e d5a7 38be
000003f0: 56d4 0f3d c402 0ebd cf41 adbd 95f8 463e
