trained_weights/cadets/gat26.pth (torch, 322516 bytes, 27 tensors)

convs.0.att_src f4 [1, 4, 64]
0.006052537 -0.06749785 -0.008839977 0.027082693 0.09809315 -0.08979152 -0.065342225 0.12942266
0.07632131 0.0083754985 -0.06031505 -0.10065393 0.06328915 -0.1540756 -0.10985858 -0.009590093
0.078264385 0.09868534 0.041756775 0.15920754 0.013761295 0.041548137 0.17167866 -0.084560156
0.014548971 -0.049189184 0.10739385 -0.10353756 0.08156439 -0.10279685 -0.0967923 0.037303768
0.018673979 -0.039223496 -0.053058162 0.15868594 -0.04928406 -0.16780478 -0.0033454418 -0.08034627
0.05705735 -0.13840377 -0.15439518 -0.021114571 -0.027480228 0.009357019 0.05160458 0.009278849
-0.042392466 0.15269454 0.041941997 0.14313523 0.032010738 -0.0006455071 -0.093813404 0.086430565
0.06934226 0.022581229 -0.15887477 -0.015046553 0.0084318 0.004724573 -0.0059142476 -0.07895615
-0.02279828 -0.21891496 -0.03792679 0.086622275 -0.15536612 -0.080068685 -0.11733573 0.08379146
-0.10700592 -0.024702637 0.24310112 -0.17902112 -0.042622916 -0.118915476 -0.082878955 0.04271275
0.1599929 -0.038495086 0.18920045 -0.0034776116 0.11686404 -0.06651898 0.06877376 -0.15885614
-0.06494077 -0.05173101 -0.103892624 0.12526631 0.025500558 -0.23793247 -0.01992222 0.17230447
0.05801309 0.14427094 0.14363618 0.01184797 0.117574446 -0.16424626 -0.17952357 -0.19577871
-0.15948057 -0.22743578 0.05103151 0.1618173 -0.09464449 0.20038909 0.070516616 0.13530716
-0.2669767 -0.12477239 -0.10371122 -0.031116948 -0.028424684 -0.04800381 -0.15177493 0.10115997
0.07837496 -0.10108407 -0.04718115 -0.1908812 0.08322501 0.13983886 0.24402651 -0.09732157
0.044409078 -0.17370778 0.07344307 0.011156833 0.022460628 -0.10273196 -0.16370508 0.011999054
-0.19820988 0.064808086 0.19454195 0.12947457 -0.025693957 0.027881728 0.21515004 -0.017060885
0.1513609 -0.13456194 -0.0708853 0.20551825 -0.20252462 -0.02793952 -0.14215553 -0.11611406
-0.055040102 0.07373041 -0.02022953 0.25275847 0.15474164 -0.15008685 0.045215663 0.25653264
-0.0034662704 -0.22259441 -0.22117753 0.15907517 -0.018447673 0.25891352 -0.057750195 -0.08934152
0.06471064 -0.14703959 0.12147974 -0.07329894 0.005421305 -0.0966665 -0.066072285 0.08940671
0.16849385 -0.037663657 0.07795389 -0.027157316 -0.24629359 -0.036930367 0.12698042 0.06516842
0.09528509 0.07226721 -0.08687607 -0.1642382 0.10978095 0.24428125 0.07475433 0.10695697
0.07209523 -0.24658878 -0.14601463 0.07133464 0.15173237 -0.04870643 -0.21322015 0.26882192
-0.10766161 -0.255887 0.010921206 0.17183508 0.16517551 0.19662526 -0.24804878 -0.11988905
-0.20141943 -0.073934585 -0.13816482 0.18290608 -0.09787927 -0.12739857 -0.051940825 -0.14975214
0.07429565 0.18093878 0.08706697 0.1757805 0.20043255 0.19719975 0.16951472 -0.1695484
0.08507168 -0.035767112 -0.195902 -0.14914255 -0.20802942 -0.087650575 -0.21554597 0.094434775
-0.11346897 -0.101416424 0.1271895 0.02820623 -0.08541991 0.11581756 0.014156003 0.1794777
-0.19582556 0.07073321 -0.10607803 0.088967256 -0.1888084 -0.057968795 -0.1665731 -0.18786448
0.08791845 0.040206138 -0.009501544 0.225501 0.11311452 -0.07827217 -0.22390582 -0.1979224
00000000: 5c54 c63b 503c 8abd 8dd5 10bc 86dc dd3c
00000010: 10e5 c83d 9ee4 b7bd 25d2 85bd 6087 043e
00000020: 594e 9c3d 6339 093c ea0c 77bd a623 cebd
00000030: be9d 813d fec5 1dbe 89fd e0bd c41f 1dbc
00000040: 1449 a03d 8a1b ca3d 2709 2b3d 4d07 233e
00000050: 0e77 613c 612e 2a3d 88cc 2f3e e02d adbd
00000060: cf5e 6e3c 997a 49bd 4ff1 db3d 800b d4bd
00000070: 3b0b a73d 2887 d2bd 0b3b c6bd d6cb 183d
00000080: 2cfa 983c d1a8 20bd 8453 59bd 917e 223e
00000090: 15de 49bd 04d5 2bbe 333f 5bbb 968c a4bd
000000a0: f8b4 693d b8b9 0dbe c519 1ebe 77f8 acbc
000000b0: 371e e1bc 2f4e 193c 535f 533d 5006 183c
000000c0: b9a3 2dbd f55b 1c3e 5fcb 2b3d 0b92 123e
000000d0: b11d 033d 4037 29ba 3e21 c0bd 8202 b13d
000000e0: 5103 8e3d 45fc b83c 11b0 22be d185 76bc
000000f0: 8825 0a3c 97d0 9a3b 4ecc c1bb c3b3 a1bd
00000100: 75c3 babc 3e2b 60be 1f59 1bbd 0567 b13d
00000110: 4c18 1fbe 0dfb a3bd b74d f0bd db9a ab3d
00000120: eb25 dbbd 2f5d cabc 80ef 783e 5051 37be
00000130: 5e95 2ebd f589 f3bd 71bc a9bd 91f3 2e3d
00000140: 2ed5 233e 06ad 1dbd c3bd 413e a4e8 63bb
00000150: 6a56 ef3d 1a3b 88bd 42d9 8c3d 2fab 22be
00000160: abff 84bd e5e3 53bd a8c5 d4bd d045 003e
00000170: 8ce6 d03c 92a4 73be ec33 a3bc 9570 303e
00000180: 229f 6d3d c3bb 133e 5d15 133e fd1d 423c
00000190: dfca f03d 2c30 28be 07d5 37be 377a 48be
000001a0: e04e 23be ede4 68be 6b06 513d 6fb3 253e
000001b0: f8d4 c1bd cc32 4d3e 046b 903d f68d 0a3e
000001c0: 2cb1 88be ab88 ffbd 8c66 d4bd f8e8 febc
000001d0: e2da e8bc a59f 44bd e36a 1bbe f52c cf3d
000001e0: 0d83 a03d 2a05 cfbd 0641 41bd 5c76 43be
000001f0: e071 aa3d eb31 0f3e 16e2 793e 8850 c7bd
00000200: 4be6 353d 74e0 31be 5269 963d 26cb 363c
00000210: 5aff b73c 2265 d2bd 4ea2 27be ae97 443c
00000220: 88f7 4abe 1aba 843d 0136 473e fb94 043e
00000230: 227c d2bc 3968 e43c 4b50 5c3e 45c3 8bbc
00000240: 5afe 1a3e 9bca 09be 502c 91bd 6073 523e
00000250: 9d62 4fbe 6ce1 e4bc 3891 11be 35cd edbd
00000260: bb71 61bd f8ff 963d 66b8 a5bc 8f69 813e
00000270: 9874 1e3e 5eb0 19be 0f34 393d 3f58 833e
00000280: 5e2a 63bb caef 63be 5d7c 62be 9ae4 223e
00000290: 931f 97bc 5090 843e 788b 6cbd b0f8 b6bd
000002a0: 0387 843d 8c91 16be 5fca f83d c11d 96bd
000002b0: 34a5 b13b 16f9 c5bd e850 87bd dd1a b73d
000002c0: a789 2c3e 3545 1abd 4aa6 9f3d 0579 debc
000002d0: 6334 7cbe 4c44 17bd 2807 023e 0577 853d
000002e0: d424 c33d d500 943d 15ec b1bd 0f2e 28be
000002f0: d6d4 e03d dd24 7a3e cc18 993d 420c db3d
00000300: aaa6 933d c581 7cbe dc84 15be e517 923d
00000310: bb5f 1b3e 6580 47bd 6256 5abe 07a3 893e
00000320: b17d dcbd 9f03 83be dcee 323c 89f5 2f3e
00000330: c523 293e 2258 493e 8000 7ebe 6488 f5bd
00000340: e540 4ebe 046b 97bd 147b 0dbe bb4b 3b3e
00000350: ed74 c8bd c574 02be e7bf 54bd a058 19be
00000360: 5128 983d 0448 393e 2b50 b23d ceff 333e
00000370: 313e 4d3e bbee 493e 4495 2d3e 199e 2dbe
00000380: 103a ae3d 8980 12bd 899a 48be d3b8 18be
00000390: aa05 55be 2582 b3bd 15b8 5cbe 0567 c13d
000003a0: 6b62 e8bd 6ab3 cfbd f73d 023e c010 e73c
000003b0: a2f0 aebd c231 ed3d 94ee 673c 01c9 373e
000003c0: 7f86 48be 93dc 903d 703f d9bd 7734 b63d
000003d0: fd56 41be b070 6dbd 2492 2abe 8c5f 40be
000003e0: 970e b43d 31af 243d 5dac 1bbc bce9 663e
000003f0: 96a8 e73d 294d a0bd 9147 65be 2bac 4abe

convs.0.att_dst f4 [1, 4, 64]
0.0032020388 -0.00041756761 0.026008435 -0.0046631377 -0.09692433 0.081467114 -0.094183624 -0.048865672
4.355992e-06 0.0046065566 -0.10772357 0.068460666 -1.1164256e-06 0.02433999 0.0064205136 0.0012443363
-0.0053462763 0.015273144 -0.033623427 0.11277757 -0.05014632 -0.027873613 0.009097048 3.0637334e-06
-0.020274509 0.09960128 -0.12106892 4.6466585e-06 0.06083266 0.039617676 -0.00015562112 -7.083418e-06
0.04265889 -0.007265253 0.10125407 3.9626457e-06 -7.778832e-08 8.000581e-06 0.0768675 -1.8500081e-06
0.09686326 0.035162166 0.06281548 0.09780216 -0.040695343 0.1277634 2.0238956e-06 -0.00026276143
-0.13765316 -0.1102339 -0.067057565 0.0032311261 0.003113287 -0.0003728434 -0.037650455 -2.2908048e-06
0.019088449 1.0315305e-07 -0.00015530527 0.07169953 0.07017799 1.4127846e-06 0.007463655 -0.1359005
-0.0891232 0.0047095288 0.042688012 0.13304026 0.1449068 0.034569994 0.2354688 -0.20607576
0.13286985 -0.032343496 0.14882827 -0.13933988 0.23061165 0.063549355 0.028444408 0.08685739
-0.21479742 -0.02686612 0.2279776 0.13842838 0.062201627 0.098780945 0.16328432 -0.068591304
0.0066638025 -0.058779445 -0.008430968 -0.1330426 0.17026113 0.22142592 -0.09571101 -0.04787551
-0.054232273 0.18900196 0.15552987 -0.13249451 0.18877326 -0.1446435 -0.122090325 0.016321238
0.14096391 0.0048108674 0.12457827 -0.1476084 -0.013078535 -0.075694084 -0.07773719 -0.093959175
-0.1839629 0.154437 -0.07857838 0.0077005588 -0.06130717 -0.2145041 0.19625601 -0.060494035
-0.022192365 -0.05814467 0.15625635 0.110064514 0.15994157 0.18220407 -0.15275261 0.13500553
0.08591079 -0.11408452 -0.19800173 0.06548929 0.07795018 0.10345943 -0.23562494 0.042028274
-0.1283658 -0.24276412 0.02989951 0.0732583 0.07087533 -0.11533555 0.099484846 -0.033498235
0.24470538 0.16164558 0.18275127 -0.07670571 -0.18434379 -0.03452692 -0.116127655 0.12807263
0.1189595 0.15589711 0.03817016 0.053866576 0.23506683 -0.08215189 -0.105654016 0.13703364
-0.12184057 0.21279006 0.16884816 -0.2497745 -0.2331726 0.16244459 0.06578346 -0.05952633
0.0005900265 -0.20699657 -0.0776436 0.15773477 0.22188736 0.15801524 -0.14679469 -0.12869255
0.19284414 -0.028379252 0.2237405 0.1806842 -0.11794287 0.042377684 -0.059216548 -0.16370961
0.04824162 0.12078482 -0.24408618 -0.0052286685 -0.036708415 0.03652581 0.01989033 -0.06663824
-0.031504896 -0.057328105 0.098247245 0.047153194 -5.488436e-05 0.14249787 0.08539175 -0.0014445994
0.0031440589 -0.107598945 -0.048684746 -0.01382726 0.00031483918 -0.0016790051 0.00014617074 6.9080033e-06
-0.12551883 -0.093625836 5.072192e-07 -0.036439836 0.059271473 0.043646395 0.0042472067 0.06312124
-0.11691323 -0.03671779 0.05640763 -5.679465e-06 -0.07739861 0.030428667 0.028683914 5.892046e-06
0.0003795608 4.1475138e-05 -0.04125069 -0.1317271 -0.095235504 -0.011154659 0.086787246 0.030767856
0.0087839 0.12597811 -0.1054548 0.005107144 0.004307474 7.581078e-06 -0.038772274 0.060092714
0.00046621644 0.019215545 0.052155484 0.011414816 -0.13950674 -0.08298513 -0.054922618 3.8300637e-05
-0.050242245 -1.1603342e-05 -0.103629574 0.0010806896 -0.027316013 -0.0024884099 5.2386917e-05 -2.9729139e-05
00000000: 4cd9 513b faec dab9 a40f d53c 3ccd 98bb
00000010: 4380 c6bd 3bd8 a63d 58e3 c0bd 5f27 48bd
00000020: b029 9236 99f2 963b 2d9e dcbd 1b35 8c3d
00000030: 17d8 95b5 a964 c73c 2c63 d23b ff18 a33a
00000040: d12f afbb 353c 7a3c b8b8 09bd edf7 e63d
00000050: 3a66 4dbd 3457 e4bc c90b 153c 8a9a 4d36
00000060: ba16 a6bc c2fb cb3d fbf2 f7bd 7eea 9b36
00000070: ab2b 793d 2546 223d 3a2e 23b9 19ae edb6
00000080: 17bb 2e3d 5c11 eebb 4b5e cf3d def6 8436
00000090: 950c a7b3 3c3a 0637 b56c 9d3d cb4d f8b5
000000a0: 3f60 c63d 3406 103d 67a5 803d 804c c83d
000000b0: 29b0 26bd 69d4 023e 43d2 0736 3ec3 89b9
000000c0: f3f4 0cbe 50c2 e1bd 7a55 89bd 4dc1 533b
000000d0: 4a08 4c3b 327a c3b9 5d37 1abd babb 19b6
000000e0: 615f 9c3c fd84 dd33 71d9 22b9 34d7 923d
000000f0: 7ab9 8f3d e99e bd35 ad91 f43b 8029 0bbe
00000100: 3986 b6bd 6452 9a3b a0d9 2e3d b53b 083e
00000110: 7362 143e 4499 0d3d bc1e 713e 8605 53be
00000120: 090f 083e 9d7a 04bd 7066 183e 1daf 0ebe
00000130: 7625 6c3e 2a26 823d 3f04 e93c 4ae2 b13d
00000140: dbf3 5bbe 5616 dcbc f672 693e 2bc0 0d3e
00000150: 22c7 7e3d aa4d ca3d 0134 273e 9979 8cbd
00000160: 075c da3b b7c2 70bd 0b22 0abc 523c 08be
00000170: ef58 2e3e 7abd 623e 2204 c4bd 1c19 44bd
00000180: a922 5ebd bb89 413e 3943 1f3e a4ac 07be
00000190: c74d 413e 6d1d 14be 7e0a fabd 1eb4 853c
000001a0: d858 103e 7ba4 9d3b e422 ff3d a826 17be
000001b0: 5a47 56bc 8005 9bbd ad34 9fbd ab6d c0bd
000001c0: c560 3cbe bc24 1e3e b4ed a0bd f854 fc3b
000001d0: 3a1d 7bbd f6a6 5bbe 56f7 483e 98c8 77bd
000001e0: c3cc b5bc 1b29 6ebd aa01 203e 8169 e13d
000001f0: b9c7 233e b493 3a3e 2e6b 1cbe e43e 0a3e
00000200: fff1 af3d 25a5 e9bd f7c0 4abe 401f 863d
00000210: 58a4 9f3d 8ae2 d33d aa47 71be d725 2c3d
00000220: 5372 03be 2897 78be d1ef f43c 7308 963d
00000230: 1627 913d 0b35 ecbd b6be cb3d 7235 09bd
00000240: 0c94 7a3e 6b86 253e 2623 3b3e e217 9dbd
00000250: 9ec4 3cbe 1a6c 0dbd 56d4 edbd 7925 033e
00000260: 0aa1 f33d 7ea3 1f3e 5058 1c3d 33a3 5c3d
00000270: 5cb5 703e 403f a8bd 2261 d8bd 8c52 0c3e
00000280: 8c87 f9bd a3e5 593e 88e6 2c3e e3c4 7fbe
00000290: ccc4 6ebe e057 263e 7bb9 863d e2d1 73bd
000002a0: 02ac 1a3a e9f6 53be 9c03 9fbd 3985 213e
000002b0: 7136 633e bfce 213e 5951 16be fbc7 03be
000002c0: ef78 453e 9b7b e8bc 3b1c 653e 4705 393e
000002d0: 088c f1bd 3994 2d3d 0d8d 72bd 7ea3 27be
000002e0: 0199 453d 085e f73d baf1 79be 4055 abbb
000002f0: 905b 16bd 169c 153d 0cf1 a23c a179 88bd
00000300: 470b 01bd e0d0 6abd da35 c93d b523 413d
00000310: a233 66b8 f6ea 113e dfe1 ae3d b658 bdba
00000320: 8e0c 4e3b d65c dcbd a869 47bd bb8b 62bc
00000330: 0011 a539 1012 dcba 6945 1939 4ccb e736
00000340: 0288 00be e7be bfbd d727 0835 f041 15bd
00000350: a5c6 723d 90c6 323d 272c 8b3b b545 813d
00000360: 3470 efbd 6565 16bd b00b 673d 3c92 beb6
00000370: 2a83 9ebd 8a45 f93c 87fa ea3c 4ab4 c536
00000380: caff c639 97f5 2d38 7cf6 28bd 78e3 06be
00000390: d50a c3bd 08c2 36bc 83bd b13d df0c fc3c
000003a0: 59ea 0f3c 6800 013e b0f8 d7bd d459 a73b
000003b0: b625 8d3b f760 fe36 adcf 1ebd c723 763d
000003c0: 836e f439 eb69 9d3c fda0 553d 3505 3b3c
000003d0: dbda 0ebe 1cf4 a9bd 8af6 60bd ffa4 2038
000003e0: d0ca 4dbd f9ab 42b7 be3b d4bd eda5 8d3a
000003f0: d5c5 dfbc 9714 23bb 06ba 5b38 d762 f9b7

convs.0.bias f4 [256]
-0.0020804885 -0.004885061 0.009120602 -0.024059644 -0.0038543155 -0.013015276 0.008763904 -0.0060302787
-0.0073914356 0.0016495321 -0.0043723965 -0.002062218 0.0061468817 0.00951771 0.015347962 0.014849226
-0.0038989023 -0.0017302391 0.030504 0.0047624363 -0.00314474 -0.0056189112 0.03885642 0.0036513945
-0.0006816362 0.023390325 -0.01608464 0.00510519 0.000792172 0.016758101 -0.045624837 0.007963437
-0.007473281 0.008138854 -0.0053021978 0.004059778 0.0054259086 0.004878608 -0.029174259 0.021423053
0.008238864 0.0011062323 0.01581416 -0.0069000525 0.0034255474 -0.0055717295 -0.0069240993 0.013670581
-0.004162256 0.021862673 -0.011826487 0.00213034 0.01205655 0.0032913242 0.004119918 -0.0008380343
0.0018013375 -0.06488501 0.0040588477 -0.018859964 -0.007303187 0.007581532 -0.0005762589 -0.023941664
-0.004188588 -0.012216568 0.012609252 -0.0037519885 0.021257138 -0.0029753884 -0.0027734106 0.047210854
0.018036343 0.013274872 0.016436497 0.0033778027 -0.008023229 -0.0147735635 -0.013406109 -0.0030471426
0.0025040929 -0.0023090017 -0.012740777 -0.017401494 -0.020867726 0.0040158965 0.0026665542 -0.013999383
0.0037076066 0.041522022 -0.0005362545 -0.004702908 -0.015573875 0.004147969 -0.01613428 -0.012933841
-0.026261175 0.009128898 -0.013568615 -0.0026916512 0.0034122758 -0.004576746 0.016613843 -0.011488834
0.0071709296 -0.039406817 0.002131079 0.02311104 -0.016999112 0.015893888 -0.018921364 0.0067329975
-0.030189605 -0.005358793 -0.013363509 0.0037850856 0.0378088 -0.008359071 0.008789801 0.015659604
0.013167183 0.00040570906 -0.00021834763 0.01226903 0.030689262 0.005855077 -0.013440789 -0.0070362533
0.005566803 0.0055039097 -0.0054405006 0.010190927 -0.021302812 -0.00031014867 -0.014007879 0.0073854066
-0.012372478 0.019219374 0.014782436 -0.0024162673 0.005486152 0.01453054 -0.006227511 -0.027064038
-0.0023094332 -0.00079578254 -0.008093166 0.00062973687 -0.011609131 0.007930378 -0.0054166545 0.0032395567
-0.004229008 -0.00585018 0.010648785 -0.008843891 -0.016341291 -0.019406587 0.024511013 0.0014238213
0.009629413 0.0016637384 -0.01803583 0.016056448 0.008327657 -0.014984345 0.00013102133 0.0036944703
-0.016137704 0.0043511223 -0.0054746433 -0.022655318 -0.01841674 -0.017083671 0.025580602 0.013340282
-0.0048168073 -0.014883165 -0.016119527 -0.0022654724 0.0018303412 -0.0074669244 -0.009666683 0.00424476
0.0033325364 -0.0025080792 0.008916563 -0.0040569482 0.0014486131 -0.023578119 0.011579993 0.00027204107
0.0033881688 -0.0077075167 0.0098674735 0.0012421508 0.0019046263 0.03838287 0.024966175 -0.0074113538
0.004804964 -0.006888939 -0.04040448 0.016956085 0.008212646 -0.013620105 -0.0027230058 0.013484965
0.0027007994 0.007479645 -0.015162459 -0.014962581 0.011515005 0.011504504 -0.015167453 0.0077283164
0.0046394756 -0.0077363616 -0.013394598 -0.020691924 0.014059485 -0.010182983 -0.028553052 0.01596973
-0.020052189 -0.01132641 0.0039425367 -0.01709137 0.0047238762 -0.016226176 -0.007853092 0.0070614833
-0.0052718283 -0.01370889 -0.021687485 -0.017387921 -0.0009637305 -0.003651668 0.01758887 -0.0056280163
-0.017966166 0.004911479 0.0078237355 0.011864429 0.030651225 -0.007624902 0.006974293 -0.007093999
0.0040965606 0.008256221 -0.0022953786 0.021320246 -0.008099207 -0.0005871977 0.015045623 -0.0070810854
00000000: ce58 08bb dd12 a0bb 946e 153c bb18 c5bc
00000010: af98 7cbb 063e 55bc 7a96 0f3c a599 c5bb
00000020: db33 f2bb 1d35 d83a 5246 8fbb 4726 07bb
00000030: c86b c93b 2bf0 1b3c 0576 7b3c 2b4a 733c
00000040: ba84 7fbb 31c9 e2ba 86e3 f93c 360e 9c3b
00000050: fb17 4ebb d81e b8bb e927 1f3d 3c4c 6f3b
00000060: d5af 32ba 119d bf3c efc3 83bc 7049 a73b
00000070: c3a9 4f3a 4948 893c 1ce1 3abd 1379 023c
00000080: 6de2 f4bb d458 053c 0fbe adbb e307 853b
00000090: d2cb b13b bbdc 9f3b dbfe eebc 667f af3c
000000a0: 4dfc 063c fffe 903a b38c 813c d619 e2bb
000000b0: 267f 603b 0e93 b6bb 8ee3 e2bb 93fa 5f3c
000000c0: 8963 88bb 5919 b33c e2c3 41bc 2d9d 0b3b
000000d0: d688 453c 42b3 573b 6100 873b 88af 5bba
000000e0: db1a ec3a 6fe2 84bd 1500 853b 3680 9abc
000000f0: 934f efbb 806e f83b 1510 17ba 4f21 c4bc
00000100: 6c40 89bb 0028 48bc 0997 4e3c ece3 75bb
00000110: 7323 ae3c bcfe 42bb 1cc2 35bb 2b60 413d
00000120: f4c0 933c d97e 593c d5a5 863c 205e 5d3b
00000130: dd73 03bc d10c 72bc 4ca5 5bbc 92b2 47bb
00000140: b51b 243b 9f52 17bb b1be 50bc 948d 8ebc
00000150: cbf2 aabc c897 833b 5bc1 2e3b ab5d 65bc
00000160: 51fb 723b ff12 2a3d 6e93 0cba da1a 9abb
00000170: 9129 7fbc b0eb 873b 0a2c 84bc 76e8 53bc
00000180: ad21 d7bc 6091 153c e54e 5ebc 6a66 30bb
00000190: 7da0 5f3b 87f8 95bb c119 883c aa3b 3cbc
000001a0: 1efa ea3b 0b69 21bd 93a9 0b3b 5d53 bd3c
000001b0: b941 8bbc e633 823c fa00 9bbc 7aa0 dc3b
000001c0: 3150 f7bc d098 afbb 9ff2 5abc 330f 783b
000001d0: 66dd 1a3d 7cf4 08bc 1903 103c 9248 803c
000001e0: 2bbb 573c 59b5 d439 3ff4 64b9 0b04 493c
000001f0: 0c68 fb3c f2db bf3b c136 5cbc 5f90 e6bb
00000200: ba69 b63b 245a b43b 3a46 b2bb d9f7 263c
00000210: 3c83 aebc 739b a2b9 4e81 65bc 4801 f23b
00000220: efb5 4abc f371 9d3c 0832 723c 3d5a 1ebb
00000230: 2ec5 b33b 8111 6e3c 2610 ccbb 67b5 ddbc
00000240: dc59 17bb 109c 50ba 3399 04bc ed14 253a
00000250: 3934 3ebc 6bee 013c 317e b1bb be4e 543b
00000260: 7e93 8abb deb2 bfbb 3e78 2e3c f8e5 10bc
00000270: 2cde 85bc 90fa 9ebc 52cb c83c 849f ba3a
00000280: afc4 1d3c cc11 da3a e1bf 93bc d088 833c
00000290: ba70 083c e680 75bc c562 0939 ed1e 723b
000002a0: 3833 84bc dc93 8e3b a364 b3bb a597 b9bc
000002b0: b4de 96bc 0ef3 8bbc 698e d13c 3391 5a3c
000002c0: 4fd6 9dbb 85d8 73bc 190d 84bc 5278 14bb
000002d0: 0fe8 ef3a 1aad f4bb 0261 1ebc a117 8b3b
000002e0: af66 5a3b 965e 24bb c716 123c 26f0 84bb
000002f0: 64df bd3a e626 c1bc 03ba 3d3c bca0 8e39
00000300: 0a0c 5e3b 568f fcbb 2fab 213c aacf a23a
00000310: a7a4 f93a 5b37 1d3d dd85 cc3c f1da f2bb
00000320: f672 9d3b 9cbc e1bb 2b7f 25bd 7de7 8a3c
00000330: 558e 063c dc26 5fbc 7574 32bb 0bf0 5c3c
00000340: e5ff 303b cf17 f53b f66b 78bc 9d25 75bc
00000350: 6ea9 3c3c 637d 3c3c e980 78bc d13d fd3b
00000360: be06 983b 4e81 fdbb 0475 5bbc 1c82 a9bc
00000370: c159 663c 87d6 26bc 17e8 e9bc f4d2 823c
00000380: 7d44 a4bc 6892 39bc 6530 813b 3303 8cbc
00000390: bfca 9a3b c2ec 84bc 41aa 00bc 0464 e73b
000003a0: 4dbf acbb 419b 60bc f4a9 b1bc 1d71 8ebc
000003b0: dca2 7cba d350 6fbb 8916 903c 396b b8bb
000003c0: c82d 93bc 79f0 a03b 202f 003c 0663 423c
000003d0: 4718 fb3c 50da f9bb 9c88 e43b c774 e8bb
000003e0: 713c 863b 1a45 073c 106e 16bb cca7 ae3c
000003f0: 89b2 04bc 2cee 19ba eb81 763c 7308 e8bb

convs.0.lin_src.weight f4 [256, 6]
-0.0015130091 0.043185815 0.041175175 -0.14206174 0.043299973 -0.02914545 -0.04410289 -0.0541719
0.15708882 0.020531908 -0.07536952 0.0020237332 0.13573039 0.047726415 -0.009747296 0.001169965
-0.023047276 -0.00042467244 0.04428719 -0.13557558 0.0034504056 -0.085755415 -0.012576227 0.0002066085
-0.053917564 0.0017503328 -0.020394778 -0.06368476 0.0660155 -0.0037380927 -0.07759762 0.13782868
-0.02962622 -0.00037726294 -0.107608534 0.00030866812 0.11748487 -0.03525216 0.036247298 0.07937881
0.05152014 -0.0037679216 0.113630325 0.030514231 0.1364305 -0.025159122 -0.089262635 0.00026595744
-0.07364004 0.06913665 -0.11096496 0.13712667 0.03050107 0.01503689 0.12739594 0.06373024
0.09148762 -0.04991264 -0.10940833 0.008956159 -0.0178936 0.1315281 0.081290334 0.052222643
-0.1322654 -0.008330524 -0.030118346 -0.037396803 -0.11131236 -0.07527491 0.02090366 -0.00012557776
0.13998573 -0.023965474 -0.15129334 0.020855814 0.06431575 0.010744969 0.04908418 -0.08624922
0.016233927 -0.075913794 -0.03678991 0.010641697 -0.00874547 -0.065417804 0.06312934 0.06808711
0.087836 -0.00014504054 0.008818816 0.10300652 0.13490497 -0.009273567 0.06625367 -0.014696977
-0.12280563 -0.1427004 -0.144076 -0.0414054 0.0010015132 -0.026604274 0.08352318 0.10489328
0.12430144 0.00024176555 -0.046555653 0.00054470333 -0.0737765 0.08250308 -0.08446573 0.085815705
0.09343746 -0.0007154086 0.036504447 -0.0841705 -0.09527436 -0.028871892 0.07915849 -0.010765542
0.06893419 0.015785797 0.073343664 -0.100601174 0.049126975 0.020784054 0.0015428836 0.12301982
0.16757251 -0.028865518 -0.05885013 0.00024060628 -0.10617586 0.05790111 0.020270696 -0.057792347
-0.00872011 -0.0009206539 -0.15356056 -0.02704104 -0.07335295 0.04343054 0.024853269 0.0006295817
-0.12537116 0.0900965 0.14292759 -0.017295156 -0.020208472 0.00393877 0.06693631 0.15337229
-0.015958326 0.060991026 0.018392617 -0.0018667785 -0.048527572 0.0829109 -0.13756923 -0.065836206
0.101168565 -0.0005190389 0.124257304 0.12614618 -0.016969824 -0.00909974 0.011835041 -0.018498983
-0.08768086 -0.13441905 0.14089982 -0.10651321 0.04060573 -0.008897222 0.0016560698 0.058388975
-0.015635768 0.13922505 0.11110309 -0.0003789854 0.10643573 0.135912 -0.047741424 0.058832906
0.050695352 -0.0020230964 0.13750958 -0.006056473 0.070246726 -0.0926789 0.003364414 -0.0007333999
-0.077214815 0.033219993 -0.03049199 0.08558104 -0.08982077 -0.022737494 0.06230801 -0.08437958
0.06422814 0.082037464 0.051957518 8.6278866e-05 -0.11177125 -0.080141366 0.12881343 -0.03656374
0.007058121 0.00029348148 0.08206765 -0.108599685 -0.10785406 0.10890324 -0.033679742 -0.0007711635
-0.010407049 -0.012068432 -0.0635051 0.111130424 -0.04740924 0.030079523 0.039716408 -0.059910204
-0.08306617 -0.014857493 -0.004434899 -0.002726044 -0.07575259 -0.1589204 -0.03458304 0.07229577
0.009054156 0.00014873837 0.11984659 -0.053703744 0.023388574 0.019299887 0.012838749 0.0022005853
0.1394887 0.13295175 -0.08477915 -0.07502603 0.06521699 0.008281217 -0.096290305 -0.117290676
0.1238223 -0.05766724 0.019469405 0.001678181 0.035720184 -0.050629627 -0.101578064 0.06652757
00000000: 2950 c6ba 9ce3 303d 4da7 283d a278 11be
00000010: 505b 313d 70c2 eebc 3ba5 34bd 5be3 5dbd
00000020: e4db 203e 8832 a83c 565b 9abd 9ca0 043b
00000030: e8fc 0a3e c67c 433d 1fb3 1fbc 8359 993a
00000040: a4cd bcbc 92a6 deb9 7c66 353d 53d4 0abe
00000050: 3320 623b 89a0 afbd 850c 4ebc 0ca5 5839
00000060: aad8 5cbd 6c6b e53a f312 a7bc 286d 82bd
00000070: 2233 873d cafa 74bb 80eb 9ebd f622 0d3e
00000080: b0b2 f2bc 60cb c5b9 dd61 dcbd bcd4 a139
00000090: e89b f03d 9264 10bd 0c78 143d 5c91 a23d
000000a0: c806 533d 3cef 76bb 04b7 e83d fbf8 f93c
000000b0: 70b4 0b3e 811a cebc 54cf b6bd 3470 8b39
000000c0: 97d0 96bd 8497 8d3d 9941 e3bd ef6a 0c3e
000000d0: 61dd f93c 4a5d 763c 1574 023e 0085 823d
000000e0: dc5d bb3d 3271 4cbd 7911 e0bd dbbc 123c
000000f0: 9995 92bc 4daf 063e 8c7b a63d 69e7 553d
00000100: 9570 07be c07c 08bc c0ba f6bc 642d 19bd
00000110: bcf7 e3bd bb29 9abd 273e ab3c 86ad 03b9
00000120: 6b58 0f3e 3e53 c4bc a4ec 1abe d0d9 aa3c
00000130: fab7 833d ab0b 303c 7e0c 493d 6ea3 b0bd
00000140: 03fd 843c b178 9bbd 04b1 16bd 835a 2e3c
00000150: 2949 0fbc c5f9 85bd f549 813d 4171 8b3d
00000160: 5ce3 b33d 0616 18b9 cc7c 103c 15f5 d23d
00000170: 8724 0a3e 29f0 17bc 01b0 873d 97cb 70bc
00000180: 8581 fbbd 0e20 12be a988 13be b598 29bd
00000190: 3545 833a 35f1 d9bc 330e ab3d 4ad2 d63d
000001a0: c191 fe3d 7282 7d39 24b1 3ebd 6cca 0e3a
000001b0: 2218 97bd 60f7 a83d 5efc acbd 25c0 af3d
000001c0: 245c bf3d 428a 3bba b085 153d 9561 acbd
000001d0: 341f c3bd bf84 ecbc d91d a23d f561 30bc
000001e0: 5e2d 8d3d 3751 813c 3435 963d fd07 cebd
000001f0: 5e39 493d 5243 aa3c 953a ca3a d1f1 fb3d
00000200: 2198 2b3e 6177 ecbc d50c 71bd 424b 7c39
00000210: bb72 d9bd b729 6d3d bb0e a63c abb7 6cbd
00000220: cbde 0ebc 0a58 71ba fb3e 1dbe 2c85 ddbc
00000230: 123a 96bd 39e4 313d 1599 cb3c 830a 253a
00000240: 4c61 00be 8484 b83d 9c5b 123e 92ae 8dbc
00000250: 3d8c a5bc cc10 813b e715 893d a00d 1d3e
00000260: 09bb 82bc bad1 793d 1dac 963c b1ae f4ba
00000270: d9c4 46bd 31cd a93d f3de 0cbe 22d5 86bd
00000280: 7731 cf3d 1c10 08ba 9d7a fe3d 772c 013e
00000290: 4d04 8bbc 1317 15bc c3e7 413c 2e8b 97bc
000002a0: 0692 b3bd 26a5 09be 0b48 103e 9923 dabd
000002b0: 3252 263d a7c5 11bc 7b10 d93a 4729 6f3d
000002c0: 9516 80bc 0391 0e3e 048a e33d 8fb2 c6b9
000002d0: fafa d93d 842c 0b3e 838c 43bd c6fa 703d
000002e0: eea5 4f3d ed95 04bb 50cf 0c3e 6175 c6bb
000002f0: 84dd 8f3d 6fce bdbd 807d 5c3b a241 40ba
00000300: cd22 9ebd b011 083d 56ca f9bc 1d45 af3d
00000310: f4f3 b7bd fb43 babc af36 7f3d 34cf acbd
00000320: 0b8a 833d 4203 a83d 68d1 543d 9df0 b438
00000330: 53e8 e4bd 2821 a4bd abe7 033e dcc3 15bd
00000340: cf47 e73b 6bde 9939 1613 a83d 8369 debd
00000350: 97e2 dcbd a908 df3d c5f3 09bd e827 4aba
00000360: 5482 2abc acba 45bc f60e 82bd 5998 e33d
00000370: 3130 42bd 5569 f63c acad 223d 6764 75bd
00000380: 991e aabd d86c 73bc a152 91bb 6ea7 32bb
00000390: 2d24 9bbd 08bc 22be f2a6 0dbd ce0f 943d
000003a0: e257 143c a7f6 1b39 2172 f53d 75f8 5bbd
000003b0: 6599 bf3c cc1a 9e3c 9e59 523c b237 103b
000003c0: 20d6 0e3e 8124 083e b1a0 adbd 3fa7 99bd
000003d0: 7c90 853d f1ad 073c da33 c5bd 1836 f0bd
000003e0: 8c96 fd3d 7c34 6cbd 4d7e 9f3c 69f6 db3a
000003f0: 544f 123d 0361 4fbd 2908 d0bd 9b3f 883d

convs.0.lin_dst.weight f4 [256, 6]
-0.0015130091 0.043185815 0.041175175 -0.14206174 0.043299973 -0.02914545 -0.04410289 -0.0541719
0.15708882 0.020531908 -0.07536952 0.0020237332 0.13573039 0.047726415 -0.009747296 0.001169965
-0.023047276 -0.00042467244 0.04428719 -0.13557558 0.0034504056 -0.085755415 -0.012576227 0.0002066085
-0.053917564 0.0017503328 -0.020394778 -0.06368476 0.0660155 -0.0037380927 -0.07759762 0.13782868
-0.02962622 -0.00037726294 -0.107608534 0.00030866812 0.11748487 -0.03525216 0.036247298 0.07937881
0.05152014 -0.0037679216 0.113630325 0.030514231 0.1364305 -0.025159122 -0.089262635 0.00026595744
-0.07364004 0.06913665 -0.11096496 0.13712667 0.03050107 0.01503689 0.12739594 0.06373024
0.09148762 -0.04991264 -0.10940833 0.008956159 -0.0178936 0.1315281 0.081290334 0.052222643
-0.1322654 -0.008330524 -0.030118346 -0.037396803 -0.11131236 -0.07527491 0.02090366 -0.00012557776
0.13998573 -0.023965474 -0.15129334 0.020855814 0.06431575 0.010744969 0.04908418 -0.08624922
0.016233927 -0.075913794 -0.03678991 0.010641697 -0.00874547 -0.065417804 0.06312934 0.06808711
0.087836 -0.00014504054 0.008818816 0.10300652 0.13490497 -0.009273567 0.06625367 -0.014696977
-0.12280563 -0.1427004 -0.144076 -0.0414054 0.0010015132 -0.026604274 0.08352318 0.10489328
0.12430144 0.00024176555 -0.046555653 0.00054470333 -0.0737765 0.08250308 -0.08446573 0.085815705
0.09343746 -0.0007154086 0.036504447 -0.0841705 -0.09527436 -0.028871892 0.07915849 -0.010765542
0.06893419 0.015785797 0.073343664 -0.100601174 0.049126975 0.020784054 0.0015428836 0.12301982
0.16757251 -0.028865518 -0.05885013 0.00024060628 -0.10617586 0.05790111 0.020270696 -0.057792347
-0.00872011 -0.0009206539 -0.15356056 -0.02704104 -0.07335295 0.04343054 0.024853269 0.0006295817
-0.12537116 0.0900965 0.14292759 -0.017295156 -0.020208472 0.00393877 0.06693631 0.15337229
-0.015958326 0.060991026 0.018392617 -0.0018667785 -0.048527572 0.0829109 -0.13756923 -0.065836206
0.101168565 -0.0005190389 0.124257304 0.12614618 -0.016969824 -0.00909974 0.011835041 -0.018498983
-0.08768086 -0.13441905 0.14089982 -0.10651321 0.04060573 -0.008897222 0.0016560698 0.058388975
-0.015635768 0.13922505 0.11110309 -0.0003789854 0.10643573 0.135912 -0.047741424 0.058832906
0.050695352 -0.0020230964 0.13750958 -0.006056473 0.070246726 -0.0926789 0.003364414 -0.0007333999
-0.077214815 0.033219993 -0.03049199 0.08558104 -0.08982077 -0.022737494 0.06230801 -0.08437958
0.06422814 0.082037464 0.051957518 8.6278866e-05 -0.11177125 -0.080141366 0.12881343 -0.03656374
0.007058121 0.00029348148 0.08206765 -0.108599685 -0.10785406 0.10890324 -0.033679742 -0.0007711635
-0.010407049 -0.012068432 -0.0635051 0.111130424 -0.04740924 0.030079523 0.039716408 -0.059910204
-0.08306617 -0.014857493 -0.004434899 -0.002726044 -0.07575259 -0.1589204 -0.03458304 0.07229577
0.009054156 0.00014873837 0.11984659 -0.053703744 0.023388574 0.019299887 0.012838749 0.0022005853
0.1394887 0.13295175 -0.08477915 -0.07502603 0.06521699 0.008281217 -0.096290305 -0.117290676
0.1238223 -0.05766724 0.019469405 0.001678181 0.035720184 -0.050629627 -0.101578064 0.06652757
00000000: 2950 c6ba 9ce3 303d 4da7 283d a278 11be
00000010: 505b 313d 70c2 eebc 3ba5 34bd 5be3 5dbd
00000020: e4db 203e 8832 a83c 565b 9abd 9ca0 043b
00000030: e8fc 0a3e c67c 433d 1fb3 1fbc 8359 993a
00000040: a4cd bcbc 92a6 deb9 7c66 353d 53d4 0abe
00000050: 3320 623b 89a0 afbd 850c 4ebc 0ca5 5839
00000060: aad8 5cbd 6c6b e53a f312 a7bc 286d 82bd
00000070: 2233 873d cafa 74bb 80eb 9ebd f622 0d3e
00000080: b0b2 f2bc 60cb c5b9 dd61 dcbd bcd4 a139
00000090: e89b f03d 9264 10bd 0c78 143d 5c91 a23d
000000a0: c806 533d 3cef 76bb 04b7 e83d fbf8 f93c
000000b0: 70b4 0b3e 811a cebc 54cf b6bd 3470 8b39
000000c0: 97d0 96bd 8497 8d3d 9941 e3bd ef6a 0c3e
000000d0: 61dd f93c 4a5d 763c 1574 023e 0085 823d
000000e0: dc5d bb3d 3271 4cbd 7911 e0bd dbbc 123c
000000f0: 9995 92bc 4daf 063e 8c7b a63d 69e7 553d
00000100: 9570 07be c07c 08bc c0ba f6bc 642d 19bd
00000110: bcf7 e3bd bb29 9abd 273e ab3c 86ad 03b9
00000120: 6b58 0f3e 3e53 c4bc a4ec 1abe d0d9 aa3c
00000130: fab7 833d ab0b 303c 7e0c 493d 6ea3 b0bd
00000140: 03fd 843c b178 9bbd 04b1 16bd 835a 2e3c
00000150: 2949 0fbc c5f9 85bd f549 813d 4171 8b3d
00000160: 5ce3 b33d 0616 18b9 cc7c 103c 15f5 d23d
00000170: 8724 0a3e 29f0 17bc 01b0 873d 97cb 70bc
00000180: 8581 fbbd 0e20 12be a988 13be b598 29bd
00000190: 3545 833a 35f1 d9bc 330e ab3d 4ad2 d63d
000001a0: c191 fe3d 7282 7d39 24b1 3ebd 6cca 0e3a
000001b0: 2218 97bd 60f7 a83d 5efc acbd 25c0 af3d
000001c0: 245c bf3d 428a 3bba b085 153d 9561 acbd
000001d0: 341f c3bd bf84 ecbc d91d a23d f561 30bc
000001e0: 5e2d 8d3d 3751 813c 3435 963d fd07 cebd
000001f0: 5e39 493d 5243 aa3c 953a ca3a d1f1 fb3d
00000200: 2198 2b3e 6177 ecbc d50c 71bd 424b 7c39
00000210: bb72 d9bd b729 6d3d bb0e a63c abb7 6cbd
00000220: cbde 0ebc 0a58 71ba fb3e 1dbe 2c85 ddbc
00000230: 123a 96bd 39e4 313d 1599 cb3c 830a 253a
00000240: 4c61 00be 8484 b83d 9c5b 123e 92ae 8dbc
00000250: 3d8c a5bc cc10 813b e715 893d a00d 1d3e
00000260: 09bb 82bc bad1 793d 1dac 963c b1ae f4ba
00000270: d9c4 46bd 31cd a93d f3de 0cbe 22d5 86bd
00000280: 7731 cf3d 1c10 08ba 9d7a fe3d 772c 013e
00000290: 4d04 8bbc 1317 15bc c3e7 413c 2e8b 97bc
000002a0: 0692 b3bd 26a5 09be 0b48 103e 9923 dabd
000002b0: 3252 263d a7c5 11bc 7b10 d93a 4729 6f3d
000002c0: 9516 80bc 0391 0e3e 048a e33d 8fb2 c6b9
000002d0: fafa d93d 842c 0b3e 838c 43bd c6fa 703d
000002e0: eea5 4f3d ed95 04bb 50cf 0c3e 6175 c6bb
000002f0: 84dd 8f3d 6fce bdbd 807d 5c3b a241 40ba
00000300: cd22 9ebd b011 083d 56ca f9bc 1d45 af3d
00000310: f4f3 b7bd fb43 babc af36 7f3d 34cf acbd
00000320: 0b8a 833d 4203 a83d 68d1 543d 9df0 b438
00000330: 53e8 e4bd 2821 a4bd abe7 033e dcc3 15bd
00000340: cf47 e73b 6bde 9939 1613 a83d 8369 debd
00000350: 97e2 dcbd a908 df3d c5f3 09bd e827 4aba
00000360: 5482 2abc acba 45bc f60e 82bd 5998 e33d
00000370: 3130 42bd 5569 f63c acad 223d 6764 75bd
00000380: 991e aabd d86c 73bc a152 91bb 6ea7 32bb
00000390: 2d24 9bbd 08bc 22be f2a6 0dbd ce0f 943d
000003a0: e257 143c a7f6 1b39 2172 f53d 75f8 5bbd
000003b0: 6599 bf3c cc1a 9e3c 9e59 523c b237 103b
000003c0: 20d6 0e3e 8124 083e b1a0 adbd 3fa7 99bd
000003d0: 7c90 853d f1ad 073c da33 c5bd 1836 f0bd
000003e0: 8c96 fd3d 7c34 6cbd 4d7e 9f3c 69f6 db3a
000003f0: 544f 123d 0361 4fbd 2908 d0bd 9b3f 883d

convs.1.att_src f4 [1, 4, 64]
-0.07724849 0.08971622 0.14314285 -0.20765944 0.17643248 0.11370196 -0.13652651 -0.17764845
-0.24625915 0.26459196 -0.27118224 -0.04092181 -0.2127155 0.051840324 0.022700991 0.1625385
0.087973244 -0.25264663 0.09986389 -0.27101928 0.24996455 0.18212429 -0.01028164 -0.031546395
-0.23626925 0.19857426 -0.24058035 0.13821423 0.036681566 -0.28682724 -0.13581453 0.17315538
0.1356117 0.024173979 -0.04256652 -0.19304106 0.17608462 0.089828804 0.1261078 -0.22615294
0.10945739 -0.21934704 0.120176435 0.19519305 0.2069616 -0.1775939 0.10045603 -0.045204543
-0.23273203 -0.25432897 0.17673036 -0.26140836 0.1311005 -0.22714153 0.05225351 -0.21923023
0.18276414 0.11899534 -0.28245208 -0.014106011 0.18491618 0.2031175 0.2478832 -0.16529913
0.10828081 0.1131773 -0.21161994 -0.122199625 -0.2650038 0.06680303 0.18383381 -0.20846921
0.07060623 -0.1467056 0.10418808 -0.090537 -0.17280684 0.19606037 0.06276323 0.18730363
-0.17150895 0.29223648 0.18213142 -0.22367068 0.08221942 -0.20250876 0.2660589 0.24727596
0.27024516 -0.081794895 -0.16282015 0.28017858 0.19669238 0.059276633 -0.21392508 0.020936532
-0.0185247 -0.0807064 -0.00948977 0.14688413 0.14308305 -0.069055006 -0.059635296 0.124983184
-0.088958874 -0.1462605 -0.023489056 -0.27872333 0.003698623 0.27932096 0.09588257 -0.10618649
-0.19640742 0.13215439 0.15510155 -0.23244661 0.07637204 -0.13778785 -0.24933887 0.26473427
0.21280219 -0.07954877 0.023975085 -0.19380222 0.041596625 0.2753035 -0.04193129 -0.107830025
0.2820556 -0.27137807 -0.09563026 -0.017509276 0.24328645 0.08203512 -0.06410286 0.13757184
0.123008326 0.21798256 0.12607715 -0.20492466 -0.02434955 0.005188286 -0.24367812 0.28220895
0.23788288 0.27599904 -0.20255242 -0.058989543 -0.25402185 -0.061806582 0.060596984 0.2467302
-0.013018973 -0.15002695 0.10700599 0.08525271 -0.06326869 -0.14466383 -0.15423481 -0.17514443
0.04066285 0.27501497 -0.007469824 -0.18723615 0.093027815 0.07439151 -0.21143208 0.19556926
-0.0073840595 -0.22080731 0.12860137 0.16723846 0.13790289 -0.24550277 -0.099171065 -0.2012426
0.0064118383 -0.0036624835 -0.13403572 0.07430207 -0.15985613 0.04477329 -0.017440634 0.10774853
0.043749318 -0.10117157 0.029547842 -0.14679223 0.2668348 -0.14858736 0.1630373 0.22410224
0.06421626 0.15661159 0.1618014 0.24058798 0.2897045 -0.07648707 0.16635375 0.04457361
0.14342381 -0.11343707 0.1539043 0.14175767 -0.22821124 -0.120309144 -0.2730279 -0.24447544
0.1877209 -0.20399219 0.054631766 -0.2636331 0.12816983 0.16560535 -0.25701797 0.2576026
-0.2646062 0.26828873 0.12032051 -0.138096 -0.012546728 -0.19488913 0.058517378 -0.18238154
-0.24269868 0.18066579 -0.13353612 -0.09317872 0.2321128 -0.024356348 0.041430958 -0.113228604
0.03557714 -0.062968805 0.21965533 0.20058778 -0.1437307 0.035265516 0.025659284 0.2873521
-0.20612891 -0.007848045 0.10822036 0.15531962 0.0449181 -0.12373157 -0.2544207 -0.2186193
-0.12969996 -0.25376627 0.041339647 -0.06510785 0.0025296588 -0.14687547 -0.26316172 -0.24518825
00000000: 7534 9ebd 23bd b73d 0a94 123e ada4 54be
00000010: b7aa 343e 93dc e83d 9bcd 0bbe 7ae9 35be
00000020: 5c2b 7cbe 9978 873e 66d8 8abe a19d 27bd
00000030: 18d2 59be 8556 543d 6ef7 b93c 7e70 263e
00000040: 512b b43d e65a 81be 7085 cc3d 0ac3 8abe
00000050: b5f6 7f3e ca7e 3a3e 5374 28bc cb36 01bd
00000060: 91f0 71be 0d57 4b3e b25a 76be 0888 0d3e
00000070: 693f 163d 05db 92be f712 0bbe a54f 313e
00000080: cbdd 0a3e 8208 c63c 3b5a 2ebd 8eac 45be
00000090: 874f 343e 2af8 b73d 6722 013e a394 67be
000000a0: 322b e03d 839c 60be 101f f63d b0e0 473e
000000b0: beed 533e 2ddb 35be e4bb cd3d 6628 39bd
000000c0: 4e51 6ebe 6837 82be cef8 343e 51d7 85be
000000d0: 363f 063e ca97 68be c707 563d e47d 60be
000000e0: 8626 3b3e d4b3 f33d 8f9d 90be e61c 67bc
000000f0: ab5a 3d3e 09fe 4f3e 18d5 7d3e 2d44 29be
00000100: 54c2 dd3d 80c9 e73d e6b2 58be cc43 fabd
00000110: 94ae 87be 07d0 883d ee3e 3c3e f478 55be
00000120: 009a 903d fe39 16be 8f60 d53d 766b b9bd
00000130: 47f4 30be 0dc4 483e 028a 803d 86cc 3f3e
00000140: 0ba0 2fbe 05a0 953e a980 3a3e ed09 65be
00000150: a862 a83d 755e 4fbe df38 883e e935 7d3e
00000160: 935d 8a3e 1584 a7bd 53ba 26be 9173 8f3e
00000170: ba69 493e 0ecc 723d 2d0f 5bbe 1783 ab3c
00000180: 1dc1 97bc 6649 a5bd fb7a 1bbc cb68 163e
00000190: 5d84 123e b66c 8dbd 2444 74bd 2ff7 ff3d
000001a0: 1230 b6bd 50c5 15be 1f6c c0bc d3b4 8ebe
000001b0: 9964 723b 2803 8f3e 155e c43d 4d78 d9bd
000001c0: 071f 49be 7b53 073e f1d2 1e3e 7c06 6ebe
000001d0: f268 9c3d 4218 0dbe b052 7fbe 408b 873e
000001e0: d1e8 593e 77ea a2bd 6667 c43c 1774 46be
000001f0: 3961 2a3d 95f4 8c3e 25c0 2bbd fdd5 dcbd
00000200: 9769 903e 11f2 8abe ccd9 c3bd 9d6f 8fbc
00000210: 1520 793e 0702 a83d 5c48 83bd a2df 0c3e
00000220: caeb fb3d d236 5f3e 5e1a 013e c5d7 51be
00000230: b578 c7bc 7f02 aa3b c286 79be b17d 903e
00000240: 9297 733e bf4f 8d3e e769 4fbe 059f 71bd
00000250: 270f 82be e628 7dbd 8b34 783d d7a6 7c3e
00000260: 884d 55bc aaa0 19be f525 db3d f998 ae3d
00000270: 0493 81bd c122 14be bbef 1dbe 1059 33be
00000280: 178e 263d c3ce 8c3e 6dc5 f4bb d5ba 3fbe
00000290: 5e85 be3d 935a 983d a781 58be 4f43 483e
000002a0: fbf5 f1bb 501b 62be 14b0 033e 8f40 2b3e
000002b0: 6a36 0d3e 1465 7bbe 331a cbbd 8a12 4ebe
000002c0: 661a d23b 4706 70bb a940 09be af2b 983d
000002d0: 53b1 23be 3364 373d a9df 8ebc 43ab dc3d
000002e0: 7c32 333d 0a33 cfbd 510e f23c b450 16be
000002f0: 929e 883e 4927 18be 40f3 263e 0f7b 653e
00000300: d183 833d ca5e 203e 44af 253e b25c 763e
00000310: 2654 943e 41a5 9cbd a358 2a3e d192 363d
00000320: b1dd 123e b251 e8bd 1799 1d3e ec28 113e
00000330: 35b0 69be a464 f6bd 50ca 8bbe c557 7abe
00000340: e839 403e 54e3 50be 8fc5 5f3d ebfa 86be
00000350: f43e 033e 7394 293e dc97 83be 7de4 833e
00000360: 777a 87be 245d 893e 996a f63d 0a69 0dbe
00000370: cb90 4dbc 0491 47be ebaf 6f3d 3ac2 3abe
00000380: 0186 78be 7400 393e b1bd 08be 7cd4 bebd
00000390: faae 6d3e f786 c7bc 82b3 293d 66e4 e7bd
000003a0: 56b9 113d caf5 80bd 54ed 603e e266 4d3e
000003b0: 242e 13be 9372 103d 6b33 d23c d01f 933e
000003c0: 7513 53be 1695 00bc a3a2 dd3d 1b0c 1f3e
000003d0: 0bfc 373d fa66 fdbd 6e43 82be bddd 5fbe
000003e0: 11d0 04be a7ed 81be c353 293d 4457 85bd
000003f0: a2c8 253b 8666 16be 22bd 86be a112 7bbe

convs.1.att_dst f4 [1, 4, 64]
-0.042749874 -0.004757491 0.13564265 0.002362986 -0.18215615 -0.003983968 -0.10638694 0.20054622
0.008612524 0.030485187 -0.012850645 0.17482664 -0.008291299 0.1393501 0.047019076 -0.11423227
0.2034626 -0.17298128 -0.16028807 -0.19495104 0.11490957 -0.14110564 -0.20054239 -0.116791196
0.13206045 0.16928259 -0.059870563 0.22758906 -0.2204308 -0.23735966 -0.16779067 -0.102994815
-0.13494197 -0.0634816 0.09225448 -0.05158164 0.06545384 -0.13412902 0.0448553 -0.20817746
0.16925097 -0.0066972105 0.037441067 0.07994963 0.050935768 0.0789615 0.1881063 0.22159417
0.21616459 -0.22690873 0.107092634 0.122832954 0.22994593 -0.038373828 0.110816054 0.20186964
-0.21784183 -0.15656856 0.15439454 0.22483735 -0.21950363 -0.09479704 0.014655736 0.19135754
0.09758569 -0.19896439 -0.21217829 0.12822422 -0.21383873 0.113623716 -0.11287747 -0.16960874
-0.019061238 0.03726805 0.049885508 0.0013025565 -0.029002924 -0.21078303 -0.07096445 -0.0014037278
-0.023162812 0.23167932 0.16926053 -0.2634229 -0.1270386 -0.04459942 -0.07389409 0.19954492
-0.1011036 -0.07338144 0.08077083 0.16129534 0.22309825 0.17414536 -0.118275136 0.15945949
0.023953706 -0.0879413 -0.03231741 -0.15477692 -0.02434176 -0.25594318 0.19875447 -0.046447102
0.22008602 -0.15298343 -0.0027900515 -0.26490438 -0.0062703853 0.24865201 -0.19155326 -0.16509478
0.11831596 0.11539365 0.10018442 -0.15751736 -0.21840893 0.105290435 -0.015543394 -0.1704829
0.088613465 -0.18843298 -0.07224253 -0.16737933 -0.11825155 0.15029527 0.1239845 -0.08663336
0.06831002 0.1512367 -0.1179592 0.12242569 0.19133408 -0.092667274 -0.02371855 0.18580602
-0.21638617 -0.060794294 -0.10700976 0.0323703 -0.17431483 -0.25174972 0.1255763 0.13479783
-0.23886546 -0.07192423 -0.06369456 0.006347399 -0.12975724 0.12253829 0.011629902 0.09533205
0.23587169 0.012706406 -0.11764975 -0.17545284 0.020532161 0.1277995 0.13624431 0.097437754
-0.17868792 -0.16741724 -0.07885985 0.16106999 0.16310294 -0.0846294 -0.05287436 -0.027240135
-0.11162114 -0.109877236 -0.053627644 -0.13525417 -0.019119428 -0.2073987 0.007814847 -0.060426686
0.009914268 0.09932507 -0.049119897 -0.17302033 0.19866063 0.19647187 -0.19161886 0.1213945
-0.11948282 0.22735384 0.12182142 -0.08590225 -0.16790645 0.16253082 0.23939602 0.18877143
-0.12088668 -0.030125724 -0.08815497 0.056764346 0.043928143 0.029365173 0.04293493 -0.05264609
0.0064206216 0.04522832 -0.09891429 -0.1528665 -0.080260634 -0.13509375 0.038899932 0.08459006
0.18492551 -0.014424201 0.1771136 -0.17827705 0.15778436 0.21603557 0.13660455 0.10424976
0.049381476 -0.10276408 0.050283268 -0.07183129 -0.14756279 -0.042652655 0.1620467 0.19679844
-0.2011141 0.11433397 -0.088264085 -0.047290202 -0.07136325 0.1573739 0.15654497 0.009882693
0.09920526 -0.16612592 0.23426749 0.040622044 0.04651404 0.03684169 -0.17405508 -0.03889475
-0.14348055 -0.057579823 -0.020976296 0.059785582 -0.15254164 0.030719422 -0.10882855 0.038517877
0.16738096 -0.039936595 0.1738223 -0.10726168 0.022121707 -0.027996244 -0.062121682 0.15047826
00000000: 7e1a 2fbd bae4 9bbb e8e5 0a3e 54dc 1a3b
00000010: 2487 3abe f28b 82bb 65e1 d9bd fd5b 4d3e
00000020: 8b1b 0d3c 12bc f93c 838b 52bc c105 333e
00000030: 3bd8 07bc cbb1 0e3e 1397 403d 9cf2 e9bd
00000040: 8058 503e 0122 31be 8e22 24be 3fa1 47be
00000050: b555 eb3d ff7d 10be fc5a 4dbe 3930 efbd
00000060: db3a 073e 6a58 2d3e d63a 75bd 1b0d 693e
00000070: 9db8 61be 690e 73be 51d1 2bbe f2ee d2bd
00000080: 3a2e 0abe a402 82bd ebef bc3d 4547 53bd
00000090: aa0c 863d 1e59 09be 31ba 373d 792c 55be
000000a0: 2050 2d3e 4674 dbbb ce5b 193d a2bc a33d
000000b0: 06a2 503d 91b6 a13d f09e 403e 95e9 623e
000000c0: 405a 5d3e c35a 68be 6253 db3d d88f fb3d
000000d0: f276 6b3e e02d 1dbd 87f3 e23d eab6 4e3e
000000e0: ee11 5fbe 8253 20be 9a19 1e3e c33b 663e
000000f0: 8fc5 60be f324 c2bd 9d1e 703c 3bf3 433e
00000100: 02db c73d 52bd 4bbe 4445 59be 364d 033e
00000110: 8af8 5abe 8db3 e83d 4e2c e7bd eaad 2dbe
00000120: 5026 9cbc 62a6 183d bf54 4c3d 8bba aa3a
00000130: 8a97 edbc 82d7 57be cf55 91bd 4afd b7ba
00000140: f0bf bdbc 583d 6d3e a252 2d3e 5edf 86be
00000150: 6816 02be e2ad 36bd c955 97bd 8155 4c3e
00000160: 670f cfbd 0249 96bd 2d6b a53d 9b2a 253e
00000170: de73 643e 2953 323e 3c3a f2bd 5949 233e
00000180: 903a c43c 911a b4bd 435f 04bd d77d 1ebe
00000190: 5f68 c7bc fc0a 83be 4b86 4b3e 513f 3ebd
000001a0: 3b5e 613e b0a7 1cbe 4cd9 36bb 8ca1 87be
000001b0: ce77 cdbb a29e 7e3e 8a26 44be 9b0e 29be
000001c0: a34f f23d 8253 ec3d 7d2d cd3d 3b4c 21be
000001d0: 97a6 5fbe 83a2 d73d b8a9 7ebc 1293 2ebe
000001e0: fa7a b53d 93f4 40be e4f3 93bd 7d65 2bbe
000001f0: de2d f2bd 01e7 193e 96eb fd3d d56c b1bd
00000200: 20e6 8b3d cbdd 1a3e 9894 f1bd 52ba fa3d
00000210: 15ed 433e 57c8 bdbd 684d c2bc ef43 3e3e
00000220: 5694 5dbe 7003 79bd ef27 dbbd b896 043d
00000230: 967f 32be 57e5 80be 1397 003e 7108 0a3e
00000240: 2699 74be 034d 93bd 4b72 82bd d8fd cf3b
00000250: 15df 04be 5bf5 fa3d 588b 3e3c 733d c33d
00000260: 5988 713e 882e 503c 5af2 f0bd e9a9 33be
00000270: 1033 a83c dfdd 023e a183 0b3e 728d c73d
00000280: f7f9 36be 6d6f 2bbe 4681 a1bd 88ef 243e
00000290: 7504 273e 2e52 adbd c992 58bd b426 dfbc
000002a0: a099 e4bd 5107 e1bd a9a8 5bbd 1280 0abe
000002b0: 59a0 9cbc 5360 54be d809 003c f981 77bd
000002c0: 746f 223c f16a cb3d f231 49bd 3e2c 31be
000002d0: b16d 4b3e ec2f 493e bc37 44be ae9d f83d
000002e0: 69b3 f4bd 72cf 683e 827d f93d 85ed afbd
000002f0: abef 2bbe 7b6e 263e 3b24 753e 4c4d 413e
00000300: 7093 f7bd 39ca f6bc 988a b4bd bb81 683d
00000310: ffed 333d 3b8f f03c 8adc 2f3d 6da3 57bd
00000320: 1464 d23b 5541 393d 9393 cabd 0989 1cbe
00000330: b05f a4bd 0456 0abe 8955 1f3d 8e3d ad3d
00000340: 1d5d 3d3e 7c53 6cbc 445d 353e 428e 36be
00000350: 3992 213e 6e38 5d3e 10e2 0b3e e680 d53d
00000360: 3b44 4a3d f975 d2bd d4f5 4d3d 491c 93bd
00000370: b31a 17be 8db4 2ebd 92ef 253e 8885 493e
00000380: dbf0 4dbe ee27 ea3d cdc3 b4bd 5fb3 41bd
00000390: e526 92bd a026 213e 534d 203e 05eb 213c
000003a0: 212c cb3d ea1c 2abe d1e3 6f3e 4d63 263d
000003b0: 8285 3e3d 50e7 163d 7f3b 32be 1a50 1fbd
000003c0: 91ec 12be d2d8 6bbd 7bd6 abbc bae1 743d
000003d0: e033 1cbe 4ca7 fb3c 81e1 debd ecc4 1d3d
000003e0: ea65 2b3e 8e94 23bd 79fe 313e 03ac dbbd
000003f0: 9538 b53c 6158 e5bc 4e73 7ebd f916 1a3e
