trained_weights/cadets/gat40.pth (torch, 322516 bytes, 27 tensors)

convs.0.att_src f4 [1, 4, 64]
0.0074632457 -0.06323516 -0.0105845425 0.020664848 0.09084939 -0.08098937 -0.06352063 0.11929301
0.07208414 0.0033167521 -0.053284332 -0.0934257 0.0590089 -0.14660963 -0.10290682 -0.006670436
0.070408404 0.090725996 0.040721636 0.15041493 0.00837395 0.04170342 0.1659422 -0.07608919
0.016632505 -0.042843796 0.10172894 -0.098057464 0.078308105 -0.09336055 -0.091720134 0.030849874
0.019888585 -0.038071595 -0.04962466 0.15086754 -0.043388978 -0.1606262 -0.0045949384 -0.07796405
0.053458605 -0.13224807 -0.1477197 -0.018660126 -0.021537757 0.009213646 0.0478473 0.00452566
-0.03790734 0.14496523 0.04277824 0.13530786 0.02973868 -0.0021273324 -0.08924738 0.079425566
0.06559575 0.022532292 -0.14981219 -0.013091471 0.008966674 0.0015859398 -0.008608355 -0.07179621
-0.023191145 -0.21469809 -0.035453975 0.081256256 -0.14644781 -0.07895232 -0.11351583 0.08415241
-0.10606244 -0.024735477 0.24016859 -0.17772627 -0.040056545 -0.11674354 -0.08265627 0.03555886
0.15631148 -0.036193967 0.18375146 -0.005533952 0.1129667 -0.058631856 0.06736768 -0.1528892
-0.057306804 -0.051891573 -0.10052576 0.12194993 0.02115715 -0.23432007 -0.021124944 0.16073093
0.05727494 0.14249273 0.13766539 0.009025475 0.1089466 -0.15574813 -0.17240721 -0.1901059
-0.15720858 -0.22097899 0.049231067 0.15694183 -0.09483491 0.19649513 0.06767425 0.13306865
-0.26418245 -0.12115577 -0.09974897 -0.027266635 -0.027711168 -0.04301997 -0.14319246 0.09866877
0.0770966 -0.098427095 -0.048811954 -0.18814598 0.083381705 0.13545325 0.2394887 -0.09553722
0.040363338 -0.1725422 0.06921211 0.009036889 0.022753537 -0.098271266 -0.15902963 0.010121746
-0.19516689 0.06222771 0.19133186 0.12355943 -0.025639514 0.025651513 0.21274284 -0.018113144
0.1474073 -0.13009551 -0.06816913 0.20495366 -0.19878253 -0.02878468 -0.14217418 -0.11462795
-0.052586216 0.0744893 -0.01837111 0.2485673 0.15233423 -0.1467864 0.042986352 0.25363627
-0.004476712 -0.219949 -0.21489799 0.15579309 -0.018004825 0.25779337 -0.057549085 -0.08553996
0.06549988 -0.14427915 0.11882174 -0.06838688 0.006941761 -0.092995144 -0.061605457 0.08694011
0.16596402 -0.038509004 0.07738538 -0.023803683 -0.24554351 -0.034716118 0.124285795 0.06168433
0.09603437 0.063951574 -0.07996164 -0.15994959 0.10537181 0.24000841 0.06934997 0.10193733
0.07272081 -0.24441627 -0.14311586 0.07273525 0.14944372 -0.050358266 -0.21125327 0.26590517
-0.10934755 -0.25312817 0.010458794 0.1640318 0.15755783 0.19258527 -0.24297579 -0.11945274
-0.19932833 -0.07115423 -0.13785866 0.17888701 -0.094431736 -0.12217025 -0.053017545 -0.14444573
0.07455237 0.1808507 0.08643803 0.16938107 0.19664808 0.19716924 0.16415758 -0.16860925
0.0849495 -0.03267512 -0.19231665 -0.14913273 -0.20634754 -0.085500784 -0.2114889 0.0866159
-0.11445873 -0.099704415 0.12063794 0.02640042 -0.08143296 0.112579405 0.011796409 0.17671926
-0.19575688 0.071522586 -0.102936015 0.0843517 -0.18941374 -0.0593782 -0.16308022 -0.18795346
0.087319165 0.041959923 -0.01085555 0.22531573 0.111031316 -0.07455802 -0.22005439 -0.19483943
00000000: 3e8e f43b 7081 81bd ca6a 2dbc 5449 a93c
00000010: 3f0f ba3d c1dd a5bd 1b17 82bd e54f f43d
00000020: d9a0 933d de5d 593b ac40 5abd f955 bfbd
00000030: 51b3 713d d620 16be d0c0 d2bd ac93 dabb
00000040: 4832 903d 8dce b93d bbcb 263d 5f06 1a3e
00000050: e432 093c 35d1 2a3d c1ec 293e a6d4 9bbd
00000060: e440 883c fa7c 2fbd 4357 d03d 5ad2 c8bd
00000070: 0060 a03d d133 bfbd c4d7 bbbd e0b8 fc3c
00000080: 63ed a23c f6f0 1bbd 3a43 4bbd 057d 1a3e
00000090: a4b8 31bd 327b 24be 2391 96bb 9eab 9fbd
000000a0: 69f7 5a3d 0a6c 07be d543 17be 1fdd 98bc
000000b0: f36f b0bc d5f4 163c 88fb 433d fd4b 943b
000000c0: ba44 1bbd c471 143e 3c38 2f3d 258e 0a3e
000000d0: 889e f33c b76a 0bbb 55c7 b6bd dfa9 a23d
000000e0: 1157 863d a495 b83c 5e68 19be 9c7d 56bc
000000f0: f5e8 123c 4fdf cf3a 0f0a 0dbc e409 93bd
00000100: 5bfb bdbc d1d9 5bbe 3038 11bd ae69 a63d
00000110: 6af6 15be c1b1 a1bd fd7a e8bd 1958 ac3d
00000120: 4437 d9bd 0ea2 cabc c1ee 753e e0fd 35be
00000130: 5512 24bd 3d17 efbd b147 a9bd 2ba6 113d
00000140: 1e10 203e 2040 14bd 5829 3c3e 2756 b5bb
00000150: 165b e73d f527 70bd 11f8 893d fd8e 1cbe
00000160: 8aba 6abd 428c 54bd 73e0 cdbd e3c0 f93d
00000170: c251 ad3c 9af1 6fbe 380e adbc a696 243e
00000180: 2199 6a3d 9de9 113e 28f8 0c3e 96df 133c
00000190: 651f df3d 707c 1fbe 848b 30be 1fab 42be
000001a0: 49fb 20be 5148 62be 84a6 493d 5cb5 203e
000001b0: ce38 c2bd 0536 493e cc98 8a3d 2643 083e
000001c0: ec42 87be 8420 f8bd 3049 ccbd 475e dfbc
000001d0: 8802 e3bc b535 30bd 0ba1 12be da12 ca3d
000001e0: d2e4 9d3d 2594 c9bd 0bef 47bd 57a9 40be
000001f0: 07c4 aa3d 42b4 0a3e 873c 753e 05a9 c3bd
00000200: 0754 253d e7ae 30be 14bf 8d3d 760f 143c
00000210: a065 ba3c 7242 c9bd aad8 22be aed5 253c
00000220: d4d9 47be 7ce2 7e3d 80ec 433e ba0c fd3d
00000230: f509 d2bc 1f23 d23c 42d9 593e 0462 94bc
00000240: f0f1 163e c237 05be 429c 8bbd 5fdf 513e
00000250: a68d 4bbe d9cd ebbc 1c96 11be 0fc2 eabd
00000260: a564 57bd d98d 983d 037f 96bc 6d88 7e3e
00000270: 81fd 1b3e 2d4f 16be 7512 303d 9ddc 813e
00000280: 62b1 92bb 503a 61be 380e 5cbe 3988 1f3e
00000290: db7e 93bc 7efd 833e 97b8 6bbd 932f afbd
000002a0: cd24 863d eabd 13be d058 f33d 6c0e 8cbd
000002b0: b677 e33b 3d74 bebd 0156 7cbd a80d b23d
000002c0: 79f2 293e 9ebb 1dbd 3a7c 9e3d f1ff c2bc
000002d0: c26f 7bbe 7d32 0ebd 8d89 fe3d b5a8 7c3d
000002e0: abad c43d 0bf9 823d eec2 a3bd d3c9 23be
000002f0: 2dcd d73d c4c4 753e 5b07 8e3d 85c4 d03d
00000300: a6ee 943d 4248 7abe f78c 12be 38f6 943d
00000310: c607 193e 7844 4ebd c752 58be b924 883e
00000320: 9cf1 dfbd 049a 81be 5d5b 2b3c f4f7 273e
00000330: d756 213e 1335 453e a5ce 78be a3a3 f4bd
00000340: ba1c 4cbe 4fb9 91bd d22a 0dbe 282e 373e
00000350: 6d65 c1bd 6534 fabd ed28 59bd 95e9 13be
00000360: eaae 983d ed30 393e 6c06 b13d 3b72 2d3e
00000370: 1d5e 493e bce6 493e ed18 283e e7a7 2cbe
00000380: 01fa ad3d 59d6 05bd a8ee 44be 40b6 18be
00000390: c54c 53be 091b afbd 8c90 58be ad63 b13d
000003a0: 5769 eabd d431 ccbd 0611 f73d b245 d83c
000003b0: 53c6 a6bd 0890 e63d ba45 413c e5f5 343e
000003c0: 7e74 48be 6f7a 923d 1ed0 d2bd 96c0 ac3d
000003d0: adf5 41be 8e36 73bd 80fe 26be df76 40be
000003e0: 64d4 b23d 2bde 2b3d 7adb 31bc 2bb9 663e
000003f0: 6364 e33d e0b1 98bd f055 61be fd83 47be

convs.0.att_dst f4 [1, 4, 64]
0.0020493728 -0.00017231268 0.021419909 -0.0031490473 -0.08855103 0.073610574 -0.08589509 -0.042535726
4.123243e-06 0.003105663 -0.0990407 0.061126307 -1.0147626e-06 0.019918337 0.004523467 0.00067827606
-0.0036776545 0.01191614 -0.028356444 0.103961736 -0.04374028 -0.023107015 0.006691777 -7.6886363e-07
-0.01629336 0.09114762 -0.11204972 -2.5168988e-06 0.053852636 0.033893522 -3.6713045e-05 -8.5810325e-06
0.036723543 -0.005199365 0.092752084 -7.100151e-07 6.06402e-07 8.634464e-06 0.069185235 -4.127051e-06
0.08849181 0.029772159 0.055739503 0.08940219 -0.034894887 0.11859168 -4.0097086e-07 -8.945228e-05
-0.12827328 -0.10148407 -0.05978539 0.0020707662 0.001984207 -0.00014774439 -0.03206998 3.3230483e-06
0.015246268 -6.77566e-08 -3.656502e-05 0.06422622 0.06276925 -2.586836e-07 0.005359305 -0.12655617
-0.08540168 0.0034238002 0.04016938 0.121489085 0.13815957 0.03171744 0.23001002 -0.20287128
0.1250939 -0.032107975 0.14525767 -0.13107179 0.2267661 0.0610231 0.01770101 0.079901025
-0.20597394 -0.01733536 0.2232577 0.13008761 0.0568709 0.09742349 0.15964589 -0.06144726
0.009635082 -0.056933653 -0.008191108 -0.12972116 0.16294456 0.21603034 -0.09433374 -0.048609503
-0.04592656 0.18436801 0.1469144 -0.12494901 0.18273033 -0.13775252 -0.11813209 0.016741334
0.13699836 0.0041561127 0.123058364 -0.13959475 -0.015105799 -0.07046693 -0.072458915 -0.08927611
-0.18048288 0.15196143 -0.075174175 0.009246853 -0.06149637 -0.20746993 0.19230105 -0.058732152
-0.023251189 -0.05681532 0.14478476 0.10639333 0.15694986 0.178708 -0.14443684 0.13295837
0.08520645 -0.111314155 -0.19624422 0.06467078 0.0730792 0.09992802 -0.23312531 0.03936844
-0.12627153 -0.24060553 0.026838338 0.07164285 0.06280715 -0.11213931 0.09662476 -0.033898387
0.23842482 0.15586647 0.17883469 -0.075920045 -0.1832023 -0.033440694 -0.11369865 0.1219439
0.114124164 0.15265687 0.03606788 0.051689573 0.23135816 -0.079333596 -0.097992234 0.13390976
-0.120013416 0.21046597 0.16495837 -0.24485163 -0.22956398 0.16090961 0.060559697 -0.0540025
0.0013879909 -0.20191772 -0.07531575 0.15179494 0.21858478 0.15444744 -0.14413281 -0.12805104
0.18372008 -0.029546719 0.22127745 0.17723611 -0.1109117 0.043046802 -0.057309195 -0.159934
0.045271814 0.11770147 -0.24228245 -0.005284399 -0.034477398 0.037404504 0.02089115 -0.06513854
-0.02643493 -0.050539892 0.08984472 0.040938295 3.6435646e-05 0.13304059 0.07747202 -0.00094454945
0.0020436335 -0.098930374 -0.04238484 -0.010671673 3.746244e-05 -0.0010167542 -1.6539167e-05 -0.00010676072
-0.11640993 -0.08536055 -0.00036690748 -0.03098811 0.052395105 0.03763836 0.0027943999 0.05608049
-0.10803675 -0.03138149 0.049719945 -0.00013842781 -0.06972973 0.025436688 0.023921996 4.4709657e-05
7.8149795e-05 -0.00011998989 -0.035467073 -0.122512564 -0.08693434 -0.008444595 0.0787493 0.025785653
0.0064957864 0.11688342 -0.09685436 0.0034633277 0.0030237683 -0.00013829433 -0.033156734 0.053209703
0.00029480067 0.015419512 0.04564159 0.008660513 -0.13011234 -0.07512203 -0.048302777 0.00010621273
-0.043937366 1.6198483e-05 -0.09507743 0.00059576717 -0.022726154 -0.0015945921 6.176486e-05 2.706849e-05
00000000: c54e 063b d5ae 34b9 ce78 af3c 3f60 4ebb
00000010: 3e5a b5bd 24c1 963d c4e9 afbd f139 2ebd
00000020: 635a 8a36 6188 4b3b dad5 cabd 945f 7a3d
00000030: fa32 88b5 c82b a33c 9739 943b 56ce 313a
00000040: ce04 71bb ea3b 433c c64b e8bc e4e9 d43d
00000050: 0229 33bd ec4a bdbc b246 db3b e863 4eb5
00000060: a779 85bc 9aab ba3d 537a e5bd fee7 28b6
00000070: 9594 5c3d efd3 0a3d 55fc 19b8 41f7 0fb7
00000080: 6d6b 163d 6f5f aabb cef4 bd3d de97 3eb5
00000090: a1c7 2235 bedc 1037 fdb0 8d3d 197b 8ab6
000000a0: 323b b53d bee4 f33c 1b4f 643d 7f18 b73d
000000b0: f1ed 0ebd 32e0 f23d 0445 d7b4 5498 bbb8
000000c0: 125a 03be e1d6 cfbd 86e1 74bd b1b5 073b
000000d0: 7809 023b d5eb 1ab9 d05b 03bd 8901 5f36
000000e0: 7ccb 793c 9681 91b3 645d 19b8 0989 833d
000000f0: 2a8d 803d 34e1 8ab4 1c9d af3b f197 01be
00000100: 13e7 aebd d661 603b a688 243d 45cf f83d
00000110: b479 0d3e 25ea 013d bf87 6b3e 7dbd 4fbe
00000120: 9e18 003e a783 03bd 6dbe 143e af37 06be
00000130: 5f35 683e 5cf3 793d b501 913c 26a3 a33d
00000140: d5ea 52be e302 8ebc ab9d 643e b035 053e
00000150: 76f1 683d f785 c73d 367a 233e 1fb0 7bbd
00000160: 77dc 1d3c 4333 69bd ff33 06bc a0d5 04be
00000170: f0da 263e 0f37 5d3e 0c32 c1bd c21a 47bd
00000180: 7d1d 3cbd f8ca 3c3e ba70 163e 44e5 ffbd
00000190: a91d 3b3e ff0e 0dbe 3def f1bd 1f25 893c
000001a0: 4c49 0c3e 0030 883b 0606 fc3d edf1 0ebe
000001b0: 507e 77bc f750 90bd 5765 94bd 65d6 b6bd
000001c0: 81d0 38be c79b 1b3e ebf4 99bd 1d80 173c
000001d0: 9ee3 7bbd ff72 54be 91ea 443e 2091 70bd
000001e0: 4779 bebc 2eb7 68bd 7542 143e bfe4 d93d
000001f0: 77b7 203e 3bff 363e 40e7 13be 3d26 083e
00000200: b880 ae3d adf8 e3bd 3ff4 48be 1d72 843d
00000210: 8caa 953d 10a7 cc3d 67b8 6ebe cd40 213d
00000220: 534d 01be 4c61 76be 13dc db3c 7db9 923d
00000230: 09a1 803d 4ba9 e5bd 34e3 c53d 09d9 0abd
00000240: a325 743e 769b 1f3e 7120 373e f87b 9bbd
00000250: 6299 3bbe 1cf9 08bd d6da e8bd b9bd f93d
00000260: eeb9 e93d 1552 1c3e eabb 133d 72b8 533d
00000270: 27e9 6c3e a779 a2bd 27b0 c8bd a41f 093e
00000280: 98c9 f5bd 6484 573e d9ea 283e 63ba 7abe
00000290: d212 6bbe 7dc5 243e 720d 783d ba31 5dbd
000002a0: 3fed b53a 85c3 4ebe 253f 9abd 2270 1b3e
000002b0: b0d4 5f3e 7827 1e3e 8d97 13be d01f 03be
000002c0: 1e21 3c3e f60b f2bc 8e96 623e 627d 353e
000002d0: ac25 e3bd d851 303d 0cbd 6abd bdc5 23be
000002e0: f06e 393d 780d f13d e418 78be c028 adbb
000002f0: 2c38 0dbd 7735 193d eb23 ab3c 5b67 85bd
00000300: 118e d8bc eb02 4fbd 8200 b83d eaae 273d
00000310: 7ad2 1838 cb3b 083e a7a9 9e3d a49b 77ba
00000320: 7bee 053b 029c cabd ba9b 2dbd 3ed8 2ebc
00000330: fd20 1d38 9c44 85ba 97bd 8ab7 bae4 dfb8
00000340: 5468 eebd 83d1 aebd 7d5d c0b9 c7da fdbc
00000350: 409c 563d ae2a 1a3d 4022 373b a8b4 653d
00000360: 5f42 ddbd e189 00bd 24a7 4b3d ef26 11b9
00000370: 76ce 8ebd 9a60 d03c 10f8 c33c a186 3b38
00000380: 5ae4 a338 15a3 fbb8 ec45 11bd dee7 fabd
00000390: a20a b2bd 335b 0abc 5047 a13d 6f3c d33c
000003a0: 9bda d43b 9360 ef3d 945b c6bd fff8 623b
000003b0: 6a2a 463b 1a03 11b9 5bcf 07bd 6bf2 593d
000003c0: 7a8f 9a39 1fa2 7c3c adf2 3a3d d3e4 0d3c
000003d0: 2b3c 05be 94d9 99bd 22d9 45bd 86be de38
000003e0: abf7 33bd fae1 8737 f5b7 c2bd 422d 1c3a
000003f0: 332c babc a201 d1ba c287 8138 2411 e337

convs.0.bias f4 [256]
-0.0030099675 -0.005095967 0.01072347 -0.024179908 -0.0059381104 -0.012692733 0.0086492915 -0.0042092586
-0.007988583 0.0022916615 -0.006017249 -0.0029425889 0.006058383 0.009180714 0.015532107 0.016014118
-0.005087191 -0.003433006 0.02995956 0.00703736 -0.003851448 -0.006722067 0.03769366 0.003091382
-0.0010241779 0.022995831 -0.016017405 0.0056049586 0.00073963794 0.014822387 -0.0440892 0.0081407195
-0.005911284 0.010505296 -0.006214687 0.0045734737 0.0069995536 0.0057057054 -0.029460022 0.02286272
0.008990666 0.00077351887 0.013382526 -0.007229122 0.0034380644 -0.008099018 -0.006721352 0.013908181
-0.0048128897 0.02287186 -0.012150392 0.0030030545 0.012171522 0.004186083 0.004873508 -0.001547103
0.00054050534 -0.062369816 0.0043548825 -0.02154048 -0.0064301956 0.009418576 0.00027776792 -0.02352936
-0.0053641926 -0.013157802 0.013415213 -0.003801128 0.021668458 -0.0041163247 -0.0035396223 0.047423996
0.017545942 0.013861011 0.016944965 0.002436631 -0.008803684 -0.014957601 -0.014960866 -0.0034891304
0.0026355016 -0.00028287465 -0.010722016 -0.017348709 -0.02205996 0.0043579945 0.004314898 -0.014607546
0.004486149 0.04171609 0.00036274406 -0.0069369827 -0.015887573 0.0056459326 -0.016868927 -0.010636081
-0.025776312 0.0094973305 -0.012528731 -0.003493527 0.004259647 -0.0032161796 0.017132575 -0.012677294
0.007101694 -0.03712771 0.0024412968 0.024626948 -0.017729206 0.014804767 -0.020391906 0.00692044
-0.030120807 -0.003845646 -0.013303982 0.004070275 0.037171923 -0.00883771 0.009719473 0.016515896
0.011595603 0.0015374691 0.00051720196 0.012495429 0.03160471 0.0054912376 -0.012209386 -0.0060377344
0.0062150545 0.0056531127 -0.005968588 0.011468746 -0.020612698 -0.0007343762 -0.014498468 0.007879713
-0.0127259055 0.019539312 0.015688019 -0.00042649094 0.0057139657 0.0130953835 -0.0063836295 -0.027569164
-0.0018606529 -0.0011963322 -0.008663416 0.00027337615 -0.010117234 0.008450474 -0.0050820415 0.003697474
-0.0049293735 -0.006425074 0.007945217 -0.007477916 -0.016412092 -0.019210435 0.025087679 -9.021957e-05
0.010481148 0.0026734245 -0.019023461 0.016028931 0.008736642 -0.015810944 0.0017479875 0.0025951674
-0.016687408 0.00484684 -0.004860908 -0.020826701 -0.019243984 -0.017081961 0.026240416 0.015179865
-0.0053127874 -0.015452224 -0.015849313 -0.00096903666 0.0022797124 -0.0075291 -0.0071713757 0.0044460897
0.002241505 -0.0011782474 0.010214446 -0.004652405 9.036316e-06 -0.024870826 0.0120261805 0.0007971878
0.005635057 -0.007627615 0.01063587 0.0008443489 0.0022825494 0.038827892 0.025954144 -0.0057770275
0.0053716814 -0.0065258066 -0.042763054 0.017171051 0.007612193 -0.013996768 -0.0015178901 0.014173485
0.003751029 0.007148741 -0.016199602 -0.014734269 0.011798532 0.012097481 -0.016142774 0.008039962
0.004120396 -0.009168299 -0.013985799 -0.020992005 0.01344239 -0.009072017 -0.028689202 0.016199024
-0.018584117 -0.012717358 0.004647703 -0.01628497 0.0044989386 -0.017574402 -0.0074702743 0.00747519
-0.00802061 -0.011314083 -0.02168202 -0.01801347 0.00077757804 -0.004812055 0.018364035 -0.006523862
-0.017947225 0.0038020127 0.009165426 0.0106051555 0.031746794 -0.008323675 0.007036404 -0.007213328
0.004403768 0.0089265555 -0.0034106013 0.02210555 -0.008823412 -0.00022355722 0.016688906 -0.0075206943
00000000: e042 45bb 12fc a6bb 7eb1 2f3c f114 c6bc
00000010: 7b94 c2bb 2ef5 4fbc c2b5 0d3c d2ed 89bb
00000020: 8ce2 02bc b32f 163b 582c c5bb 73d8 40bb
00000030: 6685 c63b b56a 163c 617a 7e3c 0a30 833c
00000040: 73b2 a6bb 48fc 60bb c06d f53c a899 e63b
00000050: 9368 7cbb c944 dcbb ab64 1a3d c998 4a3b
00000060: b53d 86ba c161 bc3c ef36 83bc cda9 b73b
00000070: 43e4 413a 99d9 723c e196 34bd a760 053c
00000080: 72b3 c1bb 681e 2c3c 93a4 cbbb 14dd 953b
00000090: 835c e53b edf6 ba3b 2556 f1bc 994a bb3c
000000a0: 964d 133c f9c5 4a3a 6242 5b3c 45e2 ecbb
000000b0: 2651 613b beb1 04bc ca3e dcbb 24df 633c
000000c0: 72b5 9dbb c45d bb3c 7012 47bc e5ce 443b
000000d0: 106b 473c 692b 893b f3b1 9f3b 2ac8 caba
000000e0: b3b0 0d3a 7e77 7fbd 67b3 8e3b a975 b0bc
000000f0: 64b4 d2bb 5f50 1a3c 61a1 9139 a5c0 c0bc
00000100: 1cc6 afbb d293 57bc 7bcb 5b3c 581c 79bb
00000110: 0d82 b13c 3ce2 86bb 02f9 67bb aa3f 423d
00000120: 82bc 8f3c 4b19 633c 2bd0 8a3c e2af 1f3b
00000130: 543d 10bc ba10 75bc 6c1e 75bc e5a9 64bb
00000140: 61b8 2c3b cb4e 94b9 65ab 2fbc e11e 8ebc
00000150: 17b7 b4bc 82cd 8e3b fd63 8d3b 7d54 6fbc
00000160: 8c00 933b 7ede 2a3d af2e be39 a14f e3bb
00000170: a826 82bc 8401 b93b b430 8abc f542 2ebc
00000180: d828 d3bc b19a 1b3c 4e45 4dbc a8f3 64bb
00000190: 8294 8b3b 8ac6 52bb 9d59 8c3c 6db4 4fbc
000001a0: 54b5 e83b 3a13 18bd 2afe 1f3b 74be c93c
000001b0: d73c 91bc b28f 723c ed0c a7bc dcc4 e23b
000001c0: e9bf f6bc 3c07 7cbb f2f8 59bc f15f 853b
000001d0: 9641 183d 0bcc 10bc 6d3e 1f3c 584c 873c
000001e0: 7cfb 3d3c e784 c93a d694 073a a1b9 4c3c
000001f0: f173 013d d7ef b33b e009 48bc 30d8 c5bb
00000200: a8a7 cb3b bf3d b93b 2594 c3bb 68e7 3b3c
00000210: f6db a8bc 2783 40ba fb8a 6dbc e919 013c
00000220: 5180 50bc e810 a03c 2984 803c a59a dfb9
00000230: 383c bb3b 058e 563c c42d d1bb bad8 e1bc
00000240: 27e1 f3ba 3fce 9cba 00f1 0dbc ed53 8f39
00000250: c1c2 25bc db73 0a3c 4187 a6bb 5251 723b
00000260: 9586 a1bb 6d89 d2bb a82c 023c 4e09 f5bb
00000270: a772 86bc 345f 9dbc ad84 cd3c 4334 bdb8
00000280: 1fb9 2b3c 9f34 2f3b 17d7 9bbc 1b4f 833c
00000290: 2224 0f3c f485 81bc ba1c e53a af13 2a3b
000002a0: 08b4 88bc 3ed2 9e3b 4048 9fbb c29c aabc
000002b0: 8fa5 9dbc 78ef 8bbc 24f6 d63c f8b4 783c
000002c0: e416 aebb 532b 7dbc 6bd6 81bc f306 7eba
000002d0: 3a67 153b abb6 f6bb dcfd eabb 81b0 913b
000002e0: 37e6 123b 6c6f 9aba 7e5a 273c 3473 98bb
000002f0: af9a 1737 e7bd cbbc 7509 453c 5efa 503a
00000300: 49a6 b83b 12f1 f9bb 1242 2e3c 4c57 5d3a
00000310: d396 153b ff09 1f3d c99d d43c 384d bdbb
00000320: ee04 b03b 6fd6 d5bb 5028 2fbd 4eaa 8c3c
00000330: b46f f93b b352 65bc f1f3 c6ba e837 683c
00000340: d3d3 753b fc3f ea3b 07b5 84bc 0168 71bc
00000350: a14e 413c 8334 463c da3d 84bc 0bba 033c
00000360: 6304 873b a236 16bc b124 65bc 6df7 abbc
00000370: 783d 5c3c cca2 14bc 9e05 ebbc d1b3 843c
00000380: b83d 98bc 775c 50bc c24b 983b 0f68 85bc
00000390: d56b 933b 31f8 8fbc 34c9 f4bb 70f2 f43b
000003a0: e068 03bc b45e 39bc 7e9e b1bc fc90 93bc
000003b0: 61d6 4b3a 71ae 9dbb 2c70 963c 1fc6 d5bb
000003c0: 0f06 93bc 302b 793b 952a 163c 3fc1 2d3c
000003d0: ed08 023d 0660 08bc a391 e63b c85d ecbb
000003e0: 7c4d 903b b040 123c 6584 5fbb b316 b53c
000003f0: 1290 10bc af6a 6ab9 2cb7 883c 2870 f6bb

convs.0.lin_src.weight f4 [256, 6]
-0.0016865243 0.044537243 0.041263152 -0.14186092 0.041235507 -0.023902733 -0.04426292 -0.055815287
0.15769207 0.025113858 -0.072778754 0.010339964 0.13809921 0.041741326 -0.009807822 0.0044348226
-0.019430095 -0.004972133 0.044173505 -0.13505639 0.0034857464 -0.084074914 -0.011415733 0.0012203638
-0.05506369 0.002384578 -0.02034495 -0.06221034 0.06461203 -0.0023136705 -0.0773679 0.13687208
-0.029503515 0.006074109 -0.10515421 0.001542026 0.11672821 -0.03337626 0.036132038 0.07279699
0.046829052 -0.0029757363 0.11438762 0.022768548 0.13629183 -0.021244112 -0.08494105 0.0010588204
-0.07302782 0.06739125 -0.11097322 0.13534476 0.029434914 0.011365943 0.12895472 0.060475983
0.09101623 -0.0475071 -0.10482919 0.0059678336 -0.018444741 0.13545893 0.08150099 0.049322173
-0.13082103 -0.0055660065 -0.030195192 -0.0361982 -0.1112618 -0.073357075 0.020292884 -0.00086989545
0.14085054 -0.027474888 -0.15184705 0.01619001 0.06090927 0.0071823103 0.048768945 -0.08514658
0.016133677 -0.07595296 -0.035608813 0.0069637927 -0.008640065 -0.0658219 0.0626844 0.06437185
0.08390983 -0.00092345045 0.009033022 0.10031112 0.13407294 -0.008811497 0.06257835 -0.011782277
-0.123223945 -0.14235464 -0.14369282 -0.03497065 0.0006989357 -0.021636825 0.082549244 0.110657096
0.124233216 0.0006350455 -0.04497563 0.0003965011 -0.07384837 0.082745336 -0.084545106 0.08200733
0.088919215 -0.0050114226 0.037569296 -0.090821184 -0.095215365 -0.02588147 0.078096725 -0.007916813
0.06806059 0.01621539 0.07348845 -0.09886559 0.046315532 0.017288728 0.0007648455 0.14117396
0.16818626 -0.029983176 -0.057379436 0.0020106828 -0.11101391 0.06485596 0.020359915 -0.059928067
-0.009188236 -0.008958254 -0.15410545 -0.026735522 -0.07312632 0.04289583 0.022434682 0.003504635
-0.12653114 0.09119439 0.14313266 -0.01560056 -0.020983806 0.0035349121 0.06623755 0.15469342
-0.015967002 0.056623947 0.016895002 -0.002486117 -0.04879429 0.08567099 -0.13744172 -0.06789867
0.0966287 -0.0027739767 0.12497985 0.124812506 -0.017125273 -0.011559411 0.010992035 -0.015244234
-0.08778056 -0.13475342 0.1413537 -0.100737244 0.035953853 -0.0052978527 0.001506508 0.059674162
-0.015688082 0.13710397 0.10893672 -0.002186275 0.10900375 0.13168228 -0.04786772 0.060862612
0.047480617 -0.0011343085 0.13789429 -0.006705441 0.06986052 -0.09069169 0.0027391699 -0.0043225046
-0.07403775 0.031217175 -0.030530794 0.08514973 -0.085657164 -0.018376341 0.0635754 -0.08576797
0.06410302 0.08279201 0.047730148 0.00042158476 -0.11334342 -0.07640059 0.12890281 -0.036053665
0.0061981576 0.001908327 0.08239217 -0.10874974 -0.10785739 0.10618118 -0.030139495 -0.00644925
-0.010257801 -0.012415554 -0.06354646 0.1107405 -0.04373278 0.026433278 0.04036339 -0.060743317
-0.08311734 -0.011552903 -0.004280244 -0.0025202297 -0.07575136 -0.15854195 -0.034482427 0.06913027
0.008303003 0.0008805795 0.12234009 -0.054778475 0.023252074 0.023443364 0.012897114 0.0010935668
0.14107414 0.12749638 -0.08498225 -0.06908504 0.062417723 0.005037791 -0.09669168 -0.11686282
0.12402724 -0.0535023 0.018861154 0.011698276 0.03570753 -0.050910458 -0.10172975 0.06594976
00000000: 5d0e ddba af6c 363d 8d03 293d fd43 11be
00000010: 90e6 283d aacf c3bc 094d 35bd 929e 64bd
00000020: 087a 213e 94bb cd3c 070d 95bd f468 293c
00000030: e169 0d3e f4f8 2a3d fdb0 20bc fd51 913b
00000040: dd2b 9fbc 46ed a2bb 47ef 343d 394c 0abe
00000050: 1f71 643b 782f acbd 0e09 3bbc 9df4 9f3a
00000060: 778a 61bd 9546 1c3b 74aa a6bc 45d0 7ebd
00000070: 5053 843d f3a0 17bb 1073 9ebd 3228 0c3e
00000080: 5bb1 f1bc 5209 c73b 175b d7bd ce1d ca3a
00000090: 330f ef3d 8cb5 08bd 30ff 133d 9716 953d
000000a0: d2cf 3f3d 9204 43bb 0e44 ea3d 1b85 ba3c
000000b0: 1690 0b3e 2208 aebc 93f5 adbd 1ec8 8a3a
000000c0: 9c8f 95bd 6c04 8a3d ed45 e3bd d197 0a3e
000000d0: 7d21 f13c 3838 3a3c b50c 043e aab5 773d
000000e0: b866 ba3d ce96 42bd b0b0 d6bd d18d c33b
000000f0: 6d19 97bc bfb5 0a3e fee9 a63d 0c06 4a3d
00000100: f3f5 05be 0c63 b6bb e85b f7bc 9044 14bd
00000110: 3add e3bd 3c3c 96bd 433d a63c b209 64ba
00000120: 203b 103e 0413 e1bc cb7d 1bbe e9a0 843c
00000130: 007c 793d 9659 eb3b f2c1 473d 5561 aebd
00000140: c62a 843c 3a8d 9bbd 8cda 11bd 8730 e43b
00000150: 0f8f 0dbc a2cd 86bd ae60 803d 63d5 833d
00000160: ebd8 ab3d b613 72ba 3eff 133c eb6f cd3d
00000170: 6b4a 093e 195e 10bc 1429 803d 740a 41bc
00000180: d65c fcbd 6ac5 11be 3624 13be 623d 0fbd
00000190: c838 373a b63f b1bc 940f a93d 30a0 e23d
000001a0: fc6d fe3d 2f79 263a 5e38 38bd 7ae1 cf39
000001b0: d03d 97bd 6376 a93d fc25 adbd 76f3 a73d
000001c0: 471b b63d dc36 a4bb 43e2 193d 7500 babd
000001d0: 4600 c3bd 6005 d4bc 2df1 9f3d 85b5 01bc
000001e0: 5a63 8b3d 23d6 843c 1d81 963d 0b7a cabd
000001f0: 5bb5 3d3d 17a1 8d3c ea7f 483a e88f 103e
00000200: 0539 2c3e 479f f5bc b306 6bbd a9c5 033b
00000210: 435b e3bd 34d3 843d d6c9 a63c 2277 75bd
00000220: 418a 16bc a4c5 12bc d2cd 1dbe 7404 dbbc
00000230: 41c3 95bd 8ab3 2f3d f0c8 b73c 05ae 653b
00000240: 6191 01be 20c4 ba3d 5e91 123e 7e99 7fbc
00000250: 3be6 abbc fca9 673b 8da7 873d f467 1e3e
00000260: 3bcd 82bc 83ee 673d 6367 8a3c 1fee 22bb
00000270: 85dc 47bd 4674 af3d 86bd 0cbe 750e 8bbd
00000280: 45e5 c53d 9bcb 35bb 70f5 ff3d b39d ff3d
00000290: 4d4a 8cbc af63 3dbc f017 343c f4c2 79bc
000002a0: 4bc6 b3bd cdfc 09be 06bf 103e 544f cebd
000002b0: 5944 133d 9c99 adbb 0576 c53a e56c 743d
000002c0: 4b84 80bc fc64 0c3e 371a df3d 9c47 0fbb
000002d0: 5c3d df3d b8d7 063e f110 44bd 134b 793d
000002e0: 097b 423d 14ad 94ba 2934 0d3e 51b9 dbbb
000002f0: 0813 8f3d 91bc b9bd a583 333b cca3 8dbb
00000300: 1ba1 97bd 29bb ff3c b71b fabc fb62 ae3d
00000310: 066d afbd fb89 96bc d233 823d 1ea7 afbd
00000320: 7248 833d db8e a93d b080 433d 2608 dd39
00000330: 9820 e8bd ea77 9cbd 19ff 033e 02ad 13bd
00000340: ea19 cb3b d420 fa3a 3abd a83d 2fb8 debd
00000350: 56e4 dcbd 8575 d93d 1ae7 f6bc 3b54 d3bb
00000360: 5610 28bc 9c6a 4bbc a524 82bd eacb e23d
00000370: 2521 33bd 9a8a d83c 1554 253d fccd 78bd
00000380: 6d39 aabd 6348 3dbc 4a41 8cbb 702a 25bb
00000390: 8723 9bbd d258 22be 723d 0dbd 2c94 8d3d
000003a0: 5209 083c b1d6 663a 718d fa3d 655f 60bd
000003b0: 227b be3c 4c0c c03c 6b4e 533c 0356 8f3a
000003c0: bd75 103e 698e 023e 2d0b aebd 757c 8dbd
000003d0: baa9 7f3d 0e14 a53b 4a06 c6bd c655 efbd
000003e0: fe01 fe3d 3a25 5bbd b582 9a3c 20aa 3f3c
000003f0: 0f42 123d 7c87 50bd b057 d0bd ab10 873d

convs.0.lin_dst.weight f4 [256, 6]
-0.0016865243 0.044537243 0.041263152 -0.14186092 0.041235507 -0.023902733 -0.04426292 -0.055815287
0.15769207 0.025113858 -0.072778754 0.010339964 0.13809921 0.041741326 -0.009807822 0.0044348226
-0.019430095 -0.004972133 0.044173505 -0.13505639 0.0034857464 -0.084074914 -0.011415733 0.0012203638
-0.05506369 0.002384578 -0.02034495 -0.06221034 0.06461203 -0.0023136705 -0.0773679 0.13687208
-0.029503515 0.006074109 -0.10515421 0.001542026 0.11672821 -0.03337626 0.036132038 0.07279699
0.046829052 -0.0029757363 0.11438762 0.022768548 0.13629183 -0.021244112 -0.08494105 0.0010588204
-0.07302782 0.06739125 -0.11097322 0.13534476 0.029434914 0.011365943 0.12895472 0.060475983
0.09101623 -0.0475071 -0.10482919 0.0059678336 -0.018444741 0.13545893 0.08150099 0.049322173
-0.13082103 -0.0055660065 -0.030195192 -0.0361982 -0.1112618 -0.073357075 0.020292884 -0.00086989545
0.14085054 -0.027474888 -0.15184705 0.01619001 0.06090927 0.0071823103 0.048768945 -0.08514658
0.016133677 -0.07595296 -0.035608813 0.0069637927 -0.008640065 -0.0658219 0.0626844 0.06437185
0.08390983 -0.00092345045 0.009033022 0.10031112 0.13407294 -0.008811497 0.06257835 -0.011782277
-0.123223945 -0.14235464 -0.14369282 -0.03497065 0.0006989357 -0.021636825 0.082549244 0.110657096
0.124233216 0.0006350455 -0.04497563 0.0003965011 -0.07384837 0.082745336 -0.084545106 0.08200733
0.088919215 -0.0050114226 0.037569296 -0.090821184 -0.095215365 -0.02588147 0.078096725 -0.007916813
0.06806059 0.01621539 0.07348845 -0.09886559 0.046315532 0.017288728 0.0007648455 0.14117396
0.16818626 -0.029983176 -0.057379436 0.0020106828 -0.11101391 0.06485596 0.020359915 -0.059928067
-0.009188236 -0.008958254 -0.15410545 -0.026735522 -0.07312632 0.04289583 0.022434682 0.003504635
-0.12653114 0.09119439 0.14313266 -0.01560056 -0.020983806 0.0035349121 0.06623755 0.15469342
-0.015967002 0.056623947 0.016895002 -0.002486117 -0.04879429 0.08567099 -0.13744172 -0.06789867
0.0966287 -0.0027739767 0.12497985 0.124812506 -0.017125273 -0.011559411 0.010992035 -0.015244234
-0.08778056 -0.13475342 0.1413537 -0.100737244 0.035953853 -0.0052978527 0.001506508 0.059674162
-0.015688082 0.13710397 0.10893672 -0.002186275 0.10900375 0.13168228 -0.04786772 0.060862612
0.047480617 -0.0011343085 0.13789429 -0.006705441 0.06986052 -0.09069169 0.0027391699 -0.0043225046
-0.07403775 0.031217175 -0.030530794 0.08514973 -0.085657164 -0.018376341 0.0635754 -0.08576797
0.06410302 0.08279201 0.047730148 0.00042158476 -0.11334342 -0.07640059 0.12890281 -0.036053665
0.0061981576 0.001908327 0.08239217 -0.10874974 -0.10785739 0.10618118 -0.030139495 -0.00644925
-0.010257801 -0.012415554 -0.06354646 0.1107405 -0.04373278 0.026433278 0.04036339 -0.060743317
-0.08311734 -0.011552903 -0.004280244 -0.0025202297 -0.07575136 -0.15854195 -0.034482427 0.06913027
0.008303003 0.0008805795 0.12234009 -0.054778475 0.023252074 0.023443364 0.012897114 0.0010935668
0.14107414 0.12749638 -0.08498225 -0.06908504 0.062417723 0.005037791 -0.09669168 -0.11686282
0.12402724 -0.0535023 0.018861154 0.011698276 0.03570753 -0.050910458 -0.10172975 0.06594976
00000000: 5d0e ddba af6c 363d 8d03 293d fd43 11be
00000010: 90e6 283d aacf c3bc 094d 35bd 929e 64bd
00000020: 087a 213e 94bb cd3c 070d 95bd f468 293c
00000030: e169 0d3e f4f8 2a3d fdb0 20bc fd51 913b
00000040: dd2b 9fbc 46ed a2bb 47ef 343d 394c 0abe
00000050: 1f71 643b 782f acbd 0e09 3bbc 9df4 9f3a
00000060: 778a 61bd 9546 1c3b 74aa a6bc 45d0 7ebd
00000070: 5053 843d f3a0 17bb 1073 9ebd 3228 0c3e
00000080: 5bb1 f1bc 5209 c73b 175b d7bd ce1d ca3a
00000090: 330f ef3d 8cb5 08bd 30ff 133d 9716 953d
000000a0: d2cf 3f3d 9204 43bb 0e44 ea3d 1b85 ba3c
000000b0: 1690 0b3e 2208 aebc 93f5 adbd 1ec8 8a3a
000000c0: 9c8f 95bd 6c04 8a3d ed45 e3bd d197 0a3e
000000d0: 7d21 f13c 3838 3a3c b50c 043e aab5 773d
000000e0: b866 ba3d ce96 42bd b0b0 d6bd d18d c33b
000000f0: 6d19 97bc bfb5 0a3e fee9 a63d 0c06 4a3d
00000100: f3f5 05be 0c63 b6bb e85b f7bc 9044 14bd
00000110: 3add e3bd 3c3c 96bd 433d a63c b209 64ba
00000120: 203b 103e 0413 e1bc cb7d 1bbe e9a0 843c
00000130: 007c 793d 9659 eb3b f2c1 473d 5561 aebd
00000140: c62a 843c 3a8d 9bbd 8cda 11bd 8730 e43b
00000150: 0f8f 0dbc a2cd 86bd ae60 803d 63d5 833d
00000160: ebd8 ab3d b613 72ba 3eff 133c eb6f cd3d
00000170: 6b4a 093e 195e 10bc 1429 803d 740a 41bc
00000180: d65c fcbd 6ac5 11be 3624 13be 623d 0fbd
00000190: c838 373a b63f b1bc 940f a93d 30a0 e23d
000001a0: fc6d fe3d 2f79 263a 5e38 38bd 7ae1 cf39
000001b0: d03d 97bd 6376 a93d fc25 adbd 76f3 a73d
000001c0: 471b b63d dc36 a4bb 43e2 193d 7500 babd
000001d0: 4600 c3bd 6005 d4bc 2df1 9f3d 85b5 01bc
000001e0: 5a63 8b3d 23d6 843c 1d81 963d 0b7a cabd
000001f0: 5bb5 3d3d 17a1 8d3c ea7f 483a e88f 103e
00000200: 0539 2c3e 479f f5bc b306 6bbd a9c5 033b
00000210: 435b e3bd 34d3 843d d6c9 a63c 2277 75bd
00000220: 418a 16bc a4c5 12bc d2cd 1dbe 7404 dbbc
00000230: 41c3 95bd 8ab3 2f3d f0c8 b73c 05ae 653b
00000240: 6191 01be 20c4 ba3d 5e91 123e 7e99 7fbc
00000250: 3be6 abbc fca9 673b 8da7 873d f467 1e3e
00000260: 3bcd 82bc 83ee 673d 6367 8a3c 1fee 22bb
00000270: 85dc 47bd 4674 af3d 86bd 0cbe 750e 8bbd
00000280: 45e5 c53d 9bcb 35bb 70f5 ff3d b39d ff3d
00000290: 4d4a 8cbc af63 3dbc f017 343c f4c2 79bc
000002a0: 4bc6 b3bd cdfc 09be 06bf 103e 544f cebd
000002b0: 5944 133d 9c99 adbb 0576 c53a e56c 743d
000002c0: 4b84 80bc fc64 0c3e 371a df3d 9c47 0fbb
000002d0: 5c3d df3d b8d7 063e f110 44bd 134b 793d
000002e0: 097b 423d 14ad 94ba 2934 0d3e 51b9 dbbb
000002f0: 0813 8f3d 91bc b9bd a583 333b cca3 8dbb
00000300: 1ba1 97bd 29bb ff3c b71b fabc fb62 ae3d
00000310: 066d afbd fb89 96bc d233 823d 1ea7 afbd
00000320: 7248 833d db8e a93d b080 433d 2608 dd39
00000330: 9820 e8bd ea77 9cbd 19ff 033e 02ad 13bd
00000340: ea19 cb3b d420 fa3a 3abd a83d 2fb8 debd
00000350: 56e4 dcbd 8575 d93d 1ae7 f6bc 3b54 d3bb
00000360: 5610 28bc 9c6a 4bbc a524 82bd eacb e23d
00000370: 2521 33bd 9a8a d83c 1554 253d fccd 78bd
00000380: 6d39 aabd 6348 3dbc 4a41 8cbb 702a 25bb
00000390: 8723 9bbd d258 22be 723d 0dbd 2c94 8d3d
000003a0: 5209 083c b1d6 663a 718d fa3d 655f 60bd
000003b0: 227b be3c 4c0c c03c 6b4e 533c 0356 8f3a
000003c0: bd75 103e 698e 023e 2d0b aebd 757c 8dbd
000003d0: baa9 7f3d 0e14 a53b 4a06 c6bd c655 efbd
000003e0: fe01 fe3d 3a25 5bbd b582 9a3c 20aa 3f3c
000003f0: 0f42 123d 7c87 50bd b057 d0bd ab10 873d

convs.1.att_src f4 [1, 4, 64]
-0.07705031 0.08904944 0.14221261 -0.20698331 0.17545407 0.1127848 -0.13533801 -0.17688751
-0.2443778 0.26254582 -0.26976743 -0.040383056 -0.21187273 0.051730257 0.022485394 0.16181356
0.08711736 -0.2505623 0.09914362 -0.26988837 0.24924771 0.1815865 -0.009599231 -0.030942317
-0.2351708 0.1974527 -0.23770867 0.13783582 0.036474098 -0.28650028 -0.13547072 0.17269847
0.13473895 0.024096724 -0.041732423 -0.1927626 0.17543586 0.09008698 0.12559718 -0.22490992
0.108585015 -0.21820235 0.11954613 0.19453165 0.20580113 -0.17649171 0.10020708 -0.04508936
-0.23073496 -0.25263122 0.17616977 -0.26070502 0.13101801 -0.22698689 0.05204683 -0.21858527
0.1823218 0.11909855 -0.28181925 -0.014167293 0.1839752 0.20219502 0.24721064 -0.16368265
0.10818874 0.11112862 -0.21163552 -0.12172889 -0.26502636 0.067249894 0.18296126 -0.20665653
0.0704409 -0.1464365 0.104026355 -0.09084012 -0.17183577 0.19473104 0.062298242 0.18596716
-0.17092627 0.2912092 0.18185672 -0.2226567 0.08214489 -0.20173973 0.26480773 0.24658345
0.2694602 -0.08101385 -0.16229215 0.2793065 0.1960839 0.059746325 -0.21333157 0.0206594
-0.01789042 -0.08015752 -0.008833241 0.14636089 0.1423063 -0.069986306 -0.059041698 0.12464679
-0.08782049 -0.14653711 -0.022684181 -0.27794552 0.0047774836 0.27835947 0.09502338 -0.106619544
-0.19541956 0.13283497 0.15543866 -0.23140907 0.07458553 -0.13652708 -0.24892098 0.26481223
0.21265188 -0.07869857 0.023545837 -0.19411045 0.040967744 0.27508077 -0.041268785 -0.10716512
0.28104454 -0.26996532 -0.09476449 -0.017519949 0.24208999 0.081835896 -0.063973285 0.13718246
0.12266158 0.21719864 0.1255879 -0.20357661 -0.024337003 0.0052907765 -0.24210961 0.28143513
0.23735319 0.27478614 -0.20170519 -0.05860689 -0.25333902 -0.061604135 0.060478836 0.24573544
-0.013061808 -0.14978045 0.106560774 0.0846771 -0.06303139 -0.14407621 -0.1536378 -0.17437471
0.04052151 0.27424794 -0.007504383 -0.18645118 0.092460714 0.07412497 -0.21061459 0.19449024
-0.0074869297 -0.21968621 0.12818216 0.16633049 0.13735358 -0.24416877 -0.09895429 -0.20047203
0.006474976 -0.0037319174 -0.13367002 0.07394963 -0.15935679 0.044453934 -0.01734854 0.10721646
0.04366382 -0.10057229 0.02937707 -0.14637351 0.26574782 -0.14759794 0.16227637 0.22317079
0.06432232 0.15580514 0.16136892 0.23886578 0.2886654 -0.07621608 0.16569129 0.044493966
0.14299802 -0.113449685 0.15290408 0.14062235 -0.22716546 -0.11988789 -0.27184644 -0.24367325
0.18707457 -0.20356286 0.054031197 -0.26113486 0.12801793 0.16536619 -0.2562646 0.25630558
-0.26246408 0.26597452 0.11896308 -0.1366446 -0.012621785 -0.19325069 0.058734972 -0.18074468
-0.24212824 0.18032098 -0.13329054 -0.0922534 0.2300845 -0.024377467 0.041278593 -0.11261439
0.035434477 -0.06267425 0.21949674 0.19962262 -0.14293414 0.03549914 0.025140194 0.28594267
-0.20529728 -0.008095388 0.106568284 0.1547092 0.044455152 -0.122923784 -0.25360182 -0.2181274
-0.12936817 -0.25329548 0.041142218 -0.0641414 0.0024018656 -0.14659916 -0.26264456 -0.24499235
00000000: 8ecc 9dbd 8e5f b63d 2fa0 113e 6ff3 53be
00000010: 3baa 333e b8fb e63d 0c96 0abe 0022 35be
00000020: 2d3e 7abe 686c 863e f51e 8abe b468 25bd
00000030: 2af5 58be 1be3 533d 4a33 b83c 74b2 253e
00000040: 966a b23d b449 80be cf0b cb3d cf2e 8abe
00000050: cb3a 7f3e d0f1 393e 1846 1dbc be7a fdbc
00000060: 9dd0 70be 0a31 4a3e e769 73be d524 0d3e
00000070: dd65 153d 2ab0 92be d6b8 0abe ded7 303e
00000080: 02f9 093e 7e66 c53c 9eef 2abd 8f63 45be
00000090: 75a5 333e 867f b83d 8c9c 003e c94e 66be
000000a0: d261 de3d 7070 5fbe 9ad4 f43d 4e33 473e
000000b0: 88bd 523e 3eba 34be 5f39 cd3d 9faf 38bd
000000c0: c945 6cbe e158 81be d965 343e 217b 85be
000000d0: 9629 063e 406f 68be 0f2f 553d d1d4 5fbe
000000e0: 91b2 3a3e f1e9 f33d 9d4a 90be ef1d 68bc
000000f0: ff63 3c3e 360c 4f3e c924 7d3e 6d9c 27be
00000100: 0f92 dd3d 6797 e33d fbb6 58be ff4c f9bd
00000110: 89b1 87be 50ba 893d 325a 3b3e c59d 53be
00000120: 5243 903d 73f3 15be c50b d53d 630a babd
00000130: b7f5 2fbe 9367 473e 712c 7f3d 2d6e 3e3e
00000140: 4c07 2fbe 5f19 953e a638 3a3e 1e00 64be
00000150: 953b a83d dc94 4ebe e194 873e 5f80 7c3e
00000160: b0f6 893e 97ea a5bd ea2f 26be 4301 8f3e
00000170: 38ca 483e 90b8 743d 9773 5abe e73d a93c
00000180: ee8e 92bc a029 a4bd 4cb9 10bc a1df 153e
00000190: beb8 113e fb54 8fbd b5d5 71bd d146 ff3d
000001a0: 3bdb b3bd d30d 16be 2dd4 b9bc e04e 8ebe
000001b0: 708c 9c3b 2285 8e3e 9e9b c23d 595b dabd
000001c0: 111c 48be e405 083e 502b 1f3e 80f6 6cbe
000001d0: 4cc0 983d c1cd 0bbe 24e5 7ebe 7895 873e
000001e0: 6ac1 593e b72c a1bd 33e3 c03c e4c4 46be
000001f0: cbcd 273d 63d7 8c3e 7509 29bd 6379 dbbd
00000200: 12e5 8f3e e538 8abe e313 c2bd ff85 8fbc
00000210: 70e6 773e 9499 a73d 6d04 83bd 8f79 0c3e
00000220: ff35 fb3d 5269 5e3e 1d9a 003e 6376 50be
00000230: 655e c7bc 405e ad3b 95eb 77be 4418 903e
00000240: b70c 733e c5b0 8c3e ce8b 4ebe c70d 70bd
00000250: a7b5 81be 9e54 7cbd a8b8 773d 12a2 7b3e
00000260: 3201 56bc 0c60 19be 893c da3d 306b ad3d
00000270: 9a16 81bd b788 13be 3a53 1dbe 498f 32be
00000280: e2f9 253d 3a6a 8c3e 54e7 f5bb 0fed 3ebe
00000290: 0b5c bd3d d5ce 973d 5aab 57be 7328 473e
000002a0: eb54 f5bb 6cf5 60be 2f42 033e 8a52 2a3e
000002b0: 6ba6 0c3e 6107 7abe 8ca8 cabd 8a48 4dbe
000002c0: 092c d43b 2f93 74bb cbe0 08be e772 973d
000002d0: 6d2e 23be 5415 363d 861e 8ebc 4e94 db3d
000002e0: d5d8 323d d8f8 cdbd 2ea8 f03c f0e2 15be
000002f0: 1910 883e ea23 17be c72b 263e e286 643e
00000300: 6cbb 833d 628b 1f3e e53d 253e 3b99 743e
00000310: f4cb 933e 2d17 9cbd faaa 293e 4e3f 363d
00000320: 136e 123e 4f58 e8bd e392 1c3e 4eff 0f3e
00000330: 109e 68be c887 f5bd 752f 8bbe 7b85 79be
00000340: 7a90 3f3e c872 50be d14f 5d3d 78b3 85be
00000350: 2217 033e c155 293e 1d35 83be 7c3a 833e
00000360: b161 86be d02d 883e eaa2 f33d 90ec 0bbe
00000370: 9acb 4ebc 82e3 45be 1594 703d 2215 39be
00000380: 77f0 77be 10a6 383e 517d 08be 5aef bcbd
00000390: 459b 6b3e 41b3 c7bc be13 293d 60a2 e6bd
000003a0: be23 113d 5b5b 80bd c1c3 603e df69 4c3e
000003b0: 545d 12be 8c67 113d cff2 cd3c 1467 923e
000003c0: 7339 52be 85a2 04bc 7940 da3d 176c 1e3e
000003d0: 9b16 363d 77bf fbbd 19d8 81be ca5c 5fbe
000003e0: 1779 04be f2af 81be be84 283d 915c 83bd
000003f0: 9e68 1d3b 171e 16be 5979 86be 46df 7abe

convs.1.att_dst f4 [1, 4, 64]
-0.041145112 -0.004097019 0.1310258 0.0021057227 -0.1753167 -0.0036462059 -0.103120744 0.19470662
0.0076364833 0.03006599 -0.012655945 0.16762485 -0.007791991 0.1346578 0.04535389 -0.10914866
0.19639236 -0.16599199 -0.15168707 -0.18796667 0.11082087 -0.13380393 -0.19357926 -0.11375718
0.12807034 0.1641554 -0.056381308 0.22216298 -0.21347646 -0.23371108 -0.16046295 -0.099496394
-0.12751323 -0.06056835 0.089237854 -0.050796986 0.06416126 -0.13063881 0.043149523 -0.20239156
0.1636321 -0.0065911673 0.035375055 0.07602908 0.049340904 0.07412505 0.18304819 0.21529412
0.20826595 -0.22124806 0.10330892 0.12014364 0.22531448 -0.03767643 0.107542455 0.19668996
-0.21055543 -0.149604 0.14849097 0.21890856 -0.21313865 -0.08969499 0.013484988 0.18406728
0.09534077 -0.19644389 -0.2061142 0.12719959 -0.20904396 0.110638306 -0.1122024 -0.16823615
-0.019094959 0.036951628 0.049515203 0.0014860588 -0.028880265 -0.20829956 -0.07063166 -0.0012441534
-0.022823198 0.2250286 0.16680351 -0.26122966 -0.12563846 -0.0436984 -0.07168438 0.19381306
-0.100110084 -0.07087426 0.08049003 0.15918328 0.2175686 0.17343248 -0.11668592 0.15718289
0.023633268 -0.08643913 -0.03244978 -0.15074717 -0.024022393 -0.254407 0.19698209 -0.04531168
0.21722642 -0.15066813 -0.0017299785 -0.26292014 -0.006528306 0.24512056 -0.1893291 -0.16370037
0.116918005 0.113259144 0.098062 -0.15705734 -0.21356022 0.102852136 -0.015606912 -0.16921203
0.08738 -0.18613935 -0.07175681 -0.16604505 -0.115613475 0.14821973 0.12189594 -0.086248815
0.06750231 0.15044373 -0.114698924 0.121208556 0.19065724 -0.092382416 -0.023373727 0.18541561
-0.21561417 -0.060496487 -0.10538065 0.03201508 -0.17365843 -0.24992861 0.124650866 0.13421033
-0.23510566 -0.07040883 -0.063336745 0.0063055516 -0.12774748 0.12159867 0.01145687 0.09378658
0.23413324 0.012622563 -0.11689007 -0.1709673 0.020410204 0.12446846 0.13584241 0.09533364
-0.17757083 -0.1669426 -0.078550935 0.15958042 0.16044599 -0.08427164 -0.052312538 -0.027116213
-0.11079483 -0.10922351 -0.05332921 -0.13287438 -0.019008713 -0.20629734 0.0078054667 -0.060114782
0.0099322125 0.09881983 -0.048739463 -0.17131317 0.19800955 0.19563551 -0.18857786 0.1210168
-0.11773533 0.22241136 0.1193117 -0.0855946 -0.16408254 0.16005453 0.23676077 0.1862646
-0.11549478 -0.025984125 -0.08397257 0.052666947 0.040579688 0.028087 0.041151285 -0.048922278
0.01040831 0.043466672 -0.096079804 -0.14597349 -0.077577576 -0.13134696 0.0362216 0.08322892
0.17909876 -0.014379124 0.17174792 -0.17061894 0.15326431 0.21240021 0.1294041 0.1003479
0.04538911 -0.09686274 0.04768294 -0.064964876 -0.14479987 -0.039871857 0.15752566 0.18958303
-0.19417717 0.11181402 -0.08616114 -0.044092637 -0.06976546 0.15017839 0.152936 0.010739596
0.09254369 -0.1590326 0.22876869 0.042776942 0.04483511 0.036507554 -0.16869286 -0.036926616
-0.13795741 -0.054001335 -0.020819044 0.056324694 -0.1444378 0.029283725 -0.10501291 0.036056146
0.15938593 -0.037583996 0.16779847 -0.099070676 0.021569036 -0.028526757 -0.060614813 0.14500833
00000000: c787 28bd 4940 86bb a12b 063e 2a00 0a3b
00000010: 3986 33be 2ff5 6ebb f830 d3bd 2c61 473e
00000020: 773b fa3b f34c f63c e15a 4fbc d9a5 2b3e
00000030: f553 ffbb bce3 093e 00c5 393d 5589 dfbd
00000040: 141b 493e cef9 29be db53 1bbe 567a 40be
00000050: 0df6 e23d e603 09be a439 46be 86f9 e8bd
00000060: df24 033e 5a18 283e 16f0 66bd b17e 633e
00000070: 9399 5abe f551 6fbe 6650 24be c4c4 cbbd
00000080: d492 02be 8516 78bd 56c2 b63d 8010 50bd
00000090: fb66 833d 2ec6 05be 8ebd 303d bc3f 4fbe
000000a0: 2c8f 273e b8fa d7bb 6fe5 103d 22b5 9b3d
000000b0: b019 4a3d e0ce 973d fc70 3b3e 1076 5c3e
000000c0: ab43 553e da8e 62be a193 d33d de0d f63d
000000d0: d7b8 663e 9a52 1abd 383f dc3d 1869 493e
000000e0: d89b 57be ca31 19be 040e 183e 9129 603e
000000f0: 0541 5abe 02b2 b7bd 24f0 5c3c 227c 3c3e
00000100: 0642 c33d 9628 49be 9a0f 53be 9c40 023e
00000110: 9f0f 56be 5696 e23d 5fca e5bd 1946 2cbe
00000120: 086d 9cbc 975a 173d 74d0 4a3d dcc7 c23a
00000130: 4e96 ecbc 7b4c 55be 55a7 90bd dc12 a3ba
00000140: b7f7 babc e66d 663e 8ace 2a3e e5bf 85be
00000150: 5ea7 00be 18fd 32bd 43cf 92bd ee76 463e
00000160: 8406 cdbd 8626 91bd f5d7 a43d f100 233e
00000170: 4eca 5e3e 4998 313e 07f9 eebd 8df4 203e
00000180: 8e9a c13c 0007 b1bd 0fea 04bd 775d 1abe
00000190: 9cca c4bc a241 82be acb5 493e bd98 39bd
000001a0: 9a70 5e3e bf48 1abe 72c0 e2ba 789d 86be
000001b0: 66eb d5bb e200 7b3e 7ddf 41be 12a1 27be
000001c0: b572 ef3d 69f4 e73d bbd4 c83d a4d3 20be
000001d0: 88af 5abe 24a4 d23d 22b4 7fbc eb45 2dbe
000001e0: 49f4 b23d 509b 3ebe 3cf5 92bd b707 2abe
000001f0: c2c6 ecbd eac6 173e 94a4 f93d 38a3 b0bd
00000200: a73e 8a3d ec0d 1a3e 45e7 eabd 313c f83d
00000210: a73b 433e fe32 bdbd 427a bfbc 97dd 3d3e
00000220: f6c9 5cbe 2acb 77bd cfd1 d7bd 3f22 033d
00000230: 84d3 31be 49ed 7fbe f448 ff3d 6f6e 093e
00000240: 8abf 70be 8132 90bd b2b6 81bd cd9e ce3b
00000250: 3cd0 02be b908 f93d 98b5 3b3c 2e13 c03d
00000260: a0c0 6f3e dece 4e3c 1064 efbd 0d12 2fbe
00000270: 4d33 a73c 52e9 fe3d 461a 0b3e 493e c33d
00000280: 21d5 35be 00f3 2abe 50df a0bd 0d69 233e
00000290: f44b 243e 9c96 acbd ac45 56bd d222 debc
000002a0: 66e8 e2bd 93b0 dfbd bb6f 5abd 3910 08be
000002b0: 29b8 9bbc 9c3f 53be 00c5 ff3b eb3a 76bd
000002c0: b8ba 223c 0d62 ca3d 08a3 47bd b86c 2fbe
000002d0: 04c3 4a3e ad54 483e 8e1a 41be a8d7 f73d
000002e0: 381f f1bd cebf 633e b159 f43d 394c afbd
000002f0: 4105 28be 56e5 233e 6a71 723e 26bc 3e3e
00000300: 8788 ecbd a9dc d4bc d0f9 abbd 4cb9 573d
00000310: e336 263d b516 e63c 408e 283d ba62 48bd
00000320: 9e87 2a3c 1c0a 323d 7dc5 c4bd 137a 15be
00000330: fee0 9ebd d17f 06be 1a5d 143d ed73 aa3d
00000340: aa65 373e 6b96 6bbc b0de 2f3e bbb6 2ebe
00000350: 52f1 1c3e 717f 593e 8282 043e 3383 cd3d
00000360: eee9 393d f95f c6bd 304f 433d 4e0c 85bd
00000370: 6b46 14be ac50 23bd 684e 213e 0e22 423e
00000380: 61d6 46be c0fe e43d 4075 b0bd 7b9a 34bd
00000390: 32e1 8ebd 5dc8 193e 419b 1c3e 21f5 2f3c
000003a0: 8c87 bd3d 71d9 22be 5742 6a3e e036 2f3d
000003b0: 05a5 373d f288 153d d2bd 2cbe 5d40 17bd
000003c0: b544 0dbe 8130 5dbd b38c aabc b9b4 663d
000003d0: 81e7 13be 6ce4 ef3c 0211 d7bd 9caf 133d
000003e0: 1136 233e adf1 19bd 5dd3 2b3e 91e5 cabd
000003f0: 8cb1 b03c f2b0 e9bc 3d47 78bd 107d 143e
