trained_weights/cadets/selfattention42.pth (torch, 20623 bytes, 8 tensors)

multihead_self_attention.multihead_attn.in_proj_weight f4 [96, 32]
-0.06470977 4.223014e-07 0.010922316 0.038597625 -1.909527e-07 0.002039688 0.025327222 -2.351725e-06
-0.0633917 -1.0637145e-06 -0.0026354322 8.002862e-06 -0.01483537 0.06263368 0.057983626 7.649832e-06
0.033982385 0.011826981 0.025041465 0.066106 0.059787627 -0.035102975 -0.0027565076 -0.061414097
-0.000228209 0.004703877 1.3116052e-07 -0.00018438172 0.008374219 -0.0012162579 0.042718463 -0.0005349696
-0.00022838301 7.17004e-05 2.0126358e-06 -0.023383848 -7.159461e-06 -0.021915697 0.047416087 -0.033045664
-0.010233478 7.81005e-06 0.047961593 -0.0014866875 0.043301594 -1.4758341e-06 0.00079581846 -0.03552735
0.026248652 -0.0048004617 3.8620215e-08 0.049598202 -1.1223145e-07 -1.0551533e-06 -3.7112998e-06 0.0007604465
6.645981e-05 -0.00965639 -0.025186745 0.0078992555 -0.0603866 -0.000876021 5.56941e-06 -7.978869e-06
-6.636145e-07 0.010639397 -3.8476972e-07 -1.2728523e-06 0.022742353 0.06636113 -0.05138899 -0.02064562
1.5721096e-05 0.064646654 0.0144473985 -0.04340171 7.728086e-06 -0.0015847585 -1.4709148e-05 0.046743136
3.0440773e-05 3.6576785e-06 -1.8746995e-07 3.8474045e-06 -0.0010470367 -1.3603715e-06 3.6653864e-06 1.1607009e-05
0.024463046 -2.0215391e-05 0.00038572485 -3.429787e-07 0.016348256 -0.041393172 -1.139471e-06 0.0011387804
-0.029897016 3.4887662e-06 -0.0009977309 2.3064258e-07 0.058283966 -7.1789104e-06 0.062242724 -0.020894792
-6.710595e-06 0.029856382 -1.2578386e-05 2.638591e-05 0.0010230336 -0.032244563 -0.03459413 -0.0063366727
3.9812215e-07 -0.0023312634 -0.046809748 0.0012090256 0.034648642 -0.001113358 -2.5562473e-05 -0.00064194086
-1.6958938e-07 -0.016407002 -0.051324956 0.021879306 -2.9635095e-05 -0.00035892523 -2.3743036e-05 -0.055242103
-0.0027787886 0.032267682 0.0037410944 0.040168677 -7.938511e-07 0.041859493 -0.0004941152 -0.05986914
1.2764623e-06 0.0023048972 0.021421649 0.018053304 -7.4884533e-06 -3.2899803e-07 0.0055931504 -0.053499036
0.00017188452 1.9790455e-08 2.6638703e-05 -0.00095227803 0.011684774 -8.6356e-05 0.0133593185 3.5211026e-06
3.0680265e-05 0.0551667 -0.010605094 0.043761067 2.385338e-07 -8.532799e-07 4.936451e-06 0.016236663
-1.1028997e-06 0.016487306 -0.048152063 1.2001586e-07 0.0042728423 -0.052166577 3.829909e-06 -0.0035953769
0.048476767 1.9313813e-08 -7.877209e-06 1.6602215e-08 -0.004667807 -0.006295745 9.005131e-07 -3.870411e-06
-0.0010455473 -0.00025833474 2.8888244e-05 -0.01061001 -3.003192e-05 -0.0045322916 -1.14480645e-05 -0.048393186
4.5076985e-07 0.0022757482 -2.301273e-05 -0.0020380102 0.051442124 6.58539e-07 -3.8426964e-07 0.014993094
-9.1088197e-07 -0.0013194698 0.028633783 -0.044019304 -0.036038198 -0.0021006558 5.810609e-06 -0.01954394
0.0001296123 0.028523972 0.0073378333 0.05542424 -0.060560744 -0.02516797 -1.9113088e-05 1.5224103e-06
-0.0072350516 -1.5490119e-06 2.4301055e-06 -0.0040701423 0.051690668 -0.03277456 3.6593046e-06 -6.5158106e-06
-0.04794302 0.012802356 0.0073842015 5.88958e-07 0.06516232 2.3258963e-05 -0.0014945216 0.062700614
0.023253959 -0.0014577546 1.613921e-07 -0.033444572 2.281976e-06 -0.010098208 -0.021763252 3.7338216e-07
-9.911778e-05 0.053739954 -3.4570638e-07 0.06278532 -0.036129244 -0.05343314 -0.028569037 4.53892e-07
0.06292038 -0.010359835 0.06170517 0.028782563 -0.014047797 0.06060576 -0.0016028497 1.336897e-06
0.0026961677 0.0584565 1.5127526e-06 0.06365646 0.00019200197 1.0683899e-06 0.013137924 -0.018798264
00000000: 8e86 84bd aab8 e234 84f3 323c 8b18 1e3d
00000010: ae08 4db4 49ac 053b 097b cf3c 54d2 1db6
00000020: 82d3 81bd f4c4 8eb5 37b7 2cbb 0844 0637
00000030: 0d10 73bc 1646 803d 3d80 6d3d c757 0037
00000040: 1d31 0b3d f4c5 413c c223 cd3c 9562 873d
00000050: dfe3 743d 23c8 0fbd 86a6 34bb 598d 7bbd
00000060: 634b 6fb9 fb22 9a3b 21d5 0c34 9756 41b9
00000070: 0534 093c d86a 9fba 8ef9 2e3d 343d 0cba
00000080: 197a 6fb9 dc5d 9638 d210 0736 7c8f bfbc
00000090: 4d3b f0b6 8c88 b3bc 5f37 423d e45a 07bd
000000a0: 51aa 27bc e907 0337 6073 443d f4dc c2ba
000000b0: 035d 313d 4615 c6b5 799e 503a 2085 11bd
000000c0: 6a07 d73c 314d 9dbb 60df 2533 7c27 4b3d
000000d0: e403 f1b3 cb9e 8db5 a50f 79b6 b358 473a
000000e0: 5760 8b38 d635 1ebc 6f54 cebc e16b 013c
000000f0: f157 77bd c6a4 65ba dee0 ba36 fbdc 05b7
00000100: 3e23 32b5 de50 2e3c 5992 ceb4 dfd6 aab5
00000110: 2c4e ba3c 58e8 873d 437d 52bd 0121 a9bc
00000120: cce0 8337 7765 843d c8b4 6c3c fec5 31bd
00000130: e0a7 0137 acb7 cfba 4fc7 76b7 bb75 3f3d
00000140: 105b ff37 7076 7536 594b 49b4 f418 8136
00000150: b93c 89ba 0296 b6b5 dcfa 7536 b9bb 4237
00000160: ba66 c83c 3994 a9b7 1d3b ca39 a222 b8b4
00000170: c7ec 853c e38b 29bd edef 98b5 2143 953a
00000180: 96ea f4bc 8c20 6a36 4bc6 82ba 8da6 7734
00000190: 2bbb 6e3d 5fe2 f0b6 3af2 7e3d 8e2b abbc
000001a0: 922b e1b6 5f95 f43c c207 53b7 4f57 dd37
000001b0: 5017 863a e012 04bd 93b2 0dbd dda3 cfbb
000001c0: 7ebd d534 1cc8 18bb 94bb 3fbd 2b78 9e3a
000001d0: bceb 0d3d 18ee 91ba fe6e d6b7 ec47 28ba
000001e0: 6018 36b4 fa67 86bc 1e3a 52bd 3b3c b33c
000001f0: e298 f8b7 212e bcb9 c82b c7b7 8b45 62bd
00000200: 561c 36bb 1e2b 043d 262d 753b e987 243d
00000210: 0819 55b5 dc74 2b3d 8287 01ba 5839 75bd
00000220: e952 ab35 c20d 173b 747c af3c 86e4 933c
00000230: 5345 fbb6 25a1 b0b4 bf46 b73b ce21 5bbd
00000240: e63b 3439 acff a932 2e76 df37 4ca2 79ba
00000250: 7f71 3f3c 061a b5b8 0be1 5a3c 154c 6c36
00000260: afae 0038 7af6 613d fdc0 2dbc ce3e 333d
00000270: d60f 8034 f30c 65b5 cba3 a536 c002 853c
00000280: 5807 94b5 6310 873c 193b 45bd b5dd 0034
00000290: 3303 8c3b 9fac 55bd ab82 8036 6aa0 6bbb
000002a0: 938f 463d 86e7 a532 5b28 04b7 a89c 8e32
000002b0: 67f4 98bb 894c cebb caba 7135 94de 81b6
000002c0: bf0a 89ba 1a71 87b9 0855 f237 9bd5 2dbc
000002d0: 0fed fbb7 9e83 94bb 1011 40b7 ef37 46bd
000002e0: 5601 f234 b824 153b 760b c1b7 2390 05bb
000002f0: fab4 523d 75c6 3035 9e4d ceb4 98a5 753c
00000300: 5583 74b5 0ff2 acba 6591 ea3c 964d 34bd
00000310: ca9c 13bd 28ab 09bb c0f8 c236 9d1a a0bc
00000320: 89e8 0739 1bab e93c 3572 f03b 8704 633d
00000330: 8b0e 78bd 0f2d cebc 0b55 a0b7 9f55 cc35
00000340: 0314 edbb a5e7 cfb5 e514 2336 d45e 85bb
00000350: 98b9 533d 9e3e 06bd 6092 7536 63a2 dab6
00000360: e65f 44bd f9c0 513c 2cf7 f13b e318 1e35
00000370: d373 853d 3e1c c337 d3e3 c3ba 2e69 803d
00000380: 167f be3c 2112 bfba 1f4b 2d34 2dfd 08bd
00000390: 0d24 1936 f472 25bc d948 b2bc 4175 c834
000003a0: 74dd cfb8 6d1e 5c3d 8699 b9b4 9795 803d
000003b0: 42fc 13bd b5dc 5abd 9d09 eabc 71ae f334
000003c0: 66dc 803d 4cbc 29bc 8fbe 7c3d 69c9 eb3c
000003d0: bb28 66bc bf3d 783d b616 d2ba 6e6f b335
000003e0: 30b2 303b 1570 6f3d c909 cb35 515e 823d
000003f0: 2354 4939 9965 8f35 7240 573c d1fe 99bc

multihead_self_attention.multihead_attn.in_proj_bias f4 [96]
0.0 0.0 0.0 0.0 0.0 0.0 0.0 0.0
0.0 0.0 0.0 0.0 0.0 0.0 0.0 0.0
0.0 0.0 0.0 0.0 0.0 0.0 0.0 0.0
0.0 0.0 0.0 0.0 0.0 0.0 0.0 0.0
0.0 0.0 0.0 0.0 0.0 0.0 0.0 0.0
0.0 0.0 0.0 0.0 0.0 0.0 0.0 0.0
0.0 0.0 0.0 0.0 0.0 0.0 0.0 0.0
0.0 0.0 0.0 0.0 0.0 0.0 0.0 0.0
0.0108693885 -0.0064064683 -0.043317728 0.033346158 -0.015258084 0.044563282 -0.024281757 -0.005080131
0.008190463 0.009411506 0.039877247 -0.015771948 -0.0013308297 0.0051462795 0.016326202 0.00022456927
-0.014307781 -0.012447425 -0.021564255 -0.022435026 0.0026240987 -0.013640583 -0.008147337 0.032097764
0.0026738478 0.02533766 0.015319916 -0.012157836 -0.026835162 0.002555761 -0.018276278 -0.0019839609
00000000: 0000 0000 0000 0000 0000 0000 0000 0000
00000010: 0000 0000 0000 0000 0000 0000 0000 0000
00000020: 0000 0000 0000 0000 0000 0000 0000 0000
00000030: 0000 0000 0000 0000 0000 0000 0000 0000
00000040: 0000 0000 0000 0000 0000 0000 0000 0000
00000050: 0000 0000 0000 0000 0000 0000 0000 0000
00000060: 0000 0000 0000 0000 0000 0000 0000 0000
00000070: 0000 0000 0000 0000 0000 0000 0000 0000
00000080: 0000 0000 0000 0000 0000 0000 0000 0000
00000090: 0000 0000 0000 0000 0000 0000 0000 0000
000000a0: 0000 0000 0000 0000 0000 0000 0000 0000
000000b0: 0000 0000 0000 0000 0000 0000 0000 0000
000000c0: 0000 0000 0000 0000 0000 0000 0000 0000
000000d0: 0000 0000 0000 0000 0000 0000 0000 0000
000000e0: 0000 0000 0000 0000 0000 0000 0000 0000
000000f0: 0000 0000 0000 0000 0000 0000 0000 0000
00000100: 8515 323c 5aed d1bb ee6d 31bd fb95 083d
00000110: 0bfd 79bc fd87 363d 89ea c6bc 3a77 a6bb
00000120: 4b31 063c b832 1a3c 5356 233d 2c34 81bc
00000130: 3c6f aeba 1fa2 a83b 87be 853c 5b7a 6b39
00000140: 2f6b 6abc 49f0 4bbc 85a7 b0bc a9c9 b7bc
00000150: 12f9 2b3b c07c 5fbc 687c 05bc f278 033d
00000160: b93b 2f3b ed90 cf3c 6300 7b3c a931 47bc
00000170: 6ad5 dbbc 8e7e 273b 22b8 95bc 5705 02bb

multihead_self_attention.multihead_attn.out_proj.weight f4 [32, 32]
-0.13378434 -0.16924475 0.10145394 -0.1733313 0.12538317 -0.1404906 0.055537414 0.11642193
0.01115846 -0.044805463 -0.18298915 -0.09915978 -0.02443679 -0.09894697 -0.13705708 0.062282298
0.033476826 -0.18033718 0.12048314 0.08263925 -0.2173569 0.04982325 0.039962042 -0.08982355
0.03231331 -0.111858755 0.027989872 0.11788811 -0.18578573 -0.23327343 0.059172258 -0.07074032
-0.044928722 -0.2394304 -0.11435408 -0.021514578 -0.16571717 -0.0929031 -0.18953471 0.14108147
-0.058346927 0.07819529 0.17272668 -0.21474104 0.11626513 -0.029609382 0.124256864 0.17221737
0.025097301 0.10112842 0.028230771 -0.040107805 -0.13304023 0.067528404 -0.023587245 0.119332254
-0.1534 0.014142429 -0.15283103 0.02532133 0.038305495 0.13188022 -0.06306862 0.09308881
0.09005443 0.025282158 -0.021403689 -0.09318031 -0.16783886 0.17140932 0.034474246 -0.15113115
0.020032685 -0.11055201 0.10664774 -0.17651732 -0.018716635 -0.07017229 0.15431008 -0.012831206
0.16689564 0.095544346 -0.16855502 0.06446723 0.093658224 -0.079542644 -0.10449509 -0.12630054
-0.14231049 0.09837269 -0.10069618 0.10521052 0.05634527 0.1752363 -0.14903945 -0.2092963
0.12483855 0.061280515 0.12466856 -0.16850089 0.121406086 -0.13912323 -0.02509444 0.035310935
0.14132766 0.12012552 -0.097335026 0.11685476 0.15327726 -0.071167156 0.017818458 -0.123428345
-0.022895077 0.20283924 -0.084523045 -0.13988507 -0.032896224 0.15065289 -0.10269466 -0.083029665
-0.093661495 -0.028826509 -0.10178448 -0.07880531 -0.0045456607 -0.104889065 0.10755516 -0.025481272
-0.029906245 -0.19295375 -0.0117217 0.15533726 0.09060834 0.03668517 0.06463139 0.052626956
0.055140875 0.11303016 -0.016665762 -0.0928031 0.14191218 0.16445777 0.1455303 0.13787895
-0.09640804 -0.11988143 -0.09441179 -0.16798046 -0.16072495 -0.04463115 -0.07118992 0.12094942
0.05427311 0.033308383 0.005041975 -0.11384513 -0.10173935 -0.064608134 -0.121463336 -0.23528843
0.0048698056 0.10955734 0.0042552873 0.034446627 -0.154163 -0.097952664 0.17827278 -0.20088324
-0.029496763 -0.13031778 0.066619076 0.21756929 -0.03630002 0.055370342 -0.03496988 -0.1620343
0.10946913 0.19322425 -0.0052979463 0.048500944 0.14817314 0.14446497 0.16631125 -0.10763139
-0.035678666 -0.05421818 -0.097071305 0.08280738 0.058326665 0.14183316 -0.0768707 0.13998814
-0.10355894 0.020657582 0.15658598 -0.22414124 -0.0879239 -0.19028275 -0.18301925 0.11793838
0.12754345 0.015263324 -0.21381289 0.020553976 -0.00872625 0.12883683 0.008736201 0.20969228
-0.11095989 -0.1031557 0.2222328 -0.026136464 -0.040562585 -0.0035870469 0.010540494 0.03593468
-0.0075901775 0.040653933 -0.032557737 -0.100521706 -0.19454615 -0.10038444 0.080204055 0.12033234
0.16489267 -0.087588385 0.16953403 0.057331413 -0.19336951 -0.12033904 0.011797614 0.012870598
-0.068964496 0.051931065 0.122037776 -0.06243516 0.116861105 0.1461406 0.03803862 -0.0134286145
-0.0994405 0.038923666 0.16609007 -0.16650532 0.03375121 0.056153297 -0.14092915 -0.11057895
0.039458398 -0.04670272 -0.1540151 -0.09853338 0.14535429 0.06749389 0.025631394 0.023211816
00000000: c3fe 08be 7f4e 2dbe 15c7 cf3d c37d 31be
00000010: 7264 003e c5dc 0fbe 337b 633d 9f6e ee3d
00000020: f9d1 363c ef85 37bd 8261 3bbe 4814 cbbd
00000030: aa2f c8bc b6a4 cabd b158 0cbe b91b 7f3d
00000040: ff1e 093d 4faa 38be ddbf f63d c43e a93d
00000050: cf92 5ebe 7713 4c3d 3daf 233d 69f5 b7bd
00000060: f65a 043d 3416 e5bd 044b e53c 526f f13d
00000070: 9d3e 3ebe 3bdf 6ebe 9c5e 723d 4de0 90bd
00000080: 2e07 38bd 3e2d 75be 7932 eabd 573f b0bc
00000090: c3b1 29be fb43 bebd 6315 42be a977 103e
000000a0: 30fd 6ebd da24 a03d 43df 303e 13e5 5bbe
000000b0: 6a1c ee3d 608f f2bc 627a fe3d c059 303e
000000c0: db98 cd3c 6b1c cf3d 3844 e73c 1548 24bd
000000d0: b33b 08be 554c 8a3d 0a3a c1bc 7864 f43d
000000e0: e414 1dbe a6b5 673c bd7f 1cbe ae6e cf3c
000000f0: 39e6 1c3d 9c0b 073e 1f2a 81bd 59a5 be3d
00000100: 756e b83d 871c cf3c ca56 afbc 52d5 bebd
00000110: f3dd 2bbe ed85 2f3e de34 0d3d 20c2 1abe
00000120: 961b a43c 1869 e2bd 216a da3d f5c0 34be
00000130: a153 99bc 7db6 8fbd 7603 1e3e fb39 52bc
00000140: b1e6 2a3e c1ac c33d b099 2cbe 6507 843d
00000150: e2cf bf3d 41e7 a2bd 8601 d6bd ee54 01be
00000160: d7b9 11be 9f77 c93d cc39 cebd 9d78 d73d
00000170: 4cca 663d 2571 333e cc9d 18be c551 56be
00000180: 5bab ff3d 4701 7b3d 3b52 ff3d 7f8b 2cbe
00000190: c1a3 f83d 5276 0ebe db92 cdbc 33a2 103d
000001a0: 33b8 103e 5e04 f63d 9657 c7bd 8c51 ef3d
000001b0: b7f4 1c3e 16c0 91bd 04f8 913c 00c8 fcbd
000001c0: 758e bbbc 17b5 4f3e 6b1a adbd 083e 0fbe
000001d0: 31be 06bd c044 1a3e 9451 d2bd 750b aabd
000001e0: 99d1 bfbd 9225 ecbc 6274 d0bd ae64 a1bd
000001f0: c4f3 94bb 14d0 d6bd e145 dc3d 1abe d0bc
00000200: f1fd f4bc ab95 45be 600c 40bc bb10 1f3e
00000210: de90 b93d 3043 163d 765d 843d 5d8f 573d
00000220: 66db 613d 5b7c e73d a386 88bc 8d0f bebd
00000230: 6d51 113e 9e67 283e e505 153e 2430 0d3e
00000240: 9471 c5bd 6584 f5bd f85a c1bd 1203 2cbe
00000250: 1595 24be 27cf 36bd 05cc 91bd 54b4 f73d
00000260: 7b4d 5e3d 5f6e 083d 2737 a53b a327 e9bd
00000270: b85c d0bd 4551 84bd c5c1 f8bd 73ef 70be
00000280: e492 9f3b 995f e03d f06f 8b3b e817 0d3d
00000290: e8dc 1dbe 689b c8bd 248d 363e 56b4 4dbe
000002a0: 32a3 f1bc 0672 05be 956f 883d 7cca 5e3e
000002b0: 54af 14bd 03cc 623d 943c 0fbd 52ec 25be
000002c0: 5a31 e03d 94dc 453e 659a adbb eda8 463d
000002d0: b3ba 173e a0ee 133e 7f4d 2a3e d96d dcbd
000002e0: cb23 12bd e213 5ebd 52cd c6bd ea96 a93d
000002f0: f1e7 6e3d b63c 113e 636e 9dbd 0d59 0f3e
00000300: b616 d4bd 173a a93c 1358 203e 4885 65be
00000310: 7211 b4bd 7bd9 42be 6669 3bbe ad89 f13d
00000320: c09a 023e 0513 7a3c c4f1 5abe d060 a83c
00000330: 8cf8 0ebc cded 033e 4822 0f3c 93b9 563e
00000340: f03e e3bd 4c43 d3bd ff90 633e 231c d6bc
00000350: f424 26bd a914 6bbb 09b2 2c3c 3e30 133d
00000360: 06b7 f8bb bd84 263d 435b 05bd 53de cdbd
00000370: 1b37 47be 5b96 cdbd 0642 a43d cd70 f63d
00000380: a0d9 283e 8a61 b3bd 549a 2d3e 58d4 6a3d
00000390: a802 46be 5174 f6bd c84a 413c 33df 523c
000003a0: 423d 8dbd abb5 543d f1ee f93d 03bc 7fbd
000003b0: e054 ef3d e2a5 153e 62ce 1b3d b103 5cbc
000003c0: 76a7 cbbd 6c6e 1f3d 8413 2a3e 5f80 2abe
000003d0: b53e 0a3d 0001 663d bb4f 10be 3777 e2bd
000003e0: 219f 213d 5a4b 3fbd 22b6 1dbe decb c9bd
000003f0: c1d7 143e 3d3a 8a3d eef8 d13c b526 be3c

multihead_self_attention.multihead_attn.out_proj.bias f4 [32]
-0.016342374 -0.0048288074 0.008052373 0.014518321 0.018875634 0.0042575723 -0.026011027 -0.0034285514
-0.015203695 0.0030087815 -0.0027020723 -0.010964156 0.0017794314 0.0061832555 0.027773952 0.0073815854
0.0074564796 -0.00792585 0.0068037575 0.007637987 -0.0014046382 0.0144380685 -0.009956312 -0.0008091611
-0.009213413 0.0080074025 -0.0020866138 -0.016036147 -0.011023537 -0.012901785 -0.013054329 0.0075361608
00000000: 71e0 85bc f93a 9ebb 1aee 033c 40de 6d3c
00000010: 13a1 9a3c 1b83 8b3b 1415 d5bc 8cb1 60bb
00000020: eb18 79bc fa2e 453b 4015 31bb 01a3 33bc
00000030: cf3b e93a e89c ca3b 3386 e33c 3ae1 f13b
00000040: 7c55 f43b 6ddb 01bc 0ef2 de3b 1448 fa3b
00000050: d61b b8ba a68d 6c3c cd1f 23bc e21d 54ba
00000060: dbf3 16bc 7b31 033c 92bf 08bb 3d5e 83bc
00000070: 119c 34bc 0262 53bc d3e1 55bc e6f1 f63b

multihead_self_attention.fc.weight f4 [6, 32]
-0.11135962 -0.08378629 -0.15773842 -0.035948377 -0.10383405 -0.08000305 0.10503419 -0.00917574
-0.0508498 0.17855033 -0.172716 -0.034146287 -0.16076638 0.20577964 -0.021810511 0.13942428
0.063325465 0.15796837 -0.09836782 0.12389578 0.008009392 -0.055156507 -0.059211172 0.122001864
-0.09038199 -0.19644675 -0.17824556 0.0975102 -0.17965338 -0.15106641 0.11152365 -0.064601235
-0.16761293 0.13469139 -0.12104833 0.06262 0.12065446 -0.16208974 0.2026584 0.18925096
0.10382544 -0.15590127 0.19573389 0.025067408 0.10471208 -0.17383459 0.13714242 -0.14099866
-0.10808538 -0.22226278 0.066715926 0.17669608 0.060784608 -0.041298833 0.06588 0.113728866
-0.16798529 0.2306027 0.07886577 -0.1979619 -0.10587588 0.09783446 -0.100955576 -0.030575085
0.044970244 0.098918624 0.08242962 -0.031656064 -0.11635615 -0.13118362 0.16401598 -0.011070402
-0.10967404 -0.18917584 0.16189323 -0.12155849 -0.08916785 -0.012189255 -0.054454576 0.087855436
-0.065193795 0.031251986 -0.1001084 -0.08794422 0.026731843 0.055135895 -0.12367764 -0.17752892
-0.02398245 0.021940311 0.123403944 -0.18227388 -0.002072095 -0.10606334 0.13531661 0.18002996
-0.22182448 -0.094347045 0.12103238 -0.10326915 0.13104734 0.21200012 -0.19103667 -0.0075044613
-0.09418711 0.2203442 0.0701432 -0.17634542 0.16078159 -0.0043241656 0.043491393 0.046803568
0.115639865 -0.116924584 0.19216706 0.15060063 -0.031953543 0.21059601 -0.20265833 -0.060670212
-0.073344566 0.14627416 -0.029387107 0.0023310618 -0.20195782 -0.163564 -0.07771296 -0.112150095
0.088901825 0.13517301 0.11942774 -0.023352318 0.16433245 -0.20933244 -0.14895302 -0.15909705
-0.04122028 -0.13584284 -0.09227285 0.06421284 -0.12122803 0.1809931 0.21606745 0.14053997
-0.022687422 -0.17375535 -0.12725995 -0.08763063 0.0570142 -0.0036959555 0.009511779 -0.104572214
0.08840126 0.119660445 0.049399383 -0.039960574 0.049004346 -0.012824084 -0.20269069 0.13369715
0.11769904 0.0356826 -0.13856193 -0.12239359 0.085463606 -0.06289543 0.089503996 -0.02544001
0.21081264 -0.124544725 0.12204564 0.1954229 0.070398435 -0.16696051 0.10929236 0.13597429
-0.08301082 -0.15757583 0.08008608 0.05850463 0.15126643 0.10308569 -0.0928637 0.054037493
0.11510603 0.056225438 -0.019346178 0.06394248 -0.039246295 0.11994314 -0.08985855 -0.14971155
00000000: 8310 e4bd 2598 abbd 2e86 21be 9b3e 13bd
00000010: f2a6 d4bd a4d8 a3bd 2a1c d73d d855 16bc
00000020: e147 50bd e6d5 363e 77dc 30be fadc 0bbd
00000030: f19f 24be e6b7 523e f5ab b2bc 3dc5 0e3e
00000040: c8b0 813d 76c2 213e 1175 c9bd 12bd fd3d
00000050: d339 033c caeb 61bd 6a87 72bd 1ddc f93d
00000060: 311a b9bd 5629 49be 0186 36be 6eb3 c73d
00000070: 0ef7 37be 27b1 1abe 8366 e43d a74d 84bd
00000080: b9a2 2bbe 8aec 093e 30e8 f7bd ea3e 803d
00000090: af19 f73d dafa 25be af85 4f3e 01cb 413e
000000a0: 6fa2 d43d 95a4 1fbe 776e 483e 2a5a cd3c
000000b0: 4973 d63d b201 32be 106f 0c3e f461 10be
000000c0: de5b ddbd db98 63be 5ca2 883d d1ef 343e
000000d0: 48f9 783d f728 29bd 18ec 863d aeea e83d
000000e0: 5604 2cbe 1d23 6c3e 6084 a13d 86b6 4abe
000000f0: 74d5 d8bd 6f5d c83d ccc1 cebd 9a78 fabc
00000100: b832 383d d995 ca3d dcd0 a83d caa9 01bd
00000110: 224c eebd 0055 06be cef3 273e a260 35bc
00000120: c89c e0bd 50b7 41be 57c7 253e a8f3 f8bd
00000130: a29d b6bd 71b5 47bc c30b 5fbd 8ded b33d
00000140: 5384 85bd 1502 003d a205 cdbd 191c b4bd
00000150: bdfc da3c 2dd6 613d b44a fdbd 24ca 35be
00000160: d876 c4bc 2bbc b33c 35bb fc3d 01a6 3abe
00000170: fccb 07bb bd37 d9bd 7090 0a3e c659 383e
00000180: f525 63be 0639 c1bd d3df f73d c77e d3bd
00000190: 4631 063e 8f16 593e 1e9f 43be fce7 f5bb
000001a0: 2ce5 c0bd e9a1 613e 3da7 8f3d e593 34be
000001b0: eea3 243e bbb1 8dbb 0824 323d 19b5 3f3d
000001c0: 98d4 ec3d 2876 efbd 71c7 443e 0d37 1a3e
000001d0: b8e1 02bd 7ba6 573e aa85 4fbe 5481 78bd
000001e0: ad35 96bd e5c8 153e 3bbd f0bc bac4 183b
000001f0: 08ce 4ebe 527d 27be f927 9fbd f3ae e5bd
00000200: 2912 b63d cb6a 0a3e 8896 f43d 5c4d bfbc
00000210: c446 283e 3e5b 56be 2487 18be 56ea 22be
00000220: 99d6 28bd 631a 0bbe 8cf9 bcbd 0582 833d
00000230: 6746 f8bd 4156 393e c940 5d3e b6e9 0f3e
00000240: f9da b9bc ecec 31be 6f50 02be b077 b3bd
00000250: b987 693d d837 72bb 4bd7 1b3c f529 d6bd
00000260: b80b b53d 8910 f53d 0257 4a3d b3ad 23bd
00000270: c8b8 483d 1b1c 52bc 268e 4fbe e8e7 083e
00000280: 320c f13d eb27 123d 2ee3 0dbe 7ea9 fabd
00000290: 8b07 af3d 52cf 80bd df4d b73d 9167 d0bc
000002a0: 45df 573e 4e11 ffbd 11f3 f93d f11c 483e
000002b0: 0e2d 903d b2f7 2abe acd4 df3d d83c 0b3e
000002c0: 9401 aabd 8f5b 21be 2c04 a43d 8da2 6f3d
000002d0: 96e5 1a3e 971e d33d 532f bebd 6b56 5d3d
000002e0: b6bc eb3d a54c 663d e07b 9ebc 46f4 823d
000002f0: b9c0 20bd c0a4 f53d c207 b8bd fc4d 19be

multihead_self_attention.fc.bias f4 [6]
-0.09213458 0.08828023 -0.10229522 0.18123464 0.17271231 0.08573795
00000000: 0eb1 bcbd 44cc b43d 2880 d1bd 9395 393e
00000010: 7fdb 303e 6197 af3d

fc.weight f4 [6, 6]
-0.34050986 0.24692501 0.37566376 0.124848805 -0.093021676 -0.033694077 -0.35785607 0.24296522
0.3389023 0.37735853 -0.14749837 -0.32395416 0.2805592 -0.21130435 0.048007708 0.37347966
-0.41777763 -0.40250036 0.26538023 0.15787522 0.19447291 0.044042967 0.24349059 -0.35233426
0.13478163 -0.30911225 -0.1625188 0.38334003 -0.21362899 0.18632157 -0.24296975 -0.2856921
-0.2205849 -0.08265961 -0.3220479 0.014170647
00000000: 4f57 aebe e9d9 7c3e 0057 c03e bbb0 ff3d
00000010: 2682 bebd cd02 0abd e938 b7be e0cb 783e
00000020: 9a84 ad3e 2335 c13e d009 17be 52dd a5be
00000030: 75a5 8f3e 2b60 58be bba3 443d ba38 bf3e
00000040: f3e6 d5be 8714 cebe ebdf 873e 0baa 213e
00000050: e823 473e 6666 343d 9955 793e 2865 b4be
00000060: 3204 0a3e f643 9ebe 546b 26be 2545 c43e
00000070: 8fc1 5abe 15cb 3e3e 10cd 78be 3c46 92be
00000080: 02e1 61be 7149 a9bd 76e3 a4be 002c 683c

fc.bias f4 [6]
0.14300945 -0.35392508 0.3410205 -0.010498071 -0.26323268 0.21070461
00000000: 1271 123e ab35 b5be 3d9a ae3e 1a00 2cbc
00000010: 6fc6 86be f3c2 573e
