trained_weights/cadets/selfattention0.pth (torch, 20623 bytes, 8 tensors)

multihead_self_attention.multihead_attn.in_proj_weight f4 [96, 32]
000000 a9 23 4d be 8e 06 17 bb 6e a0 ec 3d 21 af 28 3e
       -0.20033135 -0.0023044678 0.11554037 0.16473056
000010 3d 2e 09 3b b2 93 af 3d 12 53 13 3e f0 22 c0 bc
       0.0020932101 0.085730925 0.14387158 -0.02345416
000020 83 67 4b be 40 28 04 3c e3 1c b6 bd 68 2a 2c 3d
       -0.19863705 0.008066237 -0.088922285 0.04203263
000030 a0 8a fe bd 23 67 4a 3e 6b 31 44 3e 9d 16 2f 3d
       -0.12428784 0.19765906 0.19159476 0.042746175
000040 de 94 21 3e 61 fe f0 3d b2 d3 12 3e d7 f7 4e 3e
       0.15779445 0.11767269 0.14338568 0.20211731
000050 b2 9d 46 3e 2a 55 23 be fb 55 b7 bd 05 c9 48 be
       0.19396093 -0.15950456 -0.08951946 -0.19607933
000060 49 01 8d bd 10 f5 c7 3d c9 11 55 ba 09 0f 8b bd
       -0.06885011 0.09763539 -0.00081279554 -0.06789977
000070 7a 53 df 3d 96 61 a4 bd cd ce 2e 3e 09 e1 96 bd
       0.10904594 -0.080264255 0.17071076 -0.07367141
000080 27 03 8d bd a2 7f 84 3d dd 50 b0 3c 05 e6 0f be
       -0.06885367 0.064696565 0.021522934 -0.14052589
000090 fa 4f 23 bd 58 3d 0d be 18 95 35 3e 75 1a 20 be
       -0.039871193 -0.13792932 0.17732656 -0.15635093
0000a0 75 30 e9 bd ea 14 2e 3d 45 5b 36 3e 15 71 a8 bd
       -0.113861956 0.042500414 0.17808254 -0.08224694
0000b0 f1 a8 2f 3e 10 98 3c bd bf d6 9c 3d bb fd 23 be
       0.1715429 -0.046043456 0.07658147 -0.16014759
0000c0 4d ea 14 3e 8e ac c8 bd 0e 78 f9 3a 2e aa 38 3e
       0.14542504 -0.09798537 0.0019032971 0.18033668
0000d0 11 f1 50 ba 1c 02 95 3c 83 4d f7 3c 28 1b 9c 3d
       -0.0007970492 0.018189482 0.030188328 0.07622367
0000e0 ae 19 84 3d db 39 e6 bd 85 14 13 be 6f a4 dc 3d
       0.064502105 -0.11241504 -0.14363296 0.10773551
0000f0 a0 6a 47 be b1 6e 9e bd 3d 06 1e 3d af 82 2c bd
       -0.19474268 -0.077359565 0.038580168 -0.042116817
000100 d6 e3 4f 3b 34 3a eb 3d 75 8a 18 3c 40 f0 cd bc
       0.0031721494 0.11485711 0.0093103545 -0.025138974
000110 a5 be 0e 3e 22 4d 4f 3e c3 2a 3b be 61 e2 0a be
       0.13939913 0.20244268 -0.18278031 -0.13562919
000120 7b b4 4e bd 68 0e 4d 3e ca dd fc 3d 4f ce 2f be
       -0.05046509 0.20025027 0.123469904 -0.17168544
000130 d0 3e 26 3d 9a ce a9 bd ff bd 4d 3d bb 9f 34 3e
       0.040587246 -0.08291359 0.050230023 0.17639057
000140 c2 c5 66 bd 7f 0a 03 bd 2b d1 de ba 1d 87 00 bd
       -0.05634094 -0.03199243 -0.0016999593 -0.031378854
000150 9e 90 a1 bd db c7 0c 3d 89 f8 02 bd a5 cb 4a bd
       -0.07888912 0.034370285 -0.031975303 -0.049510617
000160 3d d0 11 3e c8 17 53 3d 8d a8 92 3d a5 08 11 3b
       0.14239593 0.05153635 0.07161055 0.0022130397
000170 96 73 02 3e bf db 2c be ad 1d 94 3c 51 1f a3 3d
       0.12739405 -0.16880701 0.018080557 0.079649575
000180 88 07 1b be 78 59 04 bd d9 b1 a0 bd d4 f9 86 3b
       -0.15139592 -0.032311887 -0.07846422 0.0041191373
000190 03 99 44 3e 29 33 31 bd 95 e2 49 3e c5 59 0b be
       0.19198994 -0.04326168 0.1971534 -0.13608463
0001a0 ef 94 21 bd 78 f6 1a 3e 56 b8 4b 3d 7d 7d 80 3d
       -0.039448675 0.15133083 0.049736343 0.06273935
0001b0 f7 24 a1 3d 06 d4 1e be 31 8a 22 be e0 32 d3 bd
       0.078683786 -0.15510568 -0.15873028 -0.10312438
0001c0 25 5f 7a 3d da e4 b2 bd 0f b8 34 be 04 44 a4 3d
       0.061125893 -0.08735056 -0.17648338 0.080207855
0001d0 fb 9f 22 3e c5 b2 a2 bd 89 26 6e 3d 4c 7e 99 bd
       0.1588134 -0.07944254 0.05814222 -0.07494792
0001e0 1d fc cd bb 8f 92 02 be f6 13 3b be 42 2c 0d 3e
       -0.0062861578 -0.1275122 -0.18269333 0.13786414
0001f0 3d 96 5f 3d 07 ce 91 bd 88 d8 56 3d 7b 79 40 be
       0.054586638 -0.07119375 0.052452594 -0.18796341
000200 c2 8e b7 bd 7c dd 1e 3e cd 55 c0 3d 70 0a 2b 3e
       -0.08962776 0.15514177 0.09391365 0.167032
000210 b3 8a 97 3c e2 8b 2d 3e d9 cc 95 bd 9d b9 46 be
       0.018498754 0.16947892 -0.07314462 -0.19406743
000220 4c 2d 47 3c a0 9a b2 3d 6e 54 0c 3e a1 e4 05 3e
       0.012156796 0.08720899 0.13704082 0.13075496
000230 10 d8 24 bd 72 b9 2e ba cd 4a ce 3d f9 15 3e be
       -0.040245116 -0.0006665207 0.10072861 -0.1856307
000240 7e 75 8a 3d e7 6d d7 3c ed 6b 5a bd b1 de 9f bd
       0.06760691 0.026297523 -0.053325582 -0.07806147
000250 4b 51 f0 3d 97 8c 85 bd dd 0f f8 3d b4 86 39 3d
       0.117342554 -0.06520956 0.12112401 0.04529448
000260 a6 f6 63 bd 1f 5f 40 3e 7a 0e eb bd 3c 54 30 3e
       -0.055655144 0.18786286 -0.114773706 0.17219633
000270 62 3b 1f 3b d8 c6 0e 3c fe b7 7b 3d a2 38 02 3e
       0.002429687 0.0087144 0.061454765 0.12716916
000280 24 18 df 3c d0 bc 02 3e 54 a0 36 be 9a e3 a9 b9
       0.02723319 0.12767339 -0.17834598 -0.00032403768
000290 c5 a8 c4 3d 0a 3f 3c be 70 97 fa bc d2 17 bf bd
       0.09602503 -0.18383422 -0.03058979 -0.09330715
0002a0 de 15 37 3e 2a 9e bb b9 e4 8e 2d bd e1 18 1e 39
       0.17879435 -0.0003578526 -0.0423726 0.00015077322
0002b0 04 b0 c7 bd c1 ef d2 bd e5 a2 12 3d fb fe fc 3c
       -0.09750369 -0.10299636 0.03579988 0.030883303
0002c0 fa 89 a1 bd d6 39 8e bd a3 63 6a bd c0 14 eb bd
       -0.07887645 -0.06944625 -0.057223927 -0.11478567
0002d0 e3 a6 60 3d 15 aa c6 bd cf a4 4a 3d a3 f7 36 be
       0.054846656 -0.09700409 0.04947358 -0.17867903
0002e0 59 fb 5b 3c 06 48 b2 3d 92 23 70 3d 9a 8e af bd
       0.013426625 0.08705144 0.058627672 -0.08572121
0002f0 ab 3d 3b 3e 53 91 50 bb 8d 26 5d bc 94 37 ff 3d
       0.18285243 -0.0031824901 -0.013497961 0.124617726
000300 0e 0c 0e 3d d1 fc a5 bd 88 f1 18 3e 49 b4 30 be
       0.034679465 -0.081048615 0.14935887 -0.17256273
000310 cf c7 24 be af 4a b0 bd 57 f7 7b 3d 98 cb 08 be
       -0.16091846 -0.08607995 0.06151518 -0.13358915
000320 47 3d 88 3d bb c2 18 3e bc 5d d9 3d 16 b9 40 3e
       0.06652313 0.14918034 0.106135815 0.18820605
000330 1e a6 47 be 25 0c 13 be 42 8d 72 3d e3 c2 80 bc
       -0.19496962 -0.14360102 0.059216745 -0.01571793
000340 d8 c0 d8 bd 13 7e 3c bd 98 18 ba 3c 0d 0c c3 bd
       -0.10583657 -0.04601867 0.022716805 -0.09523783
000350 12 96 3b 3e 46 ac 1f be 5e 22 19 3d a9 e8 20 bd
       0.18318966 -0.15593061 0.03738629 -0.039284382
000360 87 54 36 be 5f 89 f5 3d 31 a4 d9 3d 8a 93 ab 3a
       -0.17805682 0.11989092 0.1062702 0.0013090235
000370 a4 bb 4d 3e 10 f7 6f bd 7b 8d a8 bd ca 7d 4a 3e
       0.2009111 -0.058585227 -0.0823011 0.19774547
000380 76 aa 0f 3e 6e 07 a8 bd 53 96 21 3c 07 bc 20 be
       0.1402987 -0.08204542 0.0098625 -0.15696727
000390 ee bf b4 3c 7b 80 e8 bd b0 f5 0c be 8f 5b e7 3a
       0.022064175 -0.11352631 -0.13765597 0.0017651188
0003a0 3c 66 86 bd cc 6a 3e 3e 62 28 12 3b 77 9a 4a 3e
       -0.065624684 0.18595427 0.0022301902 0.19785486
0003b0 bc eb 24 be bf fe 3d be f4 d5 18 be 07 d7 e1 bb
       -0.1610555 -0.18554209 -0.14925367 -0.0068920883
0003c0 2c c8 4a 3e e4 d3 e9 bd 09 2c 49 3e d7 30 19 3e
       0.19802922 -0.11417368 0.19645704 0.14960037
0003d0 e8 1e fb bd 84 b5 47 3e b2 0d aa bd 05 61 cd 3c
       -0.12261754 0.19502836 -0.083033934 0.025070677
0003e0 ee ba b6 3d 75 d4 44 3e 1f 41 8f bc e6 c0 4b 3e
       0.08922373 0.19221671 -0.017487107 0.19897804
0003f0 f1 69 8b 3d f9 ee 4e 3c 52 10 f7 3d e0 5a 07 be
       0.06807316 0.012630218 0.1206366 -0.1321826

multihead_self_attention.multihead_attn.in_proj_bias f4 [96]
000000 00 00 00 00 00 00 00 00 00 00 00 00 00 00 00 00
       0.0 0.0 0.0 0.0
000010 00 00 00 00 00 00 00 00 00 00 00 00 00 00 00 00
       0.0 0.0 0.0 0.0
000020 00 00 00 00 00 00 00 00 00 00 00 00 00 00 00 00
       0.0 0.0 0.0 0.0
000030 00 00 00 00 00 00 00 00 00 00 00 00 00 00 00 00
       0.0 0.0 0.0 0.0
000040 00 00 00 00 00 00 00 00 00 00 00 00 00 00 00 00
       0.0 0.0 0.0 0.0
000050 00 00 00 00 00 00 00 00 00 00 00 00 00 00 00 00
       0.0 0.0 0.0 0.0
000060 00 00 00 00 00 00 00 00 00 00 00 00 00 00 00 00
       0.0 0.0 0.0 0.0
000070 00 00 00 00 00 00 00 00 00 00 00 00 00 00 00 00
       0.0 0.0 0.0 0.0
000080 00 00 00 00 00 00 00 00 00 00 00 00 00 00 00 00
       0.0 0.0 0.0 0.0
000090 00 00 00 00 00 00 00 00 00 00 00 00 00 00 00 00
       0.0 0.0 0.0 0.0
0000a0 00 00 00 00 00 00 00 00 00 00 00 00 00 00 00 00
       0.0 0.0 0.0 0.0
0000b0 00 00 00 00 00 00 00 00 00 00 00 00 00 00 00 00
       0.0 0.0 0.0 0.0
0000c0 00 00 00 00 00 00 00 00 00 00 00 00 00 00 00 00
       0.0 0.0 0.0 0.0
0000d0 00 00 00 00 00 00 00 00 00 00 00 00 00 00 00 00
       0.0 0.0 0.0 0.0
0000e0 00 00 00 00 00 00 00 00 00 00 00 00 00 00 00 00
       0.0 0.0 0.0 0.0
0000f0 00 00 00 00 00 00 00 00 00 00 00 00 00 00 00 00
       0.0 0.0 0.0 0.0
000100 d7 d4 42 3c c0 6e 72 3b 08 fc 57 bc c1 76 e9 3b
       0.011891565 0.0036992282 -0.0131826475 0.0071247523
000110 4b bf 3e bc 9e 6b a7 3b 3d 6e 4b bc a7 77 2f bc
       -0.0116422875 0.0051092645 -0.01241642 -0.01070968
000120 36 40 f6 3b e0 1c 39 3c 1a 4c 4a 3c 36 ae 29 bc
       0.0075149788 0.011298388 0.012347246 -0.0103564765
000130 2d 3a bd bb ff c7 3e 3c 43 96 4c 3c 28 8e ba bb
       -0.0057747574 0.0116443625 0.012486997 -0.005693216
000140 5a 94 33 bc aa 32 ec bb 58 95 86 3b 1a 47 41 bc
       -0.010960663 -0.007208188 0.0041071586 -0.011796737
000150 fd 33 df 3b 77 d3 d3 bb 1f a5 03 ba 2e c9 b8 3b
       0.0068116174 -0.0064644176 -0.00050218584 0.005639217
000160 66 3f 80 3b 70 96 36 3c 29 da da 3b 31 3d f1 3a
       0.0039138077 0.0111442655 0.0066788387 0.0018405077
000170 ef 07 3f bc 49 dd 29 3c ff a0 10 bc 85 7f d3 3b
       -0.011659606 0.0103677 -0.008827447 0.0064544105

multihead_self_attention.multihead_attn.out_proj.weight f4 [32, 32]
000000 0e 94 02 be 76 02 14 be 82 a5 6f 3d 14 a1 1c be
       -0.12751791 -0.14454064 0.05850745 -0.15295821
000010 a9 69 e4 3d bf 93 c4 bd 60 e0 74 3d 02 f7 bf 3d
       0.111529656 -0.09598493 0.059784293 0.09373285
000020 35 64 3d 3d 22 80 9b bc 4f e0 2c be 4b 95 8c bd
       0.046238143 -0.018981997 -0.16882442 -0.06864413
000030 5e 8c 00 bd eb e3 a0 bd 7f d8 e2 bd 48 8c e9 3c
       -0.031383865 -0.07855972 -0.110764496 0.028509274
000040 27 f1 2b 3d 0d 9f 1a be 21 78 8e 3d 9b fa 6b 3d
       0.041978028 -0.15099736 0.069565065 0.057612043
000050 3c 26 39 be 6b e6 b4 3d a0 6b 68 3d ce af ec bd
       -0.18080992 0.08833011 0.056743264 -0.115569696
000060 68 d5 63 3c 36 80 17 be f5 76 da 3c 4a 75 05 3e
       0.0139058605 -0.14795002 0.026668051 0.13033023
000070 c3 de 29 be 71 91 3e be 34 4e 4a ba a5 69 76 bd
       -0.16588883 -0.18610169 -0.00077173417 -0.060159344
000080 5d d4 7a bd ff 6f 39 be f2 76 11 be 7c ee 83 bb
       -0.06123768 -0.1810913 -0.1420553 -0.0040262323
000090 72 f9 22 be e2 25 a6 bd 71 ae 29 be 5d c8 b9 3d
       -0.15915468 -0.08112694 -0.1657045 0.090714194
0000a0 ac a3 20 bd cc ac 95 3d 6b 5b 26 3e c5 bf 22 be
       -0.03921859 0.07308349 0.1624581 -0.15893467
0000b0 3b 9a d0 3d f2 10 ce bc be bb e3 3d 3b a5 06 3e
       0.10185667 -0.025154565 0.11119793 0.13148968
0000c0 a4 ac 0e 3d a8 99 d4 3d 21 51 81 bc 22 82 1f bd
       0.03483261 0.1038087 -0.015785756 -0.038942464
0000d0 22 84 e9 bd ae 09 75 3d 98 58 0c 3d 2d 6a d1 3d
       -0.114021555 0.059823684 0.034264177 0.102253295
0000e0 44 b2 d5 bd 32 ea 0a bc 4c 0b 13 be 51 93 2a 3d
       -0.10434392 -0.008478688 -0.14359778 0.041644398
0000f0 ed 40 22 3d 4a 33 20 3e da 4e c9 bd 54 08 27 3e
       0.0396127 0.15644565 -0.09829493 0.1631177
000100 f6 83 ad 3d 5c f3 bc 3d 6c 2c 33 bc 9a ae f1 bd
       0.08472435 0.092261046 -0.010935884 -0.11800881
000110 7e ec 16 be 1a 10 16 3e 1e 03 40 3d 31 34 14 be
       -0.14738652 0.1465458 0.046877973 -0.14473034
000120 b3 ad a7 3c 41 55 10 be 52 45 9c 3d f2 ae 16 be
       0.020468568 -0.14095022 0.07630409 -0.14715174
000130 f1 a4 14 bd df ff aa bd 49 cb 01 3e 98 9a f7 bc
       -0.036290113 -0.08349585 0.12675203 -0.030225083
000140 55 3e 22 3e 7f 35 70 3d ee dd 29 be 2b de ae 3d
       0.1584409 0.058644768 -0.16588566 0.08538469
000150 8e 3f af 3d 74 e0 ed bd 97 fc 0e bd 80 da 07 be
       0.08557044 -0.11615077 -0.034908857 -0.13266945
000160 5c 95 81 bd e5 32 d9 3d 14 91 bf bd df ba d3 3d
       -0.06327316 0.106054105 -0.09353843 0.10338377
000170 e0 b8 0d 3d 99 37 25 3e 5f 85 08 be e6 82 11 be
       0.03460014 0.1613449 -0.13332127 -0.1421009
000180 58 5f b6 3d 90 59 82 3d fd 29 01 3e be eb 22 be
       0.08904904 0.06364739 0.12613674 -0.15910241
000190 6a 8b 0d 3e 3e 09 22 be 2f b4 c9 bb 1b 5e 1c 3c
       0.13822713 -0.15823838 -0.0061555128 0.009543921
0001a0 09 ac fd 3d 76 cb cb 3d c6 c3 e2 bd a8 7a e1 3d
       0.12386329 0.099509165 -0.11072497 0.11009723
0001b0 c4 2f 1b 3e da 89 a6 bd 75 47 d0 bc 0c fd 04 be
       0.1515494 -0.08131762 -0.025424698 -0.12987155
0001c0 c4 04 4d bc f6 76 31 3e b3 84 81 bd 18 50 f8 bd
       -0.012513343 0.17330536 -0.063241385 -0.12124652
0001d0 f4 2f 82 bd 37 f5 e6 3d 4e cf a9 bd 06 ea 81 bd
       -0.063568026 0.1127724 -0.08291493 -0.063434646
0001e0 d6 24 2a bd 68 69 c7 bc 35 35 a9 bd 06 d7 9b bd
       -0.041539036 -0.024342254 -0.082621016 -0.07609372
0001f0 a9 d5 b2 bc 2f 63 fc bd f9 5e 03 3e 9e 53 80 bb
       -0.021830397 -0.12323605 0.12829198 -0.003916218
000200 14 30 aa bc 9d 95 fb bd 6c d4 5b 3c fb 7b d2 3d
       -0.020774879 -0.12284396 0.013417345 0.10277554
000210 cb 7c de 3d 8b 3a 4a 3c 09 d8 c1 3d b8 f3 4a 3d
       0.10863646 0.012343059 0.094650336 0.049548835
000220 10 90 87 3d ca a3 ab 3d c2 8a 85 bd ec 8c b3 bc
       0.066192746 0.0838085 -0.065206066 -0.021917783
000230 b4 4a 09 3e 56 72 1b 3e c4 29 0d 3e a7 f6 de 3d
       0.13407403 0.15180334 0.13785464 0.10886889
000240 83 11 12 be 1e d5 bf bd e0 cd 03 be ec e6 21 be
       -0.14264493 -0.09366821 -0.12871504 -0.15810746
000250 0d 0b 0c be 69 cd 6a bd 55 7d ec 3b 2a 1d ac 3d
       -0.1367609 -0.0573248 0.007217089 0.08404
000260 fe 46 b5 3d e9 a6 ec 3c 2a ee 4e 3c 41 5d 08 be
       0.08851431 0.028888183 0.012630025 -0.13316824
000270 5f 26 f1 bd d9 4c 6c bd 81 e6 f9 bd f3 52 02 be
       -0.11774897 -0.057690475 -0.12202168 -0.12726955
000280 4b 0e 19 3d dd 5d d7 3d 69 ee 68 3d 58 92 41 bd
       0.037367146 0.1051595 0.05686799 -0.047258705
000290 61 b4 10 be b5 27 18 be 76 a1 0e 3e c4 d1 9e bd
       -0.14131309 -0.14858897 0.1392878 -0.07754853
0002a0 23 30 37 bd 55 aa 30 be 2c 5f 4d 3d e1 05 28 3e
       -0.04472364 -0.17252477 0.05013959 0.16408493
0002b0 49 a1 4d bd c9 37 0d 3d 69 0d 10 bd 15 1b e4 bd
       -0.05020264 0.03447703 -0.03516904 -0.11137978
0002c0 3d 11 b2 3d 5e 8d fc 3d 9b 20 55 3d e3 d6 96 3d
       0.08694694 0.12331651 0.052033048 0.07365205
0002d0 c4 f6 f1 3d 50 fb dd 3d 43 7d 19 3e 88 9d af bd
       0.11814645 0.1083895 0.1498919 -0.085749686
0002e0 df 84 c1 3b ad 46 04 3b cc 54 00 be 61 6f 80 3d
       0.005905732 0.0020183728 -0.12532347 0.06271244
0002f0 56 f6 fc 3c ac ad af 3d b4 bc 16 bc db f3 19 3e
       0.03087918 0.08578047 -0.009200264 0.1503443
000300 c1 e3 1b be 4e 12 19 3c a0 3c 13 3d 1b da da bd
       -0.152236 0.009342743 0.03594649 -0.106861316
000310 da 63 e2 bd 65 19 d0 bd 7b ec 39 be d5 1b 43 3d
       -0.110542014 -0.101610936 -0.18156616 0.047633965
000320 ae 5d 2d 3e c9 f7 c2 3d be f5 09 be 94 44 61 3c
       0.16930267 0.095199175 -0.1347265 0.01374926
000330 f0 62 99 bc 5d 58 38 3e 70 5c 26 3c 7f ea 28 3e
       -0.018723935 0.18002458 0.010153875 0.16495703
000340 64 81 41 bc 0a 5a 0a be 48 3e 2d 3e fa 95 70 bd
       -0.011810634 -0.1351091 0.1691829 -0.05873678
000350 e6 e6 00 bd 7e 4e ec 3c 2a 0c 3f 3a 53 1f 90 3d
       -0.031470202 0.028846022 0.00072878844 0.070372246
000360 93 a4 30 bc 44 9b 04 bd ba a9 d2 bc 52 6a 77 bd
       -0.010781425 -0.032374635 -0.025715698 -0.06040413
000370 9e a4 23 be 91 df 04 bd 12 72 ea bc b1 cd 44 3d
       -0.15980765 -0.032439772 -0.028618846 0.048047725
000380 44 58 0f 3e 0e e1 a3 bc 5d 11 0d 3e 38 ab 9a 3d
       0.13998514 -0.020004775 0.13776155 0.07552189
000390 24 97 2f be 94 bf f9 bd 15 44 da 3b 6b be 0a bc
       -0.171475 -0.12194744 0.006660948 -0.008468251
0003a0 08 a7 58 bd 53 44 f3 3c 79 b6 ee 3d 96 d0 75 bd
       -0.05289367 0.029695665 0.11655898 -0.060013376
0003b0 6c b5 98 3d 4c f7 13 3e 83 dc 7f bb 59 b2 3f bd
       0.074564785 0.14449805 -0.0039041347 -0.046800945
0003c0 6b e5 70 bd f6 c1 77 bd fa 01 1e 3e 79 d2 0f be
       -0.05881254 -0.06048771 0.15430441 -0.14045133
0003d0 84 4c 69 3c 2f c1 38 bb 93 c7 80 bd 59 8f 9c bd
       0.014239434 -0.0028191318 -0.06288066 -0.07644529
0003e0 e3 19 11 3e 60 85 58 bd 9b 7d 1c be 6a 84 7e bd
       0.14170031 -0.05286157 -0.1528229 -0.062138
0003f0 9f 18 0b 3e 4a 06 7f 3d fc ff 5c 3b 5e 96 81 3d
       0.13583611 0.062261857 0.0033721915 0.063275084

multihead_self_attention.multihead_attn.out_proj.bias f4 [32]
000000 03 3d 2e bc ca 8f db bb 40 04 12 bb 2b c1 48 3c
       -0.0106346635 -0.0067004906 -0.0022280365 0.012253086
000010 96 56 03 bc ba 9f 87 3b 81 ae 35 3c 79 0b 58 3c
       -0.008016249 0.004138914 0.011088968 0.013186329
000020 84 aa 46 bc 4d e9 ae 3b f5 45 86 bb 8d b0 39 bc
       -0.012125615 0.00533787 -0.004097695 -0.011333597
000030 eb fc 96 bb cd 53 aa 3b 93 44 ab bb 3e c9 4a 3b
       -0.004607787 0.005197978 -0.0052266805 0.0030942704
000040 67 92 cd 3b d2 4c be 3b 56 ed bd bb f9 a5 b3 3b
       0.006273556 0.0058074975 -0.005796115 0.005482432
000050 44 d7 13 bc 4f ad 26 bc 3f ec 99 bb 5f 71 83 3b
       -0.009023491 -0.010173156 -0.004697352 0.0040113176
000060 05 be 3e bc b5 a0 98 bb fd fb 8c bb dc bc 3e bc
       -0.011641984 -0.0046578296 -0.0043025003 -0.011641707
000070 24 70 f9 bb ca 4b 1c bc 4f af d2 3b 07 b4 3d 3c
       -0.007612245 -0.009539554 0.00642959 0.011578566

multihead_self_attention.fc.weight f4 [6, 32]
000000 b3 53 ec bd b4 72 2a bd b2 ea 1c be dc ff 1b bd
       -0.11539402 -0.041613296 -0.15323904 -0.038085803
000010 aa b3 60 bd 86 61 ef bd b6 85 eb 3d 15 6f 29 3c
       -0.05485884 -0.11688523 0.11500113 0.010341425
000020 db 7c ce bc 6c 17 29 3e 14 85 02 be 57 24 3b bd
       -0.02520602 0.16512841 -0.12746078 -0.045688953
000030 a7 91 0e be a8 2c 37 3e 2d 0b fb 3b 4b 44 d8 3d
       -0.1392275 0.17888129 0.0076612444 0.10559901
000040 e9 06 fa 3c 8a c1 cb 3d 69 bc bc bd 06 54 f8 3d
       0.030520873 0.09949024 -0.09215624 0.12125401
000050 78 3d 83 3c fe e9 eb bc 4c d9 5d bd ac 2e e6 3d
       0.016020522 -0.0287981 -0.05416231 0.11239371
000060 70 ab be bd b2 4b d5 bd 59 ca 29 be 81 5f 6f 3d
       -0.09310043 -0.10414828 -0.16581096 0.05844069
000070 97 f1 30 be 7d 80 f2 bd 21 92 d3 3d 42 c9 cc bb
       -0.17279659 -0.118409134 0.10330606 -0.0062495777
000080 ea 81 27 be a7 fb c2 3d 80 74 01 be e1 41 7b 3d
       -0.16358152 0.09520655 -0.12642097 0.061342124
000090 90 39 b4 3d 50 cb 00 be a1 42 35 3e 5f d9 2e 3e
       0.08800042 -0.12577558 0.17701198 0.17075108
0000a0 97 34 a2 3d cd 02 0a be 12 af 1d 3e 5c 43 1f 3d
       0.07920187 -0.13477631 0.15398815 0.0388826
0000b0 91 27 e2 3d fa fc 21 be fc 3c d4 3d 70 cd 06 be
       0.11042703 -0.15819159 0.10363194 -0.13164306
0000c0 c0 f0 a4 bd 7e 18 2b be dd 68 a6 3d 42 22 36 3e
       -0.08053732 -0.16708562 0.0812547 0.17786506
0000d0 de f9 71 3d 03 d5 64 bd e6 bf 8d 3d 43 51 fb 3d
       0.059076183 -0.055867206 0.06921367 0.12271359
0000e0 d6 e6 2c be 6e 71 19 3e bc 37 93 3d 7a 56 22 be
       -0.16884932 0.14984676 0.07188365 -0.158533
0000f0 83 1f e0 bd 1b eb ab 3d 2c b2 b0 bd df 8c a8 bd
       -0.109435104 0.08394452 -0.086277336 -0.08229994
000100 14 6d 2c 3d 87 fe 8b 3d fb 94 b6 3d 8e e2 50 bd
       0.042096213 0.068356566 0.089151345 -0.05099731
000110 88 22 11 be cf a3 ca bd 3c 36 f4 3d 28 70 10 bd
       -0.14173329 -0.09894525 0.11924407 -0.03526321
000120 72 cf 11 be 5b 3c 1f be 9f fa ed 3d d6 ce f5 bd
       -0.1423929 -0.15550368 0.11620068 -0.120023414
000130 ff 03 84 bd f5 54 5c 3c 85 b7 9f bd fa c5 d7 3d
       -0.06446075 0.01344799 -0.077986754 0.10535808
000140 e2 8b d8 bc dd a3 79 3d 47 33 af bd 81 93 9a bd
       -0.026433889 0.060947288 -0.08554702 -0.075476654
000150 1e f1 9d 3c 3f 72 5e 3d 50 c4 04 be 99 37 32 be
       0.019280013 0.054308172 -0.12965512 -0.17404021
000160 9b 80 02 bd 79 81 49 bd f6 54 fc 3d ed 7f 10 be
       -0.03186093 -0.04919574 0.123208925 -0.141113
000170 6c 6f 7d bc b7 12 f4 bd 3a 8c 01 3e 60 e2 05 3e
       -0.01546846 -0.11917632 0.12651148 0.13074636
000180 0a 11 27 be b6 02 0d be 4c 5f 77 3d 35 e7 70 bd
       -0.16315094 -0.13770565 0.060393617 -0.058814246
000190 b2 ff e5 3d 9c 42 33 3e 62 01 dc bd 56 7b 1b bd
       0.11230411 0.17505878 -0.10742451 -0.03795942
0001a0 12 75 06 bd 67 9f 17 3e 39 e2 24 3d 41 d7 fc bd
       -0.03282649 0.14806901 0.040254805 -0.12345744
0001b0 e2 5a 9d 3d 2d cc 90 bc 3f a1 bc 3d 04 26 03 3e
       0.0768335 -0.017675484 0.09210443 0.1280747
0001c0 76 a1 a2 3d dc 19 c8 bd 88 ca 01 3e c9 61 c6 3d
       0.079409525 -0.09770557 0.12674916 0.0968662
0001d0 e5 e2 4d 3b c8 ad 1d 3e 36 a6 2d be 41 b7 89 bb
       0.0031415757 0.15398324 -0.16957936 -0.004202754
0001e0 c4 59 88 bc 41 38 d1 3d a0 3c ab bd f9 90 88 3c
       -0.016644366 0.10215808 -0.08361173 0.01667069
0001f0 21 0d 25 be a9 7a 2e be 5c 88 ba bd 44 2f 16 be
       -0.1611829 -0.17038979 -0.0910804 -0.14666468
000200 ad 59 b7 3d fa 67 c5 3d d1 5f e9 3d 58 04 4b 3c
       0.08952651 0.096389726 0.11395229 0.012391172
000210 17 e5 18 3e e2 47 2a be 88 fe 2b be 4a a2 1f be
       0.14931141 -0.16628984 -0.16796315 -0.15589252
000220 20 42 61 bd a9 99 0c be 0f 86 ca bd d2 f9 b7 3d
       -0.054994702 -0.13730492 -0.09888851 0.08983196
000230 1a 32 f5 bd 4c bf 29 3e 8c de 20 3e 69 41 af 3d
       -0.11972447 0.1657688 0.15709895 0.08557398
000240 46 57 d9 bc bf f6 c9 bd b7 f0 a3 bd df 22 d1 bd
       -0.026530873 -0.09861516 -0.08004897 -0.10211729
000250 5a 62 75 3d 3d 67 cb bc 89 5b c2 3c 7a 1f d4 bd
       0.05990825 -0.024829501 0.023725288 -0.10357566
000260 f9 a7 b1 3d 95 15 c4 3d de 45 49 3d 26 6f 58 bc
       0.08674616 0.09574429 0.049138896 -0.013210094
000270 fc f1 78 3d 29 09 94 bc 0f df 13 be 30 87 e6 3d
       0.06077765 -0.018070774 -0.14440559 0.11256254
000280 2e ea 88 3d 55 00 37 3d 21 49 bc bd 63 ad f4 bd
       0.06685291 0.04467805 -0.09193636 -0.119471334
000290 d7 d7 ac 3d 9f 93 b6 bc b8 34 1f 3d dc cc d4 bb
       0.08439606 -0.022287188 0.038868636 -0.0064941477
0002a0 68 d2 1a 3e d7 27 de bd 0a c6 11 3e 87 06 28 3e
       0.15119326 -0.108474426 0.14235702 0.1640874
0002b0 6c b8 9e 3d 7c 8e 1b be 4c 6c 39 3d a1 ec 9e 3d
       0.077500194 -0.15191072 0.045269296 0.07759977
0002c0 77 ca 7e bd ed 66 10 be d9 f4 c9 3d bb 20 c3 3d
       -0.062204804 -0.14101763 0.09861154 0.09527727
0002d0 b7 c8 f4 3d c2 58 e1 3d 83 00 fe bd d8 38 2e 3c
       0.11952346 0.11003257 -0.12402441 0.01063367
0002e0 4c 1a 98 3d bf 4a 7d 3d b5 5c 8b 3b af 48 90 3d
       0.07426891 0.06183886 0.004252995 0.07045113
0002f0 e9 88 84 bd cb d8 a0 3d 6e 7d 33 bd 28 1d 05 be
       -0.06471426 0.0785385 -0.04382079 -0.12999403

multihead_self_attention.fc.bias f4 [6]
000000 9a 5b b4 bd 84 0c a6 3d 69 c1 cc bd e9 8f 21 3e
       -0.08806534 0.08107856 -0.099978276 0.15777554
000010 8a a0 19 3e 10 f7 b4 3d
       0.15002647 0.08836186

fc.weight f4 [6, 6]
000000 78 2b aa be cd 82 81 3e 97 df ca 3e bf 5e 59 3e
       -0.3323629 0.25295106 0.3962371 0.21227549
000010 aa c2 f6 bd f8 12 d7 bd d6 0a a3 be 74 bd 49 3e
       -0.12048848 -0.10501665 -0.31844205 0.19701177
000020 86 6a a2 3e b3 df ad 3e 89 97 1b be 22 cb a0 be
       0.31721896 0.3395973 -0.15194525 -0.31404978
000030 2d 6e 7c 3e f6 a9 1a be ef 1a 6c 3d 6c 09 c7 3e
       0.24651404 -0.15103897 0.057642873 0.38874376
000040 cd 04 c9 be 83 1c c4 be ac 53 2d 3e 43 0f 7e 3e
       -0.39261475 -0.38303003 0.1692645 0.2481051
000050 4f 61 46 3e 59 4c 00 3c 92 5a 66 3e a2 af 9c be
       0.19373058 0.007830703 0.22495487 -0.30602747
000060 32 0d fb 3d ab de a1 be 5a 22 15 be 3a 88 a5 3e
       0.12258376 -0.31615195 -0.14563885 0.32330495
000070 76 df 6d be 3a 2c 43 3e 41 87 57 be 0e 65 95 be
       -0.23229775 0.1905984 -0.21047689 -0.2917866
000080 a3 47 42 be 7d d4 80 bd 4e 7c ad be 12 b0 8e 3a
       -0.1897264 -0.06290529 -0.338839 0.0010886213

fc.bias f4 [6]
000000 d2 9a 43 3e 55 e6 c1 be ed 1f b8 3e 10 9d 24 bd
       0.19102028 -0.37871042 0.35961857 -0.04018885
000010 66 62 9b be d1 3f 6b 3e
       -0.3034851 0.22973563
