trained_weights/cadets/selfattention6.pth (torch, 20623 bytes, 8 tensors)

multihead_self_attention.multihead_attn.in_proj_weight f4 [96, 32]
0	0xbe16b111	-0.14715983
1	0x394f5627	0.00019773153
2	0x3d85e6df	0.06538176
3	0x3de64252	0.11243118
4	0xb96cd7d4	-0.00022587116
5	0x3d1c31cb	0.038133424
6	0x3dbd0476	0.092293665
7	0x3a94763a	0.0011326738
8	0xbe14fde2	-0.14549974
9	0x3a06e180	0.00051452965
10	0xbd27cb52	-0.040965386
11	0x3b9b805c	0.0047455262
12	0xbd96c576	-0.073618814
13	0x3e1402bb	0.14454167
14	0x3e0deec5	0.13860615
15	0x3ba853e3	0.005136953
16	0x3dd88003	0.10571291
17	0x3d89ffc3	0.06738236
18	0x3dbc0fe0	0.091827154
19	0x3e187bfa	0.14891043
20	0x3e104d9e	0.14092109
21	0xbddbe37a	-0.10736747
22	0xbd29fa0f	-0.04149824
23	0xbe126d36	-0.14299473
24	0xbcc25546	-0.023722302
25	0x3d47f7f5	0.048820455
26	0xb82610c6	-3.9593106e-05
27	0xbcbbfd4f	-0.022947935
28	0x3d72fb3c	0.059321627
29	0xbd089adf	-0.03335082
30	0x3df226f2	0.118238345
31	0xbce31747	-0.02772106
32	0xbcc25b61	-0.023725213
33	0x3ca6eaf8	0.020375714
34	0xba9585b2	-0.0011407642
35	0xbdb671f4	-0.089084536
36	0xbb6d155b	-0.003617606
37	0xbdb15aa8	-0.086598694
38	0x3dff569c	0.12467691
39	0xbdd5a444	-0.10431722
40	0xbd82af29	-0.063810654
41	0x3ba3e057	0.0050011086
42	0x3e006c68	0.12541354
43	0xbd0faa6d	-0.03507464
44	0x3df3cf23	0.119047426
45	0xbbe73e6e	-0.0070570027
46	0x3cf74705	0.030185232
47	0xbddd29d6	-0.10798995
48	0x3dc012d6	0.09378593
49	0xbd494642	-0.04913927
50	0xb9820814	-0.0002480155
51	0x3e02ac6d	0.12761088
52	0xb7da3519	-2.601235e-05
53	0xba672410	-0.00088173244
54	0xb90a1577	-0.00013168702
55	0x3cf4c7b5	0.029880384
56	0x3ca5a7b1	0.020221563
57	0xbd7fd4e1	-0.062458877
58	0xbdbc8c55	-0.09206454
59	0x3d6e0003	0.05810548
60	0xbe11162d	-0.14168616
61	0xbcfcb8de	-0.03084987
62	0x3b43d5a2	0.0029881974
63	0xbb9cffc3	-0.0047912314
64	0xb8669dc4	-5.4983204e-05
65	0x3d849756	0.064741775
66	0x39f310ca	0.0004636108
67	0x3a862567	0.0010234535
68	0x3db43c1e	0.08800529
69	0x3e18cf99	0.14922942
70	0xbe051d4c	-0.12999457
71	0xbdacda1f	-0.08440041
72	0xbc21ebad	-0.00988285
73	0x3e169c43	0.14708047
74	0x3d952ffe	0.072845444
75	0xbdf417cf	-0.11918604
76	0x3b8275af	0.003981314
77	0xbd120d2a	-0.035657085
78	0x3c1f5ab6	0.009726217
79	0x3dfd7897	0.12376516
80	0xbc65520c	-0.013996612
81	0xb9c75547	-0.00038019774
82	0x38b5772d	8.652951e-05
83	0xb94ce380	-0.00019539706
84	0xbd03bd66	-0.032163046
85	0x3a9cad85	0.0011953568
86	0xb9c48d21	-0.00037489182
87	0xbc1791cb	-0.009251068
88	0x3dba1ded	0.09087739
89	0x3c2dc09b	0.010605003
90	0x3cd4fa14	0.025998153
91	0xb918b0fe	-0.00014561784
92	0x3d9ccc37	0.076561384
93	0xbdee5d04	-0.11638835
94	0xba6393ab	-0.0008681367
95	0x3d066d46	0.032819055
96	0xbdcbd864	-0.099533826
97	0xb9fc02b4	-0.000480672
98	0xbd023dfa	-0.031797387
99	0x38fce50d	0.000120589604
100	0x3e0e5416	0.13899264
101	0xbbb1c6c0	-0.005425304
102	0x3e1380eb	0.14404647
103	0xbdadbe2b	-0.08483537
104	0xbb5f55c5	-0.0034078222
105	0x3dcbb77e	0.09947108
106	0x3c1a0038	0.009399466
107	0x3c9a4cbb	0.018835416
108	0x3d030403	0.031986248
109	0xbdd32d78	-0.10311407
110	0xbdda5a9d	-0.10661814
111	0xbd5c8d81	-0.053845886
112	0x3c900f25	0.017585346
113	0xbd22114d	-0.03956728
114	0xbdfda7fa	-0.123855546
115	0x3d0867ac	0.033301994
116	0x3dda84c8	0.10669857
117	0xbd05b1cb	-0.03264026
118	0x3c7b170d	0.01532532
119	0xbcebe911	-0.028797658
120	0xb9e577e4	-0.0004376761
121	0xbd9d06f9	-0.076673456
122	0xbe05070b	-0.12990968
123	0x3db139fe	0.08653639
124	0x3c509625	0.01273111
125	0xbcd22465	-0.02565212
126	0x3c380b14	0.01123311
127	0xbe0a4c1b	-0.13505594
128	0xbd2a5f76	-0.041594945
129	0x3dd33fba	0.10314889
130	0x3d3a249c	0.04544507
131	0x3dead53b	0.11466452
132	0xba70d8d9	-0.0009187586
133	0x3defb341	0.11704112
134	0xbcdf77e4	-0.027278848
135	0xbe1068f0	-0.1410253
136	0x38e55fe6	0.000109374334
137	0x3d218d9d	0.039441694
138	0x3daf9d3e	0.085749134
139	0x3da3563a	0.07975431
140	0xbb797298	-0.0038062688
141	0x39985ac3	0.00029059322
142	0x3d538ab5	0.051645953
143	0xbe07f6c0	-0.13277721
144	0x3cba0aef	0.022710292
145	0xba6a056c	-0.00089271995
146	0xbc41fd2d	-0.011840147
147	0xbd00d32e	-0.031451397
148	0x3d895d31	0.06707228
149	0xbcaa4238	-0.020783529
150	0x3d90a6d8	0.07063073
151	0x3bd87415	0.006605635
152	0xbc5d2875	-0.013498415
153	0x3e0a325b	0.13495772
154	0xbd846e66	-0.06466369
155	0x3df51c4a	0.11968286
156	0x3883183d	6.2510815e-05
157	0x3a0286f6	0.0004979217
158	0x3c922253	0.017838633
159	0x3d9c5c60	0.07634807
160	0xba45c33f	-0.00075440475
161	0x3d9d5729	0.0768264
162	0xbe00afb3	-0.12567024
163	0x3989df70	0.0002629715
164	0x3d41f8ed	0.047356535
165	0xbe062aee	-0.13102314
166	0x37db0b68	2.6112146e-05
167	0xbd37e6a9	-0.04489771
168	0x3e012242	0.12610725
169	0xb7b2ea02	-2.1328222e-05
170	0xbba19349	-0.004930888
171	0x3790ffbf	1.7285229e-05
172	0xbd477a3c	-0.048700556
173	0xbd5c11f9	-0.053728078
174	0x3ae6443d	0.0017567944
175	0x38630d2b	5.413328e-05
176	0xbd03b1f4	-0.03215213
177	0xbcc65528	-0.024210528
178	0xbc6feefd	-0.014644382
179	0xbd847444	-0.064674884
180	0x3c53a107	0.01291681
181	0xbd459d95	-0.048245985
182	0x3c172bf7	0.009226791
183	0xbe0104c9	-0.12599482
184	0xb8e3dd31	-0.000108654036
185	0x3d20fb14	0.039301947
186	0x3c80847e	0.015688177
187	0xbd1c28d4	-0.038124874
188	0x3e052fbf	0.13006495
189	0x385ec199	5.3109226e-05
190	0x38fe78bf	0.000121341545
191	0x3d976918	0.07393092
192	0x3aac0516	0.0013124074
193	0xbd0b6452	-0.03403122
194	0x3dc7d32a	0.09757073
195	0xbdf5d726	-0.12003927
196	0xbddeb12e	-0.10873638
197	0xbd1d752a	-0.038441814
198	0x3c928416	0.01788525
199	0xbda8dd83	-0.08245375
200	0x3cb2df73	0.021835065
201	0x3dc77900	0.09739876
202	0x3d67eeb9	0.056624148
203	0x3e0a8a41	0.13529302
204	0xbe11506a	-0.14190832
205	0xbdbc7c40	-0.09203386
206	0x3c84255d	0.016131097
207	0x3a06aa59	0.0005137078
208	0xbd66cc8d	-0.05634742
209	0xbbe6c005	-0.0070419335
210	0xba96c780	-0.0011503547
211	0xbd3f0c83	-0.04664279
212	0x3e058604	0.13039404
213	0xbdd4cf4e	-0.10391103
214	0x3b1fc48e	0.002437863
215	0xbb5a0dbf	-0.0033272353
216	0xbe0065d6	-0.12538847
217	0x3d8e45a2	0.06946875
218	0x3d68710b	0.05674843
219	0xb999cb63	-0.0002933397
220	0x3e174607	0.14772807
221	0xbc8041cc	-0.015656374
222	0xbd0fdc01	-0.03512192
223	0x3e1418ec	0.14462632
224	0x3db5ffd4	0.08886686
225	0xbd0ef215	-0.034898836
226	0x39dab15d	0.00041712346
227	0xbdd6dca4	-0.104913026
228	0xba96d9d1	-0.0011509006
229	0xbd820aa2	-0.06349684
230	0xbdb0d19d	-0.086337306
231	0xb9426b22	-0.00018541192
232	0xbcacf8c5	-0.021114716
233	0x3e084993	0.13309316
234	0xb95a1e14	-0.00020801305
235	0x3e143504	0.14473349
236	0xbddef6c7	-0.10886913
237	0xbe07e012	-0.1326907
238	0xbdc79e0c	-0.09746942
239	0xb9fe0613	-0.0004845118
240	0x3e1461cc	0.14490432
241	0xbd834801	-0.06410218
242	0x3e12ce27	0.14336453
243	0x3dc84d21	0.09780336
244	0xbd9389c7	-0.07204013
245	0x3e115f78	0.14196575
246	0xbd127b93	-0.03576238
247	0xba86f89d	-0.0010297481
248	0x3d28e539	0.04123423
249	0x3e0e8e3f	0.1392145
250	0x3a4ee660	0.0007892605
251	0x3e155572	0.14583376
252	0x3cbd24d4	0.02308885
253	0x37fe6547	3.032632e-05
254	0x3d8fb5f1	0.070171244
255	0xbda61ebb	-0.0811133

multihead_self_attention.multihead_attn.in_proj_bias f4 [96]
0	0x00000000	0.0
1	0x00000000	0.0
2	0x00000000	0.0
3	0x00000000	0.0
4	0x00000000	0.0
5	0x00000000	0.0
6	0x00000000	0.0
7	0x00000000	0.0
8	0x00000000	0.0
9	0x00000000	0.0
10	0x00000000	0.0
11	0x00000000	0.0
12	0x00000000	0.0
13	0x00000000	0.0
14	0x00000000	0.0
15	0x00000000	0.0
16	0x00000000	0.0
17	0x00000000	0.0
18	0x00000000	0.0
19	0x00000000	0.0
20	0x00000000	0.0
21	0x00000000	0.0
22	0x00000000	0.0
23	0x00000000	0.0
24	0x00000000	0.0
25	0x00000000	0.0
26	0x00000000	0.0
27	0x00000000	0.0
28	0x00000000	0.0
29	0x00000000	0.0
30	0x00000000	0.0
31	0x00000000	0.0
32	0x00000000	0.0
33	0x00000000	0.0
34	0x00000000	0.0
35	0x00000000	0.0
36	0x00000000	0.0
37	0x00000000	0.0
38	0x00000000	0.0
39	0x00000000	0.0
40	0x00000000	0.0
41	0x00000000	0.0
42	0x00000000	0.0
43	0x00000000	0.0
44	0x00000000	0.0
45	0x00000000	0.0
46	0x00000000	0.0
47	0x00000000	0.0
48	0x00000000	0.0
49	0x00000000	0.0
50	0x00000000	0.0
51	0x00000000	0.0
52	0x00000000	0.0
53	0x00000000	0.0
54	0x00000000	0.0
55	0x00000000	0.0
56	0x00000000	0.0
57	0x00000000	0.0
58	0x00000000	0.0
59	0x00000000	0.0
60	0x00000000	0.0
61	0x00000000	0.0
62	0x00000000	0.0
63	0x00000000	0.0
64	0x3c8585a1	0.01629907
65	0xbaf53ab2	-0.0018709509
66	0xbcd6a04f	-0.026199488
67	0x3c67dea9	0.014152207
68	0xbca6ee9d	-0.020377452
69	0x3ca16e37	0.019705875
70	0xbca7b0ae	-0.02046999
71	0xbc7334ec	-0.0148441605
72	0x3bd3852d	0.006455085
73	0x3c8ce425	0.017198632
74	0x3ceb1492	0.028696332
75	0xbc605659	-0.013692462
76	0xbb00cf29	-0.0019654727
77	0x3c7e8941	0.015535654
78	0x3cad1385	0.021127472
79	0xbb35d9c2	-0.0027748202
80	0xbc910383	-0.01770187
81	0xba6e7eac	-0.0009097855
82	0xb9bf40a0	-0.00036478508
83	0xbc55bb04	-0.013045076
84	0x3bb54fb3	0.0055331825
85	0xbb81ab1b	-0.003957165
86	0xbc0b74b9	-0.008511716
87	0x3b9e1433	0.0048241853
88	0xbb11ae90	-0.0022229291
89	0x3c841f78	0.016128287
90	0x3bd69c4c	0.0065493938
91	0x3a42022c	0.00074008363
92	0xbca85d59	-0.020552324
93	0x3c3bba74	0.011458028
94	0xbbb00064	-0.0053711403
95	0x39f55417	0.00046792693

multihead_self_attention.multihead_attn.out_proj.weight f4 [32, 32]
0	0xbe00b612	-0.12569454
1	0xbe2b6961	-0.16739418
2	0x3da2d9df	0.07951712
3	0xbe24955c	-0.16072601
4	0x3def9665	0.11698607
5	0xbde624c1	-0.11237479
6	0x3d655623	0.05599035
7	0x3dce3668	0.10068971
8	0x3ce54d38	0.027990922
9	0xbccec078	-0.02523826
10	0xbe2904f6	-0.16505799
11	0xbdb868e6	-0.09004383
12	0xbcb165a2	-0.021654908
13	0xbdb412de	-0.08792661
14	0xbdf0685b	-0.11738654
15	0x3d4d6928	0.050149113
16	0x3d1c16d1	0.038107697
17	0xbe27a58c	-0.16371745
18	0x3db37060	0.08761668
19	0x3d8c2082	0.06842138
20	0xbe4aef4d	-0.19817849
21	0x3da1dcb6	0.079034254
22	0x3d27d6ea	0.040976442
23	0xbdd19714	-0.10233894
24	0x3bb28449	0.0054478985
25	0xbe0543d5	-0.13014157
26	0x3cf6c687	0.030123962
27	0x3e0109f3	0.12601452
28	0xbe31c3a0	-0.17359781
29	0xbe54acf3	-0.207691
30	0x3cb7db40	0.022443414
31	0xbdaa8280	-0.08325672
32	0xbd6ca1e7	-0.05777159
33	0xbe5c8722	-0.21535924
34	0xbe028e6c	-0.12749642
35	0xbba0e70e	-0.0049103564
36	0xbe24ad8d	-0.1608183
37	0xbdac4c41	-0.08412982
38	0xbe336405	-0.17518623
39	0x3dd603aa	0.104499176
40	0xbd52b5bd	-0.05144285
41	0x3d9dee72	0.077114955
42	0x3e2faf3e	0.17156693
43	0xbe3e2373	-0.1856821
44	0x3ddfb626	0.10923414
45	0xbcdcb3ad	-0.026941145
46	0x3dea7ec2	0.114499584
47	0x3e1d1a34	0.15342027
48	0x3d0c993d	0.034325827
49	0x3dd2a51d	0.10285399
50	0x3c00c0c1	0.007858456
51	0xbd2044af	-0.039128
52	0xbe012fbb	-0.12615864
53	0x3d7377d8	0.059440464
54	0x3c187184	0.009304408
55	0x3ded1321	0.11575914
56	0xbe06dcc8	-0.13170159
57	0xbab2d092	-0.0013642481
58	0xbe1227e9	-0.14273037
59	0x3d20fc7a	0.03930328
60	0x3d21c067	0.03949013
61	0x3e14229a	0.14466324
62	0xbdaaed2c	-0.08346018
63	0x3df2235a	0.11823149
64	0x3dae1d5c	0.085016936
65	0x3d81f410	0.06345379
66	0xbc7c8e0e	-0.015414728
67	0xbdd59f54	-0.1043078
68	0xbe21d2a4	-0.1580301
69	0x3e21ec21	0.15812732
70	0x3d1ca3a9	0.038242016
71	0xbe16d221	-0.14728595
72	0x3cabedce	0.020987418
73	0xbe00013d	-0.12500472
74	0x3dbaae2e	0.091152534
75	0xbe22a516	-0.15883288
76	0xbd0f4d20	-0.03498566
77	0xbd9a84cb	-0.075448595
78	0x3e0e1fd6	0.13879332
79	0xbcb67ba5	-0.022275755
80	0x3e2b1fac	0.167113
81	0x3d949334	0.07254639
82	0xbe20fe42	-0.15721992
83	0x3d977f05	0.07397274
84	0x3db421a7	0.08795481
85	0xbdd3d041	-0.10342456
86	0xbd6d45d3	-0.057927918
87	0xbdfba463	-0.12287214
88	0xbdc04e97	-0.0938999
89	0x3dcc403c	0.09973189
90	0xbdcaf030	-0.099090934
91	0x3ddaec42	0.10689594
92	0x3d3aea35	0.045633513
93	0x3e2b906b	0.1675431
94	0xbe0fbb2d	-0.14036246
95	0xbe38c14c	-0.18042487
96	0x3dac2280	0.08405018
97	0x3d828831	0.06373633
98	0x3df76897	0.12080496
99	0xbe198c9d	-0.14995046
100	0x3e07c392	0.13258198
101	0xbe155f3a	-0.14587107
102	0xbc1beab0	-0.009516403
103	0x3c12182c	0.008916896
104	0x3e03d880	0.12875557
105	0x3de355ac	0.11100325
106	0xbdd53cdd	-0.104119994
107	0x3df09959	0.11747999
108	0x3e174b45	0.14774807
109	0xbd9acb8b	-0.07558354
110	0xbc842718	-0.016131923
111	0xbe066597	-0.13124691
112	0xbbfe5e2c	-0.007762691
113	0x3e3d4c98	0.1848625
114	0xbd857003	-0.06515505
115	0xbe04932e	-0.1294677
116	0xbd66685e	-0.056251876
117	0x3df60ebe	0.120145306
118	0xbdb793d0	-0.0896374
119	0xbd6dbbf3	-0.05804057
120	0xbd6971cc	-0.05699329
121	0xbd0a8268	-0.03381577
122	0xbdb4b3e1	-0.08823372
123	0xbd90cd5d	-0.0707042
124	0xbc4479c4	-0.011991922
125	0xbde94116	-0.11389367
126	0x3df0ea82	0.11763479
127	0xbca49a86	-0.020093214
128	0xbcb4325e	-0.021996673
129	0xbe21c121	-0.15796329
130	0x3c5b3549	0.013379403
131	0x3de8e89b	0.11372491
132	0x3dcf9fe3	0.10137918
133	0x3c785ea3	0.015159282
134	0x3dacf661	0.084454305
135	0x3d4a94bb	0.049458247
136	0x3d687ba2	0.05675853
137	0x3dcce965	0.10005454
138	0xbd3efe6d	-0.046629358
139	0xbd4af831	-0.0495531
140	0x3e107e44	0.14110667
141	0x3e20c886	0.15701494
142	0x3e14c8aa	0.14529672
143	0x3e015867	0.12631379
144	0xbe04905f	-0.12945698
145	0xbdc23712	-0.0948316
146	0xbdddee93	-0.1083652
147	0xbe273d5c	-0.16332
148	0xbe16b04a	-0.14715686
149	0xbd4af0c4	-0.04954602
150	0xbca22de5	-0.019797275
151	0x3dc8ae47	0.09798866
152	0x3d7eb2a1	0.062182073
153	0x3cfd7ea4	0.030944176
154	0x3b87118d	0.0041219653
155	0xbe0507a8	-0.12991202
156	0xbde5b8ef	-0.11216914
157	0xbd82479e	-0.06361316
158	0xbdeed2ca	-0.116612986
159	0xbe34a699	-0.17641677
160	0x3d126878	0.03574416
161	0x3e06673a	0.13125315
162	0x3ce284d4	0.027651228
163	0xbcd3f8a1	-0.025875391
164	0xbe1aba99	-0.15110244
165	0xbe05a5f6	-0.1305159
166	0x3e1839d6	0.14865813
167	0xbde46fdd	-0.11154149
168	0xbcd41b77	-0.025892003
169	0xbe208842	-0.15676978
170	0x3d53fd47	0.051755216
171	0x3e465bac	0.19370908
172	0xbd69d7f7	-0.057090726
173	0x3d3ccbea	0.046092905
174	0xbce86e05	-0.028372774
175	0xbe0e3bf8	-0.13890064
176	0x3dc630cb	0.09677275
177	0x3e1125e3	0.14174609
178	0x3cba4075	0.022735814
179	0x3d72911a	0.05922041
180	0x3e0e0d6a	0.13872305
181	0x3e01156b	0.12605827
182	0x3e2de55e	0.16982028
183	0xbdcd3bce	-0.100211725
184	0x3c32706a	0.010891059
185	0xbc827e84	-0.015929468
186	0xbe02e576	-0.12782845
187	0x3d81652d	0.06318126
188	0x3d2d5abc	0.04232286
189	0x3de597b9	0.112105794
190	0xbd28a495	-0.041172583
191	0x3e2869a8	0.16446555
192	0xbe0ac13e	-0.13550279
193	0x3c72d467	0.0148211485
194	0x3d9fffad	0.07812438
195	0xbe0b8f87	-0.1362897
196	0xbdd1a40b	-0.10236367
197	0xbdf3c7ff	-0.119033806
198	0xbe418fb4	-0.18902475
199	0x3d9113f5	0.070838846
200	0x3e2550b8	0.16144073
201	0x3d47bb1e	0.048762433
202	0xbe1be879	-0.152254
203	0x3c7f504d	0.01558311
204	0xbcaef77f	-0.02135825
205	0x3e259381	0.1616955
206	0x3b8e7b97	0.004348229
207	0x3e34f235	0.1767052
208	0xbd23a7e4	-0.039955035
209	0xbe0afa8f	-0.13572143
210	0x3e3d28cf	0.18472598
211	0xbd34d078	-0.044144124
212	0xbd0a4ee9	-0.03376666
213	0x3bb0220f	0.005375154
214	0xba1f1b13	-0.0006069403
215	0x3d7f7d59	0.0623754
216	0xba9d6e36	-0.0012010995
217	0xbc2f4a82	-0.010698916
218	0xbc40c9bb	-0.011766846
219	0xbd82a8df	-0.06379866
220	0xbe2cbc4b	-0.16868703
221	0xbd531a3a	-0.051538683
222	0x3b6835a3	0.003543236
223	0x3d8b913f	0.06814813
224	0x3e1a12d6	0.15046248
225	0xbcf5b9fe	-0.029995915
226	0x3e129936	0.14316258
227	0x3da407a3	0.08009269
228	0xbe3b7e8f	-0.18309997
229	0xbde4d152	-0.11172737
230	0xba57d072	-0.000823266
231	0x3ba46d4c	0.005017912
232	0xbd49602f	-0.049163993
233	0x3d0e5e98	0.03475818
234	0x3dff79d9	0.124744125
235	0xbd685b34	-0.056727603
236	0x3d969216	0.073520824
237	0x3e18bd93	0.14916067
238	0x3c2458b1	0.010030911
239	0xbd26b26a	-0.040697493
240	0xbd81a2fb	-0.06329914
241	0xbd13bf1b	-0.036070924
242	0x3e254242	0.16138557
243	0xbe1d21f6	-0.15344986
244	0x3cb980cc	0.022644423
245	0x3c34fb8c	0.011046302
246	0xbd9f52e2	-0.077794805
247	0xbda598b6	-0.08085768
248	0x3dfa5f58	0.122252166
249	0xbd67b38c	-0.056567714
250	0xbe15a5a3	-0.14613967
251	0xbd84bbd7	-0.0648114
252	0x3e12608a	0.14294639
253	0x3d8e6489	0.06952769
254	0x3ab1f416	0.0013576772
255	0x3d2bb444	0.04191996

multihead_self_attention.multihead_attn.out_proj.bias f4 [32]
0	0xbc72bd15	-0.0148155885
1	0xbbb553c4	-0.0055336673
2	0x3bdb5467	0.006693411
3	0x3c97bf4c	0.018523835
4	0xbb062b2b	-0.0020472507
5	0x3c23bb41	0.009993375
6	0x3bd20d5c	0.006410284
7	0x3c9cf048	0.019157544
8	0xbc936f1d	-0.017997319
9	0x3ad94145	0.0016575238
10	0x3b2f0c73	0.0026710301
11	0xbc889c86	-0.016676199
12	0x3b8db501	0.004324556
13	0xba8aad26	-0.0010580167
14	0x3b1d1a70	0.0023972057
15	0xba45b31e	-0.0007541644
16	0x3b9958a7	0.0046797576
17	0xb9b6c032	-0.00034856942
18	0x3b9ba447	0.004749808
19	0x3b2b4e26	0.002613911
20	0xbc12dc13	-0.008963603
21	0x3bd120fd	0.0063821063
22	0xbc12da9e	-0.008963255
23	0xbb22d2e3	-0.0024844937
24	0xbc78993d	-0.015173254
25	0x3b27cd7b	0.0025604654
26	0x3a488239	0.0007648799
27	0xbca0812b	-0.019592842
28	0xbbdf1d29	-0.006808896
29	0xbc3b4eae	-0.011432333
30	0x39015538	0.00012334145
31	0x3c554ac0	0.01301831

multihead_self_attention.fc.weight f4 [6, 32]
0	0xbde53462	-0.11191632
1	0xbd80895b	-0.062761985
2	0xbe1deb9c	-0.15421909
3	0xbcfdbfc0	-0.030975223
4	0xbd932868	-0.07185441
5	0xbdc96d14	-0.09835258
6	0x3dd44ed5	0.103665985
7	0x3ac57ad8	0.0015066518
8	0xbd0feee0	-0.03513992
9	0x3e29fff8	0.1660155
10	0xbe133709	-0.14376463
11	0xbd12668d	-0.03574233
12	0xbe15b29e	-0.14618918
13	0x3e3c8cda	0.18413106
14	0xbb7c439f	-0.0038492454
15	0x3ddeb277	0.10873883
16	0x3d29ba6c	0.04143755
17	0x3dfed9f3	0.12443914
18	0xbda4c81e	-0.08045982
19	0x3df0e527	0.11762457
20	0x3c69972f	0.014257236
21	0xbd268025	-0.040649552
22	0xbd564dc2	-0.05232025
23	0x3deb9bd8	0.11504334
24	0xbdb8a8b4	-0.090165526
25	0xbe0f4f2d	-0.13995047
26	0xbe2c0cdd	-0.16801782
27	0x3d9fc4d9	0.078012176
28	0xbe300040	-0.17187595
29	0xbe053084	-0.13006788
30	0x3ddbeed3	0.107389115
31	0xbd0bd8ee	-0.034142427
32	0xbe2a3182	-0.16620448
33	0x3de65804	0.112472564
34	0xbe00574a	-0.12533298
35	0x3d6383f8	0.055545777
36	0x3dc5bc9b	0.09655114
37	0xbe0f4c2a	-0.13993898
38	0x3e416954	0.18887836
39	0x3e36dded	0.17858095
40	0x3db839e7	0.08995419
41	0xbe0bdfb4	-0.13659555
42	0x3e2dcf3d	0.16973586
43	0x3cf8696b	0.030323705
44	0x3de12fa1	0.109954126
45	0xbe25f986	-0.16208467
46	0x3de6eb01	0.11275292
47	0xbe03e51e	-0.1288037
48	0xbdb64854	-0.08900514
49	0xbe3ca179	-0.18420972
50	0x3d87c90a	0.06630142
51	0x3e38b7c3	0.1803885
52	0x3d727c6a	0.05920068
53	0xbd400379	-0.04687831
54	0x3d83e3ee	0.064399585
55	0x3df8bb97	0.12145155
56	0xbe2d2728	-0.16909468
57	0x3e3dbf6b	0.18530051
58	0x3d93f231	0.07223929
59	0xbe33267f	-0.17495154
60	0xbde36a98	-0.111043155
61	0x3db91971	0.09038056
62	0xbdbb453a	-0.09144063
63	0xbd7fe334	-0.062472537
64	0x3d1f348c	0.038868472
65	0x3dabc924	0.08387974
66	0x3db9a203	0.090641044
67	0xbd6368e5	-0.055519957
68	0xbe0c2a3b	-0.13687985
69	0xbde1409f	-0.109986536
70	0x3e093104	0.13397604
71	0xbccf8711	-0.02533296
72	0xbe0823a3	-0.13294844
73	0xbe21cb0e	-0.15800115
74	0x3e05d609	0.13069929
75	0xbe03fbd8	-0.1288904
76	0xbd8e5353	-0.069494866
77	0x3c324bec	0.010882359
78	0xbd8e998e	-0.06962882
79	0x3de49be6	0.11162548
80	0xbd10bc52	-0.035335846
81	0x3d4bd244	0.04976107
82	0xbdcd4be9	-0.10024244
83	0xbd952769	-0.072829075
84	0x3c8ef82d	0.017452324
85	0x3d79ecba	0.061016776
86	0xbe0acd32	-0.13554838
87	0xbe34ebdf	-0.17668103
88	0xbd033066	-0.03202858
89	0xbcae3a61	-0.021268072
90	0x3dfe77fa	0.124252275
91	0xbe234556	-0.15944418
92	0xbc8d6c24	-0.01726348
93	0xbdef1e78	-0.11675733
94	0x3df6ab42	0.120443836
95	0x3e152647	0.14565383
96	0xbe49f55b	-0.19722502
97	0xbdeed862	-0.116623655
98	0x3db87fa4	0.090087205
99	0xbd9ba65a	-0.076000884
100	0x3ddb1d5f	0.106989615
101	0x3e485fc9	0.19567789
102	0xbde5d7ca	-0.11222799
103	0xbc6ff7c2	-0.014646472
104	0xbd8fa875	-0.070145525
105	0x3e35475b	0.17703001
106	0x3d689ad6	0.056788288
107	0xbe1ef232	-0.15522078
108	0x3de238a5	0.1104596
109	0x3b647643	0.0034860529
110	0x3d6afbd9	0.057369087
111	0x3dbb0a6f	0.091328494
112	0x3dc9b9d0	0.09849894
113	0xbdba5102	-0.09097482
114	0x3e199352	0.14997604
115	0x3e042661	0.12905265
116	0xbca0efea	-0.01964565
117	0x3e34e80d	0.17666645
118	0xbe3fa3ab	-0.18714778
119	0xbd17d786	-0.037070774
120	0xbd4959fe	-0.04915809
121	0x3ddb293e	0.10701226
122	0xbd6d0d8d	-0.05787425
123	0x3c30402f	0.01075749
124	0xbe3ca376	-0.1842173
125	0xbe3f60dd	-0.18689294
126	0xbd82d4c0	-0.06388235
127	0xbe07a354	-0.13245898
128	0x3dc00789	0.09376437
129	0x3de9a61b	0.11408635
130	0x3ddd38bc	0.10801837
131	0x3bf4b710	0.007468112
132	0x3e25d855	0.16195805
133	0xbe3e9c64	-0.18614346
134	0xbe21f80c	-0.15817279
135	0xbe1d8c6f	-0.15385602
136	0xbd1eef21	-0.03880227
137	0xbe123fb1	-0.14282109
138	0xbdadae2e	-0.08480488
139	0x3daf45a7	0.08558207
140	0xbdee1edf	-0.11626982
141	0x3e227667	0.1586548
142	0x3e332072	0.17492846
143	0x3db82673	0.089917086
144	0xbd0e8958	-0.03479895
145	0xbdfd6783	-0.12373259
146	0xbdc5af06	-0.09652524
147	0xbdd434de	-0.10361646
148	0x3d88734c	0.06662616
149	0xbc76149a	-0.01501956
150	0x3cd250fc	0.025673382
151	0xbdc94ee6	-0.09829502
152	0x3db937c7	0.09043842
153	0x3dfb3188	0.12265307
154	0x3d396124	0.045258656
155	0xbcdf87a0	-0.02728635
156	0x3d814d13	0.06313529
157	0xbb91317a	-0.004430947
158	0xbe1aa915	-0.15103562
159	0x3e0ae844	0.13565165
160	0x3db6ed90	0.0893203
161	0x3d42baa2	0.04754127
162	0xbde252ce	-0.1105095
163	0xbde8a7a4	-0.113601
164	0x3dbc8ea3	0.09206893
165	0xbd2accd1	-0.041699234
166	0x3d754b2e	0.05988615
167	0xbc2f1de9	-0.0106882835
168	0x3e3a964a	0.18221393
169	0xbe0295c3	-0.12752442
170	0x3e0b4fc6	0.1360465
171	0x3e358b38	0.17728889
172	0x3d891a39	0.06694455
173	0xbe276424	-0.16346794
174	0x3da71302	0.08157922
175	0x3dd3dcbc	0.10344836
176	0xbd9d335f	-0.07675814
177	0xbe22bfc2	-0.15893462
178	0x3dbe6589	0.0929671
179	0x3d9b3f7e	0.075804695
180	0x3e06202e	0.13098213
181	0x3dd4d91f	0.10392975
182	0xbde36371	-0.11102951
183	0x3cf8c4d3	0.03036729
184	0x3dbd65df	0.09247946
185	0x3d858c79	0.06520934
186	0xbb8ce5ef	-0.004299871
187	0x3d5e59fe	0.054285042
188	0xbd51db13	-0.051234316
189	0x3dc095f8	0.09403604
190	0xbd8338cc	-0.064073175
191	0xbe01edc0	-0.1268835

multihead_self_attention.fc.bias f4 [6]
0	0xbdc167ed	-0.094436504
1	0x3db4eccf	0.0883423
2	0xbdbcb9a0	-0.09215093
3	0x3e30821a	0.1723713
4	0x3e1ba155	0.15198262
5	0x3da9c933	0.08290329

fc.weight f4 [6, 6]
0	0xbeae5441	-0.34048656
1	0x3e821856	0.25409192
2	0x3ec68531	0.38773492
3	0x3e3af69c	0.18258137
4	0xbdc1699a	-0.0944397
5	0xbda40b18	-0.080099285
6	0xbea4e303	-0.32204446
7	0x3e605f4d	0.21911354
8	0x3ea83dfc	0.3285979
9	0x3eb42bb7	0.35189602
10	0xbe21692e	-0.15762779
11	0xbea24144	-0.3169042
12	0x3e8479e9	0.2587426
13	0xbe3b71a4	-0.18305069
14	0x3d5b4763	0.053534877
15	0x3ec8487e	0.39117807
16	0xbecce02d	-0.40014783
17	0xbeca1550	-0.39469385
18	0x3e2ccf55	0.16875966
19	0x3e5f5ce8	0.21812785
20	0x3e318821	0.17337085
21	0xbbcfd418	-0.006342422
22	0x3e70b25f	0.23505543
23	0xbe96cc77	-0.2945287
24	0x3de59eca	0.11211927
25	0xbe952494	-0.2912947
26	0xbe08988d	-0.13339444
27	0x3ea8f71b	0.33001027
28	0xbe6c520a	-0.2307817
29	0x3e3d90c8	0.18512261
30	0xbe6718ee	-0.22568104
31	0xbe95f809	-0.29290798
32	0xbe627600	-0.22115326
33	0xbda5485b	-0.08070441
34	0xbea41caf	-0.32053134
35	0x3cc7e13b	0.02439939

fc.bias f4 [6]
0	0x3e3441d1	0.17603232
1	0xbebb54da	-0.36588174
2	0x3eb60ff2	0.3555904
3	0xbd67ab45	-0.05655982
4	0xbe99d165	-0.30042568
5	0x3e600ce7	0.21879922
