trained_weights/cadets/selfattention5.pth (torch, 20623 bytes, 8 tensors)

multihead_self_attention.multihead_attn.in_proj_weight f4 [96, 32]
-0.15413168 -0.00026529768 0.07152381 0.11916404 0.00021219587 0.043565836 0.09882795 0.0010375483
-0.15246221 0.0003487521 -0.046497315 0.0074362233 -0.0799021 0.15149869 0.145528 0.007907642
0.112385884 0.07356087 0.09835609 0.15589194 0.14785692 -0.11405572 -0.04704799 -0.14994283
-0.028474154 0.054590154 -0.00036411147 -0.027651614 0.06534337 -0.03859408 0.12501872 -0.03269875
-0.028477242 0.024907114 -0.0013118125 -0.09558115 -0.0060552317 -0.09306477 0.1315059 -0.11097702
-0.06992298 0.0077444427 0.13224784 -0.040389437 0.12583412 -0.010175217 0.035285745 -0.11468385
0.10033709 -0.054917604 0.00016269322 0.13446073 9.5123054e-05 -0.0014271933 0.000979367 0.034966294
0.024741987 -0.06854485 -0.098596215 0.0641011 -0.14862655 -0.035981666 0.0052668364 -0.0074914577
0.000453193 0.07087184 9.419324e-05 0.00068028155 0.09448881 0.15621263 -0.13686085 -0.09083837
-0.0134138735 0.15405186 0.0791164 -0.1259738 0.0065045888 -0.040995162 0.01323672 0.1305875
-0.01799415 -0.0017594425 -0.00015254602 -0.0014842399 -0.03735456 0.0029153049 -0.0017516254 -0.012697813
0.0973953 0.014227631 0.03088293 -0.0001262989 0.082889915 -0.123153985 -0.0014232264 0.038039405
-0.10614642 -0.0019066116 -0.036972545 0.00058759964 0.14591685 -0.008252701 0.15100065 -0.09127899
-0.0057940637 0.10608303 0.012866375 0.023253432 0.037169877 -0.109762296 -0.11329952 -0.059744082
0.02190485 -0.045051128 -0.13067855 0.03854317 0.11338069 -0.037852813 0.0194496 -0.033830382
-0.00059518305 -0.08300367 -0.13677539 0.093001686 0.016598241 -0.030517466 0.014931661 -0.14195557
-0.047147896 0.10979747 0.05111877 0.12141607 -0.0014358099 0.12381198 -0.032233275 -0.14796177
-0.00056554045 0.044921122 0.09220447 0.08612927 -0.006288845 0.0001675699 0.057489857 -0.13966206
0.027398862 -0.00037431173 -0.01560903 -0.03661089 0.073245235 -0.025343599 0.076865405 0.009648024
-0.017445818 0.1418567 -0.07079229 0.1264745 -0.00022826812 0.00022194127 0.0221786 0.082673416
-9.317739e-05 0.083158895 -0.13250639 0.00024650368 0.053085636 -0.13789636 -0.0011452137 -0.050555017
0.13294649 -2.1253149e-05 -0.0076599144 2.362049e-05 -0.05446699 -0.05962344 0.0036732077 0.0012693277
-0.037343156 -0.028991949 -0.018704927 -0.07080368 0.016803721 -0.053999934 0.012670214 -0.13283329
-0.00083763024 0.044776443 0.01984543 -0.04355697 0.13693172 -0.0004550858 0.00085188553 0.08021912
0.003075408 -0.0393032 0.10416295 -0.12683365 -0.11543701 -0.043885477 0.022228952 -0.088865936
0.02646663 0.10398916 0.06258697 0.14219415 -0.14885004 -0.09856518 0.02032772 0.0012215901
-0.062303998 -0.010157666 -0.0011597403 -0.052351538 0.13726304 -0.11056695 0.004564253 -0.0056933262
-0.13222258 0.07568375 0.062714055 1.7027487e-06 0.15470307 -0.019810766 -0.040438622 0.15158385
0.09536086 -0.04020652 -3.0705214e-05 -0.11157848 -0.0012499677 -0.069603115 -0.09280008 0.00013220738
-0.025697673 0.1399801 0.00024689146 0.15169163 -0.11557093 -0.13957497 -0.10406055 -0.00053179
0.15186343 -0.070220105 0.1503148 0.10439802 -0.078298084 0.14890781 -0.04110462 -0.00069681596
0.04677518 0.14614008 0.0013931678 0.15279818 0.027801411 -0.00067062577 0.076398194 -0.087507226
00000000: b2d4 1dbe a717 8bb9 137b 923d 470c f43d
00000010: e580 5e39 1772 323d 4f66 ca3d 58fe 873a
00000020: 0e1f 1cbe b7d8 b639 f873 3ebd 90ab f33b
00000030: b6a3 a3bd 7922 1b3e 4b05 153e 0e8f 013c
00000040: 922a e63d 15a7 963d eb6e c93d 23a2 1f3e
00000050: ce67 173e 0c96 e9bd 65b5 40bd 9d8a 19be
00000060: a142 e9bc ed99 5f3d 37e6 beb9 a385 e2bc
00000070: bfd2 853d d314 1ebd e804 003e 20ef 05bd
00000080: 1b49 e9bc 010a cc3c 20f1 abba 0dc0 c3bd
00000090: f76a c6bb be98 bebd 7ca9 063e eb47 e3bd
000000a0: c833 8fbd 18c5 fd3b fa6b 073e 656f 25bd
000000b0: a9da 003e f4b5 26bc c987 103d 5edf eabd
000000c0: 887d cd3d 48f1 60bd a198 2a39 13b0 093e
000000d0: cd7c c738 a910 bbba 1a5e 803a d138 0f3d
000000e0: b5af ca3c 3e61 8cbd d0ec c9bd 7047 833d
000000f0: 8f31 18be 8361 13bd 6d95 ac3b e77a f5bb
00000100: 899a ed39 4125 913d 9c89 c538 ec54 323a
00000110: 5983 c13d 34f6 1f3e 4025 0cbe 7809 babd
00000120: ddc5 5bbc c5bf 1d3e c707 a23d 47ff 00be
00000130: 7224 d53b 8bea 27bd d4de 583c bbb8 053e
00000140: 7868 93bc 189d e6ba c3f4 1fb9 d48a c2ba
00000150: 1801 19bd b30e 3f3b cc96 e5ba 7d0a 50bc
00000160: 3077 c73d 021b 693c 33fe fc3c 1a6f 04b9
00000170: 30c2 a93d 2838 fcbd 8e8b baba 35cf 1b3d
00000180: 4b63 d9bd 45e7 f9ba 8670 17bd 2509 1a3a
00000190: 3a6b 153e 5636 07bc ea9f 1a3e 7bf0 babd
000001a0: 21dc bdbb 0f42 d93d 7dcd 523c fb7d be3c
000001b0: 713f 183d 0ecb e0bd 9409 e8bd 36b6 74bd
000001c0: cd71 b33c 8887 38bd 99d0 05be 71df 1d3d
000001d0: 2334 e83d 8d0b 1bbd c454 9f3c ba91 0abd
000001e0: 0f06 1cba d4fd a9bd d90e 0cbe ab77 be3d
000001f0: 09f9 873c c4ff f9bc eda3 743c cd5c 11be
00000200: 271e 41bd 7fdd e03d ea61 513d fda8 f83d
00000210: c931 bcba 2391 fd3d 0a07 04bd 4a83 17be
00000220: c740 14ba 36ff 373d b2d5 bc3d 8b64 b03d
00000230: a812 cebb b4b5 2f39 7c7a 6b3d 9203 0fbe
00000240: 9473 e03c 453f c4b9 04bd 7fbc 4df5 15bd
00000250: 9901 963d 619d cfbc 9c6b 9d3d bf12 1e3c
00000260: 88ea 8ebc e242 113e 8cfb 90bd 8882 013e
00000270: 425b 6fb9 e8b8 6839 e5af b53c ae50 a93d
00000280: 3b68 c3b8 364f aa3d c1af 07be 2a3d 8139
00000290: 5370 593d b434 0dbe ff1a 96ba c712 4fbd
000002a0: 2023 083e ca48 b2b7 0500 fbbb 9e24 c637
000002b0: c718 5fbd b537 74bd 33ba 703b 925f a63a
000002c0: 23f5 18bd 8680 edbc 133b 99bc 8501 91bd
000002d0: f5a7 893c 092f 5dbd bb96 4f3c 7305 08be
000002e0: 6a94 5bba 8167 373d e292 a23c cb68 32bd
000002f0: d437 0c3e 9598 eeb9 1251 5f3a ec49 a43d
00000300: c98c 493b 64fc 20bd 6253 d53d aee0 01be
00000310: 3d6a ecbd 42c1 33bd 7e19 b63c 58ff b5bd
00000320: 8cd0 d83c 45f8 d43d 992d 803d 589b 113e
00000330: 256c 18be 8bdc c9bd 5286 a63c c31d a03a
00000340: 7a32 7fbd 576c 26bc 6d02 98ba 916e 56bd
00000350: af8e 0c3e ed70 e2bd bb8f 953b 158f babb
00000360: 5b65 07be 1500 9b3d 3a70 803d 008a e435
00000370: 7b6a 1e3e 304a a2bc f8a2 25bd cc38 1b3e
00000380: 8e4c c33d 98af 24bd 79c9 00b8 4283 e4bd
00000390: f5d5 a3ba 148c 8ebd f80d bebd 26a1 0a39
000003a0: ed83 d2bc f156 0f3e 3671 8139 0d55 1b3e
000003b0: 74b0 ecbd beec 0ebe b31d d5bd d367 0bba
000003c0: 1682 1b3e 8fcf 8fbd 1fec 193e a1ce d53d
000003d0: bf5a a0bd 4a7b 183e 515d 28bd 87aa 36ba
000003e0: 5597 3f3d bfa5 153e f49a b63a 2077 1c3e
000003f0: c9bf e33c efcc 2fba a876 9c3d fd36 b3bd

multihead_self_attention.multihead_attn.in_proj_bias f4 [96]
0.0 0.0 0.0 0.0 0.0 0.0 0.0 0.0
0.0 0.0 0.0 0.0 0.0 0.0 0.0 0.0
0.0 0.0 0.0 0.0 0.0 0.0 0.0 0.0
0.0 0.0 0.0 0.0 0.0 0.0 0.0 0.0
0.0 0.0 0.0 0.0 0.0 0.0 0.0 0.0
0.0 0.0 0.0 0.0 0.0 0.0 0.0 0.0
0.0 0.0 0.0 0.0 0.0 0.0 0.0 0.0
0.0 0.0 0.0 0.0 0.0 0.0 0.0 0.0
0.017142657 -0.0014339777 -0.025677802 0.012768399 -0.02085318 0.017413354 -0.02100819 -0.015634388
0.0066640214 0.017943226 0.027785849 -0.014037555 -0.002290653 0.016813992 0.021869909 -0.0029846525
-0.017849613 -0.0011236937 0.00064627477 -0.013646009 0.0058153886 -0.0038171592 -0.00839975 0.0035260655
-0.002036051 0.015975703 0.005751864 0.001436506 -0.02011627 0.0125648845 -0.006037935 0.0011374106
00000000: 0000 0000 0000 0000 0000 0000 0000 0000
00000010: 0000 0000 0000 0000 0000 0000 0000 0000
00000020: 0000 0000 0000 0000 0000 0000 0000 0000
00000030: 0000 0000 0000 0000 0000 0000 0000 0000
00000040: 0000 0000 0000 0000 0000 0000 0000 0000
00000050: 0000 0000 0000 0000 0000 0000 0000 0000
00000060: 0000 0000 0000 0000 0000 0000 0000 0000
00000070: 0000 0000 0000 0000 0000 0000 0000 0000
00000080: 0000 0000 0000 0000 0000 0000 0000 0000
00000090: 0000 0000 0000 0000 0000 0000 0000 0000
000000a0: 0000 0000 0000 0000 0000 0000 0000 0000
000000b0: 0000 0000 0000 0000 0000 0000 0000 0000
000000c0: 0000 0000 0000 0000 0000 0000 0000 0000
000000d0: 0000 0000 0000 0000 0000 0000 0000 0000
000000e0: 0000 0000 0000 0000 0000 0000 0000 0000
000000f0: 0000 0000 0000 0000 0000 0000 0000 0000
00000100: c26e 8c3c 4ff4 bbba 415a d2bc 8c32 513c
00000110: 4ad4 aabc 73a6 8e3c 5e19 acbc b013 80bc
00000120: dd5d da3b acfd 923c 269f e33c c6fd 65bc
00000130: c81e 16bb 7fbd 893c 8628 b33c 299a 43bb
00000140: 5a39 92bc e748 93ba c46a 293a 8393 5fbc
00000150: 048f be3b 4e29 7abb 1b9f 09bc 9015 673b
00000160: 446f 05bb 7adf 823c 227a bc3b 2549 bc3a
00000170: e0ca a4bc f2dc 4d3c dfd9 c5bb 2b15 953a

multihead_self_attention.multihead_attn.out_proj.weight f4 [32, 32]
-0.12690161 -0.16479611 0.07690145 -0.15881674 0.11724176 -0.10915321 0.05811644 0.09786833
0.029861528 -0.023243723 -0.16544528 -0.086894765 -0.022083757 -0.08724868 -0.11722489 0.047514282
0.03842752 -0.16120851 0.08341184 0.067272 -0.19618684 0.08009615 0.043681737 -0.10296069
0.0046344553 -0.13305694 0.030587519 0.1262768 -0.17272915 -0.20450576 0.017927047 -0.08241452
-0.05891534 -0.21019477 -0.12982406 -0.0035876646 -0.16042946 -0.08280919 -0.17390683 0.10050942
-0.04976573 0.07720359 0.17089629 -0.18149598 0.107578255 -0.02629979 0.11363392 0.15020722
0.035527036 0.10269471 0.004920438 -0.039347004 -0.12478737 0.058561835 0.014490324 0.11505142
-0.12722689 -0.0033248109 -0.14285539 0.040549304 0.03980001 0.14659755 -0.086526066 0.12366636
0.085140795 0.06864932 -0.015008094 -0.10591027 -0.15707302 0.15670697 0.038072232 -0.14696224
0.021552462 -0.12694338 0.0897375 -0.15677431 -0.03689657 -0.07583565 0.13736348 -0.023992557
0.1669299 0.0697733 -0.1562605 0.075073235 0.08777708 -0.10573246 -0.05267113 -0.12352698
-0.08789189 0.099766806 -0.0991629 0.10763743 0.04451452 0.16683848 -0.13936743 -0.17563957
0.08446136 0.06373109 0.12092666 -0.1501939 0.13230142 -0.14724293 -0.010645121 0.009654683
0.12855433 0.10993567 -0.10397428 0.11598293 0.14707382 -0.075426646 -0.016894173 -0.13140394
-0.007091339 0.18298893 -0.0625225 -0.12909745 -0.057229377 0.11885517 -0.08859221 -0.058461007
-0.053484097 -0.033144336 -0.08848246 -0.07047068 -0.012649787 -0.114996344 0.11915804 -0.018741298
-0.022970827 -0.15192817 0.014795132 0.11144602 0.10371195 0.014315784 0.086928345 0.048665863
0.057326376 0.09725638 -0.05033302 -0.04457707 0.13990931 0.15556273 0.14293759 0.12420316
-0.13207632 -0.09509325 -0.11138599 -0.16194394 -0.14660722 -0.052422173 -0.013706155 0.09761465
0.06657577 0.030341944 0.0059909206 -0.13072136 -0.113603786 -0.063437544 -0.11745693 -0.16878147
0.03774609 0.12949441 0.031917475 -0.031381387 -0.15020184 -0.13465655 0.14662871 -0.10384132
-0.027544785 -0.16015592 0.05065575 0.19003546 -0.056890514 0.044513427 -0.028643701 -0.1355594
0.09423838 0.13798894 0.027074145 0.0613466 0.13682331 0.12434593 0.16697575 -0.09994957
0.01208671 -0.012594029 -0.12811539 0.062220667 0.04012469 0.10827017 -0.035111185 0.1665417
-0.1372918 0.014967237 0.06889364 -0.12902482 -0.10632307 -0.11322282 -0.18973294 0.06576738
0.16581571 0.05588473 -0.1462155 0.016169349 -0.02260683 0.16759124 0.0073654708 0.17192906
-0.032167517 -0.13494863 0.18243799 -0.04890467 -0.030973619 0.00974086 0.0005178216 0.06154135
-0.0013224083 -0.016970152 -0.015104054 -0.061443232 -0.1655497 -0.045419227 -0.004142357 0.064671606
0.1507694 -0.02556896 0.1400636 0.08115497 -0.18385668 -0.11170722 -0.0028140785 0.0026779515
-0.046808153 0.034763966 0.12596111 -0.056331713 0.070260964 0.1510669 0.009789449 -0.044502433
-0.05972927 -0.0411092 0.16304775 -0.15350701 0.023382306 0.009679513 -0.07216651 -0.082204126
0.12913327 -0.0584473 -0.1491629 -0.061892737 0.14346732 0.07041576 0.00037539564 0.04603602
00000000: 7ff2 01be 50c0 28be 827e 9d3d dba0 22be
00000010: 731c f03d b88b dfbd 810b 6e3d 316f c83d
00000020: 2aa0 f43c 9f69 bebc 7d6a 29be e2f5 b1bd
00000030: ffe8 b4bc 70af b2bd 9a13 f0bd 569e 423d
00000040: 2d66 1d3d d813 25be d4d3 aa3d e7c5 893d
00000050: 34e5 48be 7309 a43d 9feb 323d 0edd d2bd
00000060: a1dc 973b 1440 08be ad92 fa3c b54e 013e
00000070: e9df 30be f569 51be bedb 923c f2c8 a8bd
00000080: 3651 71bd 4c3d 57be 99f0 04be 061f 6bbb
00000090: 9f47 24be dd97 a9bd a214 32be e2d7 cd3d
000000a0: 26d7 4bbd ea1c 9e3d 70ff 2e3e 15da 39be
000000b0: fd51 dc3d a872 d7bc e7b8 e83d eccf 193e
000000c0: cc84 113d 9b51 d23d a03b a13b 532a 21bd
000000d0: 8590 ffbd 89de 6f3d d368 6d3c 14a0 eb3d
000000e0: c447 02be 12e5 59bb af48 12be 0717 263d
000000f0: 5605 233d ab1d 163e 9434 b1bd ca44 fd3d
00000100: 4c5e ae3d 0498 8c3d 82e4 75bc 7ce7 d8bd
00000110: c0d7 20be cb77 203e a1f1 1b3d 457d 16be
00000120: ca8e b03c 72fd 01be 4bc8 b73d 7289 20be
00000130: dc20 17bd b94f 9bbd 03a9 0c3e 0a8c c4bc
00000140: acef 2a3e 4ee5 8e3d c102 20be ffbf 993d
00000150: 78c4 b33d 438a d8bd afbd 57bd b7fb fcbd
00000160: aa00 b4bd 8a52 cc3d eb15 cbbd 0371 dc3d
00000170: db54 363d b5d7 2a3e 56b6 0ebe dcda 33be
00000180: 14fa ac3d 7285 823d 66a8 f73d 6ecc 19be
00000190: 067a 073e dac6 16be e068 2ebc ad2e 1e3c
000001a0: bfa3 033e f425 e13d 78f0 d4bd 7588 ed3d
000001b0: 859a 163e 4979 9abd a665 8abc c18e 06be
000001c0: 775e e8bb 7361 3b3e cc0b 80bd 1f32 04be
000001d0: 5a69 6abd 576a f33d d56f b5bd cf74 6fbd
000001e0: 2412 5bbd 5bc2 07bd 4b36 b5bd ef52 90bd
000001f0: 0d41 4fbc 3483 ebbd 2109 f43d 5a87 99bc
00000200: 512d bcbc 0f93 1bbe 4867 723c d03d e43d
00000210: ee66 d43d c08c 6a3c 7d07 b23d db55 473d
00000220: 10cf 6a3d 5a2e c73d ff29 4ebd 7296 36bd
00000230: 6344 0f3e d64b 1f3e 3b5e 123e 3a5e fe3d
00000240: 043f 07be 40c0 c2bd 571e e4bd a2d4 25be
00000250: 3420 16be a2b8 56bd c88f 60bc 31ea c73d
00000260: e158 883d ab8f f83c 7c4f c43b d2db 05be
00000270: 1aa9 e8bd 8beb 81bd 428d f0bd 0dd5 2cbe
00000280: a59b 1a3d 2f9a 043e e6bb 023d c589 00bd
00000290: 83ce 19be 68e3 09be d625 163e c2aa d4bd
000002a0: 9aa5 e1bc eaff 23be 677c 4f3d a898 423e
000002b0: 0706 69bd b653 363d 32a6 eabc 15d0 0abe
000002c0: 0d00 c13d f94c 0d3e 99ca dd3c 9346 7b3d
000002d0: 691b 0c3e 14a9 fe3d b1fb 2a3e 5cb2 ccbd
000002e0: 5607 463c 3057 4ebc ae30 03be 19db 7e3d
000002f0: c959 243d c0bc dd3d bfd0 0fbd e889 2a3e
00000300: 3996 0cbe 2439 753c 1c18 8d3d 151f 04be
00000310: e9bf d9bd 5ee1 e7bd 5a49 42be 0cb1 863d
00000320: 98cb 293e 63e7 643d 84b9 15be 9575 843c
00000330: f531 b9bc 0a9d 2b3e 0c5a f13b 2c0e 303e
00000340: 16c2 03bd f92f 0abe 06d1 3a3e 4350 48bd
00000350: 63bc fdbc 2198 1f3c 6bbe 073a c812 7c3d
00000360: a954 adba fd04 8bbc fe76 77bc e6ab 7bbd
00000370: dc85 29be 8309 3abd 9cbc 87bb 8c72 843d
00000380: 4b63 1a3e ff75 d1bc d56c 0f3e 9434 a63d
00000390: ed44 3cbe c1c6 e4bd 676c 38bb 9280 2f3b
000003a0: e8b9 3fbd a964 0e3d f3fb 003e 15bc 66bd
000003b0: fbe4 8f3d 48b1 1a3e ed63 203c 2f48 36bd
000003c0: aea6 74bd 1f62 28bd fdf5 263e f130 1dbe
000003d0: 408c bf3c d296 1e3c 09cc 93bd a35a a8bd
000003e0: 833b 043e 7066 6fbd 29be 18be 3d83 7dbd
000003f0: 19e9 123e 2336 903d c0d0 c439 4490 3c3d

multihead_self_attention.multihead_attn.out_proj.bias f4 [32]
-0.015070964 -0.0054521267 0.0064009563 0.018984266 -0.0038638283 0.009349325 0.009477458 0.02112876
-0.018738855 0.0016791475 0.0027128155 -0.01730972 0.0039147884 -0.0009450682 0.0006768971 -0.0011980161
0.0046343477 0.00040861973 0.0035310115 0.0025790886 -0.009699439 0.0041194367 -0.008361154 -0.002426047
-0.016207196 0.001974748 0.0008477939 -0.0199168 -0.0068931426 -0.011669228 0.0012368917 0.014201606
00000000: 34ec 76bc c1a7 b2bb 1dbf d13b e484 9b3c
00000010: 4838 7dbb e92d 193c 5747 1b3c 3916 ad3c
00000020: 3a82 99bc d716 dc3a 7ec9 313b 1dcd 8dbc
00000030: a047 803b 74be 77ba cc71 313a c006 9dba
00000040: badb 973b 033c d639 8b68 673b ed05 293b
00000050: 65ea 1ebc 57fc 863b 39fd 08bc 51fe 1ebb
00000060: f4c4 84bc c66a 013b 7c3e 5e3a 8f28 a3bc
00000070: dfdf e1bb 4a30 3fbc 331f a23a daad 683c

multihead_self_attention.fc.weight f4 [6, 32]
-0.11194671 -0.05971691 -0.15396722 -0.03102843 -0.06757194 -0.10186085 0.10393664 0.002368378
-0.032992087 0.16466048 -0.14121304 -0.036338173 -0.14544065 0.18209267 -0.0011073446 0.107218124
0.038571034 0.11884422 -0.0803803 0.11718332 0.014976913 -0.039341226 -0.051535208 0.11457417
-0.08991841 -0.13276024 -0.16719949 0.07532083 -0.17104208 -0.1274614 0.10614117 -0.029999878
-0.16656384 0.11037465 -0.12504625 0.05489486 0.09336417 -0.1368033 0.18831338 0.1781452
0.087602355 -0.13480347 0.1676527 0.030441087 0.11069432 -0.16008282 0.11045675 -0.12818906
-0.086274184 -0.17982502 0.06702783 0.18116249 0.05829186 -0.047210097 0.063827 0.1214391
-0.1698185 0.17884576 0.07235473 -0.17285843 -0.11205561 0.08841214 -0.09021285 -0.06562665
0.037764035 0.08267631 0.09198081 -0.056981526 -0.13996133 -0.106392734 0.13306466 -0.025352668
-0.13609177 -0.15546708 0.12910216 -0.12960993 -0.06729389 0.013561927 -0.07241181 0.11125345
-0.03176647 0.05336072 -0.09891495 -0.07129214 0.015831806 0.061708055 -0.1366253 -0.17746791
-0.033571377 -0.027059771 0.12543277 -0.15773082 -0.01898638 -0.1190506 0.1221664 0.14319566
-0.1938402 -0.11915474 0.08658287 -0.0738113 0.105194904 0.19386142 -0.10704279 -0.015932966
-0.06624139 0.1725709 0.055096008 -0.1527728 0.10550266 0.002976513 0.062225983 0.096592
0.0969279 -0.08917412 0.1468298 0.1260801 -0.017929183 0.17365387 -0.18595755 -0.034223653
-0.04588938 0.104139775 -0.060939755 0.011474084 -0.1821436 -0.18754926 -0.06670378 -0.13604721
0.09397966 0.11095486 0.10745925 0.00840325 0.16098239 -0.18430561 -0.1598255 -0.15499708
-0.04009109 -0.14186774 -0.087302715 0.08682436 -0.1169483 0.15870531 0.17232229 0.09023299
-0.034385487 -0.11971639 -0.096184924 -0.10388797 0.06697178 -0.016836703 0.026047876 -0.09761959
0.09060216 0.11855347 0.04424753 -0.024429336 0.063423745 -0.0050123353 -0.15018664 0.13292882
0.087148465 0.046229903 -0.10862628 -0.11328713 0.09182265 -0.03860935 0.054108225 -0.011809726
0.17808287 -0.124518685 0.13538344 0.17709216 0.068080544 -0.16349751 0.07479943 0.099895746
-0.07509868 -0.15650266 0.09353547 0.07741999 0.13043688 0.1034849 -0.11224627 0.02939754
0.090780295 0.06448712 -0.0041641355 0.0566668 -0.05229128 0.09275999 -0.06028348 -0.12690486
00000000: 5144 e5bd b899 74bd 95a9 1dbe 562f febc
00000010: 2863 8abd 6c9c d0bd bcdc d43d ca36 1b3b
00000020: b622 07bd c29c 283e 279a 10be 56d7 14bd
00000030: 65ee 14be 8076 3a3e 5224 91ba 2d95 db3d
00000040: a9fc 1d3d 9964 f33d 6d9e a4bd cffd ef3d
00000050: ba61 753c 4424 21bd 9516 53bd dda5 ea3d
00000060: 2527 b8bd 4df2 07be 5836 2bbe cf41 9a3d
00000070: a825 2fbe 3e85 02be 8b60 d93d 4ec2 f5bc
00000080: b68f 2abe 1b0c e23d 200c 00be 6fd9 603d
00000090: b735 bf3d 2a16 0cbe 39d5 403e b26b 363e
000000a0: dd68 b33d ec09 0abe 26ad 2b3e 965f f93c
000000b0: b4b3 e23d c0ec 23be 2637 e23d fe43 03be
000000c0: 85b0 b0bd 0d24 38be e345 893d a982 393e
000000d0: 72c3 6e3d 605f 41bd bbb7 823d 10b5 f83d
000000e0: e7e4 2dbe 5823 373e b72e 943d cd01 31be
000000f0: 697d e5bd 6d11 b53d 84c1 b8bd 4467 86bd
00000100: 76ae 1a3d 3252 a93d 6f60 bc3d 7665 69bd
00000110: 0652 0fbe 6fe4 d9bd 1a42 083e 66b0 cfbc
00000120: a45b 0bbe c332 1fbe 5b33 043e 77b8 04be
00000130: 61d1 89bd d832 5e3c a54c 94bd d9d8 e33d
00000140: 8f1d 02bd c590 5a3d ec93 cabd 9d01 92bd
00000150: b4b1 813c 96c1 7c3d 81e7 0bbe 26ba 35be
00000160: 2482 09bd 74ac ddbc 7371 003e 3084 21be
00000170: 5389 9bbc cdd0 f3bd 6132 fa3d e2a1 123e
00000180: 0c7e 46be 6607 f4bd 5c52 b13d 612a 97bd
00000190: 6d70 d73d 9c83 463e 4039 dbbd da85 82bc
000001a0: 91a9 87bd 6db6 303e 5aac 613d 7970 1cbe
000001b0: c711 d83d 9a11 433b ace0 7e3d 07d2 c53d
000001c0: 2382 c63d eca0 b6bd 8d5a 163e 241b 013e
000001d0: 39e0 92bc 52d2 313e a86b 3ebe 1a2e 0cbd
000001e0: 81f6 3bbd 3c47 d53d f79b 79bd ccfd 3b3c
000001f0: da83 3abe ea0c 40be fe9b 88bd f64f 0bbe
00000200: 6878 c03d 4d3c e33d 9813 dc3d c9ad 093c
00000210: 91d8 243e 9cba 3cbe 4ca9 23be 8eb7 1ebe
00000220: 8e36 24bd c745 11be c4cb b2bd f8d0 b13d
00000230: 9782 efbd a583 223e 4175 303e 13cc b83d
00000240: ccd7 0cbd de2d f5bd 9afc c4bd 37c3 d4bd
00000250: 8028 893d 20ed 89bc 5b62 d53c c8ec c7bd
00000260: a08d b93d 29cc f23d e63c 353d 0820 c8bc
00000270: 4fe4 813d 843e a4bb 87ca 19be 7e1e 083e
00000280: e57a b23d 915b 3d3d 7577 debd 1503 e8bd
00000290: 830d bc3d d624 1ebd 96a0 5d3d 957d 41bc
000002a0: 5b5b 363e a703 ffbd f5a1 0a3e a657 353e
000002b0: d06d 8b3d e46b 27be 7230 993d 2496 cc3d
000002c0: 56cd 99bd 3c42 20be 868f bf3d 5f8e 9e3d
000002d0: 3f91 053e e4ef d33d 5fe1 e5bd 1cd3 f03c
000002e0: 05eb b93d d311 843d 4d73 88bb 721b 683d
000002f0: 622f 56bd f3f8 bd3d cfeb 76bd 59f3 01be

multihead_self_attention.fc.bias f4 [6]
-0.09419332 0.08850933 -0.091369286 0.17131922 0.15091754 0.08226778
00000000: 6de8 c0bd 6144 b53d d21f bbbd 4e6e 2f3e
00000010: 218a 1a3e 037c a83d

fc.weight f4 [6, 6]
-0.33949754 0.25507605 0.38996682 0.18822384 -0.09989014 -0.085953765 -0.3190406 0.2161401
0.3272517 0.3498735 -0.15747371 -0.31611684 0.25538695 -0.17781647 0.054931983 0.39162874
-0.3987944 -0.39357775 0.16184974 0.22458564 0.17233478 -0.009490153 0.23951857 -0.29006764
0.11315752 -0.2966809 -0.13895388 0.32505932 -0.22903407 0.18894346 -0.22553986 -0.29147568
-0.21808283 -0.07905723 -0.3214508 0.022499846
00000000: 9fd2 adbe 5499 823e bba9 c73e c0bd 403e
00000010: 3493 ccbd 8708 b0bd 4a59 a3be d553 5d3e
00000020: 898d a73e 9f22 b33e ca40 21be 11da a1be
00000030: 14c2 823e 8515 36be 5c00 613d 9083 c83e
00000040: c82e ccbe 0683 c9be f0bb 253e c7f9 653e
00000050: 8778 303e 967c 1bbc 5b44 753e bf83 94be
00000060: 21bf e73d 8fe6 97be ed49 0ebe 2d6e a63e
00000070: e887 6abe 657a 413e ecf3 66be 4d3c 95be
00000080: 1b51 5fbe c2e8 a1bd 3395 a4be 9951 b83c

fc.bias f4 [6]
0.17914556 -0.36724168 0.35680327 -0.05785432 -0.30391458 0.2194804
00000000: ef71 373e 1a07 bcbe ebae b63e a7f8 6cbd
00000010: b19a 9bbe 78bf 603e
