trained_weights/cadets/selfattention35.pth (torch, 20623 bytes, 8 tensors)

multihead_self_attention.multihead_attn.in_proj_weight f4 [96, 32]
-0.0683692 9.1117295e-07 0.012426887 0.041534457 -9.80478e-07 0.0025546998 0.027720867 -1.9099998e-06
-0.06702174 -6.600578e-07 -0.0032468552 8.722507e-06 -0.016630666 0.066246554 0.06148662 7.3356305e-06
0.036749378 0.013403419 0.02742128 0.06979594 0.063334204 -0.037912812 -0.0033864784 -0.064998925
-0.0003466079 0.0055976342 -6.9842133e-07 -0.00028791238 0.009657282 -0.001579058 0.045793496 -0.000742539
-0.00034683943 0.00013199342 3.2305602e-06 -0.025681194 -1.0271437e-05 -0.024136558 0.050635554 -0.03577598
-0.011681122 7.862835e-06 0.051197022 -0.0019025535 0.046395265 4.318609e-06 0.0010675596 -0.038353134
0.028686142 -0.005705964 -9.367019e-07 0.05288057 1.2952177e-07 4.1849992e-07 -4.925563e-06 0.0010239074
0.00012447331 -0.011054751 -0.027573606 0.009137349 -0.06394739 -0.0011661277 9.451249e-06 -8.58179e-06
2.1987557e-07 0.012120828 1.0061657e-06 5.4058336e-07 0.025006695 0.07005657 -0.05472118 -0.022797477
2.6771904e-05 0.068304695 0.01621602 -0.046498567 1.01888545e-05 -0.0020190417 -2.5646663e-05 0.04994269
3.338048e-05 3.1625038e-06 3.0766859e-07 3.9689207e-06 -0.0013746354 1.4075125e-06 3.187634e-06 2.2047834e-05
0.02681453 -3.143853e-05 0.0005524419 3.6204978e-07 0.018243756 -0.04442501 2.6403197e-07 0.0014856759
-0.032497894 2.6680377e-06 -0.0013147341 1.1642909e-06 0.061794303 -6.0629095e-06 0.06584667 -0.023060404
-1.0133413e-05 0.03245552 -2.3198254e-05 6.5540735e-05 0.0013454949 -0.03494287 -0.037384644 -0.007416616
2.5121042e-05 -0.002894606 -0.050011285 0.0015703556 0.03744123 -0.0014549583 -2.063162e-05 -0.00087675685
1.1001746e-06 -0.01830628 -0.05465539 0.02409823 -3.7564616e-05 -0.0005178678 -3.4612804e-05 -0.058676366
-0.0034121375 0.03496692 0.0045115566 0.04315957 8.542053e-07 0.044906665 -0.0006908673 -0.063417666
6.0198636e-07 0.0028639645 0.023615995 0.02005513 -1.0279374e-05 -7.4723897e-07 0.0065913824 -0.056887954
0.00027101955 -2.3656337e-06 3.6686484e-05 -0.0012593652 0.013250122 -0.00015285326 0.015050794 -1.00595e-06
3.5869904e-05 0.05859903 -0.012083696 0.046869285 5.2933274e-08 2.2126437e-07 3.2384007e-05 0.018124972
-3.641684e-06 0.01839173 -0.05139303 -7.9392163e-07 0.005112864 -0.055519916 4.6978657e-06 -0.004346075
0.051727124 -2.1607988e-08 -8.116488e-06 1.8566666e-08 -0.0055571506 -0.007371311 4.6094146e-06 -4.469358e-06
-0.0013728281 -0.0003865282 2.833428e-05 -0.012089018 -3.7377653e-05 -0.0054049212 -2.1857606e-05 -0.05164113
-1.0971069e-06 0.0028300676 -1.5451258e-05 -0.0025527368 0.054775763 -2.3608166e-07 1.1843451e-06 0.016799118
2.099065e-06 -0.0017029479 0.031179829 -0.04713565 -0.03888298 -0.002625972 3.37706e-05 -0.021633623
0.00021325135 0.031065173 0.008521011 0.058863167 -0.06412562 -0.02755392 -8.057757e-06 2.2305499e-06
-0.008407954 4.2041092e-06 2.6647724e-06 -0.004884101 0.055031087 -0.03549411 7.767299e-06 -1.0044228e-05
-0.051177904 0.01445293 0.00857199 -2.1507938e-07 0.068831734 1.5936394e-05 -0.001911874 0.06631501
0.025544671 -0.0018681088 1.53624e-06 -0.036190603 3.0844283e-06 -0.011534436 -0.023975976 -3.9529147e-07
-0.00017083729 0.05713522 -9.49098e-07 0.06640164 -0.038977385 -0.056820318 -0.03111223 1.4232113e-06
0.06653977 -0.011818072 0.06529674 0.03133516 -0.015788492 0.064171694 -0.002040487 -4.3123532e-07
0.0033169347 0.06197104 5.6083246e-07 0.06729245 0.00029817672 -3.171278e-08 0.01481326 -0.020844556
00000000: 2705 8cbd 5497 7435 249a 4b3c 0920 2a3d
00000010: f898 83b5 c06c 273b df16 e33c 8c2d 00b6
00000020: b242 89bd d42e 31b5 31c9 54bb e256 1237
00000030: 093d 88bc 46ac 873d 65d9 7b3d 9624 f636
00000040: 8486 163d 049a 5b3c 98a2 e03c 2cf1 8e3d
00000050: 5db5 813d 774a 1bbd aeef 5dbb 281e 85bd
00000060: edb8 b5b9 5c6c b73b 267b 3bb5 f2f2 96b9
00000070: 9439 1e3c 65f8 ceba f691 3b3d f3a6 42ba
00000080: 00d8 b5b9 b767 0a39 9acc 5836 5e61 d2bc
00000090: 7c53 2cb7 08ba c5bc 3a67 4f3d d689 12bd
000000a0: 2d62 3fbc 9fea 0337 f8b3 513d 1a5f f9ba
000000b0: f608 3e3d 92e8 9036 5bed 8b3a 2d18 1dbd
000000c0: 33ff ea3c 18f9 babb aa71 7bb5 4c99 583d
000000d0: ac12 0b34 31ae e034 4446 a5b6 a234 863a
000000e0: 0d85 0239 fd1e 35bc 0be2 e1bc d2b4 153c
000000f0: d9f6 82bd c1d8 98ba ce90 1e37 82fa 0fb7
00000100: f016 6c34 7096 463c 970b 8735 9b1c 1135
00000110: d7da cc3c d279 8f3d 5123 60bd c6c1 babc
00000120: 3a94 e037 55e3 8b3d 75d7 843c 4875 3ebd
00000130: ccf0 2a37 e651 04bb ca23 d7b7 b590 4c3d
00000140: 0402 0c38 673b 5436 a62d a534 c52c 8536
00000150: 1c2d b4ba c3e9 bc35 23eb 5536 5df3 b837
00000160: 25aa db3c dddc 03b8 c0d1 103a be5f c234
00000170: ee73 953c 00f7 35bd 47c0 8d34 03bb c23a
00000180: 831c 05bd 8a0c 3336 2853 acba bb44 9c35
00000190: 061c 7d3d ff6f cbb6 9eda 863d 2ce9 bcbc
000001a0: ad02 2ab7 14f0 043d df99 c2b7 ea72 8938
000001b0: 515b b03a 4120 0fbd a420 19bd 1607 f3bb
000001c0: 07bb d237 6eb3 3dbb a2d8 4cbd 64d4 cd3a
000001d0: fa5b 193d 4db4 beba 1112 adb7 28d6 65ba
000001e0: b6a9 9335 0df7 95bc 55de 5fbd a769 c53c
000001f0: b38e 1db8 85c1 07ba 372d 11b8 a156 70bd
00000200: 2b9e 5fbb 7939 0f3d aed5 933b 17c8 303d
00000210: 8b4c 6535 0df0 373d 521b 35ba 1fe1 81bd
00000220: 3098 2135 5ab1 3b3b 5576 c13c a84a a43c
00000230: 9375 2cb7 df95 48b5 86fc d73b 5803 69bd
00000240: a117 8e39 47c1 1eb6 d0df 1938 4911 a5ba
00000250: 0a17 593c 3c47 20b9 9b97 763c 2e04 87b5
00000260: 0473 1638 8905 703d b2fa 45bc 02fa 3f3d
00000270: c058 6333 b094 6d34 10d4 0738 d27a 943c
00000280: a863 74b6 41aa 963c 7f81 52bd e11d 55b5
00000290: d089 a73b da68 63bd 5ca2 9d36 8569 8ebb
000002a0: d2df 533d 789c b9b2 0d2c 08b7 887c 9f32
000002b0: c218 b6bb 0a8b f1bb 92aa 9a36 7ef7 95b6
000002c0: 78f0 b3ba f0a6 cab9 67af ed37 0411 46bc
000002d0: f3c5 1cb8 c41b b1bb da5a b7b7 a685 53bd
000002e0: 4e40 93b5 a878 393b 539d 81b7 d14b 27bb
000002f0: 8d5c 603d a27d 7db4 caf5 9e35 4e9e 893c
00000300: a9dd 0c36 7335 dfba d76c ff3c 5011 41bd
00000310: c243 1fbd 8018 2cbb e8a4 0d38 ff38 b1bc
00000320: 399c 5f39 647c fe3c b69b 0b3c 811a 713d
00000330: 4b54 83bd c2b8 e1bc ce2f 07b7 8eb0 1536
00000340: 84c1 09bc 0611 8d36 71d4 3236 cf0a a0bb
00000350: 4768 613d 4662 11bd 4c50 0237 a183 28b7
00000360: ec9f 51bd fbcb 6c3c 8871 0c3c 92f0 66b4
00000370: a7f7 8c3d 25af 8537 d997 faba 2ad0 873d
00000380: 0f43 d13c 54db f4ba ce30 ce35 993c 14bd
00000390: 13fe 4e36 eefa 3cbc 4469 c4bc 7238 d4b4
000003a0: c922 33b9 9f06 6a3d 85c5 7eb5 95fd 873d
000003b0: c0a6 1fbd 6cbc 68bd 13df febc 2b05 bf35
000003c0: 0146 883d 96a0 41bc 4cba 853d 4c59 003d
000003d0: de56 81bc 736c 833d b1b9 05bb 8884 e7b4
000003e0: ee60 593b 58d5 7d3d 1d8c 1635 a0d0 893d
000003f0: 9a54 9c39 9234 08b3 51b3 723c 34c2 aabc

multihead_self_attention.multihead_attn.in_proj_bias f4 [96]
0.0 0.0 0.0 0.0 0.0 0.0 0.0 0.0
0.0 0.0 0.0 0.0 0.0 0.0 0.0 0.0
0.0 0.0 0.0 0.0 0.0 0.0 0.0 0.0
0.0 0.0 0.0 0.0 0.0 0.0 0.0 0.0
0.0 0.0 0.0 0.0 0.0 0.0 0.0 0.0
0.0 0.0 0.0 0.0 0.0 0.0 0.0 0.0
0.0 0.0 0.0 0.0 0.0 0.0 0.0 0.0
0.0 0.0 0.0 0.0 0.0 0.0 0.0 0.0
0.011162422 -0.006156011 -0.04539802 0.035483975 -0.015449311 0.047124106 -0.02481732 -0.0057539092
0.0090526305 0.009337228 0.040963758 -0.015425342 -0.0017303474 0.0055507747 0.01669172 -0.00021643851
-0.013779883 -0.013069326 -0.023407843 -0.023152893 0.0032946959 -0.014185178 -0.007797632 0.032841075
0.0033112022 0.024981814 0.01603796 -0.011576573 -0.026982462 0.0032975983 -0.021617651 -0.0017324511
00000000: 0000 0000 0000 0000 0000 0000 0000 0000
00000010: 0000 0000 0000 0000 0000 0000 0000 0000
00000020: 0000 0000 0000 0000 0000 0000 0000 0000
00000030: 0000 0000 0000 0000 0000 0000 0000 0000
00000040: 0000 0000 0000 0000 0000 0000 0000 0000
00000050: 0000 0000 0000 0000 0000 0000 0000 0000
00000060: 0000 0000 0000 0000 0000 0000 0000 0000
00000070: 0000 0000 0000 0000 0000 0000 0000 0000
00000080: 0000 0000 0000 0000 0000 0000 0000 0000
00000090: 0000 0000 0000 0000 0000 0000 0000 0000
000000a0: 0000 0000 0000 0000 0000 0000 0000 0000
000000b0: 0000 0000 0000 0000 0000 0000 0000 0000
000000c0: 0000 0000 0000 0000 0000 0000 0000 0000
000000d0: 0000 0000 0000 0000 0000 0000 0000 0000
000000e0: 0000 0000 0000 0000 0000 0000 0000 0000
000000f0: 0000 0000 0000 0000 0000 0000 0000 0000
00000100: 97e2 363c 5db8 c9bb 46f3 39bd a557 113d
00000110: 1b1f 7dbc 3505 413d b14d cbbc 4a8b bcbb
00000120: 7c51 143c 2cfb 183c 9dc9 273d 93ba 7cbc
00000130: d3cc e2ba 46e3 b53b 13bd 883c c5f3 62b9
00000140: 05c5 61bc ba20 56bc cec1 bfbc 23ab bdbc
00000150: d3eb 573b f368 68bc 4783 ffbb 5d84 063d
00000160: c100 593b a9a6 cc3c 0a62 833c abab 3dbc
00000170: 530a ddbc 851c 583b 8017 b1bc 6a13 e3ba

multihead_self_attention.multihead_attn.out_proj.weight f4 [32, 32]
-0.13499705 -0.17209132 0.10443898 -0.17670156 0.1269387 -0.1445597 0.055986024 0.11979548
0.008018704 -0.045290295 -0.18413402 -0.10076383 -0.022830369 -0.10097761 -0.13790195 0.06567837
0.031235816 -0.18150753 0.1236512 0.08471227 -0.22036166 0.049755413 0.03579323 -0.087302126
0.02970041 -0.10944179 0.026667926 0.11794498 -0.18602157 -0.2369863 0.06487607 -0.071940385
-0.04668528 -0.24243873 -0.11434863 -0.020140596 -0.16518301 -0.09271674 -0.189102 0.14118524
-0.05968195 0.07945744 0.17306018 -0.21654342 0.11716082 -0.030069157 0.12382313 0.17358312
0.025550408 0.10082862 0.029242713 -0.039483648 -0.13489394 0.067324735 -0.026964579 0.121187456
-0.15684542 0.013789076 -0.15327996 0.025009112 0.038758762 0.13074185 -0.06159726 0.089378335
0.090045705 0.027357994 -0.022747729 -0.09149372 -0.16819748 0.17314875 0.034430623 -0.15367343
0.021194424 -0.110134415 0.10717469 -0.1754965 -0.019566078 -0.06967623 0.15456647 -0.014194818
0.16819838 0.09563847 -0.17167407 0.06401501 0.09469028 -0.07965663 -0.100740366 -0.12674287
-0.14169092 0.09737829 -0.10042386 0.10559636 0.056710463 0.1765327 -0.15223226 -0.20928037
0.12296267 0.06223126 0.12531435 -0.16856581 0.12189199 -0.13938136 -0.023031246 0.030853959
0.14078704 0.1207395 -0.09864418 0.11951741 0.15314338 -0.07079627 0.016713351 -0.12558664
-0.023181846 0.20496559 -0.08355475 -0.1396241 -0.033234876 0.14995396 -0.10016006 -0.08534998
-0.09415436 -0.031143634 -0.10141975 -0.07973044 -0.005064866 -0.10467723 0.10882283 -0.023459386
-0.031087214 -0.19440599 -0.013240825 0.15787548 0.0908224 0.03787817 0.063530944 0.055135906
0.055025402 0.113684796 -0.015356279 -0.096162245 0.14195512 0.16391267 0.14535685 0.1398666
-0.094410114 -0.12336295 -0.09544233 -0.16775547 -0.16235818 -0.04538512 -0.07272152 0.1245909
0.054156587 0.03374932 0.0041659926 -0.11369813 -0.101220414 -0.06560815 -0.1228675 -0.23900202
0.008450223 0.11733981 0.002563435 0.03386275 -0.1556294 -0.095454335 0.17750381 -0.2021345
-0.025668902 -0.13207524 0.067052975 0.22141542 -0.03894352 0.056675717 -0.03277191 -0.16573744
0.11003191 0.19445373 -0.011377187 0.046516974 0.15387109 0.14603072 0.17571758 -0.11164609
-0.03164133 -0.053253353 -0.09634174 0.08651376 0.059169162 0.14652991 -0.08412069 0.14367522
-0.10606473 0.014024677 0.1594897 -0.22562878 -0.086615235 -0.19215232 -0.18061067 0.117591485
0.12176839 0.018197462 -0.2145404 0.020121321 -0.005037121 0.12761527 0.009159386 0.2130363
-0.113891974 -0.09816703 0.22536604 -0.023989424 -0.043739382 -0.0009083947 0.0021881917 0.035673466
-0.015262051 0.041517776 -0.032795455 -0.10047758 -0.19333851 -0.10300711 0.08624655 0.117666505
0.16591907 -0.08562299 0.16861331 0.05883322 -0.19411859 -0.11741316 0.012994429 0.0077727702
-0.068070225 0.053852607 0.12260666 -0.058725167 0.116962336 0.1472534 0.040059995 -0.016160538
-0.09916449 0.042746637 0.15994145 -0.16747162 0.03738706 0.058339015 -0.1357682 -0.11458321
0.036326785 -0.04828955 -0.15334123 -0.0966449 0.147658 0.07141545 0.020644618 0.02343485
00000000: ab3c 0abe b538 30be 1be4 d53d 41f1 34be
00000010: 38fc 013e 7507 14be 9a51 653d 5557 f53d
00000020: e260 033c 5182 39bd a18d 3cbe 445d cebd
00000030: c106 bbbc 59cd cebd 2b36 0dbe 6282 863d
00000040: 41e2 ff3c 1cdd 39be d73c fd3d a07d ad3d
00000050: 7da6 61be 55cc 4b3d ec9b 123d 75cb b2bd
00000060: 464e f33c 0423 e0bd b276 da3c 238d f13d
00000070: 707c 3ebe 89ac 72be bfdd 843d 7b55 93bd
00000080: 1039 3fbd dc41 78be 9d2f eabd e4fd a4bc
00000090: bc25 29be 46e2 bdbd f4a3 41be dd92 103e
000000a0: 0f75 74bd 95ba a23d b036 313e 8fbd 5dbe
000000b0: 03f2 ef3d 9853 f6bc fb96 fd3d c6bf 313e
000000c0: 174f d13c 3c7f ce3d 6a8e ef3c 9bb9 21bd
000000d0: a321 0abe 8de1 893d d2e4 dcbc 2131 f83d
000000e0: 169c 20be 94eb 613c 6cf5 1cbe e9df cc3c
000000f0: 82c1 1e3d 31e1 053e 694d 7cbd fd0b b73d
00000100: e269 b83d df1d e03c 7259 babc 0f61 bbbd
00000110: f63b 2cbe e84d 313e 2007 0d3d 915c 1dbe
00000120: ee9f ad3c 278e e1bd 677e db3d 5bb5 33be
00000130: 0a49 a0bc 69b2 8ebd ac46 1e3e 6291 68bc
00000140: 323c 2c3e 1ade c33d 54cb 2fbe 4d1a 833d
00000150: faec c13d 0423 a3bd f750 cebd e2c8 01be
00000160: 6d17 11be 456e c73d 06ab cdbd e842 d83d
00000170: 3b49 683d fdc4 343e c6e2 1bbe 984d 56be
00000180: dad3 fb3d 35e6 7e3d 6852 003e 849c 2cbe
00000190: 82a2 f93d fdb9 0ebe 06ac bcbc 71c1 fc3c
000001a0: 7a2a 103e 4546 f73d f605 cabd 8bc5 f43d
000001b0: 9ed1 1c3e a3fd 90bd 70ea 883c c999 00be
000001c0: dbe7 bdbc 80e2 513e c11e abbd 9ff9 0ebe
000001d0: 4b21 08bd 888d 193e b820 cdbd f8cb aebd
000001e0: 00d4 c0bd ef20 ffbc 28b5 cfbd b749 a3bd
000001f0: 2df7 a5bb 0461 d6bd 81de de3d e62d c0bc
00000200: 9daa febc 5d12 47be 0cf0 58bc 1caa 213e
00000210: 1801 ba3d 2426 1b3d 831c 823d 30d6 613d
00000220: 5162 613d 93d3 e83d e798 7bbc b6f0 c4bd
00000230: af5c 113e b9d8 273e 6dd8 143e 3139 0f3e
00000240: 175a c1bd b7a5 fcbd 4577 c3bd 17c8 2bbe
00000250: 3941 26be bfe5 39bd 05ef 94bd 8429 ff3d
00000260: 4cd3 5d3d ba3c 0a3d e182 883b 91da e8bd
00000270: a64c cfbd 915d 86bd f5a1 fbbd f2bc 74be
00000280: ce72 0a3c db4f f03d 4dff 273b abb3 0a3d
00000290: 505d 1fbe 907d c3bd 8fc3 353e 59fc 4ebe
000002a0: 9747 d2bc bb3e 07be 1253 893d b9ba 623e
000002b0: 3e83 1fbd cc24 683d d73b 06bd 13b7 29be
000002c0: 6958 e13d e11e 473e 6267 3abc 9588 3e3d
000002d0: 6290 1d3e 1489 153e 4fef 333e b5a6 e4bd
000002e0: 579a 01bd 3020 5abd d14e c5bd 202e b13d
000002f0: 5d5b 723d f00b 163e 7847 acbd 991f 133e
00000300: 7738 d9bd c2c7 653c 4551 233e 3b0b 67be
00000310: 5463 b1bd 94c3 44be 01f2 38be ced3 f03d
00000320: b561 f93d d812 953c 7bb0 5bbe 78d5 a43c
00000330: 6f0e a5bb 94ad 023e 4011 163c 3026 5a3e
00000340: 3240 e9bd cc0b c9bd 5bc6 663e 7885 c4bc
00000350: 1128 33bd 5621 6eba c467 0f3b 571e 123d
00000360: ae0d 7abc 8b0e 2a3d 8754 06bd 31c7 cdbd
00000370: 88fa 45be 64f5 d2bd 08a2 b03d 23fb f03d
00000380: b0e6 293e 1b5b afbd f8a8 2c3e 1afb 703d
00000390: 06c7 46be 5076 f0bd 96e6 543c b9b2 fe3b
000003a0: 6768 8bbd 8d94 5c3d 3319 fb3d cd89 70bd
000003b0: f389 ef3d 98c9 163e f315 243d 1b63 84bc
000003c0: c116 cbbd 1917 2f3d b1c7 233e ae7d 2bbe
000003d0: 2c23 193d e4f4 6e3d d206 0bbe 9aaa eabd
000003e0: 65cb 143d 43cb 45bd 7c05 1dbe c3ed c5bd
000003f0: a933 173e 4342 923d e71e a93c 71fa bf3c

multihead_self_attention.multihead_attn.out_proj.bias f4 [32]
-0.017059095 -0.004970772 0.008302378 0.014060657 0.019390183 0.004433042 -0.02738999 -0.0039704684
-0.015849268 0.0033007397 -0.002907501 -0.011364636 0.0017313735 0.0066588153 0.02837773 0.007849888
0.008021855 -0.008089908 0.0069704135 0.008418946 -0.001594477 0.015591503 -0.011430374 -0.000901305
-0.009605085 0.008151405 -0.0022206637 -0.016008697 -0.011800493 -0.013583924 -0.01336215 0.007346531
00000000: 84bf 8bbc dce1 a2bb b206 083c ab5e 663c
00000010: 29d8 9e3c 0d43 913b f960 e0bc b41a 82bb
00000020: 53d6 81bc 3951 583b c68b 3ebb bd32 3abc
00000030: 41ef e23a 3132 da3b 6a78 e83c d19c 003c
00000040: 196e 033c 898b 04bc 1168 e43b 9eef 093c
00000050: c5fd d0ba 8173 7f3c 7746 3bbc 8e45 6cba
00000060: a55e 1dbc 788d 053c 8e88 11bb ac24 83bc
00000070: db56 41bc 1b8f 5ebc ebec 5abc 2bbb f03b

multihead_self_attention.fc.weight f4 [6, 32]
-0.1109369 -0.08418579 -0.15862355 -0.035597846 -0.10417805 -0.0805086 0.10675769 -0.008868296
-0.050552316 0.17825933 -0.17308521 -0.033813138 -0.16070372 0.20590489 -0.021345738 0.14011955
0.063012525 0.1586323 -0.09783156 0.12355893 0.008218232 -0.05543977 -0.058579907 0.122166686
-0.09025437 -0.19699107 -0.17847279 0.09731019 -0.17952757 -0.15118593 0.11145061 -0.06519852
-0.16786157 0.13542186 -0.12049564 0.061897334 0.12227188 -0.1623827 0.20063132 0.18911898
0.10418018 -0.15547827 0.19709575 0.02469755 0.10685666 -0.17448221 0.13770728 -0.14247163
-0.107966796 -0.22382988 0.06815164 0.17701565 0.060998976 -0.039747622 0.065497614 0.11330301
-0.16825692 0.23369274 0.07897564 -0.1981133 -0.10599042 0.098889016 -0.10222747 -0.029745543
0.043918412 0.0999661 0.08409235 -0.032012243 -0.11505526 -0.13017218 0.16062114 -0.010640221
-0.109940276 -0.1885592 0.16377172 -0.12237694 -0.086677134 -0.013244406 -0.05535975 0.08417589
-0.06494474 0.030185381 -0.09759834 -0.08737877 0.026381865 0.05691506 -0.12443516 -0.1786689
-0.024930147 0.0259664 0.124244936 -0.18292698 -0.0023837308 -0.105329745 0.13558719 0.18158148
-0.2261339 -0.09416789 0.124946035 -0.106328 0.13079526 0.2174835 -0.19816206 -0.00802751
-0.10207195 0.22565942 0.06589188 -0.1795718 0.16092612 0.0020742593 0.041928977 0.049690086
0.12077171 -0.11718385 0.19292164 0.15554114 -0.035879128 0.21132284 -0.20681396 -0.06287824
-0.07734817 0.14411452 -0.02823788 0.0029461875 -0.20580465 -0.16900577 -0.078973904 -0.112468176
0.0915363 0.13679421 0.11656122 -0.02475676 0.16821744 -0.21454267 -0.14601344 -0.16000298
-0.03743231 -0.13742766 -0.08979409 0.06519417 -0.11719511 0.17992358 0.22158965 0.14322059
-0.024686206 -0.17845395 -0.12681963 -0.08901991 0.0594681 -0.0011686257 0.011073193 -0.10353543
0.090557784 0.12624672 0.0483118 -0.04050839 0.050133582 -0.00956331 -0.20783065 0.1347686
0.11971137 0.038094755 -0.13915318 -0.12207553 0.08781865 -0.06831185 0.09337048 -0.025280463
0.21645968 -0.12813775 0.12533118 0.19607326 0.06961927 -0.170798 0.11383532 0.13539271
-0.087023504 -0.16195263 0.0773125 0.055775564 0.15326254 0.10337438 -0.091398455 0.05463456
0.11807216 0.059624128 -0.018154632 0.06228729 -0.037197646 0.12421943 -0.092795715 -0.14656074
00000000: e332 e3bd 9969 acbd 366e 22be 0ccf 11bd
00000010: 4d5b d5bd b1e1 a4bd c7a3 da3d 544c 11bc
00000020: f20f 4fbd 9d89 363e 403d 31be a57f 0abd
00000030: 848f 24be bbd8 523e 42dd aebc 807b 0f3e
00000040: b60c 813d 8170 223e ea5b c8bd 770c fd3d
00000050: c3a5 063c d014 63bd 7cf1 6fbd 8732 fa3d
00000060: 48d7 b8bd 07b8 49be 92c1 36be 914a c73d
00000070: 13d6 37be 7cd0 1abe 3840 e43d cd86 85bd
00000080: e7e3 2bbe 07ac 0a3e 6bc6 f6bd 0f88 7d3d
00000090: ae69 fa3d a747 26be 4c72 4d3e 68a8 413e
000000a0: 6b5c d53d b235 1fbe 78d3 493e 8452 ca3c
000000b0: aad7 da3d 77ab 32be 2303 0d3e 15e4 11be
000000c0: b21d ddbd a933 65be 1693 8b3d 9743 353e
000000d0: 10da 793d 67ce 22bd 9d23 863d 690b e83d
000000e0: 8b4b 2cbe 264d 6f3e fbbd a13d 37de 4abe
000000f0: 8111 d9bd 5386 ca3d a35c d1bd edac f3bc
00000100: cbe3 333d 07bb cc3d 9c38 ac3d 451f 03bd
00000110: 18a2 ebbd db4b 05be de79 243e 5254 2ebc
00000120: 5e28 e1bd aa15 41be c6b3 273e c3a0 fabd
00000130: c883 b1bd 11ff 58bc e8c0 62bd 6964 ac3d
00000140: bf01 85bd 5547 f73c a3e1 c7bd a4f3 b2bd
00000150: c81e d83c c41f 693d dcd7 febd fbf4 36be
00000160: 4f3a ccbc 7db7 d43c 2174 fe3d 3651 3bbe
00000170: 5e38 1cbb 1fb7 d7bd 5ed7 0a3e 7ff0 393e
00000180: a58f 67be 18db c0bd b5e3 ff3d 7fc2 d9bd
00000190: 31ef 053e ffb3 5e3e ffea 4abe d185 03bc
000001a0: 190b d1bd 4313 673e 52f2 863d ace1 37be
000001b0: d1c9 243e 4cf0 073b b8bd 2b3d d587 4b3d
000001c0: 2957 f73d 16fe efbd 408d 453e 2d46 1f3e
000001d0: fef5 12bd 0465 583e 0ac7 53be 4fc6 80bd
000001e0: b868 9ebd c292 133e 2053 e7bc d314 413b
000001f0: 74be 52be d90f 2dbe 12bd a1bd b755 e6bd
00000200: 6277 bb3d c813 0c3e a6b7 ee3d b0ce cabc
00000210: 3141 2c3e 13b1 5bbe 8c84 15be d2d7 23be
00000220: 9f52 19bd d6b9 0cbe f7e5 b7bd 8584 853d
00000230: fd03 f0bd e33d 383e 66e8 623e 6ba8 123e
00000240: ba3a cabc a2bc 36be 01dd 01be 1250 b6bd
00000250: d394 733d 922c 99ba 566c 353c 620a d4bd
00000260: 5c76 b93d d246 013e 98e2 453d 20ec 25bd
00000270: df58 4d3d 6eaf 1cbc 8fd1 54be c800 0a3e
00000280: 3c2b f53d 3f09 1c3d 2c7e 0ebe bc02 fabd
00000290: 44da b33d 15e7 8bbd 0639 bf3d f918 cfbc
000002a0: 9ba7 5d3e 8b36 03be d156 003e 6ec7 483e
000002b0: 8c94 8e3d ace5 2ebe 7e22 e93d 63a4 0a3e
000002c0: 6139 b2bd e9d6 25be 0456 9e3d eb74 643d
000002d0: dbf0 1c3e f2b5 d33d 1d2f bbbd 7dc8 5f3d
000002e0: d1cf f13d 6e38 743d 06b9 94bc f520 7f3d
000002f0: 8f5c 18bd c266 fe3d ae0b bebd 0514 16be

multihead_self_attention.fc.bias f4 [6]
-0.091928355 0.08833192 -0.102382354 0.18219516 0.17327781 0.08554269
00000000: ef44 bcbd 5ee7 b43d d7ad d1bd 5e91 3a3e
00000010: bd6f 313e 0131 af3d

fc.weight f4 [6, 6]
-0.3482748 0.24998671 0.3771013 0.123195074 -0.09117306 -0.029898789 -0.35428187 0.24110024
0.33828193 0.3790333 -0.148214 -0.3265608 0.28189105 -0.21269687 0.04811647 0.374088
-0.42013705 -0.40478492 0.26322934 0.1619957 0.19203754 0.040048897 0.24637339 -0.34282064
0.13162424 -0.30467463 -0.16060227 0.38354743 -0.2052795 0.19126828 -0.23585303 -0.29329383
-0.22484273 -0.09199059 -0.3269124 0.019308908
00000000: 1351 b2be 84fc 7f3e 6c13 c13e b34d fc3d
00000010: f1b8 babd 4eee f4bc 6f64 b5be fbe2 763e
00000020: 4a33 ad3e a710 c23e 69c5 17be fa32 a7be
00000030: 0654 903e 35cd 59be c715 453d 7688 bf3e
00000040: 341c d7be f83f cfbe ffc5 863e 33e2 253e
00000050: 7da5 443e 500a 243d 4e49 7c3e 3086 afbe
00000060: 81c8 063e 50fe 9bbe ec74 24be 5460 c43e
00000070: ca34 52be d5db 433e 7583 71be 9c2a 96be
00000080: 2c3d 66be 9065 bcbd 1061 a7be b72d 9e3c

fc.bias f4 [6]
0.14225033 -0.35363576 0.34084457 -0.0096026 -0.2623525 0.20970137
00000000: 12aa 113e bf0f b5be 2e83 ae3e 3954 1dbc
00000010: 1153 86be f5bb 563e
