trained_weights/cadets/selfattention36.pth (torch, 20623 bytes, 8 tensors)

multihead_self_attention.multihead_attn.in_proj_weight f4 [96, 32]
000000 98 ee 8a bd 0e 40 78 35 11 ec 47 3c f4 5d 28 3d
       -0.067837894 9.248041e-07 0.012202279 0.041105226
000010 4e ec 78 b5 80 33 22 3b 85 34 e0 3c e0 1c 0b b6
       -9.273107e-07 0.0024749935 0.027368793 -2.0729422e-06
000020 4f 2e 88 bd bc 65 5a b5 1c 9f 4e bb 0b cb 12 37
       -0.06649458 -8.135937e-07 -0.0031527942 8.749553e-06
000030 2c 0e 86 bc 28 99 86 3d 67 c3 79 3d f0 f5 fc 36
       -0.01636418 0.06572181 0.060977366 7.538816e-06
000040 af dd 14 3d 6e c0 57 3c 60 c4 dd 3c 5c d8 8d 3d
       0.036344226 0.013168437 0.027071178 0.06926033
000050 25 a7 80 3d 42 9b 19 bd 68 97 57 bb 1c 0d 84 bd
       0.0628188 -0.03750158 -0.0032896642 -0.06447813
000060 5c 86 ab b9 c6 f9 b2 3b 19 7d 25 b5 e9 f8 8d b9
       -0.00032715767 0.005461904 -6.164933e-07 -0.00027079068
000070 06 12 1b 3c 4e 84 c7 ba 5d bb 39 3d 61 ef 39 ba
       0.009464746 -0.0015221925 0.0453447 -0.000709286
000080 3a a4 ab b9 01 3f ff 38 bb 7b 50 36 ce 9b cf bc
       -0.0003273802 0.00012171083 3.1066436e-06 -0.025342848
000090 5a 78 25 b7 5c 0b c3 bc 36 7b 4d 3d 76 e6 10 bd
       -9.862788e-06 -0.023809128 0.05016633 -0.035376035
0000a0 9c d6 3b bc 1e 49 06 37 96 c5 4f 3d dd de f0 ba
       -0.011464741 8.004046e-06 0.050725542 -0.0018376965
0000b0 99 2f 3c 3d 5c b9 59 36 5d 48 86 3a 99 66 1b bd
       0.04594383 3.2443413e-06 0.0010244955 -0.03793964
0000c0 c1 0f e8 3c 0d 78 b6 bb 12 53 5e b5 f6 a3 56 3d
       0.028327825 -0.0055685104 -8.282233e-07 0.05240246
0000d0 e4 fe 02 33 b7 14 06 34 ad b1 a1 b6 f8 b9 80 3a
       3.0499805e-08 1.2487259e-07 -4.818858e-06 0.0009821048
0000e0 2c 3d f0 38 55 b1 31 bc b8 01 df bc a9 a8 12 3c
       0.00011455486 -0.010845502 -0.0272225 0.0089513445
0000f0 94 e7 81 bd 04 d6 92 ba c4 f1 14 37 2a c5 10 b7
       -0.06342998 -0.0011202698 8.877778e-06 -8.628975e-06
000100 91 ac be 32 63 f6 42 3c 23 94 4e 35 6d 50 46 34
       2.2197385e-08 0.0118995635 7.695655e-07 1.8469446e-07
000110 27 1f ca 3c 9a 60 8e 3d 9a 26 5e bd c6 27 b8 bc
       0.024673058 0.06952019 -0.054236032 -0.022479903
000120 eb c7 d1 37 e0 cc 8a 3d a2 b0 82 3c 72 9b 3c bd
       2.5007836e-05 0.06777358 0.015953366 -0.04604668
000130 f4 2c 26 37 c0 c6 ff ba b0 65 c8 b7 a4 a7 4a 3d
       9.9048375e-06 -0.0019514188 -2.388921e-05 0.04947628
000140 a3 7e 0b 38 a5 a7 60 36 59 59 92 34 6e fd 87 36
       3.3258122e-05 3.3476183e-06 2.7259628e-07 4.0528166e-06
000150 8f 6b ad ba 7c 2f 6d 35 2a 27 62 36 b1 98 aa 37
       -0.0013230907 8.835848e-07 3.369942e-06 2.0336682e-05
000160 65 d4 d8 3c b1 2a f9 b7 91 c0 09 3a df b8 76 34
       0.026468465 -2.9702993e-05 0.000525483 2.2977791e-07
000170 e6 26 93 3c d0 26 34 bd ae 2c be b2 85 97 bb 3a
       0.017962884 -0.043982327 -2.213923e-08 0.0014312124
000180 6a 8c 03 bd 4a f4 42 36 76 c7 a5 ba b4 bf 90 35
       -0.03211633 2.9050448e-06 -0.0012647945 1.0784629e-06
000190 f2 04 7b 3d 94 bc d6 b6 29 c8 85 3d 0c 4b ba bc
       0.061284013 -6.3996504e-06 0.06532318 -0.022740863
0001a0 c3 19 22 b7 3e 60 03 3d 49 17 b4 b7 46 03 76 38
       -9.661951e-06 0.032074206 -2.1468515e-05 5.865402e-05
0001b0 df b3 a9 3a a5 81 0d bd 4f 74 17 bd f1 af ed bb
       0.0012947283 -0.034547467 -0.036976155 -0.00725364
0001c0 f5 ac ac 37 4b 01 38 bb 46 ef 4a bd bf 67 c6 3a
       2.0584537e-05 -0.0028076943 -0.049544595 0.001513712
0001d0 56 af 17 3d ab ab b7 ba c5 76 b7 b7 5b 06 5c ba
       0.037032448 -0.0014012953 -2.1870606e-05 -0.0008393281
0001e0 76 3e 74 35 e2 a8 93 bc e1 e1 5d bd 8f bb c2 3c
       9.0987976e-07 -0.018024866 -0.054170493 0.023771076
0001f0 45 3f 19 b8 10 01 01 ba 24 5a 0a b8 ce 4a 6e bd
       -3.6536967e-05 -0.0004921118 -3.2985714e-05 -0.058176808
000200 7d 3d 59 bb b9 9a 0d 3d 3e fb 8f 3b fb fd 2e 3d
       -0.0033148222 0.034571383 0.004393964 0.042722683
000210 39 14 12 35 96 1d 36 3d 51 d3 2c ba c2 d2 80 bd
       5.4418666e-07 0.04446181 -0.0006592768 -0.06290199
000220 54 b1 54 35 e5 09 36 3b 9a cf be 3c aa dd a1 3c
       7.92342e-07 0.0027776894 0.023292352 0.019759018
000230 33 a6 26 b7 48 43 50 b5 86 09 d3 3b 3b fe 66 bd
       -9.933067e-06 -7.7583945e-07 0.0064403443 -0.056394797
000240 40 7a 85 39 21 0f 03 b6 a1 d1 13 38 0a b8 9e ba
       0.0002545882 -1.9529327e-06 3.5242763e-05 -0.0012109291
000250 2a 44 55 3c 8e 75 14 b9 7f 78 72 3c f8 f3 05 b4
       0.01301674 -0.00014158172 0.014799236 -1.2475346e-07
000260 b7 40 14 38 ff f9 6d 3d 5c 5c 42 bc 7c 1e 3e 3d
       3.534622e-05 0.058099743 -0.0118628405 0.04641579
000270 e3 d6 3c 34 33 b6 0b b2 b0 db e5 37 f4 2f 92 3c
       1.758704e-07 -8.132292e-09 2.7401227e-05 0.017845131
000280 a2 36 59 b6 8a 5a 94 3c 4b 92 50 bd 22 05 3a b5
       -3.236732e-06 0.018109579 -0.050920766 -6.929787e-07
000290 74 59 a3 3b 01 69 61 bd b2 24 9c 36 8a a7 8a bb
       0.004985029 -0.05503178 4.653434e-06 -0.004231398
0002a0 3a ef 51 3d c9 b7 7e b3 53 02 0a b7 eb 49 4a 33
       0.051253535 -5.9306135e-08 -8.225982e-06 4.7099018e-08
0002b0 9b ab b1 bb 41 39 ec bb 73 42 85 36 39 0e 96 b6
       -0.0054220683 -0.0072089736 3.9714446e-06 -4.472004e-06
0002c0 89 30 ad ba 2d a7 bf b9 aa c7 f1 37 6f 72 42 bc
       -0.0013213317 -0.00036554915 2.8822415e-05 -0.011868103
0002d0 03 ec 18 b8 34 c3 ac bb 74 07 a9 b7 6a 95 51 bd
       -3.6459427e-05 -0.0052722935 -2.014984e-05 -0.051167883
0002e0 63 7e 5d b5 10 dd 33 3b de bf 8f b7 48 13 22 bb
       -8.251283e-07 0.0027444996 -1.7136274e-05 -0.002473073
0002f0 9f 5f 5e 3d 5c a0 22 b3 a5 1c 75 35 35 6c 87 3c
       0.05429041 -3.786441e-08 9.1311296e-07 0.01653109
000300 b2 1f cf 35 bd 58 d7 ba ff 5c fc 3c 96 34 3f bd
       1.5431926e-06 -0.0016429644 0.030806063 -0.04668101
000310 5b 8f 1d bd 73 c5 26 bb 73 c9 f0 37 a3 b1 ae bc
       -0.038466793 -0.0025447279 2.8704037e-05 -0.021324938
000320 ee f0 50 39 fe 6d fb 3c 0b b1 08 3c fd 0d 6f 3d
       0.00019926179 0.030692097 0.008342992 0.05836295
000330 b9 44 82 bd b5 d8 de bc 48 51 2d b7 cb 8f 13 36
       -0.06360764 -0.027202943 -1.0330528e-05 2.1988405e-06
000340 1f dd 06 bc f9 74 52 36 66 6d 36 36 9e fa 9b bb
       -0.00823143 3.1360526e-06 2.7183792e-06 -0.0047601005
000350 58 6a 5f 3d 80 c0 0f bd 97 cc ee 36 97 3b 20 b7
       0.054544777 -0.03509569 7.11677e-06 -9.5506175e-06
000360 9f b1 4f bd 93 c5 68 3c 0d 84 09 3c 43 49 01 b3
       -0.050706502 0.014207262 0.0083933 -3.0101784e-08
000370 5b e0 8b 3d fd 7a 93 37 1d 10 f2 ba ef bc 86 3d
       0.06829902 1.7581036e-05 -0.0018467937 0.06579005
000380 7b 7f ce 3c e4 76 ec ba cb 5f b4 35 e2 96 12 bd
       0.025207272 -0.0018040803 1.3438924e-06 -0.035788424
000390 4d f0 4b 36 4a 76 39 bc 08 bd c1 bc 2b 89 87 b4
       3.038923e-06 -0.011319706 -0.023649707 -2.5245512e-07
0003a0 43 72 26 b9 91 00 68 3d 5c 17 7c b5 35 ea 86 3d
       -0.0001587356 0.056641165 -9.391131e-07 0.0658764
0003b0 d9 f1 1d bd 91 b7 66 bd 15 d0 fb bc 6e 04 b3 35
       -0.038560722 -0.056327406 -0.03073887 1.3337828e-06
0003c0 67 32 87 3d 98 0e 3e bc c1 a8 84 3d cc a0 fd 3c
       0.0660141 -0.011600159 0.064775 0.030960463
0003d0 ed 70 7e bc cd 5c 82 3d b9 42 01 bb cc ab ad b3
       -0.015529853 0.063653566 -0.0019723608 -8.08719e-08
0003e0 93 1f 53 3b a5 bd 7b 3d 65 93 54 35 cc bb 88 3d
       0.0032214865 0.061460156 7.919064e-07 0.066764444
0003f0 e4 22 93 39 c3 11 61 34 f4 9d 6e 3c dd 47 a8 bc
       0.0002806402 2.096122e-07 0.014564026 -0.02054208

multihead_self_attention.multihead_attn.in_proj_bias f4 [96]
000000 00 00 00 00 00 00 00 00 00 00 00 00 00 00 00 00
       0.0 0.0 0.0 0.0
000010 00 00 00 00 00 00 00 00 00 00 00 00 00 00 00 00
       0.0 0.0 0.0 0.0
000020 00 00 00 00 00 00 00 00 00 00 00 00 00 00 00 00
       0.0 0.0 0.0 0.0
000030 00 00 00 00 00 00 00 00 00 00 00 00 00 00 00 00
       0.0 0.0 0.0 0.0
000040 00 00 00 00 00 00 00 00 00 00 00 00 00 00 00 00
       0.0 0.0 0.0 0.0
000050 00 00 00 00 00 00 00 00 00 00 00 00 00 00 00 00
       0.0 0.0 0.0 0.0
000060 00 00 00 00 00 00 00 00 00 00 00 00 00 00 00 00
       0.0 0.0 0.0 0.0
000070 00 00 00 00 00 00 00 00 00 00 00 00 00 00 00 00
       0.0 0.0 0.0 0.0
000080 00 00 00 00 00 00 00 00 00 00 00 00 00 00 00 00
       0.0 0.0 0.0 0.0
000090 00 00 00 00 00 00 00 00 00 00 00 00 00 00 00 00
       0.0 0.0 0.0 0.0
0000a0 00 00 00 00 00 00 00 00 00 00 00 00 00 00 00 00
       0.0 0.0 0.0 0.0
0000b0 00 00 00 00 00 00 00 00 00 00 00 00 00 00 00 00
       0.0 0.0 0.0 0.0
0000c0 00 00 00 00 00 00 00 00 00 00 00 00 00 00 00 00
       0.0 0.0 0.0 0.0
0000d0 00 00 00 00 00 00 00 00 00 00 00 00 00 00 00 00
       0.0 0.0 0.0 0.0
0000e0 00 00 00 00 00 00 00 00 00 00 00 00 00 00 00 00
       0.0 0.0 0.0 0.0
0000f0 00 00 00 00 00 00 00 00 00 00 00 00 00 00 00 00
       0.0 0.0 0.0 0.0
000100 16 19 37 3c 79 a1 c9 bb 76 1d 39 bd 1a e8 0f 3d
       0.011175415 -0.0061532822 -0.04519411 0.03513346
000110 93 83 7c bc 6b 9a 3f 3d f0 65 cb bc 09 1b b7 bb
       -0.015412229 0.046778124 -0.024828881 -0.0055879396
000120 ac e9 12 3c eb e7 17 3c b3 1e 27 3d b2 f9 7d bc
       0.0089668445 0.009271602 0.04080076 -0.0155014265
000130 50 34 e0 ba e4 24 b3 3b c5 72 88 3c 0c 53 0d b9
       -0.0017105434 0.005467044 0.016656289 -0.00013477745
000140 56 57 63 bc 12 74 57 bc 40 58 bf bc 87 c4 bd bc
       -0.013875803 -0.013150232 -0.02335751 -0.023165
000150 89 8a 51 3b 21 d2 68 bc 30 b6 fe bb 7a b1 06 3d
       0.0031973443 -0.014210255 -0.0077731833 0.0328841
000160 8f 3d 59 3b bc 23 ce 3c df 7d 82 3c 93 45 40 bc
       0.0033148264 0.025163524 0.01592916 -0.011735338
000170 59 5d dd bc 68 b7 50 3b 3c a1 ae bc a9 4e e0 ba
       -0.02702205 0.00318476 -0.021317117 -0.0017113286

multihead_self_attention.multihead_attn.out_proj.weight f4 [32, 32]
000000 8a 1a 0a be 00 b7 2f be 68 0e d5 3d eb 7a 34 be
       -0.13486686 -0.17159653 0.104031384 -0.17625014
000010 5c cd 01 3e 5a 76 13 be 0c 3f 65 3d cb 48 f4 3d
       0.12675995 -0.14400616 0.05596833 0.11927947
000020 ec ab 0a 3c 4f 66 39 bd 58 70 3c be c2 c3 cd bd
       0.008463841 -0.045263585 -0.1840223 -0.100471035
000030 70 1c bd bc f2 43 ce bd 1e 26 0d be d6 7c 85 3d
       -0.02308485 -0.10071553 -0.13784072 0.06517951
000040 e0 2f 01 3d 2f be 39 be 0f 39 fc 3d 59 fb ac 3d
       0.031539798 -0.18138956 0.123155706 0.08446378
000050 a0 37 61 be 6b 94 4b 3d 9f 8f 15 3d 1e 89 b3 bd
       -0.21993876 0.04970209 0.03651392 -0.087663874
000060 2f f1 f6 3c 06 f2 e0 bd 1f 10 dc 3c 01 90 f1 3d
       0.030144302 -0.10983662 0.026863156 0.11795045
000070 5c 77 3e be 26 23 72 be 3c 29 83 3d c1 d0 92 bd
       -0.1860022 -0.2364622 0.06404349 -0.07168723
000080 d5 45 3e bd 0a c4 77 be f4 4d ea bd 02 08 a6 bc
       -0.046453316 -0.24195877 -0.1144065 -0.02026749
000090 94 36 29 be 1f d3 bd bd 84 ba 41 be 3d 93 10 3e
       -0.16524726 -0.09268784 -0.18918806 0.14118667
0000a0 e6 93 73 bd 30 53 a2 3d c1 30 31 3e 72 7f 5d be
       -0.05946722 0.07926023 0.17303754 -0.21630648
0000b0 80 9d ef 3d 7f d6 f5 bc 13 aa fd 3d bb 8d 31 3e
       0.116999626 -0.030009506 0.12385955 0.17339222
0000c0 c0 37 d1 3c e2 46 ce 3d d7 b4 ed 3c 41 0c 22 bd
       0.025539279 0.100721136 0.029016895 -0.039562467
0000d0 d6 e0 09 be 1d d7 89 3d 51 9a d8 bc 5c c7 f7 3d
       -0.13464674 0.06730483 -0.026440771 0.12098572
0000e0 35 01 20 be 90 81 62 3c cb de 1c be d1 69 cd 3c
       -0.1562546 0.013824835 -0.15319364 0.025074871
0000f0 98 84 1e 3d 56 0c 06 3e df 7b 7d bd 16 12 b8 3d
       0.03870067 0.13090643 -0.06188571 0.089878246
000100 c4 6a b8 3d dd 69 dd 3c 33 bc b8 bc bc de bb bd
       0.09004739 0.027028019 -0.022550678 -0.091733426
000110 5b 30 2c be 85 0c 31 3e 0b 0e 0d 3d 52 00 1d be
       -0.16815321 0.17289932 0.03443722 -0.15332153
000120 3d 37 ac 3c 59 a6 e1 bd e0 58 db 3d ac de 33 be
       0.021022433 -0.110180564 0.10710311 -0.17565411
000130 d3 33 9f bc 9d d4 8e bd 20 3f 1e 3e 81 63 65 bc
       -0.019433891 -0.069741465 0.15453768 -0.014000774
000140 70 0b 2c 3e 49 ea c3 3d aa 4d 2f be 8c 38 83 3d
       0.16801238 0.09566171 -0.1711947 0.0640727
000150 e3 9d c1 3d 38 14 a3 bd 4b 78 cf bd 9d ba 01 be
       0.094539426 -0.07962841 -0.10130366 -0.12668844
000160 4f 36 11 be d7 b8 c7 3d f1 c4 cd bd 82 1f d8 3d
       -0.14180873 0.09752052 -0.10047329 0.10552885
000170 24 12 68 3d 36 94 34 3e e6 66 1b be 2c 51 56 be
       0.056657925 0.17634663 -0.15175971 -0.20929402
000180 15 6f fc 3d 7c 45 7e 3d 2c 2d 00 3e 62 8f 2c be
       0.12325875 0.062077984 0.12517232 -0.16851571
000190 1c 76 f9 3d 15 a4 0e be 30 8b bf bc bf 29 01 3d
       0.12180731 -0.1392978 -0.0233818 0.031533953
0001a0 d9 47 10 3e 5e 18 f7 3d 68 8c c9 bd 5d e1 f3 3d
       0.14089908 0.120651945 -0.098412335 0.11908219
0001b0 8b d2 1c 3e 59 13 91 bd 9c 57 8a 3c 05 48 00 be
       0.15314691 -0.070837684 0.016887479 -0.12527473
0001c0 84 4f bd bc be 7f 51 3e d1 7c ab bd 21 07 0f be
       -0.023109205 0.20458886 -0.08373416 -0.13967563
0001d0 9b f0 07 bd 60 a7 19 3e 25 0b ce bd e5 03 ae bd
       -0.033188444 0.15005255 -0.100607194 -0.084968366
0001e0 a4 a3 c0 bd b7 5a fc bc 7d c6 cf bd eb 02 a3 bd
       -0.09406212 -0.030804975 -0.101452805 -0.07959541
0001f0 70 29 a3 bb 58 6b d6 bd e6 63 de 3d 2e f8 c2 bc
       -0.004979305 -0.10469693 0.10858898 -0.023799982
000200 98 9a fd bc 6c d1 46 be 70 53 56 bc f7 5c 21 3e
       -0.030957505 -0.19415826 -0.0130814165 0.1575812
000210 b7 fa b9 3d ff 99 1a 3d 40 60 82 3d a3 83 60 3d
       0.09081023 0.03774452 0.063660145 0.05481304
000220 48 89 61 3d 2a 97 e8 3d c0 46 7e bc d2 09 c4 bd
       0.055062562 0.11356957 -0.015519798 -0.095721856
000230 43 51 11 3e c1 e9 27 3e 63 d4 14 3e a5 f2 0e 3e
       0.14191155 0.16397764 0.14534144 0.13959749
000240 f5 ca c1 bd 41 ef fb bd 9c 4a c3 bd cf cc 2b be
       -0.09462539 -0.123014934 -0.09535715 -0.16777347
000250 e5 0d 26 be 33 b7 39 bd 1e 5e 94 bd ac 49 fe 3d
       -0.16216238 -0.045340728 -0.07244514 0.124163955
000260 24 5f 5e 3d 82 f3 09 3d 25 0e 8d 3b 8d d7 e8 bd
       0.054289952 0.033679493 0.0043046647 -0.11369238
000270 73 75 cf bd 27 19 86 bd e4 5e fb bd 21 3b 74 be
       -0.101298235 -0.06547766 -0.12273958 -0.23850681
000280 51 30 02 3c 3d dd ed 3d 93 b4 48 3b fd de 09 3d
       0.00794609 0.116144635 0.0030625209 0.033659924
000290 f9 28 1f be 8f bb c4 bd dd 05 36 3e e5 fc 4e be
       -0.15542974 -0.096060865 0.17775674 -0.20213659
0002a0 28 b8 d7 bc bd e3 06 be 05 e8 88 3d 1b 5a 62 3e
       -0.02633293 -0.13172813 0.06684879 0.22104685
0002b0 e1 60 1d bd 85 6d 67 3d 9a 54 07 bd e0 39 29 be
       -0.03842247 0.05650093 -0.033039667 -0.16525984
0002c0 00 ac e0 3d f7 6f 47 3e 62 41 28 bc f2 aa 3f 3d
       0.109703064 0.19476305 -0.010269495 0.046793886
0002d0 b7 ca 1c 3e 7b 75 15 3e 63 93 32 3e e0 08 e4 bd
       0.15311705 0.14595596 0.17439036 -0.11134505
0002e0 b7 31 05 bd b3 cc 5a bd 67 cc c5 bd 0f de af 3d
       -0.032518115 -0.053417873 -0.09658127 0.08587276
0002f0 be a5 71 3d 62 5a 15 3e 97 98 a9 bd 41 c3 12 3e
       0.058995955 0.1458526 -0.08281057 0.14332296
000300 7c 83 d8 bd 49 12 77 3c 04 eb 22 3e 5a dc 66 be
       -0.10571954 0.015080043 0.15909964 -0.22544995
000310 b6 b8 b1 bd b6 79 44 be b7 36 39 be 11 be f0 3d
       -0.08677809 -0.19187054 -0.18087278 0.11755002
000320 b0 15 fb 3d 7c b6 91 3c 74 a5 5b be 8d 77 a6 3c
       0.12259996 0.01778721 -0.21449834 0.020320678
000330 a8 96 b6 bb e3 da 02 3e ea da 14 3c 48 9a 59 3e
       -0.005572159 0.12778811 0.009085396 0.2125026
000340 74 82 e8 bd aa 5e ca bd b5 3c 66 3e 27 c3 c6 bc
       -0.11353007 -0.09881337 0.22484095 -0.024262978
000350 71 0a 31 bd 4a 3e a9 ba ba 5e 66 3b 1c c5 11 3d
       -0.04322285 -0.001291224 0.0035151676 0.03558837
000360 aa 30 68 bc da 21 29 3d a6 23 06 bd 52 c9 cd bd
       -0.014171759 0.04129205 -0.03274884 -0.100481644
000370 13 24 46 be c3 14 d2 bd 26 c7 ae 3d da fc f1 3d
       -0.19349699 -0.10257866 0.08534078 0.11815806
000380 7a c0 29 3e ef eb af bd 60 ef 2c 3e 44 88 6f 3d
       0.1657733 -0.08589923 0.1688819 0.058479562
000390 77 ac 46 be 9b 87 f1 bd 55 a4 54 3c 92 a3 07 3c
       -0.19401728 -0.11793443 0.012978633 0.008278744
0003a0 12 d8 8b bd 33 c8 5b 3d 47 bb fa 3d dc d2 71 bd
       -0.068283215 0.05365772 0.122427516 -0.05903898
0003b0 62 b3 ef 3d 81 a4 16 3e 49 0e 23 3d 92 e5 81 bc
       0.117041364 0.14711191 0.039808545 -0.015856538
0003c0 a8 72 cb bd 3b 2d 2e 3d 58 d6 24 3e b6 59 2b be
       -0.09933978 0.042523604 0.1609739 -0.16733441
0003d0 a7 60 17 3d fe 1a 6e 3d c3 a6 0b be 50 19 ea bd
       0.03695741 0.05813121 -0.13637833 -0.11430609
0003e0 6c e2 15 3d 9f 34 45 bd 53 34 1d be 59 99 c6 bd
       0.036592886 -0.048145887 -0.15351991 -0.096972175
0003f0 f9 d9 16 3e fc 2c 91 3d 78 58 b0 3c e5 d4 c0 3c
       0.14731587 0.07088658 0.02152656 0.023539016

multihead_self_attention.multihead_attn.out_proj.bias f4 [32]
000000 23 10 8b bc 6f 85 a1 bb d8 72 07 3c f3 dc 67 3c
       -0.016975468 -0.0049292366 0.008267127 0.0141517995
000010 40 72 9e 3c b1 56 8c 3b 7b 13 df bc 5e 80 82 bb
       0.019341588 0.0042827954 -0.027230969 -0.0039825877
000020 51 83 81 bc a6 c7 55 3b 10 0a 40 bb f6 48 39 bc
       -0.015809687 0.003262022 -0.0029302873 -0.011308899
000030 8c d4 d8 3a 57 c2 da 3b 9e 85 e8 3c 96 61 00 3c
       0.0016542836 0.006675999 0.028384026 0.007835766
000040 c6 59 02 3c 77 2c 04 bc 94 14 df 3b 25 28 08 3c
       0.007955974 -0.008067242 0.006807873 0.008310352
000050 70 ec cc ba 78 fa 79 3c 03 9d 36 bc 14 ef 66 ba
       -0.0015634429 0.01525747 -0.011145833 -0.0008809429
000060 24 d5 1c bc cf 14 05 3c 42 25 11 bb 73 30 83 bc
       -0.009572301 0.008122637 -0.0022147452 -0.016014313
000070 39 e6 3f bc 9b 9e 5d bc 26 ae 5a bc ea 82 f4 3b
       -0.011712604 -0.013526584 -0.013347184 0.0074618952

multihead_self_attention.fc.weight f4 [6, 32]
000000 22 5d e3 bd ff 28 ac bd 0a 42 22 be dd 60 12 bd
       -0.11101748 -0.08406257 -0.15845504 -0.035736907
000010 4a 0a d5 bd 75 f0 a4 bd 9e 01 da 3d 37 55 12 bc
       -0.10402353 -0.08053676 0.1064484 -0.00893145
000020 e4 48 4f bd 6b 9b 36 3e 6f 37 31 be 9e eb 0a bd
       -0.050606623 0.17832725 -0.17306302 -0.03391611
000030 3e 87 24 be eb df 52 3e ba db ad bc 04 7d 0f 3e
       -0.16067216 0.2059323 -0.021222938 0.14012533
000040 05 24 81 3d 1e 23 22 3e 65 8c c8 bd 10 39 fd 3d
       0.06305698 0.15833709 -0.09792403 0.123643994
000050 99 ee 05 3c cb b6 62 bd 12 6c 70 bd 83 15 fa 3d
       0.008174562 -0.055350106 -0.058696814 0.12211134
000060 8c e7 b8 bd 78 90 49 be a9 af 36 be 70 47 c7 3d
       -0.09028539 -0.19684017 -0.17840447 0.097304225
000070 25 e3 37 be 17 c8 1a be 18 c7 e3 3d ad 41 85 bd
       -0.17957743 -0.1511539 0.111219585 -0.06506667
000080 0d de 2b be 7e 94 0a 3e 08 e5 f6 bd 82 c2 7d 3d
       -0.16783924 0.13533208 -0.12055403 0.061953075
000090 98 01 fa 3d 0a 42 26 be 97 af 4d 3e 4c a7 41 3e
       0.12207335 -0.1623613 0.20086513 0.18911475
0000a0 57 39 d5 3d 61 3e 1f be cc 98 49 3e 1c 8c ca 3c
       0.10411327 -0.1555114 0.19687194 0.024725012
0000b0 ae 40 da 3d 13 8b 32 be a0 fc 0c 3e 94 9c 11 be
       0.10656868 -0.17435865 0.13768244 -0.14219886
0000c0 68 1a dd bd 47 09 65 be cb 22 8b 3d a3 3e 35 3e
       -0.10796052 -0.2236682 0.067937456 0.17699675
0000d0 99 b1 79 3d 98 a2 23 bd 2f 34 86 3d d0 24 e8 3d
       0.060960386 -0.039949983 0.06552922 0.113351464
0000e0 f8 43 2c be 6c db 6e 3e d2 b5 a1 3d 9e d6 4a be
       -0.16822803 0.2332589 0.078960076 -0.19808432
0000f0 ec 13 d9 bd a7 36 ca 3d 5b 2e d1 bd db aa f4 bc
       -0.10599503 0.09873705 -0.1021392 -0.029866626
000100 d4 75 34 3d d3 60 cc 3d 3c be ab 3d 13 cd 02 bd
       0.044057682 0.09979405 0.08385894 -0.031933855
000110 a7 11 ec bd 95 62 05 be 51 f5 24 3e f5 13 2f bc
       -0.115268044 -0.13025887 0.16109206 -0.0106859105
000120 aa 19 e1 bd f9 2c 41 be 46 72 27 3e f6 5e fa bd
       -0.10991223 -0.18864812 0.16352186 -0.122251436
000130 ad 3e b2 bd d7 c9 56 bc 91 99 62 bd da 52 ad 3d
       -0.08703361 -0.013109646 -0.055322234 0.08463068
000140 be 0f 85 bd c7 35 f9 3c 21 8c c8 bd 21 1f b3 bd
       -0.06497143 0.03042115 -0.097923525 -0.08746172
000150 88 7a d8 3c a8 0c 68 3d a7 9f fe bd e1 cb 36 be
       0.026425615 0.056652695 -0.12432795 -0.17851211
000160 54 39 cb bc 7a e6 cf 3c 46 31 fe 3d 04 37 3b be
       -0.02480761 0.025378454 0.12411742 -0.18282706
000170 6d 1d 19 bb 3a f5 d7 bd 5d e6 0a 3e 14 b5 39 3e
       -0.0023363486 -0.1054482 0.13564439 0.18135482
000180 0a ec 66 be d7 df c0 bd 0a b9 fe 3d b3 aa d8 bd
       -0.2255098 -0.09417694 0.12437637 -0.10579433
000190 e0 f7 05 3e 6e ee 5d 3e bd cb 49 be 49 ff 00 bc
       0.13082838 0.21672985 -0.19706626 -0.007873365
0001a0 be 9f ce bd 86 39 66 3e 24 6a 88 3d 7b 61 37 be
       -0.10089062 0.22482881 0.0666087 -0.1790828
0001b0 74 c9 24 3e 15 d7 87 3a a3 61 2c 3d 4a 17 49 3d
       0.16092473 0.0010363782 0.0420853 0.049094476
0001c0 2a aa f5 3d 2b d7 ef bd 2e 81 45 3e ca 7f 1e 3e
       0.11995347 -0.11710962 0.1928756 0.15478435
0001d0 7a 9f 10 bd 67 4b 58 3e 43 1b 53 be fc 22 80 bd
       -0.03530834 0.21122514 -0.20615868 -0.06256673
0001e0 e8 3b 9d bd 19 f3 13 3e 85 6d e8 bc 3e 78 38 3b
       -0.07677442 0.14448203 -0.028372535 0.0028147842
0001f0 f4 20 52 be e5 38 2c be 90 14 a1 bd ca 1c e6 bd
       -0.20520383 -0.16818579 -0.0786525 -0.1123596
000200 8b 99 ba 3d 08 06 0c 3e e2 ca ef 3d e0 0d cc bc
       0.09111317 0.13674176 0.11708619 -0.02490896
000210 6e f3 2b 3e 21 2c 5b be 81 34 16 be 2f e0 23 be
       0.1679208 -0.21403553 -0.14668466 -0.16003488
000220 1a c4 1b bd f7 52 0c be e1 1c b9 bd 73 dd 84 3d
       -0.038028814 -0.13703524 -0.09038711 0.064875506
000230 41 ec f0 bd 46 99 38 3e 17 8d 62 3e fa c2 12 3e
       -0.11763812 0.18027219 0.22124134 0.1433219
000240 fb 39 c7 bc 03 8e 36 be 22 15 02 be ab 97 b5 bd
       -0.02431964 -0.1782761 -0.12703374 -0.08866819
000250 72 08 72 3d 57 9c b3 ba 4a d5 2f 3c 14 79 d4 bd
       0.059090085 -0.0013703209 0.010732004 -0.10374656
000260 3a ca b8 3d b4 6c 00 3e 7f b1 46 3d 06 9b 25 bd
       0.09022947 0.12541467 0.048509117 -0.040431045
000270 56 2c 4c 3d 69 d7 23 bc 82 a7 54 be aa e1 09 3e
       0.04984697 -0.010000088 -0.20767024 0.1346499
000280 05 ac f4 3d 04 3d 1a 3d d6 78 0e be 1f f8 f9 bd
       0.119468726 0.037655845 -0.13913283 -0.122055285
000290 5c ee b2 3d f3 16 8a bd 3c 3a be 3d cc 73 cf bc
       0.0873687 -0.067426585 0.09288451 -0.025323771
0002a0 dd d4 5c 3e 11 b2 02 be bb a8 ff 3d 1b c3 48 3e
       0.21565576 -0.1276324 0.12483355 0.19605677
0002b0 f2 a8 8e 3d 48 5c 2e be 87 70 e7 3d cb ae 0a 3e
       0.069658175 -0.1702739 0.1130076 0.1354324
0002c0 2c fb b0 bd 3d 07 25 be 96 12 9f 3d e3 d8 65 3d
       -0.08641657 -0.16116042 0.07767217 0.056115042
0002d0 cf ac 1c 3e e6 78 d3 3d be 92 bb bd 59 b6 5f 3d
       0.15300296 0.10325794 -0.09158848 0.05461726
0002e0 70 05 f1 3d b1 c8 71 3d ee aa 96 bc 98 31 80 3d
       0.11768615 0.059029285 -0.018392053 0.06259459
0002f0 56 68 19 bd 4e 12 fd 3d ae d1 bc bd 6f a2 16 be
       -0.037453018 0.12357007 -0.09219681 -0.14710401

multihead_self_attention.fc.bias f4 [6]
000000 82 41 bc bd 56 eb b4 3d 9a ad d1 bd 14 68 3a 3e
       -0.09192182 0.08833949 -0.1023819 0.18203765
000010 a8 78 31 3e 16 2b af 3d
       0.17331183 0.0855314

fc.weight f4 [6, 6]
000000 a2 b0 b1 be 6c 71 7f 3e 54 f5 c0 3e 86 ab fc 3d
       -0.34705073 0.24945611 0.3768717 0.12337403
000010 8a ef bb bd cd 22 fa bc 45 ad b5 be e4 31 77 3e
       -0.09176548 -0.030534172 -0.35483757 0.24140126
000020 ee 3f ad 3e 0f f2 c1 3e 4c 9d 17 be 60 fe a6 be
       0.33837837 0.3787999 -0.14806098 -0.32615948
000030 f0 36 90 3e 30 96 59 be f9 19 45 3d c6 78 bf 3e
       0.28166914 -0.21248698 0.048120473 0.3739683
000040 c4 fb d6 be c1 18 cf be 48 e8 86 3e 82 9a 25 3e
       -0.41988957 -0.40448573 0.26349092 0.16172221
000050 9b ff 44 3e 7c e0 27 3d d0 ad 7c 3e a3 29 b0 be
       0.19238131 0.04098557 0.24675679 -0.34406766
000060 6e 44 07 3e 0d 53 9c be bc c5 24 be 2e 5c c4 3e
       0.13209698 -0.30532113 -0.16091055 0.38351578
000070 7c 56 53 be 3c 39 43 3e 16 75 72 be d5 a9 95 be
       -0.2063846 0.19064802 -0.23677477 -0.29231134
000080 56 ad 65 be f7 d1 b9 bd a2 12 a7 be 35 98 98 3c
       -0.22429404 -0.09073251 -0.32631403 0.018627265

fc.bias f4 [6]
000000 3d b4 11 3e ba 13 b5 be 68 83 ae 3e be 15 1b bc
       0.14228912 -0.35366613 0.3408463 -0.009465633
000010 94 61 86 be fc dc 56 3e
       -0.2624632 0.20982736
