trained_weights/cadets/selfattention47.pth (torch, 20623 bytes, 8 tensors)

multihead_self_attention.multihead_attn.in_proj_weight f4 [96, 32]
0	0xbd7eb141	-0.06218076
1	0xb4363a15	-1.6971201e-07
2	0x3c22df01	0.009940864
3	0x3d15e53e	0.036595576
4	0x34b67593	3.3985688e-07
5	0x3ae28ed5	0.0017284999
6	0x3cc249c0	0.023716807
7	0xb6029f33	-1.9464176e-06
8	0xbd7961c1	-0.06088424
9	0xb52e9244	-6.5032896e-07
10	0xbb14306a	-0.0022611865
11	0x36df2723	6.650474e-06
12	0xbc5fa550	-0.013650253
13	0x3d765418	0.06013879
14	0x3d639c82	0.05556918
15	0x36e31e94	6.768687e-06
16	0x3d037eb6	0.032103263
17	0x3c30df29	0.010795393
18	0x3cc00740	0.023440957
19	0x3d8228ee	0.06355463
20	0x3d6adeb2	0.057341285
21	0xbd07f541	-0.033192877
22	0xbb1b52e7	-0.0023700537
23	0xbd716ad0	-0.058939755
24	0xb92daeb4	-0.00016563648
25	0x3b87b5ba	0.0041415365
26	0x34cb17c8	3.7829e-07
27	0xb908de77	-0.00013052845
28	0x3bf746fd	0.0075463043
29	0xba837707	-0.001002998
30	0x3d265d10	0.040616095
31	0xb9db8961	-0.0004187329
32	0xb92dd451	-0.0001657766
33	0x3832dd49	4.2644595e-05
34	0x358439c0	9.851574e-07
35	0xbcb2eebf	-0.021842359
36	0xb6a52f06	-4.9228574e-06
37	0xbca75a5e	-0.020428833
38	0x3d392cae	0.045208625
39	0xbcff888b	-0.031193038
40	0xbc183bea	-0.009291628
41	0x36e2bee7	6.757549e-06
42	0x3d3b5c7b	0.045742493
43	0xbaa27832	-0.001239544
44	0x3d28b250	0.041185677
45	0xb66ede62	-3.5594207e-06
46	0x3a27bfbc	0.0006399115
47	0xbd09a627	-0.03360572
48	0x3cc99433	0.0246068
49	0xbb8a9d86	-0.004230204
50	0x34f16eaf	4.497028e-07
51	0x3d41ecb8	0.047344893
52	0x340c1aac	1.3048219e-07
53	0xb5b178ce	-1.3222686e-06
54	0xb628f172	-2.517449e-06
55	0x3a1fd416	0.0006096972
56	0x38223ea4	3.868215e-05
57	0xbc0f56ea	-0.008748749
58	0xbcc12d58	-0.023581192
59	0x3be8ba8c	0.0071023162
60	0xbd6d47dd	-0.057929862
61	0xba39c3d6	-0.0007086372
62	0x36587b0c	3.225813e-06
63	0xb6e01200	-6.6778157e-06
64	0xb50c64c1	-5.230068e-07
65	0x3c1e7fec	0.009674054
66	0xb54fae27	-7.7366934e-07
67	0xb5e43462	-1.7002569e-06
68	0x3caddee5	0.021224448
69	0x3d82ac92	0.063805714
70	0xbd491c64	-0.04909934
71	0xbc9d59fb	-0.019207945
72	0x372318d5	9.721339e-06
73	0x3d7e7025	0.062118668
74	0x3c5998d0	0.013281062
75	0xbd2918dd	-0.041283477
76	0x36bedd9a	5.688239e-06
77	0xbaadc60c	-0.0013257875
78	0xb71488cd	-8.853339e-06
79	0x3d367a3f	0.044550177
80	0x37ddac38	2.6425449e-05
81	0x36562655	3.1910797e-06
82	0xb2e832f6	-2.7031529e-08
83	0x364f4899	3.088766e-06
84	0xba606a54	-0.0008560766
85	0xb615175c	-2.2216327e-06
86	0x3656164f	3.190147e-06
87	0x36d1fbb6	6.2579884e-06
88	0x3cbb74c4	0.022882827
89	0xb7662f38	-1.3720062e-05
90	0x399a4faf	0.00029432538
91	0xb41270a1	-1.3638284e-07
92	0x3c77464e	0.015092446
93	0xbd21104b	-0.03932218
94	0xb5b53e5b	-1.3503699e-06
95	0x3a754403	0.0009356143
96	0xbce68116	-0.028137725
97	0x3655ebdb	3.187676e-06
98	0xba553de1	-0.0008134526
99	0xb4bcdae0	-3.517698e-07
100	0x3d64d1ce	0.055864148
101	0xb6e05763	-6.6858934e-06
102	0x3d74c103	0.059754383
103	0xbc9f4ffa	-0.019447315
104	0xb693c66e	-4.4040416e-06
105	0x3ce62e7e	0.028098341
106	0xb6ece7cb	-7.0603323e-06
107	0x37177856	9.028319e-06
108	0x3a5af90d	0.00083531515
109	0xbcf928f7	-0.030415041
110	0xbd05ee59	-0.03269801
111	0xbbb9138c	-0.005648082
112	0xb71ac3bc	-9.224688e-06
113	0xbb02525f	-0.0019885523
114	0xbd36be94	-0.044615343
115	0x3a82a3b4	0.0009967
116	0x3d0625ed	0.032751013
117	0xba6f7b06	-0.00091354584
118	0xb7d305c9	-2.5155854e-05
119	0xba056af6	-0.0005089486
120	0xb523957a	-6.093975e-07
121	0xbc783185	-0.015148525
122	0xbd48da96	-0.049036585
123	0x3ca710f3	0.020393824
124	0xb7c658ad	-2.3644732e-05
125	0xb98eb72f	-0.00027220833
126	0xb78f2e11	-1.706838e-05
127	0xbd589681	-0.052877907
128	0xbb1ca35b	-0.0023901078
129	0x3cf9580a	0.030437488
130	0x3b55be17	0.0032614523
131	0x3d1c2b7d	0.03812741
132	0xb5a32ab3	-1.2156873e-06
133	0x3d22ed98	0.03977737
134	0xb9c99573	-0.00038449056
135	0xbd6b32ae	-0.05742138
136	0x3587da74	1.0121862e-06
137	0x3b00c6ed	0.001964982
138	0x3ca375ef	0.019953696
139	0x3c88fd13	0.016722238
140	0xb6b3428f	-5.342364e-06
141	0x3464abd9	2.1296673e-07
142	0x3ba288cb	0.0049601546
143	0xbd519581	-0.05116797
144	0x38fce6b7	0.000120592704
145	0x3581494e	9.632583e-07
146	0x37a81ea0	2.0041422e-05
147	0xba4af65c	-0.0007742399
148	0x3c2eab33	0.010660934
149	0xb861aba9	-5.380405e-05
150	0x3c48a86e	0.012247188
151	0x36a2f469	4.8564293e-06
152	0x37d7c998	2.5723872e-05
153	0x3d5848ec	0.05280392
154	0xbc1df84d	-0.009641719
155	0x3d2a8902	0.041634567
156	0xb423ca7a	-1.5254219e-07
157	0xb5661c25	-8.572263e-07
158	0xb6cd9151	-6.126393e-06
159	0x3c758794	0.014985938
160	0x3416900d	1.4022244e-07
161	0x3c797317	0.015225193
162	0xbd3c1ffb	-0.045928936
163	0x34e44d2b	4.2524456e-07
164	0x3b758a32	0.0037466404
165	0xbd4c3b92	-0.0498615
166	0x36393ee8	2.7603764e-06
167	0xbb4d0e7d	-0.0031289153
168	0x3d3d6d48	0.046246797
169	0x328d1f74	1.6428864e-08
170	0xb6e221fd	-6.7392816e-06
171	0xb2de965f	-2.5912582e-08
172	0xbb86a017	-0.0041084397
173	0xbbb7d544	-0.00561014
174	0xb53c4a8f	-7.0143955e-07
175	0xb643138c	-2.9068642e-06
176	0xba6013d5	-0.0008547877
177	0xb947342f	-0.00018997559
178	0x37ddb27b	2.6428364e-05
179	0xbc1e0bbb	-0.009646351
180	0xb7cb65dd	-2.424692e-05
181	0xbb828db2	-0.0039841766
182	0xb6cd9b83	-6.12758e-06
183	0xbd3d177c	-0.046164975
184	0x3573ad11	9.07764e-07
185	0x3afe23e5	0.001938936
186	0xb7c8518f	-2.3879837e-05
187	0xbae25cc5	-0.0017270079
188	0x3d4952fe	0.049151413
189	0x350d9536	5.2743724e-07
190	0xb56b494e	-8.7650994e-07
191	0x3c621b2b	0.013800423
192	0xb6027329	-1.9438542e-06
193	0xba8f446e	-0.0010930428
194	0x3cdc7aa4	0.026913948
195	0xbd2b919a	-0.041886903
196	0xbd0baf67	-0.034102824
197	0xbae9ab95	-0.0017827625
198	0xb6b95cd1	-5.524235e-06
199	0xbc94b05d	-0.018150503
200	0x38b70c2a	8.728386e-05
201	0x3cdb9ba9	0.026807623
202	0x3bd7917f	0.006578624
203	0x3d5951ea	0.053056635
204	0xbd6dfb52	-0.058101006
205	0xbcc10755	-0.023563066
206	0xb7b617c9	-2.1707167e-05
207	0x353be628	6.999785e-07
208	0xbbd46e6a	-0.006482889
209	0xb67219b6	-3.6075776e-06
210	0x35e66e2d	1.7168401e-06
211	0xbb6966a7	-0.0035614164
212	0x3d4a526a	0.049395002
213	0xbcfd604c	-0.030929707
214	0x35c7b5af	1.4879532e-06
215	0xb68ca303	-4.191302e-06
216	0xbd3b496c	-0.045724317
217	0x3c4000a3	0.011718902
218	0x3bd8fbec	0.0066218283
219	0x34d0fcbf	3.8926916e-07
220	0x3d804212	0.06262602
221	0x37c967b9	2.4009367e-05
222	0xbaa35f17	-0.0012464252
223	0x3d76991e	0.060204618
224	0x3cb1e84a	0.02171721
225	0xba9f23f2	-0.001214145
226	0xb5041821	-4.9208944e-07
227	0xbd015aa7	-0.031580593
228	0x35b6f152	1.363029e-06
229	0xbc1625d0	-0.009164289
230	0xbca626d7	-0.020282192
231	0x346059e5	2.0894329e-07
232	0xb885637f	-6.360467e-05
233	0x3d528d43	0.05140425
234	0x347b0b74	2.3380363e-07
235	0x3d76f072	0.0602879
236	0xbd0c0c51	-0.034191433
237	0xbd5151bc	-0.05110334
238	0xbcdbf72d	-0.026851261
239	0xb4780ff4	-2.3102604e-07
240	0x3d777bb7	0.060420718
241	0xbc1a2f03	-0.0094106225
242	0x3d7296d9	0.05922589
243	0x3cdda8c7	0.027058018
244	0xbc535f21	-0.0129010985
245	0x3d6e29b6	0.058145247
246	0xbaafdcae	-0.0013417208
247	0x35e84aaa	1.7307077e-06
248	0x3b17c440	0.0023157746
249	0x3d65837e	0.056033604
250	0x35bd75a0	1.4115831e-06
251	0x3d7a72cc	0.061144635
252	0x390f3d6b	0.00013660423
253	0x3590e037	1.0794091e-06
254	0x3c453751	0.012037114
255	0xbc8ed535	-0.01743565

multihead_self_attention.multihead_attn.in_proj_bias f4 [96]
0	0x00000000	0.0
1	0x00000000	0.0
2	0x00000000	0.0
3	0x00000000	0.0
4	0x00000000	0.0
5	0x00000000	0.0
6	0x00000000	0.0
7	0x00000000	0.0
8	0x00000000	0.0
9	0x00000000	0.0
10	0x00000000	0.0
11	0x00000000	0.0
12	0x00000000	0.0
13	0x00000000	0.0
14	0x00000000	0.0
15	0x00000000	0.0
16	0x00000000	0.0
17	0x00000000	0.0
18	0x00000000	0.0
19	0x00000000	0.0
20	0x00000000	0.0
21	0x00000000	0.0
22	0x00000000	0.0
23	0x00000000	0.0
24	0x00000000	0.0
25	0x00000000	0.0
26	0x00000000	0.0
27	0x00000000	0.0
28	0x00000000	0.0
29	0x00000000	0.0
30	0x00000000	0.0
31	0x00000000	0.0
32	0x00000000	0.0
33	0x00000000	0.0
34	0x00000000	0.0
35	0x00000000	0.0
36	0x00000000	0.0
37	0x00000000	0.0
38	0x00000000	0.0
39	0x00000000	0.0
40	0x00000000	0.0
41	0x00000000	0.0
42	0x00000000	0.0
43	0x00000000	0.0
44	0x00000000	0.0
45	0x00000000	0.0
46	0x00000000	0.0
47	0x00000000	0.0
48	0x00000000	0.0
49	0x00000000	0.0
50	0x00000000	0.0
51	0x00000000	0.0
52	0x00000000	0.0
53	0x00000000	0.0
54	0x00000000	0.0
55	0x00000000	0.0
56	0x00000000	0.0
57	0x00000000	0.0
58	0x00000000	0.0
59	0x00000000	0.0
60	0x00000000	0.0
61	0x00000000	0.0
62	0x00000000	0.0
63	0x00000000	0.0
64	0x3c2bdaee	0.010489209
65	0xbbd42b03	-0.006474854
66	0xbd2a3d44	-0.041562334
67	0x3d03a6e1	0.03214157
68	0xbc77e96c	-0.015131336
69	0x3d2f1112	0.04274089
70	0xbcbe8135	-0.02325497
71	0xbbac2f71	-0.005254679
72	0x3bf891f4	0.0075857583
73	0x3c1e2ddb	0.0096544875
74	0x3d201ed4	0.0390919
75	0xbc7de0ef	-0.015495523
76	0xba849d38	-0.0010117656
77	0x3ba6891b	0.005082262
78	0x3c828f2f	0.015937416
79	0x391f8c6a	0.0001521573
80	0xbc6cf5b1	-0.014462874
81	0xbc3809a2	-0.011232765
82	0xbc9fb529	-0.019495564
83	0xbcae44cb	-0.021273037
84	0x3b1e384e	0.0024142447
85	0xbc5256bd	-0.012838063
86	0xbc09a356	-0.008400759
87	0x3cfa609f	0.03056365
88	0x3b040937	0.0020147094
89	0x3cca804c	0.02471938
90	0x3c7504b6	0.014954736
91	0xbc4392e3	-0.011936876
92	0xbcd83c85	-0.026396045
93	0x3b17d2d6	0.002316644
94	0xbc7fc107	-0.015609986
95	0xbb117d25	-0.0022199836

multihead_self_attention.multihead_attn.out_proj.weight f4 [32, 32]
0	0xbe08042b	-0.1328284
1	0xbe2c147a	-0.16804686
2	0x3dcc1507	0.09964948
3	0xbe2f2a7a	-0.17106047
4	0x3dfe2c7b	0.12410828
5	0xbe0d2fd2	-0.13787773
6	0x3d620781	0.055182938
7	0x3de9e634	0.11420861
8	0x3c55b698	0.013044022
9	0xbd348a36	-0.04407712
10	0xbe3a74f0	-0.1820867
11	0xbdc97a32	-0.0983776
12	0xbcce7cf9	-0.025206076
13	0xbdc78f19	-0.097440906
14	0xbe0b7389	-0.13618292
15	0x3d761717	0.060080614
16	0x3d0ee4e4	0.034886256
17	0xbe36f445	-0.17866619
18	0x3df3db6c	0.11907086
19	0x3da5dcb3	0.08098736
20	0xbe5c8473	-0.215349
21	0x3d4e2e6f	0.05033725
22	0x3d2b7685	0.041861076
23	0xbdbbc6b1	-0.09168757
24	0x3d085b90	0.033290446
25	0xbde7c658	-0.11317128
26	0x3ceb857e	0.028750177
27	0x3df10990	0.11769402
28	0xbe3e1008	-0.18560803
29	0xbe6c674c	-0.2308628
30	0x3d6528eb	0.055947226
31	0xbd902f05	-0.07040218
32	0xbd3306eb	-0.04370777
33	0xbe738c00	-0.23783875
34	0xbde92185	-0.113833465
35	0xbcbc5507	-0.022989763
36	0xbe2a18c4	-0.1661101
37	0xbdbf9108	-0.093538344
38	0xbe4213f5	-0.18952926
39	0x3e1039d3	0.14084558
40	0xbd6c7908	-0.057732612
41	0x3d9eb742	0.077497974
42	0x3e305a7d	0.17222019
43	0xbe5a761e	-0.2133412
44	0x3ded8348	0.115973055
45	0xbcf010cf	-0.02930489
46	0x3dff591a	0.12468167
47	0x3e2f6dd6	0.17131743
48	0x3cc76a07	0.02434255
49	0x3dd20896	0.10255544
50	0x3ce77a65	0.028256604
51	0xbd261f55	-0.040557224
52	0xbe06e0f4	-0.1317175
53	0x3d8b53e2	0.06803109
54	0xbcb16cdf	-0.02165836
55	0x3df0eddc	0.11764118
56	0xbe1ba794	-0.15200645
57	0x3c6d3a73	0.014479267
58	0xbe1c6686	-0.15273485
59	0x3ccfc52b	0.025362572
60	0x3d1b6093	0.037933897
61	0x3e07bfc8	0.13256752
62	0xbd81b600	-0.06333542
63	0x3dc42cba	0.095788434
64	0x3db869be	0.09004544
65	0x3cc63419	0.024194764
66	0xbca89067	-0.020576669
67	0xbdc107f8	-0.09425348
68	0xbe2b9356	-0.16755423
69	0x3e2e6c08	0.17033398
70	0x3d0d793a	0.03453944
71	0xbe19117d	-0.14948077
72	0x3c9e343d	0.019312019
73	0xbde3248d	-0.11090956
74	0x3dd9aece	0.106290445
75	0xbe35498f	-0.17703842
76	0xbc95315b	-0.018212011
77	0xbd907787	-0.07054048
78	0x3e1dcc97	0.15410076
79	0xbc436b51	-0.011927442
80	0x3e2a0124	0.16601998
81	0x3dc314cf	0.09525453
82	0xbe2af0d3	-0.1669343
83	0x3d84bd77	0.0648145
84	0x3dbe9719	0.09306163
85	0xbda2d6d4	-0.079511315
86	0xbddaa5f6	-0.10676186
87	0xbe0104d0	-0.12599492
88	0xbe120ba4	-0.14262253
89	0x3dcab906	0.09898572
90	0xbdce5c86	-0.10076241
91	0x3dd73b9b	0.10509416
92	0x3d660069	0.056152735
93	0x3e32a0a4	0.17444092
94	0xbe16b09d	-0.1471581
95	0xbe5641f3	-0.20923595
96	0x3e01052a	0.12599626
97	0x3d78bfea	0.0607299
98	0x3dfee267	0.124455266
99	0xbe2cc256	-0.16871008
100	0x3df82177	0.12115758
101	0xbe0e8e64	-0.13921505
102	0xbcd75157	-0.026283903
103	0x3d1cd8c2	0.038292654
104	0x3e10eed9	0.14153613
105	0x3df51a30	0.119678855
106	0xbdc5f048	-0.09664971
107	0x3debfb4c	0.115225405
108	0x3e1d1e70	0.15343642
109	0xbd92704d	-0.07150326
110	0x3c979ebc	0.018508308
111	0xbdf99915	-0.12187401
112	0xbcbb07c9	-0.02283086
113	0x3e4e73a7	0.20161305
114	0xbdae22e8	-0.085027516
115	0xbe0f55bc	-0.13997549
116	0xbd05f03f	-0.03269982
117	0x3e1abf82	0.15112117
118	0xbdd4c3ed	-0.103889324
119	0xbda70f3c	-0.081572026
120	0xbdbf29a7	-0.093341164
121	0xbcdf18ff	-0.027233599
122	0xbdd15164	-0.10220602
123	0xbda023e6	-0.07819347
124	0xbb8b23b9	-0.004246202
125	0xbdd74b33	-0.1051239
126	0x3ddaf662	0.10691525
127	0xbcd9f244	-0.026604779
128	0xbced4367	-0.028962804
129	0xbe44fdb0	-0.19237399
130	0xbc26f148	-0.010189362
131	0x3e1cdfa9	0.15319695
132	0x3db90fca	0.09036215
133	0x3d11e981	0.035623077
134	0x3d86accc	0.06575927
135	0x3d4eb522	0.05046571
136	0x3d610308	0.05493453
137	0x3de70db0	0.112819076
138	0xbc91a983	-0.017781025
139	0xbdb8a7f7	-0.09016412
140	0x3e11af6b	0.14227073
141	0x3e28d7f1	0.16488625
142	0x3e1569b9	0.14591111
143	0x3e0bbbde	0.13645884
144	0xbdc96c5c	-0.09835121
145	0xbdee029c	-0.116215914
146	0xbdbefb5c	-0.09325287
147	0xbe2c3dba	-0.16820422
148	0xbe232bb1	-0.15934636
149	0xbd328656	-0.043585144
150	0xbd90d35a	-0.07071562
151	0x3df12e20	0.11776376
152	0x3d597734	0.053092197
153	0x3d072610	0.032995284
154	0x3bb6946b	0.005571892
155	0xbde9bbf8	-0.11412805
156	0xbdd0f32f	-0.102026336
157	0xbd82bddb	-0.06383868
158	0xbdf58e38	-0.11990017
159	0xbe6e296a	-0.23257986
160	0x3b1c5a99	0.0023857711
161	0x3dd7a41f	0.105293505
162	0x3b6b377d	0.0035891228
163	0x3d1737a6	0.036918305
164	0xbe1ccb51	-0.15311934
165	0xbdc8135d	-0.09769318
166	0x3e36437f	0.17799185
167	0xbe4c357d	-0.19942279
168	0xbcff61d8	-0.031174585
169	0xbe04d6c7	-0.12972556
170	0x3d89bd7f	0.06725597
171	0x3e5b622b	0.21424167
172	0xbd11b23b	-0.035570364
173	0x3d5f2f5f	0.054488536
174	0xbd16bc51	-0.036800686
175	0xbe23554c	-0.15950507
176	0x3de2c96b	0.11073574
177	0x3e421262	0.18952325
178	0xbb4d477a	-0.003132312
179	0x3d4c36ad	0.04985683
180	0x3e13abdf	0.14421032
181	0x3e11d59a	0.14241639
182	0x3e241fa6	0.16027698
183	0xbdd3f42f	-0.10349309
184	0xbd1510a7	-0.036392834
185	0xbd618060	-0.05505407
186	0xbdc56c54	-0.096398026
187	0x3da6666f	0.081250064
188	0x3d6e6690	0.05820328
189	0x3e0e545c	0.13899368
190	0xbd97cf13	-0.07412543
191	0x3e0bda2d	0.13657446
192	0xbdd110aa	-0.102082565
193	0x3cc875db	0.02447026
194	0x3e1e91a7	0.1548525
195	0xbe6497a5	-0.22323473
196	0xbdb5a647	-0.088696055
197	0xbe423cfa	-0.18968573
198	0xbe3d3a24	-0.1847921
199	0x3df3079f	0.11866688
200	0x3e062fbe	0.1310415
201	0x3c583efe	0.013198612
202	0xbe5a74e0	-0.21333647
203	0x3ca538b6	0.020168643
204	0xbc359e91	-0.011085168
205	0x3e04932b	0.12946765
206	0x3c061d5b	0.00818571
207	0x3e54cfac	0.20782346
208	0xbddeba51	-0.10875381
209	0xbdda70c5	-0.1066604
210	0x3e6272f1	0.22114159
211	0xbce1b559	-0.027552294
212	0xbd200f0e	-0.039076857
213	0xbbb7564e	-0.005595005
214	0x3c7dd6d2	0.015493112
215	0x3d17139a	0.036883928
216	0xbb1c3d28	-0.0023840163
217	0x3d269b30	0.040675342
218	0xbd05d8bd	-0.0326774
219	0xbdce09f4	-0.10060492
220	0xbe485aec	-0.19565934
221	0xbdcb6929	-0.09932167
222	0x3d9daff5	0.07699577
223	0x3df92239	0.121647306
224	0x3e27cb20	0.1638608
225	0xbdb519a1	-0.08842779
226	0x3e2d6b20	0.16935396
227	0x3d6a774b	0.057242673
228	0xbe454f09	-0.19268431
229	0xbdf93416	-0.12168138
230	0x3c2a28c0	0.010385692
231	0x3c8bed89	0.017081039
232	0xbd8d8506	-0.06910138
233	0x3d4d6763	0.050147425
234	0x3dfa151c	0.122110575
235	0xbd86b1ad	-0.06576858
236	0x3dedf14c	0.11618289
237	0x3e14b39b	0.14521639
238	0x3d1455a4	0.036214486
239	0xbc387850	-0.0112591535
240	0xbdca54ae	-0.098794326
241	0x3d0d8f92	0.034560747
242	0x3e2d2193	0.16907339
243	0xbe29b430	-0.16572642
244	0x3cfce0c4	0.030868895
245	0x3d5ce0f2	0.053925462
246	0xbe13fac8	-0.14451134
247	0xbdd9b2a9	-0.1062978
248	0x3d2eac9d	0.042645086
249	0xbd3a54a1	-0.045490865
250	0xbe1d8a9a	-0.15384904
251	0xbdcb5f2f	-0.09930264
252	0x3e134e4b	0.14385335
253	0x3d84991d	0.064745165
254	0x3ce436b5	0.027858118
255	0x3cb76f74	0.022392012

multihead_self_attention.multihead_attn.out_proj.bias f4 [32]
0	0xbc81c8e3	-0.01584286
1	0xbba29372	-0.0049614245
2	0x3c00c0b4	0.007858444
3	0x3c71166a	0.014714817
4	0x3c956ebc	0.018241279
5	0x3ba2225d	0.004947944
6	0xbccc97fb	-0.024974814
7	0xbb2b554c	-0.002614337
8	0xbc6f8f6b	-0.014621596
9	0x3b3db916	0.002894943
10	0xbb1ce51f	-0.0023940278
11	0xbc3046f4	-0.010759104
12	0x3b0f4c2e	0.0021865475
13	0x3bb5048c	0.0055242237
14	0x3cda8a48	0.026677266
15	0x3bdef198	0.0068037026
16	0x3bea3ce8	0.007148374
17	0xbbfb3257	-0.007665913
18	0x3bf150f8	0.0073643886
19	0x3bea5c5e	0.0071521243
20	0xbabe92cb	-0.0014539597
21	0x3c6b98e8	0.014379717
22	0xbc195f76	-0.009361139
23	0xba3fbc95	-0.00073141727
24	0xbc11c777	-0.008897654
25	0x3c003e15	0.0078273015
26	0xbb02a5fd	-0.0019935363
27	0xbc82e2c1	-0.015977265
28	0xbc2b22d4	-0.010445315
29	0xbc4a596d	-0.012350422
30	0xbc4e104b	-0.012577127
31	0x3be965fe	0.007122754

multihead_self_attention.fc.weight f4 [6, 32]
0	0xbde46d69	-0.11153681
1	0xbdab7f7b	-0.08373924
2	0xbe21255a	-0.15736905
3	0xbd128f75	-0.035781343
4	0xbdd50e65	-0.10403136
5	0xbda2889f	-0.07936215
6	0x3dd5c230	0.10437429
7	0xbc180fe8	-0.009281136
8	0xbd50d715	-0.05098637
9	0x3e36d28b	0.17853753
10	0xbe307e5c	-0.17235702
11	0xbd0bda9f	-0.03414404
12	0xbe24fc5c	-0.16111892
13	0x3e52829f	0.2055764
14	0xbcba1465	-0.022714803
15	0x3e0e0787	0.13870059
16	0x3d820fce	0.06350671
17	0x3e2217ef	0.15829442
18	0xbdca4a3f	-0.098774426
19	0x3dfde232	0.12396659
20	0x3c01ace6	0.007914757
21	0xbd6256be	-0.055258505
22	0xbd738ad6	-0.059458576
23	0x3df9e976	0.12202732
24	0xbdb92695	-0.09040562
25	0xbe493841	-0.19650365
26	0xbe3687c9	-0.17825235
27	0x3dc82978	0.097735345
28	0xbe37eae2	-0.17960694
29	0xbe1abb43	-0.15110497
30	0x3de6866b	0.11256107
31	0xbd83b0bc	-0.06430194
32	0xbe2b5615	-0.16732056
33	0x3e094c24	0.13407952
34	0xbdf903b5	-0.1215891
35	0x3d81f707	0.06345945
36	0x3df46896	0.11934011
37	0xbe25a32f	-0.16175531
38	0x3e515235	0.20441516
39	0x3e4207ea	0.18948331
40	0x3dd4794c	0.10374698
41	0xbe2027a2	-0.15640119
42	0x3e47c091	0.19507052
43	0x3cd13028	0.025535658
44	0x3dd338c5	0.10313562
45	0xbe31d799	-0.173674
46	0x3e0b963a	0.13631526
47	0xbe0fe2e9	-0.14051403
48	0xbddde801	-0.10835267
49	0xbe620c66	-0.22075042
50	0x3d86bf02	0.065794006
51	0x3e347c00	0.17625427
52	0x3d78cada	0.06074033
53	0xbd2df804	-0.042472854
54	0x3d87c82f	0.06629979
55	0x3de9bf84	0.11413482
56	0xbe2bb931	-0.16769864
57	0x3e69ff48	0.22851288
58	0x3da151e8	0.078769505
59	0xbe4aa043	-0.19787697
60	0xbdd84d56	-0.10561626
61	0x3dc707b5	0.09718267
62	0xbdcb973a	-0.099409536
63	0xbcfeea56	-0.0311176
64	0x3d3bb0e5	0.045822997
65	0x3dc911b8	0.09817833
66	0x3da64281	0.08118153
67	0xbd011903	-0.031517994
68	0xbdf01657	-0.11723011
69	0xbe074419	-0.13209571
70	0x3e2a709f	0.16644524
71	0xbc3c871c	-0.011506822
72	0xbde00b21	-0.10939623
73	0xbe422147	-0.18958007
74	0x3e2458ce	0.16049501
75	0xbdf7aed7	-0.12093895
76	0xbdba28b2	-0.09089793
77	0xbc3b5caf	-0.011435672
78	0xbd5b849b	-0.05359326
79	0x3db9c50f	0.09070789
80	0xbd85ed4f	-0.06539404
81	0x3d022259	0.031771038
82	0xbdd10473	-0.10205927
83	0xbdb4ff72	-0.08837785
84	0x3cddbef7	0.027068598
85	0x3d5cde62	0.05392302
86	0xbdfc38ef	-0.12315547
87	0xbe34d7f6	-0.17660508
88	0xbcbe00cb	-0.023193737
89	0x3c9caea3	0.019126242
90	0x3dfb74e1	0.12278152
91	0xbe3a1438	-0.18171775
92	0xbaef15ed	-0.0018240787
93	0xbdda06eb	-0.10645851
94	0x3e0a0584	0.13478667
95	0x3e371ac9	0.17881311
96	0xbe606a22	-0.21915486
97	0xbdc1e526	-0.09467535
98	0x3df2eea7	0.118619256
99	0xbdd0ddc4	-0.101985484
100	0x3e0646b5	0.1311291
101	0x3e557fb4	0.20849496
102	0xbe3faafb	-0.18717568
103	0xbbfe4469	-0.00775962
104	0xbdb76722	-0.08955218
105	0x3e5ebaba	0.21750918
106	0x3d939a25	0.07207135
107	0xbe32a61b	-0.17446177
108	0x3e246cc4	0.16057116
109	0xbbf97306	-0.007612589
110	0x3d36edb1	0.044660274
111	0x3d3cc0be	0.04608225
112	0x3de79336	0.11307375
113	0xbdef3b19	-0.11681194
114	0x3e43edbc	0.19133657
115	0x3e1757c4	0.14779574
116	0xbcf1b61e	-0.029505786
117	0x3e571ef3	0.210079
118	0xbe4d5ace	-0.2005417
119	0xbd72a763	-0.059241664
120	0xbd911012	-0.07083143
121	0x3e16bc67	0.14720307
122	0xbcf8e640	-0.03038323
123	0x3b18178d	0.0023207397
124	0xbe4caed1	-0.19988562
125	0xbe244666	-0.1604248
126	0xbd9f4269	-0.077763386
127	0xbde66bfb	-0.112510644
128	0x3db31d38	0.087458074
129	0x3e08a952	0.1334584
130	0x3df71d44	0.12066129
131	0xbca5f2e0	-0.020257413
132	0x3e24749e	0.16060111
133	0xbe51c3a4	-0.20484787
134	0xbe18a021	-0.14904834
135	0xbe21232d	-0.15736075
136	0xbd310d5f	-0.043225642
137	0xbe0b6cf9	-0.13615789
138	0xbdbc9a86	-0.092091605
139	0x3d844546	0.06458525
140	0xbdff8e39	-0.12478299
141	0x3e38b98a	0.18039528
142	0x3e577697	0.21041332
143	0x3e0b269e	0.1358895
144	0xbcb59ad4	-0.022168554
145	0xbe2c6884	-0.16836745
146	0xbe01bbe5	-0.12669332
147	0xbdb3ad0e	-0.08773242
148	0x3d63b06a	0.055588163
149	0xbbcd750b	-0.006270056
150	0x3c1926e2	0.009347649
151	0xbdd70320	-0.10498643
152	0x3db269ab	0.08711561
153	0x3dec030d	0.115240194
154	0x3d4d12bd	0.0500667
155	0xbd23b718	-0.039969534
156	0x3d4913a9	0.049091015
157	0xbc76a4d5	-0.015053947
158	0xbe490964	-0.19632488
159	0x3e08cac0	0.13358593
160	0x3dee0aa9	0.11623127
161	0x3d0d0b99	0.03443489
162	0xbe0d4643	-0.13796334
163	0xbdfb4b35	-0.12270204
164	0x3dacc979	0.08436865
165	0xbd7463c6	-0.059665464
166	0x3db1a841	0.0867467
167	0xbccf23d9	-0.025285648
168	0x3e543733	0.20724182
169	0xbdfa3bf5	-0.12218467
170	0x3df652bb	0.12027498
171	0x3e477601	0.19478609
172	0x3d925452	0.07144989
173	0xbe28af0a	-0.16473022
174	0x3ddac444	0.10681966
175	0x3e0b3895	0.13595803
176	0xbda532cf	-0.080663316
177	0xbe1ef761	-0.15524055
178	0x3da8bcee	0.082391605
179	0x3d7745bd	0.060369242
180	0x3e1982ae	0.14991257
181	0x3dd398ea	0.103319004
182	0xbdc01632	-0.093792334
183	0x3d5a98e0	0.05336845
184	0x3de772cc	0.11301193
185	0x3d5fd8ba	0.054650046
186	0xbca255ce	-0.019816305
187	0x3d84745b	0.064675055
188	0xbd2667e5	-0.040626425
189	0x3df08c0c	0.11745462
190	0xbdb50638	-0.08839077
191	0xbe1b126f	-0.1514375

multihead_self_attention.fc.bias f4 [6]
0	0xbdbd3c3c	-0.092400044
1	0x3db46ecd	0.08810196
2	0xbdd15a25	-0.10222272
3	0x3e390b63	0.1807075
4	0x3e2fc245	0.17163952
5	0x3db01a6c	0.085987896

fc.weight f4 [6, 6]
0	0xbeabfc46	-0.33590907
1	0x3e7b28e8	0.24527323
2	0x3ebfda4c	0.37471235
3	0x3e0116a3	0.12606291
4	0xbdbe2856	-0.09285037
5	0xbd114aa2	-0.035471566
6	0xbeb84cef	-0.35996196
7	0x3e79d78a	0.24398628
8	0x3eadb5c8	0.3392775
9	0x3ec0aba5	0.37630954
10	0xbe16da12	-0.14731625
11	0xbea5204c	-0.32251203
12	0x3e8f6b8f	0.28011748
13	0xbe57ac80	-0.21061897
14	0x3d43a08d	0.047760535
15	0x3ebf2356	0.37331647
16	0xbed4cb42	-0.41561323
17	0xbecd3b81	-0.4008446
18	0x3e88569a	0.26628572
19	0x3e1ea9ef	0.15494512
20	0x3e49aab6	0.19694027
21	0x3d35f964	0.04442729
22	0x3e741571	0.23836304
23	0xbeb7c654	-0.358935
24	0x3e0bc9c5	0.13651188
25	0xbe9fb136	-0.3118989
26	0xbe2775ae	-0.16353485
27	0x3ec4354e	0.38321918
28	0xbe613b3d	-0.21995254
29	0x3e3ac6a6	0.18239841
30	0xbe7eba03	-0.24875645
31	0xbe8f281b	-0.27960286
32	0xbe5e6242	-0.2171717
33	0xbd9b6899	-0.0758831
34	0xbea2de67	-0.31810305
35	0x3c2a67d0	0.010400727

fc.bias f4 [6]
0	0x3e134b28	0.14384139
1	0xbeb558d1	-0.35419324
2	0x3eaec37d	0.3413352
3	0xbc4c5636	-0.012471726
4	0xbe8729f4	-0.26399195
5	0x3e58988a	0.21151939
