trained_weights/trace/gat18.pth (torch, 328660 bytes, 27 tensors)

convs.0.att_src f4 [1, 4, 64]
-0.13297492 -0.18596378 -0.11548546 -0.24644423 0.04556766 0.050107278 0.20306855 -0.13511093
-0.11662949 -0.07637757 -0.14795783 0.18466504 0.04042349 0.13265607 0.013102404 0.10616199
0.059051495 -0.028153893 0.11312056 0.261587 -0.05084536 0.18251072 0.009136955 0.16967772
0.014425431 -0.018933572 0.08115645 0.24045175 -0.21995603 0.14473987 0.20277667 0.22805135
0.24332856 0.17965664 0.1250847 -0.008225249 0.016302662 0.15597443 -0.08509571 0.21858038
0.25427422 0.22439112 0.08997306 0.11894915 0.0362263 -0.10853684 0.09241898 0.017556882
0.17097148 -0.20676742 0.054951295 -0.08540613 0.29386753 0.1885809 0.24847358 0.2944012
0.18505904 0.06985138 0.07379148 0.24783026 -0.26844788 -0.09493713 0.14957958 0.25577024
-0.115039535 0.13157977 0.2509843 -0.30735755 0.08090477 -0.16848731 0.18940641 0.051324975
0.23416412 -0.33400112 0.16992569 -0.049477443 -0.033447143 0.26249686 -0.191404 0.22005647
0.030606942 0.26327035 0.010782522 -0.0860743 -0.0086797215 0.091730185 -0.21121424 0.25058052
0.058478564 -0.24135186 0.04808223 -0.10964161 0.01587685 -0.07334516 -0.12387454 0.21766765
0.040619213 -0.2188696 -0.30521497 -0.14401889 0.029856285 0.18244414 0.10898538 0.007580192
-0.12823886 0.013468538 0.1495216 -0.10986891 0.23908342 0.16986455 0.22453052 -0.24502404
0.096493885 0.018288983 0.15521584 -0.0039117984 0.2855657 -0.056372896 -0.027552875 0.07730013
0.28752744 -0.06286353 0.31204048 -0.091524705 0.076579176 -0.029386802 0.27743256 -0.095526576
0.14218481 0.0084664095 0.049758896 0.13876359 -0.2208661 0.24440798 0.19021437 0.32854068
0.13856186 -0.17142965 -0.12895058 0.17850268 0.13572772 0.18907323 0.23331225 -0.020680709
-0.06846935 -0.036305986 -0.0008846011 0.16297069 0.14307165 -0.028330743 -0.12853107 0.23178501
-0.054171447 0.16119523 0.19131383 -0.14871484 0.1476732 0.14108402 0.22454397 0.09840559
-0.14827278 0.016601995 -0.1401761 -0.2112463 -0.072485425 -0.061638348 -0.076186895 0.23846646
0.018559387 -0.21656878 -0.057586767 0.2658317 -0.10038818 -0.08524527 0.29125652 0.014044356
-0.22881842 -0.20401879 -0.0016559502 -0.26401293 -0.30227023 -0.13125357 -0.032279473 0.10322954
-0.13192436 -0.100003414 -0.189369 -0.16029316 0.09813615 0.08638964 -0.14957869 0.021778347
0.17715497 0.22114633 0.1381199 0.24494883 0.033906847 0.13117456 -0.0695683 0.027329354
0.30855036 -0.13231562 0.05305555 -0.034552563 -0.28053632 0.06338561 0.15766032 0.053570163
0.046633795 0.10174473 0.26717454 0.33735996 0.1422366 -0.057757605 0.14873649 -0.20234245
0.024551906 0.29994056 -0.21596827 0.105090246 0.0010406878 -0.10827433 -0.050611127 0.21468656
0.04991807 -0.2062274 -0.03980415 -0.14240155 0.01625868 0.108607486 0.20108421 -0.20581408
-0.0017466631 -0.11798338 -0.08531163 0.18861704 0.22702183 0.15423605 -0.1816215 -0.068669386
0.12247133 0.24005274 -0.012923506 -0.12423433 -0.19483759 -0.1982619 0.044736914 -0.1331461
-0.04714025 -0.22063456 -0.16200785 0.15881583 0.12107845 -0.3277852 0.0067150914 0.051165003
00000000: 942a 08be 4a6d 3ebe a483 ecbd e05b 7cbe
00000010: 28a5 3a3d 4a3d 4d3d 34f1 4f3e 855a 0abe
00000020: 71db eebd d86b 9cbd 4282 17be d518 3d3e
00000030: 1a93 253d fed6 073e 77ab 563c 756b d93d
00000040: fbdf 713d fea2 e6bc c1ab e73d bbee 853e
00000050: 3943 50bd 17e4 3a3e 2bb3 153c ffbf 2d3e
00000060: a558 6c3c 941a 9bbc 5a35 a63d fc38 763e
00000070: 273c 61be b036 143e b0a4 4f3e 4b86 693e
00000080: 1f2b 793e e9f7 373e 3416 003e 32c3 06bc
00000090: 298d 853c c3b7 1f3e a946 aebd 89d3 5f3e
000000a0: 3b30 823e c9c6 653e cc43 b83d 9d9b f33d
000000b0: 0762 143d 9048 debd 2a46 bd3d 73d3 8f3c
000000c0: 2613 2f3e d7ba 53be 9c14 613d 69e9 aebd
000000d0: ce75 963e 5a1b 413e dc6f 7e3e c1bb 963e
000000e0: 1e80 3d3e 3e0e 8f3d fd1f 973d 37c7 7d3e
000000f0: 0072 89be 666e c2bd 642b 193e 51f4 823e
00000100: d999 ebbd d9bc 063e 0481 803e f85d 9dbe
00000110: 66b1 a53d f087 2cbe c1f3 413e 233a 523d
00000120: b8c8 6f3e 3202 abbe 0001 2e3e dca8 4abd
00000130: dfff 08bd fd65 863e 69ff 43be 7c56 613e
00000140: 69bb fa3c 5fcb 863e 2da9 303c b947 b0bd
00000150: 6435 0ebc 09dd bb3d 8c48 58be 174c 803e
00000160: 3887 6f3d f124 77be dff1 443d c88b e0bd
00000170: 2b10 823c fd35 96bd efb1 fdbd 45e4 5e3e
00000180: 5560 263d 5a1f 60be 2345 9cbe b079 13be
00000190: 2b95 f43c a3d2 3a3e ba33 df3d 4263 f83b
000001a0: 0c51 03be 25ab 5c3c 311c 193e f302 e1bd
000001b0: 49d2 743e f9f0 2d3e 54eb 653e 95e7 7abe
000001c0: 969e c53d c7d2 953c e7f0 1e3e 8b2e 80bb
000001d0: ab35 923e 44e7 66bd 91b6 e1bc 884f 9e3d
000001e0: cc36 933e 98be 80bd c5c3 9f3e 4e71 bbbd
000001f0: 8bd5 9c3d 97bc f0bc a40b 8e3e 70a3 c3bd
00000200: e598 113e b2b6 0a3c fccf 4b3d 0b18 0e3e
00000210: b92a 62be 1646 7a3e 8ec7 423e 7c36 a83e
00000220: 29e3 0d3e 418b 2fbe 9f0b 04be 68c9 363e
00000230: 35fc 0a3e 6a9c 413e 68e9 6e3e 976a a9bc
00000240: a939 8cbd 96b5 14bd 93e4 67ba cae1 263e
00000250: 6081 123e e015 e8bc a69d 03be 0d59 6d3e
00000260: e1e2 5dbd 5d10 253e c6e7 433e b448 18be
00000270: a537 173e 5478 103e dbee 653e df88 c93d
00000280: d2d4 17be e800 883c 538a 0fbe f350 58be
00000290: 3d73 94bd 7e78 7cbd e007 9cbd 8d30 743e
000002a0: db09 983c 35c4 5dbe 1ae0 6bbd 181b 883e
000002b0: 5198 cdbd 1295 aebd 931f 953e 4c1a 663c
000002c0: 604f 6abe 4dea 50be 780c d9ba b42c 87be
000002d0: 2ac3 9abe 5667 06be 7b37 04bd 026a d33d
000002e0: 2e17 07be 97ce ccbd f2e9 41be e423 24be
000002f0: 9bfb c83d 0ded b03d 282b 19be 8168 b23c
00000300: 1d68 353e 2f74 623e 4e6f 0d3e ded3 7a3e
00000310: e8e1 0a3d a052 063e d379 8ebd cfe1 df3c
00000320: 50fa 9d3e bf7d 07be c750 593d fd86 0dbd
00000330: 75a2 8fbe 51d0 813d b571 213e 636c 5b3d
00000340: 1403 3f3d 8a5f d03d 1acb 883e 72ba ac3e
00000350: 79a6 113e 3d93 6cbd 614e 183e dc32 4fbe
00000360: 1421 c93c cf91 993e c926 5dbe 8e39 d73d
00000370: b067 883a efbe ddbd 9d4d 4fbd cbd6 5b3e
00000380: e476 4c3d 472d 53be ad09 23bd b6d1 11be
00000390: ec30 853c 9a6d de3d 05e9 4d3e edc0 52be
000003a0: 4af0 e4ba 45a1 f1bd ddb7 aebd d324 413e
000003b0: 6978 683e 0ef0 1d3e fdfa 39be 89a2 8cbd
000003c0: 40d2 fa3d 63d0 753e 1dbd 53bc 926e febd
000003d0: 8183 47be 2b05 4bbe 0e3e 373d 7457 08be
000003e0: 2316 41bd 07ee 61be 63e5 25be 9ea0 223e
000003f0: faf7 f73d 76d3 a7be 450a dc3b 6592 513d

convs.0.att_dst f4 [1, 4, 64]
-0.13463268 0.08081765 -0.22865775 -0.021391911 -0.20938858 -0.13078938 0.06795198 -0.011646449
-0.17480306 -0.061913036 0.16395116 0.19685799 -0.09968088 0.17255715 0.14441372 0.16281155
0.094184905 0.14823186 0.07021021 -0.037820887 -0.06644286 0.17896882 -0.16224064 -0.07369821
-0.102875814 0.13393994 0.040819913 -0.10663222 -0.12593012 0.08543555 -0.114919126 -0.17831929
-0.1770079 -0.09249996 0.15617971 -0.053897355 0.080277376 -0.057362087 -0.051521275 0.08200345
0.07572505 -0.21901791 0.14624219 0.066407025 0.18091364 0.14019279 -0.21493858 0.050768487
0.1445305 0.21070433 0.22685191 -0.17923066 -0.03978384 0.20376389 -0.10008767 0.029432893
-0.19823916 -0.20001604 -0.11972451 0.016255258 0.020467395 0.00015544804 0.023859082 0.13224615
0.20282911 -0.011393766 -0.08600295 0.10269838 -0.03491999 -0.046641942 -0.025538562 0.12646326
0.029384276 0.04663623 -0.0038931477 -0.18938388 -0.11468166 -0.043065127 0.17457876 -0.19790295
0.16098478 -0.035356738 0.02925756 -0.063519605 0.14511044 0.16441545 0.041499984 0.19013944
-0.15809631 -0.17413536 0.1331051 0.06080991 0.2324872 -0.2287225 -0.16026469 0.22541502
0.016847143 0.09896841 -0.19350526 -0.027019324 0.038190026 0.09309044 -0.2022108 -0.081777856
0.10673656 0.2120997 0.19097969 0.031130947 -0.20387097 -0.13663642 0.052431207 -0.07254124
0.16912931 -0.09098517 -0.031037906 -0.04042313 0.12101259 -0.045468032 0.19187865 0.004572833
-0.19429713 0.013134865 0.0888247 -0.16285151 -0.23950411 0.12833223 0.09253207 -0.042572316
0.06271916 -0.17014728 -0.049658526 0.20508352 -0.023487642 -0.09890239 -0.1600287 0.10984139
-0.1436059 -0.19116983 -0.19113664 -0.017807893 0.047259945 0.0732169 -0.17488015 -0.041939914
-0.020768434 -0.162625 -0.0095447125 0.009386864 -0.11164182 -0.046036456 -0.024876347 0.22100356
0.010801658 0.0063315467 0.06577018 0.19519363 0.032180518 0.13295764 0.0718863 0.15002932
-0.050489966 -0.20798771 0.13621736 -0.07278353 0.009081376 0.06804546 0.15145215 0.1006509
-0.072316125 -0.035851926 -0.1904004 0.053222988 -0.0033406094 -0.15275086 0.03630406 0.1936561
0.14378305 0.19880149 0.07351561 0.02091173 0.017193403 -0.10023302 0.06806395 -0.14875107
0.05699698 0.08316198 0.13878505 0.17880228 -0.14569108 -0.14441954 0.015561239 -0.14560604
-0.1394112 0.2766727 -0.12459584 -0.24703866 -0.25140554 -0.03949599 0.096372336 -0.12716599
-0.11509348 -0.030278578 0.23698063 -0.008263544 0.0034381351 0.15771611 -0.046589542 0.14545986
0.14424479 -0.24676451 0.004361929 0.20317784 0.12471493 -0.0114677455 -0.065974265 -0.066392556
-0.0009131283 -0.17332284 0.2605847 -0.02335215 0.03871822 0.058567688 0.19071901 -0.2598625
-0.19497323 0.04258285 -0.2427694 -0.09431052 -0.14927028 0.0070424215 0.032367755 0.18742812
-0.08625146 -0.0040503214 0.051735252 -0.07537777 0.15340821 0.20023386 0.013151003 0.054940946
0.104579225 0.0058691497 0.023474058 -0.0054450193 0.1272308 -0.04742245 -0.22207047 0.12392503
0.1147337 0.17653005 -0.022633 -0.1609629 0.10088829 0.19530943 -0.15002577 0.17219141
00000000: 26dd 09be b983 a53d 4225 6abe 173e afbc
00000010: f669 56be a7ed 05be 682a 8b3d bfd0 3ebc
00000020: 93ff 32be 8698 7dbd d0e2 273e 2495 493e
00000030: 7d25 ccbd d2b2 303e 31e1 133e 12b8 263e
00000040: 04e4 c03d 18ca 173e 5fca 8f3d 13ea 1abd
00000050: 3213 88bd 9a43 373e 6922 26be 16ef 96bd
00000060: 8eb0 d2bd 8d27 093e c832 273d fe61 dabd
00000070: d3f3 00be d5f8 ae3d b85a ebbd 5599 36be
00000080: 8f41 35be 9e70 bdbd 93ed 1f3e 79c3 5cbd
00000090: 7768 a43d 82f4 6abd f907 53bd 6df1 a73d
000000a0: bc15 9b3d 3b46 60be 83c0 153e 6800 883d
000000b0: 6d41 393e b38e 0f3e dc18 5cbe 9ef2 4f3d
000000c0: ceff 133e e0c2 573e de4b 683e 3e88 37be
000000d0: 61f4 22bd 7ba7 503e c4fa ccbd 401d f13c
000000e0: 35ff 4abe 01d1 4cbe 2032 f5bd bf29 853c
000000f0: 3dab a73c c4ff 2239 1f74 c33c 896b 073e
00000100: 6fb2 4f3e ebac 3abc 5122 b0bd 8753 d23d
00000110: 4308 0fbd 9f0b 3fbd 3f36 d1bc 967f 013e
00000120: 4bb7 f03c a205 3f3d 2e24 7fbb d9ed 41be
00000130: 38de eabd 0f65 30bd c6c4 323e 12a7 4abe
00000140: 32d9 243e 3ad2 10bd 8dad ef3c 9116 82bd
00000150: d597 143e 865c 283e e3fb 293d eab3 423e
00000160: 00e4 21be 8a50 32be b44c 083e d013 793d
00000170: 2011 6e3e 3b36 6abe 6d1c 24be 32d3 663e
00000180: 0503 8a3c f3af ca3d 3e26 46be a157 ddbc
00000190: 256d 1c3d 33a6 be3d 5910 4fbe 267b a7bd
000001a0: b398 da3d aa30 593e 2e90 433e 5406 ff3c
000001b0: 8dc3 50be 6bea 0bbe 1bc2 563d 8090 94bd
000001c0: 3c30 2d3e 6f56 babd 3543 febc b992 25bd
000001d0: 73d5 f73d b03c 3abd d67b 443e b4d7 953b
000001e0: d4f5 46be 9e33 573c b9e9 b53d 8cc2 26be
000001f0: 9140 75be 8669 033e 7481 bd3d 4f60 2ebd
00000200: e772 803d 173b 2ebe bd66 4bbd 6a01 523e
00000210: 2869 c0bc 568d cabd 90de 23be 86f4 e03d
00000220: 6d0d 13be 06c2 43be 53b9 43be dce1 91bc
00000230: a593 413d bef2 953d c813 33be 30c9 2bbd
00000240: 9022 aabc 2b87 26be 6d61 1cbc 5ccb 193c
00000250: 77a4 e4bd b990 3cbd 7bc9 cbbc c24e 623e
00000260: 70f9 303c dd78 cf3b 84b2 863d d7e0 473e
00000270: b8cf 033d 0c26 083e 2039 933d 49a1 193e
00000280: 91ce 4ebd bbfa 54be 907c 0b3e 880f 95bd
00000290: 0dca 143c 6b5b 8b3d 4616 1b3e 0f22 ce3d
000002a0: 7a1a 94bd 78d9 12bd 53f8 42be 5900 5a3d
000002b0: 20ee 5abb b96a 1cbe 91b3 143d c94d 463e
000002c0: dd3b 133e 9e92 4b3e 5a8f 963d 144f ab3c
000002d0: 2ed9 8c3c f846 cdbd 1d65 8b3d 3352 18be
000002e0: aa75 693d d450 aa3d ab1d 0e3e f217 373e
000002f0: 0b30 15be b7e2 13be 91f4 7e3c c019 15be
00000300: cfc1 0ebe 0ba8 8d3e 1b2c ffbd b4f7 7cbe
00000310: 3ab8 80be 8cc6 21bd dc5e c53d cd37 02be
00000320: 21b6 ebbd c80a f8bc 0dab 723e d163 07bc
00000330: 5652 613b 5580 213e add4 3ebd 6ef3 143e
00000340: e8b4 133e d6af 7cbe 83ee 8e3b da0d 503e
00000350: 8b6a ff3d 36e3 3bbc 841d 87bd d2f8 87bd
00000360: 015f 6fba 8b7b 31be 5c6b 853e 024d bfbc
00000370: ff96 1e3d ace4 6f3d d84b 433e b30c 85be
00000380: 10a7 47be 5b6b 2e3d 8b98 78be e025 c1bd
00000390: 4fda 18be 1dc4 e63b 0d94 043d 28ed 3f3e
000003a0: 9ba4 b0bd 8fb8 84bb 58e8 533d a95f 9abd
000003b0: 0b17 1d3e 1b0a 4d3e 4e77 573c c209 613d
000003c0: a22d d63d ff51 c03b ab4c c03c 226c b2bb
000003d0: ca48 023e 0b3e 42bd 7166 63be 68cc fd3d
000003e0: 81f9 ea3d 4bc4 343e d768 b9bc 75d3 24be
000003f0: 859e ce3d 32ff 473e 5ba0 19be f252 303e

convs.0.bias f4 [256]
0.0071710222 -0.0035027901 -0.006240272 -0.0023556282 0.0019824405 -0.007338984 -0.024862504 0.003255938
0.0218191 0.0039998884 -0.00087833736 0.018887108 0.018318761 -0.015644543 -0.028178995 -0.0007772301
0.005063085 -0.018803272 0.004454256 0.008165665 -0.0017882719 -0.001424654 -0.00052364066 0.014271378
-0.0027932392 -0.004073125 -0.015896656 0.0065782107 -0.0023652948 0.0029473216 -0.004801692 0.0038810277
0.0037264982 -0.02563793 0.014966228 0.031468816 0.013993509 -0.014693489 0.0067873835 -0.003052216
-0.005809865 0.0046712733 0.0036471833 0.008961297 -0.009834343 0.0076162913 0.0011140201 0.006895783
0.011123291 -0.008900404 0.00034852742 0.010728446 0.007310614 0.0058014 0.005119512 -0.007512105
-0.03296273 -0.0010600883 0.001039222 0.0035397417 -0.0035176554 -0.0008110935 0.012249536 -0.0016757358
-0.0045977053 0.00031546253 -0.0065930923 -0.009857321 -0.00802823 -0.0022885404 -0.003394 -0.008630882
0.015309613 0.0023433804 -0.013556051 0.006857797 -0.0011044522 0.00273356 -0.0059851236 -0.02067247
0.005217692 -0.0040810024 0.006253341 0.0031906983 0.0090274345 -0.008501979 -0.016692607 0.0042713596
0.001056718 -0.0014637288 0.016468884 -0.002633238 -0.009623078 0.0038684441 -0.019652449 0.0013820973
0.0021518455 -0.00053722726 0.0024208813 0.004102434 -0.0047209794 0.007830115 -0.013538497 0.00023839854
-0.00873506 0.00962676 0.0068904907 0.006289979 0.0016042833 -0.011036823 0.015230471 -0.0051804883
-0.02184664 -0.0007717487 -0.018095478 0.004602491 0.01006491 -0.0027443054 0.01824158 0.0090886
-0.007030559 0.027214317 0.0058562476 0.00870195 0.01038261 0.0037927644 -0.012182385 -0.0069389595
-0.009577781 -0.010931371 -0.025311736 -0.006408732 -0.0013264419 -0.005755454 -0.00899818 -0.002393257
-0.002710289 -0.0063159014 0.0026434488 -0.012802882 0.0010816369 0.019887112 -0.0023941128 -0.011096751
0.0029693895 0.014929763 -0.0020153935 0.014522598 -0.0031093694 -0.0063053784 0.00044340003 -0.022637889
-0.0059669516 0.004772821 -0.0066446797 0.0175971 -0.009076268 0.02845163 -0.001017282 -0.003144183
0.00929518 0.0014460131 0.01011651 -0.00017795272 0.0015501692 -0.0014930107 -0.0005344901 -0.010406518
-0.004410575 0.0054649776 -0.02408619 -0.011399774 -0.005591586 -2.5597157e-05 0.005997864 0.003981117
-0.0037583162 0.017954463 -0.0004639617 0.0024502163 0.024239082 0.008563785 0.014841895 0.0017609092
0.009820133 0.001837573 -0.012675619 0.027724653 0.0042563155 -0.005122849 -0.0024828992 0.018688569
0.003122916 0.002367637 0.012069715 0.011167137 -0.011103583 0.007829175 -0.0048440145 -0.012092216
0.0094995815 -0.0093650995 -0.016373029 0.0013282219 -0.0029376738 0.008974707 -0.0055262037 0.0016222257
-0.011613366 -0.00032504133 0.0029778744 0.004286466 0.01936667 -0.0033001988 0.008857599 -0.006131928
-0.0028871223 0.00097617076 -0.012030715 -0.0057108887 0.012454132 -0.007151403 0.005792559 0.0058222846
0.013457606 -0.001813449 0.0020403708 -0.017897861 0.0160629 0.014815052 -0.00037672746 -0.00919621
-0.0007749449 -0.008594623 0.008070822 0.0054336945 0.0056650117 0.007693755 0.0041455235 0.006759949
-0.006833736 0.001167179 0.0060993605 -0.005458102 0.008877376 0.010151718 0.0044034002 0.017219208
0.01294519 0.004055015 -0.0031289007 0.006807654 -0.0026707582 0.0027976567 -0.009545055 -0.005065017
00000000: e5fa ea3b 118f 65bb 327b ccbb e260 1abb
00000010: d5eb 013b dc7b f0bb 73ac cbbc 9361 553b
00000020: f8bd b23c 7f11 833b 3940 66ba 23b9 9a3c
00000030: 3a11 963c fc28 80bc a3d7 e6bc 07bf 4bba
00000040: 3ce8 a53b 5209 9abc 02f5 913b 48c9 053c
00000050: 7364 eaba 75bb baba ee44 09ba 7fd2 693c
00000060: c70e 37bb d977 85bb b439 82bc 088e d73b
00000070: 1003 1bbb da27 413b 8357 9dbb d758 7e3b
00000080: 4438 743b a306 d2bc e934 753c 72e5 003d
00000090: 0845 653c f6bc 70bc b368 de3b b007 48bb
000000a0: ae60 bebb 7b11 993b 9505 6f3b 67d2 123c
000000b0: 3920 21bc 1592 f93b 5004 923a 05f6 e13b
000000c0: 773e 363c 00d3 11bc 8fba b639 5dc6 2f3c
000000d0: e08d ef3b ac19 be3b 94c1 a73b 1b28 f6bb
000000e0: ed03 07bd a9f2 8aba 8136 883a 03fb 673b
000000f0: 7788 66bb 909f 54ba 47b2 483c 5da4 dbba
00000100: 59a8 96bb aa64 a539 de0a d8bb 9a80 21bc
00000110: d688 03bc 56fb 15bb df6d 5ebb 8b68 0dbc
00000120: 2cd5 7a3c 6693 193b 331a 5ebc 5fb7 e03b
00000130: 44c3 90ba 8725 333b db1e c4bb 5059 a9bc
00000140: 2cf9 aa3b eeb9 85bb d4e8 cc3b 091b 513b
00000150: cee7 133c e24b 0bbc efbe 88bc c3f6 8b3b
00000160: 9381 8a3a 97da bfba c1e9 863c 6792 2cbb
00000170: 1daa 1dbc b985 7d3b 2cfe a0bc 7d27 b53a
00000180: fa05 0d3b b6d4 0cba a6a7 1e3b b66d 863b
00000190: 72b2 9abb e249 003c 92d0 5dbc 9ffa 7939
000001a0: 7f1d 0fbc 8fb9 1d3c a0c9 e13b 2b1c ce3b
000001b0: d146 d23a cad3 34bc 3a89 793c 16c1 a9bb
000001c0: baf7 b2bc 2e4f 4aba f83c 94bc 7ed0 963b
000001d0: 4be7 243c ced9 33bb 5e6f 953c 5ae8 143c
000001e0: 9a60 e6bb 8ff0 de3c c4e5 bf3b a092 0e3c
000001f0: d31b 2a3c 0790 783b a098 47bc 3660 e3bb
00000200: 20ec 1cbc 7e19 33bc 8f5a cfbc 5700 d2bb
00000210: 01dc adba 3f98 bcbb 1a6d 13bc 31d8 1cbb
00000220: 1b9f 31bb 9ff5 cebb b63d 2d3b 2ec3 51bc
00000230: b6c5 8d3a 4cea a23c 8ce6 1cbb 26cf 35bc
00000240: 179a 423b f79b 743c b114 04bb 31f0 6d3c
00000250: 90c6 4bbb 599d cebb 2578 e839 1873 b9bc
00000260: 6b86 c3bb 5365 9c3b 9dbb d9bb cb27 903c
00000270: a1b4 14bc 6513 e93c 5256 85ba a30e 4ebb
00000280: d04a 183c 2688 bd3a b8bf 253c d298 3ab9
00000290: 0c2f cb3a 20b1 c3ba 061d 0cba 1a80 2abc
000002a0: 9686 90bb 8e13 b33b 6750 c5bc 1ec6 3abc
000002b0: a039 b7bb 7ab9 d6b7 bb89 c43b 0874 823b
000002c0: 154e 76bb 3d15 933c e33f f3b9 cf93 203b
000002d0: 0a91 c63c 1e4f 0c3c 6b2b 733c 4fce e63a
000002e0: a0e4 203c b8da f03a 66ad 4fbc d01e e33c
000002f0: 9078 8b3b 92dd a7bb 23b8 22bb c518 993c
00000300: d6a9 4c3b 5b2a 1b3b 0ec0 453c 5ef6 363c
00000310: cdeb 35bc f145 003c 8aba 9ebb 6e1e 46bc
00000320: 22a4 1b3c 1370 19bc bb20 86bc bb17 ae3a
00000330: fd85 40bb a60a 133c 2815 b5bb dda0 d43a
00000340: fd45 3ebc 4f6a aab9 7128 433b 7c75 8c3b
00000350: daa6 9e3c 2648 58bb 771f 113c 57ee c8bb
00000360: e035 3dbb b6e5 7f3a 7a1c 45bc 6822 bbbb
00000370: 6a0c 4c3c 5156 eabb 82cf bd3b ddc8 be3b
00000380: 4a7d 5c3c 40b1 edba beb7 053b 899e 92bc
00000390: 5896 833c d5ba 723c 8183 c5b9 b3ab 16bc
000003a0: ac25 4bba 76d0 0cbc 7b3b 043c 220d b23b
000003b0: 90a1 b93b e51b fc3b 2cd7 873b 9082 dd3b
000003c0: 88ed dfbb 07fc 983a 25dd c73b e1d9 b2bb
000003d0: 6a72 113c 6453 263c 664a 903b 4c0f 8d3c
000003e0: 1018 543c eedf 843b 3e0e 4dbb be12 df3b
000003f0: e307 2fbb e458 373b dd62 1cbc 71f8 a5bb

convs.0.lin_src.weight f4 [256, 12]
-0.004894721 0.16101845 0.00029228095 0.12166705 0.041136697 -3.8769863e-06 0.01245285 0.06300626
0.09128004 -0.008580724 -0.09454708 0.0002794163 -0.047378346 -0.12255018 0.02341104 0.04059402
-0.1331788 -4.6634932e-07 -0.027051948 -0.013281227 0.116523445 -0.004790802 -0.0040869676 -0.011108787
0.062364858 -0.07560934 0.035934243 -0.10587178 -0.07513704 7.5921704e-08 -0.058870602 -8.294633e-07
-0.025279762 0.024152884 0.006932964 -0.0046135774 0.12917382 0.17761397 0.06511626 0.025272021
0.0020608634 8.0755046e-07 0.014609104 5.1516045e-06 -0.04031286 0.0143055655 0.122302644 -0.011125649
-0.05587017 0.18962884 0.002668626 -0.090746894 0.018844314 -0.036095798 0.034152403 6.492391e-06
-0.09092025 -0.019464789 -0.10184361 0.00040542154 -0.110397294 -0.06004576 0.037724383 0.031327147
-0.13458885 0.04556078 -0.00036786613 0.0038121047 -0.114450276 -0.006650902 -0.12256205 0.027928973
0.097280525 0.0035601915 0.017161543 -0.04968334 -0.078457974 -0.04613764 0.011490173 0.00031870682
0.107230484 0.03232776 0.06346791 -0.024364159 0.11757509 0.10007358 -0.00042656204 -0.08292049
-0.03473738 -0.05030689 0.058671944 0.06680833 -0.08925341 -0.0001537398 0.12903115 -5.4595304e-05
-0.07832369 0.07856842 0.00079953694 -0.098985046 -0.10956946 -0.0013535265 0.055081245 -0.048552766
-0.08464212 0.0040111914 0.029394196 0.0022502341 0.08648474 -0.017407361 -0.01729167 -0.081731126
0.072778456 -0.014492391 -0.02545402 0.03694009 0.081476316 -0.0061814506 -0.09684758 -0.00018158337
-0.016302196 -0.06791538 -0.00083615404 0.090116285 -0.1398347 -0.0026276922 -0.07773796 -8.410419e-06
0.020071235 0.028239826 -0.065275416 -0.00067240663 0.09495568 0.032315653 5.7687197e-05 0.13897352
0.12938978 0.0024547344 -0.010682093 -0.0025667876 0.014403829 -0.036698196 -0.033841837 0.013620684
-0.13546634 0.06526954 0.0006288052 -0.07903596 0.06373616 0.055596314 0.055306043 -0.059435707
-0.09526436 0.0032748145 -0.08035285 0.022596722 0.114634074 0.03187342 -0.020721132 0.07871516
-0.12472699 -0.060997646 0.039987337 -2.4837513e-08 -0.07498072 -0.015701093 -0.1304083 -0.04320392
-0.009850994 -0.14529519 -0.0008890964 0.10281165 0.090361044 0.019340819 -0.009633662 0.007924978
-0.05844734 0.024365304 0.10556561 9.7126984e-05 0.08559174 0.03308116 0.06574085 0.061032034
-0.13412777 -0.004302825 0.015188924 0.02210819 -0.07380357 -0.046799846 -0.0969002 -0.009654565
0.14528392 -0.17377102 -0.009524323 0.06877816 -0.066592954 -0.05946579 0.037997328 -0.004628444
0.17448342 0.014376218 0.023894846 0.0057731494 -0.06399186 -0.1724757 -0.012264696 -0.13612449
0.1206282 1.00147766e-07 -0.021383798 -0.0012543129 -0.006419478 -0.021846328 -0.030155117 0.024603909
-0.10635864 -0.09328315 -0.0015549692 0.064788714 0.052208334 -0.05660399 -0.05172103 -0.050246466
-0.0057661813 -0.008544204 0.033222992 -0.009023366 -0.09228024 -0.14773652 -0.0027227772 -0.0035003389
-0.10001352 9.812962e-07 -0.022067111 -3.397026e-06 0.080567606 -0.013584585 -0.044700596 -0.004787513
-0.1499401 0.13397458 -0.007343726 -0.012976137 0.083693676 7.7368124e-05 0.040541008 -0.041459136
-0.1374141 -0.038949557 0.08119349 0.00027839057 0.040819928 0.1521859 0.0024051701 -0.08206477
00000000: e563 a0bb 05e2 243e 493d 9939 932c f93d
00000010: f47e 283d 0f17 82b6 0a07 4c3c 6d09 813d
00000020: 08f1 ba3d 2a96 0cbc e6a1 c1bd 9f7e 9239
00000030: cc0f 42bd 97fb fabd 82c8 bf3c ea45 263d
00000040: 0660 08be 905e fab4 0c9c ddbc 8199 59bc
00000050: d8a3 ee3d 29fc 9cbb f8eb 85bb a101 36bc
00000060: 4b72 7f3d 12d9 9abd c92f 133d 4ed3 d8bd
00000070: 73e1 99bd 660a a333 4d22 71bd 49a8 5eb5
00000080: 8117 cfbc 45dc c53c eb2d e33b 7e2d 97bb
00000090: 2446 043e 70e0 353e ac5b 853d 4507 cf3c
000000a0: 8d0f 073b 72c6 5835 065b 6f3c f2db ac36
000000b0: 191f 25bd e461 6a3c cf79 fa3d 5b48 36bc
000000c0: 1fd8 64bd 102e 423e 1de4 2e3b 82d9 b9bd
000000d0: 645f 9a3c 30d9 13bd 64e3 0b3d 37d9 d936
000000e0: 6534 babd 9f74 9fbc 6293 d0bd c28e d439
000000f0: fa17 e2bd 8bf2 75bd e284 1a3d e550 003d
00000100: a9d1 09be f19d 3a3d 28de c0b9 81d4 793b
00000110: e864 eabd cfef d9bb d001 fbbd 4dcb e43c
00000120: 033b c73d 1a52 693b 5d96 8c3c c280 4bbd
00000130: 93ae a0bd d2fa 3cbd 4741 3c3c 1b18 a739
00000140: a89b db3d 1d6a 043d 77fb 813d 5897 c7bc
00000150: 35cb f03d 61f3 cc3d 30a4 dfb9 38d2 a9bd
00000160: c848 0ebd 990e 4ebd fe51 703d ced2 883d
00000170: 7eca b6bd 3735 21b9 be20 043e 43fd 64b8
00000180: 2c68 a0bd 7be8 a03d 0498 513a acb8 cabd
00000190: f465 e0bd d068 b1ba df9c 613d 44df 46bd
000001a0: d958 adbd 5070 833b 19cc f03c aa78 133b
000001b0: e91e b13d e299 8ebc 43a7 8dbc a662 a7bd
000001c0: df0c 953d 7e71 6dbc f384 d0bc 7e4e 173d
000001d0: 0edd a63d c48d cabb 0658 c6bd 6a67 3eb9
000001e0: 2f8c 85bc 3817 8bbd 5931 5bba e38e b83d
000001f0: d430 0fbe 5c35 2cbb 1435 9fbd 791a 0db7
00000200: 6e6c a43c 3557 e73c 1eaf 85bd 7244 30ba
00000210: 2078 c23d 6b5d 043d 28f5 7138 134f 0e3e
00000220: c17e 043e 9cdf 203b f203 2fbc 8d37 28bb
00000230: 0afe 6b3c d950 16bd bd9d 0abd 4a29 5f3c
00000240: b0b7 0abe 09ac 853d 67d6 243a 9bdd a1bd
00000250: 1b88 823d f6b8 633d 9788 623d db72 73bd
00000260: f619 c3bd 459e 563b 0990 a4bd c31c b93c
00000270: 45c5 ea3d b48d 023d 5dbf a9bc 6a35 a13d
00000280: dd70 ffbd abd8 79bd c3c9 233d 455a d5b2
00000290: 7e8f 99bd 949f 80bc c189 05be 98f6 30bd
000002a0: 1066 21bc 43c8 14be 4012 69ba ea8e d23d
000002b0: 360f b93d a370 9e3c 82d6 1dbc c4d7 013c
000002c0: 7a66 6fbd bf99 c73c c832 d83d a7b0 cb38
000002d0: b94a af3d 1c80 073d 24a3 863d bafc 793d
000002e0: ca58 09be b6fe 8cbb f7da 783c 3c1c b53c
000002f0: 5326 97bd 32b1 3fbd 9d73 c6bd 2e2e 1ebc
00000300: 4fc5 143e 08f1 31be e80b 1cbc 90db 8c3d
00000310: e361 88bd 6692 73bd 16a3 1b3d 34aa 97bb
00000320: c8ab 323e 3b8a 6b3c 20bf c33c b02c bd3b
00000330: 2a0e 83bd 789d 30be ddf1 48bc 3864 0bbe
00000340: eb0b f73d d110 d733 132d afbc c267 a4ba
00000350: 7c5a d2bb 12f7 b2bc dd07 f7bc 238e c93c
00000360: 8fd2 d9bd 3c0b bfbd 1cd0 cbba f2af 843d
00000370: 68d8 553d 96d9 67bd 6ed9 53bd 3dcf 4dbd
00000380: 3cf2 bcbb fdfc 0bbc d514 083d bdd6 13bc
00000390: 6cfd bcbd 3e48 17be 9f70 32bb f165 65bb
000003a0: e3d3 ccbd 15b5 8335 16c6 b4bc 76f8 63b6
000003b0: a100 a53d e191 5ebc f917 37bd 92e0 9cbb
000003c0: e689 19be a230 093e a4a3 f0bb dd99 54bc
000003d0: 9767 ab3d b240 a238 540e 263d 0ed1 29bd
000003e0: 48b6 0cbe 9289 1fbd c648 a63d f3f4 9139
000003f0: cc32 273d 9fd6 1b3e 0fa0 1d3b 9311 a8bd

convs.0.lin_dst.weight f4 [256, 12]
-0.004894721 0.16101845 0.00029228095 0.12166705 0.041136697 -3.8769863e-06 0.01245285 0.06300626
0.09128004 -0.008580724 -0.09454708 0.0002794163 -0.047378346 -0.12255018 0.02341104 0.04059402
-0.1331788 -4.6634932e-07 -0.027051948 -0.013281227 0.116523445 -0.004790802 -0.0040869676 -0.011108787
0.062364858 -0.07560934 0.035934243 -0.10587178 -0.07513704 7.5921704e-08 -0.058870602 -8.294633e-07
-0.025279762 0.024152884 0.006932964 -0.0046135774 0.12917382 0.17761397 0.06511626 0.025272021
0.0020608634 8.0755046e-07 0.014609104 5.1516045e-06 -0.04031286 0.0143055655 0.122302644 -0.011125649
-0.05587017 0.18962884 0.002668626 -0.090746894 0.018844314 -0.036095798 0.034152403 6.492391e-06
-0.09092025 -0.019464789 -0.10184361 0.00040542154 -0.110397294 -0.06004576 0.037724383 0.031327147
-0.13458885 0.04556078 -0.00036786613 0.0038121047 -0.114450276 -0.006650902 -0.12256205 0.027928973
0.097280525 0.0035601915 0.017161543 -0.04968334 -0.078457974 -0.04613764 0.011490173 0.00031870682
0.107230484 0.03232776 0.06346791 -0.024364159 0.11757509 0.10007358 -0.00042656204 -0.08292049
-0.03473738 -0.05030689 0.058671944 0.06680833 -0.08925341 -0.0001537398 0.12903115 -5.4595304e-05
-0.07832369 0.07856842 0.00079953694 -0.098985046 -0.10956946 -0.0013535265 0.055081245 -0.048552766
-0.08464212 0.0040111914 0.029394196 0.0022502341 0.08648474 -0.017407361 -0.01729167 -0.081731126
0.072778456 -0.014492391 -0.02545402 0.03694009 0.081476316 -0.0061814506 -0.09684758 -0.00018158337
-0.016302196 -0.06791538 -0.00083615404 0.090116285 -0.1398347 -0.0026276922 -0.07773796 -8.410419e-06
0.020071235 0.028239826 -0.065275416 -0.00067240663 0.09495568 0.032315653 5.7687197e-05 0.13897352
0.12938978 0.0024547344 -0.010682093 -0.0025667876 0.014403829 -0.036698196 -0.033841837 0.013620684
-0.13546634 0.06526954 0.0006288052 -0.07903596 0.06373616 0.055596314 0.055306043 -0.059435707
-0.09526436 0.0032748145 -0.08035285 0.022596722 0.114634074 0.03187342 -0.020721132 0.07871516
-0.12472699 -0.060997646 0.039987337 -2.4837513e-08 -0.07498072 -0.015701093 -0.1304083 -0.04320392
-0.009850994 -0.14529519 -0.0008890964 0.10281165 0.090361044 0.019340819 -0.009633662 0.007924978
-0.05844734 0.024365304 0.10556561 9.7126984e-05 0.08559174 0.03308116 0.06574085 0.061032034
-0.13412777 -0.004302825 0.015188924 0.02210819 -0.07380357 -0.046799846 -0.0969002 -0.009654565
0.14528392 -0.17377102 -0.009524323 0.06877816 -0.066592954 -0.05946579 0.037997328 -0.004628444
0.17448342 0.014376218 0.023894846 0.0057731494 -0.06399186 -0.1724757 -0.012264696 -0.13612449
0.1206282 1.00147766e-07 -0.021383798 -0.0012543129 -0.006419478 -0.021846328 -0.030155117 0.024603909
-0.10635864 -0.09328315 -0.0015549692 0.064788714 0.052208334 -0.05660399 -0.05172103 -0.050246466
-0.0057661813 -0.008544204 0.033222992 -0.009023366 -0.09228024 -0.14773652 -0.0027227772 -0.0035003389
-0.10001352 9.812962e-07 -0.022067111 -3.397026e-06 0.080567606 -0.013584585 -0.044700596 -0.004787513
-0.1499401 0.13397458 -0.007343726 -0.012976137 0.083693676 7.7368124e-05 0.040541008 -0.041459136
-0.1374141 -0.038949557 0.08119349 0.00027839057 0.040819928 0.1521859 0.0024051701 -0.08206477
00000000: e563 a0bb 05e2 243e 493d 9939 932c f93d
00000010: f47e 283d 0f17 82b6 0a07 4c3c 6d09 813d
00000020: 08f1 ba3d 2a96 0cbc e6a1 c1bd 9f7e 9239
00000030: cc0f 42bd 97fb fabd 82c8 bf3c ea45 263d
00000040: 0660 08be 905e fab4 0c9c ddbc 8199 59bc
00000050: d8a3 ee3d 29fc 9cbb f8eb 85bb a101 36bc
00000060: 4b72 7f3d 12d9 9abd c92f 133d 4ed3 d8bd
00000070: 73e1 99bd 660a a333 4d22 71bd 49a8 5eb5
00000080: 8117 cfbc 45dc c53c eb2d e33b 7e2d 97bb
00000090: 2446 043e 70e0 353e ac5b 853d 4507 cf3c
000000a0: 8d0f 073b 72c6 5835 065b 6f3c f2db ac36
000000b0: 191f 25bd e461 6a3c cf79 fa3d 5b48 36bc
000000c0: 1fd8 64bd 102e 423e 1de4 2e3b 82d9 b9bd
000000d0: 645f 9a3c 30d9 13bd 64e3 0b3d 37d9 d936
000000e0: 6534 babd 9f74 9fbc 6293 d0bd c28e d439
000000f0: fa17 e2bd 8bf2 75bd e284 1a3d e550 003d
00000100: a9d1 09be f19d 3a3d 28de c0b9 81d4 793b
00000110: e864 eabd cfef d9bb d001 fbbd 4dcb e43c
00000120: 033b c73d 1a52 693b 5d96 8c3c c280 4bbd
00000130: 93ae a0bd d2fa 3cbd 4741 3c3c 1b18 a739
00000140: a89b db3d 1d6a 043d 77fb 813d 5897 c7bc
00000150: 35cb f03d 61f3 cc3d 30a4 dfb9 38d2 a9bd
00000160: c848 0ebd 990e 4ebd fe51 703d ced2 883d
00000170: 7eca b6bd 3735 21b9 be20 043e 43fd 64b8
00000180: 2c68 a0bd 7be8 a03d 0498 513a acb8 cabd
00000190: f465 e0bd d068 b1ba df9c 613d 44df 46bd
000001a0: d958 adbd 5070 833b 19cc f03c aa78 133b
000001b0: e91e b13d e299 8ebc 43a7 8dbc a662 a7bd
000001c0: df0c 953d 7e71 6dbc f384 d0bc 7e4e 173d
000001d0: 0edd a63d c48d cabb 0658 c6bd 6a67 3eb9
000001e0: 2f8c 85bc 3817 8bbd 5931 5bba e38e b83d
000001f0: d430 0fbe 5c35 2cbb 1435 9fbd 791a 0db7
00000200: 6e6c a43c 3557 e73c 1eaf 85bd 7244 30ba
00000210: 2078 c23d 6b5d 043d 28f5 7138 134f 0e3e
00000220: c17e 043e 9cdf 203b f203 2fbc 8d37 28bb
00000230: 0afe 6b3c d950 16bd bd9d 0abd 4a29 5f3c
00000240: b0b7 0abe 09ac 853d 67d6 243a 9bdd a1bd
00000250: 1b88 823d f6b8 633d 9788 623d db72 73bd
00000260: f619 c3bd 459e 563b 0990 a4bd c31c b93c
00000270: 45c5 ea3d b48d 023d 5dbf a9bc 6a35 a13d
00000280: dd70 ffbd abd8 79bd c3c9 233d 455a d5b2
00000290: 7e8f 99bd 949f 80bc c189 05be 98f6 30bd
000002a0: 1066 21bc 43c8 14be 4012 69ba ea8e d23d
000002b0: 360f b93d a370 9e3c 82d6 1dbc c4d7 013c
000002c0: 7a66 6fbd bf99 c73c c832 d83d a7b0 cb38
000002d0: b94a af3d 1c80 073d 24a3 863d bafc 793d
000002e0: ca58 09be b6fe 8cbb f7da 783c 3c1c b53c
000002f0: 5326 97bd 32b1 3fbd 9d73 c6bd 2e2e 1ebc
00000300: 4fc5 143e 08f1 31be e80b 1cbc 90db 8c3d
00000310: e361 88bd 6692 73bd 16a3 1b3d 34aa 97bb
00000320: c8ab 323e 3b8a 6b3c 20bf c33c b02c bd3b
00000330: 2a0e 83bd 789d 30be ddf1 48bc 3864 0bbe
00000340: eb0b f73d d110 d733 132d afbc c267 a4ba
00000350: 7c5a d2bb 12f7 b2bc dd07 f7bc 238e c93c
00000360: 8fd2 d9bd 3c0b bfbd 1cd0 cbba f2af 843d
00000370: 68d8 553d 96d9 67bd 6ed9 53bd 3dcf 4dbd
00000380: 3cf2 bcbb fdfc 0bbc d514 083d bdd6 13bc
00000390: 6cfd bcbd 3e48 17be 9f70 32bb f165 65bb
000003a0: e3d3 ccbd 15b5 8335 16c6 b4bc 76f8 63b6
000003b0: a100 a53d e191 5ebc f917 37bd 92e0 9cbb
000003c0: e689 19be a230 093e a4a3 f0bb dd99 54bc
000003d0: 9767 ab3d b240 a238 540e 263d 0ed1 29bd
000003e0: 48b6 0cbe 9289 1fbd c648 a63d f3f4 9139
000003f0: cc32 273d 9fd6 1b3e 0fa0 1d3b 9311 a8bd

convs.1.att_src f4 [1, 4, 64]
0.09811895 -0.28466436 -0.14777647 -0.041655384 -0.17925505 -0.23448148 -0.24222466 -0.10078983
-0.23222011 0.059021432 0.109068215 0.2652197 0.23030655 0.21418385 -0.20854126 -0.15580188
0.15629005 -0.20162466 0.102202706 -0.22181697 -0.31328458 -0.22935043 0.2588629 0.04983578
-0.13427714 0.047415357 -0.19031917 0.119909175 0.06341992 -0.22839151 0.0047297115 0.028670875
0.27179632 -0.0021985911 0.20537712 -0.033334415 0.13430698 -0.06544711 -0.07694374 0.2190072
0.006993403 0.2602675 -0.053423163 0.17974475 -0.17418802 0.23454736 -0.13662712 0.0012249105
0.09351061 0.28800282 0.24867883 0.21355683 0.29263243 -0.006411 0.2552551 -0.06430444
0.23122035 0.1437211 0.27457985 -0.06198743 0.1086627 0.15887266 -0.26597092 -0.22473717
-0.016923225 -0.2803376 0.18004395 0.10893171 -0.06241528 0.16366771 -0.29291114 0.25225997
-0.11055244 -0.020298243 0.049997084 -0.06439405 0.06112905 -0.1147636 -0.13414621 0.14211868
-0.26100317 -0.06359277 0.2770209 -0.04223768 0.18057795 0.11357939 -0.2779097 -0.105648614
-0.12021471 -0.18820481 -0.20895138 0.07868186 -0.036086045 0.07377204 0.09151977 0.29596278
0.2743181 0.11470031 0.21786302 0.30327362 -0.024513755 0.28094077 -0.08364171 -0.11155196
-0.10874423 0.1614868 -0.15551226 0.24861822 -0.013731996 0.06131661 -0.11288889 0.12948272
0.27341262 -0.1506453 -0.010723746 0.12209452 -0.20339493 -0.086655386 -0.28060403 0.03258635
0.011038958 0.057731558 0.15174988 0.31229374 -0.04395672 -0.040257692 0.048740294 -0.16513689
-0.16264614 -0.1829448 0.03524362 0.16476493 -0.08607925 -0.13422789 0.16293731 0.06992207
0.11317807 0.19936986 0.15412538 0.17868103 0.24320532 0.07708805 -0.20220119 -0.17012092
0.20355545 0.15311146 0.066489995 -0.16060202 0.17912202 -0.10344141 0.15910213 0.10290853
-0.078750506 0.28838632 0.11131668 -0.20280124 -0.2005498 0.2150985 -0.118435815 -0.07362186
0.012532857 -0.12525679 0.13463466 -0.11466267 0.065327264 -0.20875849 -0.27514714 0.04845591
-0.26147005 0.1493999 -0.2933048 -0.18749443 0.22808647 -0.15065673 0.21169442 0.09988147
0.16700277 0.02729409 -0.092755534 -0.006639393 -0.14492635 0.14416704 0.019036923 -0.18680409
0.09238501 0.14275153 -0.14428437 0.016398434 -0.14709763 -0.1619949 0.11968576 0.12459181
-0.24019216 -0.08076491 -0.2125097 -0.25713286 -0.061731618 -0.11312791 0.053858034 -0.105186835
-0.009576764 -0.11036336 0.15508944 0.19134933 0.16893229 -0.24888116 0.20792921 -0.12447996
-0.12601106 -0.25393596 -0.15421025 -0.17733763 -0.18166587 0.08147869 -0.11599893 0.06774217
-0.15906169 0.15695705 0.11011236 0.1732935 0.21482964 0.26257166 0.20124023 0.1893415
-0.1320594 0.14000106 0.10829057 -0.10290489 0.16086856 0.1728519 -0.109504186 -0.28014335
0.16804378 0.25697136 0.17668875 -0.023668204 -0.17378443 -0.2863055 0.23698857 -0.08408649
0.10068212 0.09896001 0.2754235 0.16702218 -0.016732926 -0.12453839 0.035451706 0.2125191
-0.21393064 -0.13479304 -0.12801014 -0.10037085 0.21201578 0.23655944 0.056208447 -0.19144876
00000000: 97f2 c83d 87bf 91be b752 17be d69e 2abd
00000010: a38e 37be ea1b 70be be09 78be e66a cebd
00000020: 1ccb 6dbe 75c0 713d 285f df3d e0ca 873e
00000030: 7bd5 6b3e 0353 5b3e d78b 55be 878a 1fbe
00000040: 800a 203e b276 4ebe a74f d13d fd23 63be
00000050: d666 a0be d7da 6abe ae89 843e 9a20 4c3d
00000060: f27f 09be 9b36 423d 07e3 42be f192 f53d
00000070: 4ee2 813d 77df 69be b2fb 9a3b 2fdf ea3c
00000080: e328 8b3e 3d16 10bb 614e 523e ab89 08bd
00000090: c587 093e 2209 86bd ae94 9dbd 6c43 603e
000000a0: eb28 e53b c841 853e 3fd2 5abd 020f 383e
000000b0: 585e 32be 2f2d 703e fbe7 0bbe 2d8d a03a
000000c0: 7e82 bf3d 1b75 933e aaa5 7e3e a4ae 5a3e
000000d0: ebd3 953e 5e13 d2bb ccb0 823e 0cb2 83bd
000000e0: 07c5 6c3e a02b 133e bb95 8c3e 88e6 7dbd
000000f0: 8d8a de3d 84af 223e 572d 88be 8021 66be
00000100: 93a2 8abc 6988 8fbe 715d 383e 9717 df3d
00000110: 2aa7 7fbd 8298 273e 73f8 95be 3828 813e
00000120: 5169 e2bd 8048 a6bc bec9 4c3d 07e1 83bd
00000130: 7462 7a3d 2e09 ebbd a05d 09be 8f87 113e
00000140: 35a2 85be ed3c 82bd afd5 8d3e 6b01 2dbd
00000150: 6de9 383e 509c e83d 2e4a 8ebe 4d5e d8bd
00000160: 2133 f6bd c3b8 40be 5af7 55be f423 a13d
00000170: f6ce 13bd cc15 973d b86e bb3d 6f88 973e
00000180: 6c73 8c3e ffe7 ea3d 7c17 5f3e ae46 9b3e
00000190: 12d1 c8bc 78d7 8f3e 584c abbd 5b75 e4bd
000001a0: 4bb5 debd cc5c 253e 9b3e 1fbe c695 7e3e
000001b0: 2afc 60bc 2027 7b3d 4a32 e7bd 1e97 043e
000001c0: bdfc 8b3e c342 1abe a7b2 2fbc b10c fa3d
000001d0: c346 50be 6178 b1bd 55ab 8fbe 4479 053d
000001e0: bfdc 343c ed77 6c3d 5264 1b3e f7e4 9f3e
000001f0: f60b 34bd 40e5 24bd e7a3 473d a519 29be
00000200: b68c 26be e255 3bbe 9d5b 103d 23b8 283e
00000210: 514a b0bd 0973 09be 0ad9 263e 4d33 8f3d
00000220: e7c9 e73d 9d27 4c3e 0bd3 1d3e 29f8 363e
00000230: d10a 793e 57e0 9d3d d40d 4fbe 2e34 2ebe
00000240: d770 503e 40c9 1c3e e82b 883d db74 24be
00000250: c36b 373e 17d9 d3bd abeb 223e b5c1 d23d
00000260: f247 a1bd 5fa7 933e 00fa e33d 21ab 4fbe
00000270: ed5c 4dbe c842 5c3e 7a8e f2bd 0fc7 96bd
00000280: 9d56 4d3c 5143 00be abdd 093e 43d4 eabd
00000290: 4dca 853d c9c4 55be 16e0 8cbe b479 463d
000002a0: 67df 85be 4afc 183e 0c2c 96be 8afe 3fbe
000002b0: 808f 693e c245 1abe 6cc6 583e a88e cc3d
000002c0: c602 2b3e db97 df3c 9df6 bdbd 448f d9bb
000002d0: 9367 14be 86a0 133e 52f3 9b3c 9249 3fbe
000002e0: 5a34 bd3d 752d 123e 48bf 13be 0256 863c
000002f0: c3a0 16be fee1 25be cf1d f53d fe29 ff3d
00000300: eff4 75be 1368 a5bd 259c 59be eba6 83be
00000310: 4bda 7cbd 9baf e7bd 3e9a 5c3d 326c d7bd
00000320: dce7 1cbc 2f06 e2bd c4cf 1e3e 14f1 433e
00000330: 96fc 2c3e b4da 7ebe 65eb 543e 59ef febd
00000340: 0b09 01be e503 82be 4be9 1dbe ff97 35be
00000350: 9e06 3abe 4dde a63d d990 edbd 68bc 8a3d
00000360: 11e1 22be 59b9 203e 9782 e13d da73 313e
00000370: 4dfc 5b3e cb6f 863e eb11 4e3e bde2 413e
00000380: 943a 07be 705c 0f3e 72c7 dd3d cdbf d2bd
00000390: baba 243e 1700 313e bb43 e0bd f36e 8fbe
000003a0: ab13 2c3e c091 833e e5ed 343e d2e3 c1bc
000003b0: 8cf4 31be a296 92be 22ad 723e 8a35 acbd
000003c0: 6d32 ce3d 8cab ca3d 4f04 8d3e dd07 2b3e
000003d0: 7d13 89bc fc0d ffbd cf35 113d 9b9e 593e
000003e0: a210 5bbe 3007 0abe 1715 03be 3b8f cdbd
000003f0: aa1a 593e a33c 723e d43a 663d 250b 44be

convs.1.att_dst f4 [1, 4, 64]
0.23143892 -0.08080811 -0.0033292568 -0.010308782 -0.19029762 0.06442674 -0.011322909 0.15959805
0.13549413 0.10334359 -0.017196277 -0.1292514 -0.17095247 -0.28407404 0.0029440199 -0.28520998
-0.1560408 -0.03738434 0.015265278 0.23815808 -0.06987978 -0.054077324 -0.122128025 0.19712158
-0.2832927 -0.21477062 0.03019224 -0.0844674 -0.07674226 -0.18934602 0.04572713 0.2255734
-0.20627858 -0.22359793 0.115020044 -0.0133319665 0.10907753 0.1956695 -0.17250505 0.25100005
-0.09281278 0.13960637 -0.065795586 -0.16513185 0.2006774 -0.19240299 0.07125496 0.19479696
0.21174528 -0.19207378 -0.1487517 -0.20997043 0.20216793 0.038985852 -0.24922208 -0.2876643
-0.2548873 -0.20134504 0.16743395 0.044796046 0.10072486 -0.15685526 -0.029237254 -0.24768163
-0.06208375 0.111570075 -0.03240966 -0.26810727 -0.20501746 -0.1312602 0.19906157 0.1856978
-0.14032736 0.0259733 0.014727769 0.10554543 -0.28861377 -0.2399049 0.14094357 -0.18711035
-0.018716602 0.16487303 -0.012034882 0.25633848 0.19112681 0.09247804 -0.28911507 0.06857586
0.08666196 -0.2208851 -0.25234675 0.011898464 0.18201163 0.13786969 -0.0711472 0.13862623
-0.06662892 -0.14266914 0.14371179 0.16288789 -0.20010474 -0.14230178 0.097072855 -0.09860608
0.11559425 -0.011537448 -0.051729254 0.22690465 0.06782815 -0.088261046 -0.07578559 -0.18381634
-0.03212984 -0.16807644 -0.19181491 -0.22337243 -0.24386446 0.19664286 0.19805285 -0.25289088
-0.00243285 -0.24700785 0.10215579 0.19104044 -0.15355234 0.21863382 -0.10471237 -0.25545785
-0.17997706 0.1179085 0.18356879 -0.122569755 0.043651808 0.16050664 -0.20314987 0.00025286435
-0.2624863 -0.076050475 0.084106706 -0.1578114 -0.24882196 0.20765564 0.19583191 -0.24780776
0.22207135 0.025212904 0.005099468 0.13452168 0.23810272 0.26653972 -0.2044953 -0.25069165
0.17399181 -0.017057858 0.20990346 -0.101654194 -0.05161403 -0.10479746 -0.27699676 -0.2600176
-0.01367594 0.0063768425 0.122346565 -0.2898299 0.2591175 -0.2378887 -0.088375546 -0.12246335
0.03553004 0.27597857 0.017883591 -0.0032197388 0.19993636 0.010721436 0.16195472 -0.011590391
-0.021049388 -0.06387628 0.21779789 0.005554491 -0.027525675 -0.26907295 0.16824782 0.044515602
0.050626542 0.1887797 0.22379236 -0.20478593 0.10270807 0.056883886 -0.24580324 -0.21303588
-0.14552799 0.27968675 -0.16454607 -0.2941772 -0.27733427 -0.25485498 0.26743856 -0.0015180835
0.08358238 0.1865641 -0.13826013 0.0014002132 0.10519262 -0.06359309 0.13618454 -0.20541315
0.25219202 0.2714015 -0.261872 0.10688976 0.08425687 0.05322615 -0.17711598 0.113136925
0.0762079 0.21117817 -0.2070778 0.016976967 0.19769867 0.25705546 0.01984009 0.19647455
-0.17271395 0.20775987 0.015513802 -0.20522462 -0.23908824 0.15654479 -0.09457433 0.0770086
-0.017027242 0.25202522 -0.0018525344 -0.21895187 -0.1543047 0.18453088 -0.027077166 0.13271609
-0.21275993 -0.011929394 0.28124833 -0.23046564 0.2765336 0.14647 0.07545833 0.20255972
-0.14935395 0.14025608 -0.12253126 -0.05587026 -0.08286279 0.27123114 0.19889075 -0.14146958
00000000: 53fe 6c3e b97e a5bd a92f 5abb 2ae6 28bc
00000010: 61dd 42be 2bf2 833d b983 39bc ac6d 233e
00000020: f9be 0a3e cea5 d33d 35df 8cbc 7b5a 04be
00000030: 2a0e 2fbe 2772 91be 75f0 403b 0b07 92be
00000040: 29c9 1fbe 5220 19bd 371b 7a3c b6df 733e
00000050: 211d 8fbd 2f80 5dbd 421e fabd 3dda 493e
00000060: be0b 91be d4ec 5bbe b755 f73c 3ffd acbd
00000070: 0c2b 9dbd ece3 41be 5f4c 3b3d b7fc 663e
00000080: b13a 53be dbf6 64be a18f eb3d 526e 5abc
00000090: 0a64 df3d 965d 483e 2aa5 30be 1483 803e
000000a0: a014 bebd f9f4 0e3e d6bf 86bd 5318 29be
000000b0: 607e 4d3e 4a05 45be 1fee 913d db78 473e
000000c0: c1d3 583e fdae 44be 5e52 18be 7d02 57be
000000d0: 1c05 4f3e a1af 1f3d 1334 7fbe bc48 93be
000000e0: 9780 82be 652d 4ebe ce73 2b3e 0f7c 373d
000000f0: d648 ce3d aa9e 20be f782 efbc 41a0 7dbe
00000100: 884b 7ebd da7e e43d febf 04bd 5b45 89be
00000110: 19f0 51be 1369 06be ccd6 4b3e 9027 3e3e
00000120: fab1 0fbe f5c5 d43c be4c 713c 3428 d83d
00000130: 2fc5 93be a1a9 75be 8353 103e db99 3fbe
00000140: 8f53 99bc 7ad4 283e f42d 45bc cc3e 833e
00000150: bfb6 433e 2065 bd3d e406 94be 8071 8c3d
00000160: d37b b13d b42f 62be 9833 81be c6f1 423c
00000170: 4261 3a3e b62d 0d3e a0b5 91bd 09f4 0d3e
00000180: be74 88bd dc17 12be 2f29 133e 15cc 263e
00000190: 42e8 4cbe 8fb7 11be 22ce c63d fcf1 c9bd
000001a0: aebc ec3d 9007 3dbc 0ee2 53bd b159 683e
000001b0: 7ce9 8a3d 35c2 b4bd 7a35 9bbd 5a3a 3cbe
000001c0: 949a 03bd 3b1c 2cbe 216b 44be bebb 64be
000001d0: 9bb7 79be bf5c 493e 5ece 4a3e ea7a 81be
000001e0: 7370 1fbb a0ef 7cbe 0e37 d13d 1ba0 433e
000001f0: d33c 1dbe 8be1 5f3e 7073 d6bd 5fcb 82be
00000200: e84b 38be 037a f13d 75f9 3b3e da05 fbbd
00000210: 3dcc 323d da5b 243e 8506 50be e192 8439
00000220: 9b64 86be 5ac0 9bbd 2340 ac3d 5099 21be
00000230: 2fcb 7ebe aea3 543e 2988 483e 51c1 7dbe
00000240: ac66 633e 4b8b ce3c 7019 a73b 0dc0 093e
00000250: 33d1 733e e577 883e 3767 51be a85a 80be
00000260: e92a 323e ecbc 8bbc eff0 563e 1330 d0bd
00000270: 3c69 53bd 0da0 d6bd 85d2 8dbe 0721 85be
00000280: 0d11 60bc d5f4 d03b d690 fa3d 9664 94be
00000290: 0dab 843e 1899 73be 3dfe b4bd 11ce fabd
000002a0: f287 113d 104d 8d3e 9c80 923c 4102 53bb
000002b0: 1ebc 4c3e f6a8 2f3c 75d7 253e a0e5 3dbc
000002c0: c46f acbc 91d1 82bd 6906 5f3e 7302 b63b
000002d0: 867d e1bc eec3 89be 2849 2c3e fe55 363d
000002e0: c75d 4f3d 774f 413e d329 653e 67b3 51be
000002f0: 9c58 d23d 14ff 683d d8b3 7bbe 1426 5abe
00000300: 4a05 15be 1a33 8f3e c47e 28be 659e 96be
00000310: c2fe 8dbe 5a7c 82be b5ed 883e 6efa c6ba
00000320: 3d2d ab3d a90a 3f3e 1094 0dbe 5c87 b73a
00000330: 3a6f d73d 183d 82bd f673 0b3e d357 52be
00000340: 501f 813e 23f5 8a3e 1614 86be 05e9 da3d
00000350: de8e ac3d aa03 5a3d e45d 35be 55b4 e73d
00000360: e312 9c3d 173f 583e 340c 54be 4813 8b3c
00000370: 8571 4a3e c69c 833e af87 a23c a030 493e
00000380: eddb 30be 01bf 543e 9a2d 7e3c 6726 52be
00000390: 8cd3 74be 474d 203e 30b0 c1bd afb6 9d3d
000003a0: b77c 8bbc 7309 813e bdd0 f2ba eb34 60be
000003b0: 0d02 1ebe aaf5 3c3e efd0 ddbc bae6 073e
000003c0: bddd 59be 8173 43bc c8ff 8f3e 2fff 6bbe
000003d0: d095 8d3e 3bfc 153e e689 9a3d d16b 4f3e
000003e0: 3ef0 18be 4a9f 0f3e abf1 fabd 37d8 64bd
000003f0: f7b3 a9bd cfde 8a3e 04aa 4b3e 67dd 10be
