trained_weights/trace/gat20.pth (torch, 328660 bytes, 27 tensors)

convs.0.att_src f4 [1, 4, 64]
000000 f3 fb 06 be 46 53 3c be 69 62 f0 bd db 2b 7d be
       -0.13182048 -0.18391141 -0.1173752 -0.24723761
000010 df 0d 37 3d 68 05 55 3d 12 68 4d 3e 68 bf 0b be
       0.044690963 0.05200711 0.20059231 -0.13647234
000020 8e a4 eb bd 8b 3f a4 bd 4e d6 14 be eb 11 3a 3e
       -0.11505996 -0.08019932 -0.14534876 0.18170898
000030 9c 98 2a 3d 6d 66 05 3e 88 13 73 3c 63 c3 d4 3d
       0.041649446 0.13027354 0.0148362 0.103888296
000040 51 12 6d 3d 49 88 e1 bc e0 03 ed 3d b4 69 86 3e
       0.057878796 -0.027530806 0.11573005 0.2625252
000050 56 f7 46 bd 0b 2a 39 3e 6c 7f 39 3c b0 0f 2f 3e
       -0.04857572 0.18082444 0.011321884 0.17095828
000060 27 09 65 3c fc 49 92 bc 9e 75 9c 3d b9 b6 73 3e
       0.013979233 -0.017857544 0.07639621 0.23800172
000070 a2 6c 5f be 02 88 12 3e 9c 03 4d 3e 55 1c 67 3e
       -0.21818784 0.14309695 0.20020908 0.22569402
000080 ac de 7a 3e 7d 7e 35 3e d4 ce 01 3e d7 bf de bb
       0.24499005 0.17724033 0.12676555 -0.0067977714
000090 88 e0 77 3c 5e 0e 1f 3e 84 c3 b2 bd 5b 91 5d 3e
       0.015129216 0.15532824 -0.08728698 0.2163748
0000a0 e3 31 82 3e c8 a6 66 3e 33 a2 b3 3d 4b eb ec 3d
       0.25428686 0.2252456 0.087711714 0.11568316
0000b0 a2 77 17 3d c4 3a db bd 07 c1 c2 3d 70 ec 92 3c
       0.036979325 -0.10704568 0.09509473 0.017935008
0000c0 1b fb 2c 3e 6e 04 52 be 89 d8 56 3d 6a 63 b0 bd
       0.16892664 -0.20509502 0.052452598 -0.08612712
0000d0 08 a6 96 3e e2 40 42 3e 74 0b 80 3e 3d 62 97 3e
       0.29423547 0.18970063 0.25008738 0.29567137
0000e0 31 c5 3b 3e 77 4d 8b 3d 7e d7 9c 3d 12 90 7c 3e
       0.18336941 0.068018846 0.076582894 0.24664333
0000f0 71 f8 89 be be 09 be bd 2d 01 17 3e a0 8d 83 3e
       -0.26947358 -0.09279202 0.14746542 0.2569399
000100 95 4c e5 bd 5e 6a 05 3e e6 be 7d 3e 16 62 9b be
       -0.111962475 0.13028857 0.24779853 -0.3034827
000110 b4 b7 a2 3d 26 3b 2e be 97 19 42 3e f0 34 55 3d
       0.07945195 -0.17014751 0.18955074 0.05205244
000120 79 0e 73 3e c2 7a ab be ab 1f 2e 3e de 2b 41 bd
       0.2373599 -0.33492094 0.17004268 -0.047160976
000130 fd 83 08 bd 58 30 88 3e e0 bd 43 be ff 63 60 3e
       -0.033329 0.26599383 -0.191154 0.21913145
000140 a2 8b f5 3c fa a4 86 3e 37 03 13 3c 88 43 b3 bd
       0.029973809 0.26297742 0.008972934 -0.08753115
000150 6a e5 f7 bb 9b 67 bf 3d 71 60 59 be 73 4d 7e 3e
       -0.00756519 0.09345933 -0.21228196 0.24834232
000160 d5 64 63 3d 32 c0 78 be 2c 0b 3b 3d 53 43 d9 bd
       0.055516083 -0.24292067 0.04566495 -0.10608544
000170 48 15 a5 3c 15 36 9b bd a9 80 fa bd b7 04 60 3e
       0.02015175 -0.07578675 -0.12231571 0.21876799
000180 38 33 1e 3d 38 eb 60 be 33 72 9a be b7 e1 12 be
       0.038623065 -0.21964729 -0.30165252 -0.14343916
000190 53 01 fe 3c 56 e2 3a 3e 6e 88 e2 3d f7 19 1d 3c
       0.03100649 0.18250403 0.11061178 0.00958871
0001a0 dd 1d 05 be 96 5f 65 3c b1 20 1a 3e dd 63 e7 bd
       -0.12999673 0.01399984 0.15051533 -0.11298344
0001b0 8d 08 77 3e c3 8c 30 3e 45 75 65 3e a9 74 7e be
       0.24124356 0.17241196 0.22408016 -0.2484919
0001c0 62 bc bf 3d 03 bb 7c 3c 15 cc 19 3e b6 32 fc bb
       0.09362103 0.015425446 0.15019257 -0.007696475
0001d0 79 b2 91 3e 83 2e 6d bd a3 44 00 bd 92 ae a3 3d
       0.28456476 -0.057905685 -0.031315457 0.07992281
0001e0 2a 47 93 3e e1 ff 7d bd b9 c3 a0 3e 8e 02 c1 bd
       0.2876523 -0.062011603 0.31399325 -0.094243154
0001f0 7d 2a 9a 3d 78 3f d9 bc e5 7a 8e 3e ad 76 c7 bd
       0.07527635 -0.026519522 0.27828136 -0.097394325
000200 4e fc 12 3e 92 7c 03 3c f3 b2 3b 3d 37 68 0e 3e
       0.14354059 0.008025305 0.045824956 0.13906942
000210 23 5d 62 be 54 be 7b 3e 80 d7 43 3e 5f 5a a8 3e
       -0.22105841 0.24584323 0.19125175 0.32881448
000220 3d af 0d 3e 49 c5 30 be 47 d9 05 be 18 03 35 3e
       0.1383638 -0.17262758 -0.13071166 0.17676961
000230 a9 a4 0d 3e ba 83 45 3e 44 59 72 3e 47 c2 b2 bc
       0.13832344 0.19288531 0.23666865 -0.021821154
000240 6f d8 87 bd e0 16 05 bd c7 76 11 bb 87 65 26 3e
       -0.06633078 -0.03249252 -0.002219604 0.16249667
000250 2c 9a 10 3e 9b d7 fc bc 9f 56 04 be 84 88 6d 3e
       0.14121312 -0.030864527 -0.12923668 0.23196608
000260 33 f5 5a bd a3 4c 26 3e 82 8f 44 3e df d1 15 be
       -0.053456496 0.16240172 0.19195369 -0.1463084
000270 98 f4 12 3e c1 72 13 3e 5c aa 65 3e 61 1a c7 3d
       0.14351118 0.14399244 0.22428268 0.09721828
000280 5c 6d 19 be e8 76 70 3c 03 23 11 be db 44 5a be
       -0.14983124 0.014676787 -0.14173512 -0.21315329
000290 65 f4 91 bd 37 12 7c bd 9f 22 9e bd 4f 29 72 3e
       -0.07126693 -0.06154081 -0.07721447 0.2364857
0002a0 ca a4 7d 3c 54 06 5e be 17 65 76 bd ac d5 87 3e
       0.015481183 -0.21682101 -0.060155 0.26530206
0002b0 45 3d cc bd 3a a0 ac bd af 54 94 3e da 90 52 3c
       -0.09972624 -0.08428998 0.28970858 0.012851918
0002c0 7e 6d 6a be 8f 07 53 be 6f 76 3d bb f0 89 88 be
       -0.2289333 -0.20608352 -0.0028909703 -0.26667738
0002d0 e2 33 9b be 75 0f 03 be e2 47 fe bc e7 f1 d9 3d
       -0.3031302 -0.12798865 -0.031040136 0.10641842
0002e0 13 06 03 be 67 b7 c9 bd 9d 0f 42 be be a8 24 be
       -0.12795286 -0.09849434 -0.18951268 -0.16079995
0002f0 80 37 c8 3d 07 be ba 3d 40 64 1a be a8 0d b4 3c
       0.09776211 0.09118276 -0.15077305 0.021979168
000300 91 4a 34 3e 9f 9b 62 3e 3d 4c 0d 3e 00 f1 7a 3e
       0.1760657 0.22129677 0.13798614 0.24505997
000310 92 3c 08 3d b2 1c 07 3e ae eb 8e bd 7d a5 e2 3c
       0.03326089 0.1319454 -0.06978546 0.027666802
000320 dd 45 9d 3e d8 71 07 be d7 17 5a 3d 11 37 09 bd
       0.30717364 -0.13227022 0.05324539 -0.03349978
000330 78 cb 8f be df 83 82 3d 57 b0 21 3e e4 b9 59 3d
       -0.28084922 0.06372809 0.15789925 0.053155795
000340 a4 ea 39 3d ab 82 d3 3d 95 ef 88 3e 56 fc ac 3e
       0.045389786 0.10327657 0.26745287 0.33786267
000350 a6 5d 11 3e c0 f2 68 bd d2 6a 17 3e 35 ca 4d be
       0.1419588 -0.05687213 0.14786842 -0.20096667
000360 56 65 da 3c 9e b6 99 3e 58 d0 5c be d9 71 de 3d
       0.026659649 0.30022138 -0.21563852 0.108615585
000370 0c d8 23 3b 08 5e df bd 36 9e 4e bd 5e 48 5b 3e
       0.00250006 -0.10906607 -0.05044385 0.21414325
000380 3b c3 51 3d 30 96 53 be 8d fe 24 bd f8 b2 12 be
       0.051211577 -0.2066276 -0.04028182 -0.14326084
000390 53 d1 82 3c 4b a9 e4 3d 52 26 4e 3e 25 9d 53 be
       0.015968954 0.111651026 0.20131806 -0.20665415
0003a0 bf ef 9f ba 29 ac f0 bd fd 95 ad bd 76 e3 40 3e
       -0.0012202187 -0.11751587 -0.084758736 0.1883677
0003b0 d7 25 66 3e ad 49 1d 3e a0 d8 39 be 2f d6 8a bd
       0.22475372 0.15360136 -0.18149042 -0.067791335
0003c0 b8 f6 fa 3d 23 2b 75 3e 9a c1 47 bc 39 41 00 be
       0.12254089 0.23942237 -0.012192154 -0.1252488
0003d0 5b 89 46 be dc 15 4a be bb 4d 35 3d 5d c5 08 be
       -0.19388334 -0.19734901 0.044263583 -0.13356538
0003e0 1f 92 41 bd 0e 93 61 be 64 53 25 be a4 2b 23 3e
       -0.047258493 -0.22028753 -0.16145092 0.15934616
0003f0 3c 64 f4 3d a8 f7 a7 be 9e 19 a5 3b eb bd 50 3d
       0.11933181 -0.32806134 0.005038454 0.05096237

convs.0.att_dst f4 [1, 4, 64]
000000 52 88 07 be 62 85 a3 3d 1d f2 67 be 66 18 a4 bc
       -0.13235596 0.07984425 -0.22650953 -0.020031165
000010 b2 c2 53 be 64 a2 04 be 36 b6 88 3d 92 d0 31 bc
       -0.20679739 -0.12952572 0.06675379 -0.01085295
000020 0f 26 31 be dc f1 78 bd f2 21 26 3e c3 d6 47 3e
       -0.17299674 -0.06077753 0.16223887 0.19515519
000030 5e 0d c8 bd 7f eb 2e 3e 43 1f 12 3e 6f 14 25 3e
       -0.097681746 0.17082022 0.14269738 0.16121076
000040 e1 86 bd 3d 5d 4d 16 3e b1 47 8c 3d a1 c1 18 bd
       0.09254242 0.14677949 0.068496116 -0.037294034
000050 a0 60 85 bd b5 6c 35 3e 71 5e 24 be 6c 21 94 bd
       -0.065125704 0.1771725 -0.16051652 -0.07232937
000060 8d 85 cf bd 75 53 07 3e 67 51 21 3d d7 52 d6 bd
       -0.10132895 0.1321543 0.039384272 -0.10465019
000070 ba 76 fe bd 10 8e ab 3d 38 db e8 bd 7a 0c 34 be
       -0.12424989 0.08376706 -0.11369938 -0.17582884
000080 93 d9 32 be 77 51 bb bd 22 5d 1e 3e 49 0c 55 bd
       -0.1746581 -0.091463976 0.15465215 -0.05201367
000090 26 57 a1 3d 41 32 68 bd 46 1c 50 bd d1 1e a6 3d
       0.0787795 -0.05668855 -0.050808214 0.081113465
0000a0 eb 65 97 3d 20 ce 5d be 57 95 13 3e 50 24 86 3d
       0.07392486 -0.21660662 0.14412437 0.06549895
0000b0 ee 03 37 3e c1 1a 0d 3e 3a 99 59 be 77 30 4b 3d
       0.17872593 0.13779737 -0.21249858 0.049606767
0000c0 d2 36 12 3e 4a f7 55 3e c1 21 66 3e df 8c 35 be
       0.14278725 0.20895115 0.22473814 -0.1772952
0000d0 e7 f2 1e bd 69 36 4e 3e b9 00 c9 bd 41 e3 ea 3c
       -0.03880587 0.20137943 -0.09814591 0.028672816
0000e0 78 4f 49 be a8 56 4a be 84 c3 f1 bd 34 b3 81 3c
       -0.19659221 -0.19759619 -0.1180487 0.015832521
0000f0 a7 11 9d 3c a9 cf 8a 39 1c 50 b8 3c ac f0 04 3e
       0.019173456 0.0002647613 0.022499137 0.12982434
000100 95 25 53 3e d0 51 84 bc f9 fb b9 bd 3d 09 dc 3d
       0.20619805 -0.016152292 -0.09081263 0.107439496
000110 a7 a1 18 bd 4d c9 52 bd 49 be ab bc 56 4a 00 3e
       -0.03726354 -0.051461507 -0.020964758 0.12528357
000120 95 68 07 3d ff 07 31 3d bc 28 b9 37 16 9e 3c be
       0.03305872 0.043220516 2.2072687e-05 -0.1841968
000130 65 3f e4 bd 17 23 1c bd c3 ff 30 3e 22 e1 46 be
       -0.11144904 -0.0381194 0.17285065 -0.19421819
000140 1f 1a 24 3e e9 61 14 bd 52 e7 c5 3c 6e 8a 8a bd
       0.1602559 -0.036226187 0.024158154 -0.067646846
000150 e3 c0 17 3e 5d 91 2c 3e f0 25 13 3d 6d 87 3f 3e
       0.14819674 0.16852327 0.035924852 0.18704005
000160 cb 60 26 be 6d aa 36 be e4 cf 04 3e e3 18 82 3d
       -0.16247861 -0.1783845 0.12969929 0.06352403
000170 5c 54 72 3e 29 ce 6c be 52 ca 20 be d0 9d 68 3e
       0.23664993 -0.23125519 -0.15702179 0.2271645
000180 75 2f 5c 3c a9 08 c4 3d 24 7a 41 be 58 a5 bc bc
       0.013439049 0.09571964 -0.18894249 -0.02302806
000190 dc d0 28 3d 28 30 bc 3d d7 10 4b be da 07 9e bd
       0.04121481 0.091888726 -0.19830643 -0.07716341
0001a0 4f 5e d0 3d 4a dd 5a 3e 90 37 46 3e 11 7b d4 3c
       0.10174238 0.21373478 0.19357133 0.025937589
0001b0 b0 b7 4b be 5c 96 07 be 19 ef 61 3d f4 48 9f bd
       -0.1989429 -0.13240951 0.055159662 -0.077775866
0001c0 15 ff 27 3e c9 e2 c4 bd 98 d1 13 bd 75 94 37 bd
       0.164059 -0.09613568 -0.036088556 -0.044819314
0001d0 b8 a7 ee 3d 3c c5 49 bd 41 c6 3f 3e c1 63 20 3c
       0.116530836 -0.049260363 0.18727972 0.009789408
0001e0 18 41 44 be b7 b9 60 3c e4 66 bf 3d a0 70 28 be
       -0.19165456 0.013716153 0.09345797 -0.16449213
0001f0 68 de 76 be 0b f1 07 3e 28 dd c0 3d 27 27 41 bd
       -0.24108279 0.13275544 0.09417182 -0.04715648
000200 46 89 8c 3d ff 38 2b be 73 80 64 bd b2 e2 54 3e
       0.0686212 -0.16720961 -0.05578656 0.20789602
000210 b0 d8 a0 bc d7 84 bf bd da 28 1e be 30 d0 d8 3d
       -0.019634575 -0.09351509 -0.15445271 0.105865836
000220 b4 0a 17 be 95 6c 49 be ea 33 49 be 63 4e c1 bc
       -0.14750177 -0.19670327 -0.1964871 -0.023596948
000230 28 b0 56 3d 5a 74 a0 3d 19 18 2d be 07 2e 46 bd
       0.05241409 0.07834692 -0.16903724 -0.04838374
000240 38 8d 87 bc 96 98 20 be 13 06 7d bc 95 1d b8 3b
       -0.01654683 -0.15683207 -0.015443343 0.005618761
000250 e9 3c f1 bd 6e 21 53 bd 53 f4 fc bc 75 d3 66 3e
       -0.11779196 -0.051545553 -0.030878222 0.22541602
000260 5a 4e 58 3c 93 68 4e 3c 08 90 90 3d f2 1f 4d 3e
       0.013202274 0.012598175 0.07058722 0.20031717
000270 32 81 d9 3c 34 2a 0e 3e 82 35 99 3d 84 72 15 3e
       0.026550863 0.13883287 0.07480909 0.14594465
000280 5a d9 62 bd 80 49 5a be 93 63 05 3e 11 e1 a1 bd
       -0.055383064 -0.213171 0.13026266 -0.07904256
000290 64 45 7d 3c 7d 1a 95 3d 47 fc 14 3e c7 d5 c2 3d
       0.015458439 0.07280443 0.14549361 0.09513431
0002a0 db 22 9f bd cf c2 26 bd 6f 10 48 be 3e 89 56 3d
       -0.0777032 -0.040713128 -0.19537519 0.052376978
0002b0 af da eb 3a 82 eb 16 be ee ab fe 3c 36 f2 41 3e
       0.001799425 -0.14738277 0.031087842 0.18940052
0002c0 3e 5e 13 3e 5e df 45 3e 1b 9a 8d 3d cc 04 74 3c
       0.1439142 0.19323489 0.06914159 0.014893722
0002d0 97 d6 44 3c 48 86 c2 bd 70 09 97 3d 57 2e 12 be
       0.012014053 -0.09498268 0.07374847 -0.1427549
0002e0 49 e3 7f 3d ab 64 b4 3d 12 bb 0d 3e 8e c5 31 3e
       0.062472615 0.088082634 0.13840893 0.17360517
0002f0 cd 40 12 be c7 c5 0e be c2 08 1f 3c 2a aa 18 be
       -0.14282532 -0.13942634 0.009706678 -0.14908662
000300 51 0a 0f be bc 74 8d 3e 3c b7 ff bd 18 ac 7c be
       -0.13968779 0.27628124 -0.12486121 -0.24675024
000310 f7 a2 80 be cd c2 1e bd 6f ca c4 3d d1 a2 01 be
       -0.25124332 -0.038759995 0.09608924 -0.12659766
000320 24 97 eb bd ec 22 fa bc 23 86 72 3e 54 63 f1 bb
       -0.11503437 -0.03053423 0.23683982 -0.007366577
000330 44 fb 62 3b a1 c1 21 3e 58 9b 3c bd b4 94 14 3e
       0.003463463 0.1579652 -0.046046585 0.1450985
000340 b3 5a 11 3e 03 e8 7b be ee d1 a8 3b a0 7e 50 3e
       0.14194755 -0.24600224 0.0051519787 0.20360804
000350 4d 6f fc 3d c8 5e 3f bc 45 a0 88 bd 2f fc 86 bd
       0.123259164 -0.011680312 -0.06671194 -0.06591069
000360 f3 15 13 ba 7b f4 30 be 18 75 84 3e 16 a1 a7 bc
       -0.00056108757 -0.17280762 0.25870585 -0.020462554
000370 80 6e 29 3d 7a ac 72 3d 36 ed 42 3e aa 1d 85 be
       0.041365147 0.059246518 0.19035801 -0.25999194
000380 e8 4c 45 be 2a dd 2a 3d d3 2e 78 be fe c5 bf bd
       -0.19267619 0.041714825 -0.24236612 -0.09363936
000390 3a fb 18 be b8 5d 0d 3c c2 c0 08 3d 8e ab 3f 3e
       -0.14939585 0.008628301 0.033386953 0.18717787
0003a0 54 51 ae bd 8f 93 80 bb 26 ff 54 3d 79 78 95 bd
       -0.08511606 -0.0039238404 0.05200114 -0.07298369
0003b0 2c 25 1c 3e d9 81 4b 3e 8d 28 45 3c 27 a4 60 3d
       0.15248555 0.19873752 0.012033594 0.054844048
0003c0 7f b5 d7 3d c8 3d b9 3b cf 3f c6 3c e9 1f d8 bb
       0.105326645 0.005653117 0.024200348 -0.006595601
0003d0 e2 3a 01 3e b9 58 3e bd 20 a7 63 be 53 24 fe 3d
       0.12620118 -0.04647133 -0.22231722 0.12409272
0003e0 2c 8f ea 3d f9 52 34 3e 2f 5f b5 bc c3 3c 23 be
       0.11453089 0.17609777 -0.022140114 -0.15941148
0003f0 24 1c cd 3d 3e 36 47 3e bf b3 19 be 99 5a 30 3e
       0.10015133 0.19454286 -0.15009974 0.1722206

convs.0.bias f4 [256]
000000 00 1b 01 3c a0 c9 8c bb 01 d0 ec bb 16 66 9c ba
       0.007879972 -0.0042964965 -0.0072269444 -0.001193228
000010 88 67 28 3b 7b 9f 0b bc ac df e0 bc 66 30 5b 3b
       0.0025696475 -0.00852191 -0.027450405 0.0033445596
000020 55 76 bb 3c 0a 8e 21 3b 89 50 86 ba f5 db a6 3c
       0.022883574 0.0024651312 -0.001024739 0.020368556
000030 9c 64 a9 3c e4 d4 88 bc f5 1f ef bc 26 96 04 39
       0.020677857 -0.016703077 -0.029190043 0.00012644436
000040 59 e6 9a 3b ad 54 a0 bc d2 3f 91 3b da b5 f5 3b
       0.0047271666 -0.019571627 0.004432657 0.007498485
000050 be 1d ae ba 61 e4 c7 b9 da ae 3e 3a 14 90 75 3c
       -0.001328401 -0.00038126393 0.000727398 0.014987964
000060 32 11 4f bb 0d 4b 6f bb 98 c3 88 bc 74 31 ca 3b
       -0.0031595943 -0.003651324 -0.016694829 0.006170446
000070 fc bd 59 bb 4d 80 49 3b 79 71 9c bb ce 37 7d 3b
       -0.0033224812 0.003074664 -0.004774269 0.0038637999
000080 5e 5e 94 3b b4 ac dd bc 1f c8 86 3c 10 97 06 3d
       0.004527851 -0.02705989 0.016452847 0.03285891
000090 75 27 6f 3c 73 35 76 bc 61 13 cb 3b c8 00 8b bb
       0.01459681 -0.015027392 0.0061973785 -0.0042420365
0000a0 df 15 c5 bb a9 f8 a7 3b 1e 4c 5a 3b 03 75 16 3c
       -0.00601457 0.005126078 0.003330953 0.009183171
0000b0 77 65 12 bc 20 c6 06 3c c0 29 d0 3a 6f 51 d8 3b
       -0.008935324 0.008225948 0.0015881583 0.0066015045
0000c0 37 49 30 3c b4 0c 11 bc a3 ca 9a 3a 0b 0f 21 3c
       0.010759643 -0.008853126 0.0011809658 0.009830247
0000d0 f3 9e f8 3b bb 5c a5 3b 9e 4a c6 3b 97 72 dd bb
       0.0075873076 0.0050464547 0.0060513755 -0.006758045
0000e0 6b 86 03 bd cf c2 cb ba f1 fe 6c 3a 86 c4 26 3b
       -0.032110613 -0.0015545728 0.0009040675 0.0025446727
0000f0 3e bf 7d bb 10 b8 10 b8 23 d4 6a 3c a4 13 c0 ba
       -0.0038718726 -3.4503697e-05 0.014332804 -0.0014654291
000100 9c 32 85 bb 15 84 0c 3a 44 62 db bb df fb 17 bc
       -0.004064871 0.0005360258 -0.006695064 -0.009276359
000110 1f f1 f2 bb 4a 44 fc ba 3e 78 86 bb 4a a2 10 bc
       -0.007413998 -0.0019246426 -0.0041036895 -0.008827755
000120 fc 84 82 3c f2 78 f9 3a 0d fd 77 bc ed ab 05 3c
       0.015932553 0.0019033237 -0.015136016 0.008158666
000130 80 66 fb ba 5d 28 47 3b 6f 36 ae bb 3b 51 b4 bc
       -0.0019180328 0.0030389049 -0.0053165476 -0.02201139
000140 11 a3 b9 3b 1c 95 5c bb 9d 70 a7 3b bc 9d 59 3b
       0.005665191 -0.0033658212 0.00510986 0.003320559
000150 39 0b 20 3c aa 6c 0a bc 15 fe 97 bc 0f 6f a7 3b
       0.009768301 -0.008448759 -0.018553773 0.0051096748
000160 89 5c 73 3a 7d 6a 22 bb 23 ce 82 3c b1 f9 2a bb
       0.0009283503 -0.002478271 0.015967434 -0.002608877
000170 d5 f0 18 bc 5a 8c 8a 3b 91 74 b0 bc d1 d3 d1 3a
       -0.009334763 0.004228157 -0.021539958 0.0016008561
000180 9c a0 c8 3a 81 f6 79 ba 0a b9 09 3b 80 9c 24 3b
       0.0015306654 -0.0009535328 0.0021014833 0.0025117695
000190 4e 96 a9 bb 38 19 0b 3c 60 6a 73 bc 60 31 85 3a
       -0.0051753884 0.008489899 -0.014856905 0.001016181
0001a0 ea 0e 10 bc 3d 95 14 3c 05 c2 03 3c 74 23 d6 3b
       -0.008792618 0.009068784 0.008041863 0.006534988
0001b0 99 f5 04 3b ff 31 47 bc aa f3 80 3c b3 5d b2 bb
       0.002028799 -0.012157916 0.015741188 -0.0054432987
0001c0 ad 0c b9 bc 62 7b 8f ba d9 89 9b bc 89 ca ae 3b
       -0.022589052 -0.0010946805 -0.01898663 0.0053342027
0001d0 7b 41 2b 3c 2f c2 6d bb 54 59 9b 3c 18 20 26 3c
       0.0104526235 -0.0036279073 0.018963493 0.010139488
0001e0 fd d2 cf bb 6b 5f ee 3c 47 e7 de 3b 76 35 25 3c
       -0.0063422904 0.029098233 0.0068024728 0.010083547
0001f0 0d cf 26 3c 5b 63 8e 3b c2 7c 56 bc de 56 f5 bb
       0.010181201 0.00434534 -0.013091268 -0.007487162
000200 74 bd 1b bc ee de 3a bc 09 10 d7 bc 99 c6 c3 bb
       -0.009505618 -0.01140569 -0.026252763 -0.0059746024
000210 dd 51 90 ba 60 a2 ab bb 0b 8c 2a bc 4b 8c c5 ba
       -0.0011010725 -0.0052378625 -0.010409365 -0.0015071718
000220 10 2a 0d bb 3f 45 d4 bb e1 fa 42 3b 13 5b 63 bc
       -0.0021539964 -0.0064779813 0.0029751586 -0.013876694
000230 d5 6c dc 3a df 0a a8 3c 7e 37 0b bb ce d6 3b bc
       0.0016817102 0.020512996 -0.0021242793 -0.011464788
000240 e5 1a 61 3b da d6 71 3c bf b0 2b bb 2e b8 86 3c
       0.0034348306 0.014760697 -0.0026197878 0.016445246
000250 15 98 2c bb 75 ed ed bb 59 7b 75 3a 43 ad c8 bc
       -0.0026335765 -0.007260973 0.00093643885 -0.02449668
000260 78 43 b8 bb 52 1b a5 3b 15 cf dc bb 3d 83 9a 3c
       -0.0056232773 0.005038657 -0.0067385533 0.018861407
000270 7b 15 1a bc c6 bb f9 3c 23 1a ee ba cc 85 22 bb
       -0.009404535 0.030485045 -0.0018165748 -0.0024798987
000280 e4 fe 16 3c 93 66 6e 3a af 31 1b 3c 3d 8a dd ba
       0.009216044 0.0009094264 0.009472295 -0.001690216
000290 e4 4e 12 3b 5b 02 15 bb 35 0d 20 39 0d 75 3c bc
       0.0022324855 -0.0022737 0.00015263709 -0.011502516
0002a0 4d f5 80 bb 10 6d c9 3b 97 23 c1 bc 25 ab 3a bc
       -0.003935492 0.0061470345 -0.02357654 -0.011393343
0002b0 40 90 a8 bb eb e9 86 ba 3d 69 ca 3b a7 5a 8d 3b
       -0.005144149 -0.0010293102 0.006177096 0.004313785
0002c0 a3 67 8d bb bf 34 92 3c 1a 58 fc b9 35 48 b9 3a
       -0.004315333 0.017847417 -0.00048130826 0.0014135899
0002d0 e8 9f c4 3c 11 9d 0f 3c 73 40 70 3c f2 65 b8 3a
       0.02400203 0.008765475 0.014663803 0.0014068468
0002e0 d7 78 2f 3c 2a cc 2c 3b e8 0e 5c bc 76 72 f2 3c
       0.010709963 0.0026366808 -0.013431288 0.029595595
0002f0 c8 f9 6a 3b e9 ea 93 bb 29 94 54 bb 78 4a 9f 3c
       0.0035854448 -0.0045140875 -0.0032436943 0.01944469
000300 77 98 84 3b 60 b1 3f 3b e7 72 48 3c f7 e0 42 3c
       0.0040464955 0.002925001 0.012234426 0.011894456
000310 06 60 40 bc 9d 7d 0c 3c b7 51 be bb ee 7d 47 bc
       -0.011741644 0.00857487 -0.005808081 -0.01217602
000320 f5 18 1d 3c e3 22 06 bc e9 49 86 bc c1 76 d2 3a
       0.00958847 -0.008187029 -0.016392665 0.001605712
000330 63 a6 65 bb 2e 0d 22 3c 81 b8 b5 bb 5d 6a 64 3a
       -0.0035041801 0.009890838 -0.005545676 0.0008713359
000340 28 96 4c bc 3b 9d e5 39 c9 4b 5d 3b 18 b7 9c 3b
       -0.012486972 0.0004379543 0.0033767095 0.0047825687
000350 ab f6 a5 3c cd 71 36 bb fd d4 0a 3c dc 44 ce bb
       0.020259222 -0.0027838827 0.008473632 -0.00629483
000360 09 5e fd ba 98 e6 c7 3a 7b b1 49 bc d4 b9 95 bb
       -0.0019330393 0.0015251217 -0.012310381 -0.0045692716
000370 94 a7 50 3c 66 25 13 bc f6 73 d3 3b 63 04 af 3b
       0.012735266 -0.008981084 0.0064530326 0.005341099
000380 28 67 6d 3c e2 5d 0f bb 81 2c e4 3a 90 40 a2 bc
       0.014489926 -0.0021876027 0.0017408283 -0.019806176
000390 a4 4a 84 3c 0d 19 7a 3c 4e 8c 40 ba 3e 52 2b bc
       0.016148873 0.015264762 -0.0007345126 -0.01045662
0003a0 b3 52 b5 b9 ef 05 0f bc f4 06 10 3c 34 ad fc 3b
       -0.00034584626 -0.008729442 0.00879072 0.007711077
0003b0 9a 95 be 3b e6 dc eb 3b 1e ae 95 3b a6 17 db 3b
       0.0058161737 0.007197964 0.0045678755 0.0066861687
0003c0 f2 1a c4 bb 6b 11 bf 3a f5 10 db 3b 6d 86 c5 bb
       -0.0059846574 0.0014577335 0.006685371 -0.0060279877
0003d0 0d e8 1c 3c 28 68 2e 3c 58 a1 6f 3b 9a 28 84 3c
       0.00957681 0.01064495 0.0036564674 0.016132642
0003e0 46 29 53 3c 92 5d 90 3b 5c ea 64 bb 7f db f4 3b
       0.012888258 0.0044056857 -0.0034929728 0.007472455
0003f0 d2 a2 34 bb 83 9a d4 3a 3b e0 16 bc 08 8e a4 bb
       -0.0027562869 0.0016220364 -0.009208734 -0.0050218143

convs.0.lin_src.weight f4 [256, 12]
000000 4b 79 9d bb a6 e7 24 3e 89 7b 62 3a b4 0e 02 3e
       -0.004805719 0.16103992 0.0008639624 0.12700921
000010 96 83 28 3d 5e 32 4a b6 ad 7d 5e 3c 47 30 7a 3d
       0.041141115 -3.0129663e-06 0.013579768 0.061081197
000020 ac ad b6 3d 1a 18 d8 bb f6 ba bb bd 03 3b 75 39
       0.08919844 -0.00659467 -0.09166519 0.00023387004
000030 b6 b0 43 bd b0 04 fb bd da fe b3 3c 1d e9 0b 3d
       -0.047775947 -0.122567534 0.021972109 0.03415786
000040 d4 5c 08 be 0e c2 25 b5 be b3 ff bc 74 7d 49 bc
       -0.13316661 -6.1749677e-07 -0.031213637 -0.012297977
000050 43 e0 ef 3d 29 47 cf bb 0b 87 f4 bb ef bd 27 bc
       0.117126964 -0.0063256216 -0.0074623874 -0.010238155
000060 74 c5 7c 3d 99 d7 9a bd d5 90 0c 3d 99 53 dd bd
       0.061711743 -0.07560653 0.03431781 -0.108069606
000070 8d d0 99 bd e2 9e 39 b4 49 82 75 bd 5a ba 18 b6
       -0.07510481 -1.7287269e-07 -0.059938703 -2.2758236e-06
000080 d9 c3 cc bc 98 31 b9 3c 0d be 80 3b e9 d6 86 bb
       -0.024995731 0.022606656 0.003928906 -0.0041149748
000090 c1 f2 04 3e 39 e8 35 3e 08 a9 81 3d bf 64 01 3d
       0.12983228 0.17764367 0.06331068 0.03159022
0000a0 64 bd 0c 3b 0b d3 60 34 4a 26 98 3c fd 08 a8 36
       0.002147519 2.0938403e-07 0.018572945 5.0078365e-06
0000b0 86 66 29 bd 8e f8 97 3c 50 26 02 3e 44 7a 27 bc
       -0.04135754 0.018551137 0.12709928 -0.0102220215
0000c0 dc 9d 63 bd b7 3e 42 3e ea fe 8f 3b 00 69 ac bd
       -0.05557047 0.18969236 0.004394402 -0.08418465
0000d0 c5 e1 9a 3c e3 61 0d bd 56 28 1c 3d 97 08 01 37
       0.018906483 -0.03451718 0.038124405 7.690999e-06
0000e0 c0 a0 be bd c1 a5 88 bc 04 96 c8 bd 93 90 d8 39
       -0.093080044 -0.0166806 -0.09794238 0.00041306447
0000f0 3c 7a e2 bd a8 dc 75 bd c4 f4 13 3d cf 25 f2 3c
       -0.110584706 -0.060024887 0.0361221 0.029559044
000100 4c c8 09 be a5 8c 33 3d 0c c4 03 bb d4 9c 5b 3b
       -0.13455313 0.0438353 -0.0020105867 0.0033510225
000110 80 1f ea bd 78 82 ce bb f3 28 02 be be 2c d9 3c
       -0.114317894 -0.006302174 -0.12710933 0.026510593
000120 34 18 c6 3d dd ad 68 3b 25 c5 82 3c c6 f7 4f bd
       0.09672585 0.0035504021 0.015963146 -0.050773405
000130 90 a6 a0 bd 3f e1 35 bd fb ff 48 3c fa fb 7c 39
       -0.07844269 -0.044404265 0.012268062 0.00024126461
000140 28 bc db 3d 35 39 fa 3c 84 f9 73 3d dc a5 bc bc
       0.10729247 0.030544857 0.05956413 -0.023028307
000150 09 11 f1 3d 3a f0 cc 3d f5 6a fd b8 73 d5 9f bd
       0.11770827 0.10006757 -0.000120839024 -0.07804384
000160 2b cc 0c bd 55 bc 46 bd ef 2e 68 3d e4 ce 84 3d
       -0.034374397 -0.04851945 0.056685384 0.06484774
000170 38 8e b9 bd da c4 82 3a de 1c 07 3e 8a 65 e5 b7
       -0.09060329 0.0009976879 0.13194606 -2.734621e-05
000180 27 f5 9f bd 95 ed a0 3d 98 68 96 3a 78 f5 c3 bd
       -0.07810431 0.07857815 0.0011475263 -0.09568304
000190 30 12 e0 bd bd eb 93 ba 8b 14 59 3d 4f a4 3f bd
       -0.10940969 -0.0011285465 0.052998107 -0.046787556
0001a0 76 d9 ad bd c6 2e 8c 3b 9c 41 0c 3d ec 51 fc 3a
       -0.08488743 0.0042780368 0.034242257 0.0019250489
0001b0 d7 52 b0 3d 97 32 8f bc d3 8e 85 bc 4f c8 b2 bd
       0.086095504 -0.017480178 -0.016303455 -0.08729612
0001c0 22 04 95 3d e4 8e 5c bc 6c cf ef bc 9e c7 10 3d
       0.07276179 -0.013461802 -0.029273711 0.03534662
0001d0 c4 9e a7 3d 2a 87 15 bc 7d ec ce bd 1f 2a 5f b9
       0.08184579 -0.009126464 -0.101037 -0.00021282629
0001e0 dd 18 85 bc cd 24 8b bd a6 28 d7 ba fd 1e b2 3d
       -0.016247207 -0.067941286 -0.0016415312 0.08697317
0001f0 23 38 0f be 77 b0 14 bb 46 38 9f bd e7 ed bf b6
       -0.13986258 -0.002268819 -0.07774405 -5.719939e-06
000200 1d d8 a7 3c 4d 1c d7 3c 2a 1b 8c bd 48 9a 17 ba
       0.020488793 0.026258612 -0.06841119 -0.00057831826
000210 6c 20 c5 3d 6f 53 04 3d 5f dc 0b 38 6b 88 10 3e
       0.096253246 0.03230613 3.334542e-05 0.1411454
000220 1c 27 04 3e 6c 6e 0a 3b 62 1d dd bb fd 14 11 bb
       0.12905544 0.0021122945 -0.0067478875 -0.0022137754
000230 61 26 69 3c ca d3 0f bd 7b fb 06 bd 91 f9 4e 3c
       0.014230342 -0.035114087 -0.032954674 0.012632743
000240 dd 63 09 be fe da 85 3d f5 d7 91 3a fc 1c 94 bd
       -0.13417001 0.0653591 0.0011126982 -0.07232091
000250 1b 6f 82 3d d6 25 5c 3d 19 97 63 3d da b4 6b bd
       0.06368848 0.05374702 0.05556402 -0.05754552
000260 18 7f c4 bd 4b 5d aa 3b b7 6a 9b bd 34 9e ae 3c
       -0.09594554 0.0051991097 -0.075887136 0.021315672
000270 da cb e9 3d 45 5d 02 3d d6 28 a0 bc e9 3e a0 3d
       0.11415835 0.03182723 -0.019550722 0.07824499
000280 d7 57 ff bd 2e 0a 72 bd 21 ae 23 3d 2c 6d c4 b3
       -0.12467926 -0.05909174 0.039960984 -9.1468195e-08
000290 df dc 99 bd c8 33 76 bc 09 b8 08 be 19 05 2a bd
       -0.07512831 -0.015026994 -0.13351454 -0.041508768
0002a0 fb 1f 24 bc f2 af 14 be 4b a1 93 ba 7a b5 ca 3d
       -0.01001739 -0.14520243 -0.0011263279 0.09897895
0002b0 05 f1 b8 3d b8 a7 94 3c e5 c0 14 bc d1 ad eb 3b
       0.09030346 0.01814638 -0.009079193 0.0071923514
0002c0 ac 0d 70 bd 23 c2 ba 3c a2 53 d9 3d 46 a0 84 38
       -0.05860679 0.02279765 0.10611655 6.324104e-05
0002d0 8e b1 b0 3d 2e 9e 07 3d 9d ac 82 3d ad 7a 85 3d
       0.08627616 0.033109836 0.063805796 0.06517539
0002e0 8d 3c 09 be b1 41 79 bb 8a c3 9d 3c 32 ac aa 3c
       -0.13402005 -0.003803354 0.01925828 0.020834062
0002f0 59 a8 97 bd 76 6a 38 bd 77 34 c3 bd 82 79 10 bc
       -0.07405157 -0.045023404 -0.09531491 -0.008818032
000300 a7 7e 14 3e 79 fe 31 be 61 73 15 bc b0 c3 7e 3d
       0.14501439 -0.1738223 -0.009121747 0.06219834
000310 7e 86 88 bd 1a d4 6b bd 34 d9 09 3d 79 86 86 bb
       -0.06666277 -0.057575323 0.033654407 -0.004105386
000320 f1 7b 36 3e fd a5 41 3c 29 28 a2 3c c1 49 a8 3b
       0.17820717 0.01181936 0.01979454 0.0051357453
000330 b4 dd 83 bd 0f a5 30 be b9 af 3b bc b0 be 10 be
       -0.06438771 -0.17250465 -0.01145547 -0.14135242
000340 c1 3d f5 3d 0e ee f9 34 19 5f d3 bc 67 7a 88 ba
       0.11974669 4.6553072e-07 -0.025802182 -0.0010412455
000350 32 6d ba bb 4e 82 ae bc 9c 55 0a bd 6a 86 be 3c
       -0.0056892866 -0.021302368 -0.03377305 0.023257453
000360 30 df d9 bd 03 e7 be bd c2 c6 a9 ba f6 72 89 3d
       -0.10638273 -0.09321406 -0.0012952911 0.0671138
000370 3f e6 55 3d e4 3a 60 bd 7d bd 47 bd c4 7d 46 bd
       0.052221533 -0.054743662 -0.048764694 -0.048459783
000380 bf d9 d5 bb 23 d0 fa bb 76 96 1c 3d 94 b0 06 bc
       -0.0065262015 -0.0076542064 0.03822943 -0.00822081
000390 55 c1 bd bd 69 45 17 be 86 12 68 bb 19 3e 14 bc
       -0.09265391 -0.14772572 -0.0035411431 -0.009048008
0003a0 e7 c9 cc bd 3a 3c aa 35 c4 f9 bf bc 08 2d 1b b6
       -0.09999447 1.2683515e-06 -0.023434527 -2.3123011e-06
0003b0 15 71 a8 3d 91 f3 87 bc 4a 83 49 bd 87 c4 8b bb
       0.08224694 -0.016595634 -0.049197473 -0.0042653712
0003c0 2a 52 19 be 8f 3b 09 3e 75 b4 cc bb 07 30 d3 bb
       -0.1497275 0.13401626 -0.006247098 -0.0064449343
0003d0 15 a9 ab 3d fa a3 50 38 1f 2b 3b 3d be fd 22 bd
       0.08381859 4.974378e-05 0.04569542 -0.03979277
0003e0 15 be 0e be 6d 99 15 bd 36 04 b0 3d d0 3d b3 39
       -0.13939698 -0.03652327 0.08594553 0.00034187594
0003f0 b6 3a 27 3d 2e de 1b 3e 39 75 4e 3b a8 7d 9f bd
       0.040827475 0.15221474 0.0031502976 -0.07787639

convs.0.lin_dst.weight f4 [256, 12]
000000 4b 79 9d bb a6 e7 24 3e 89 7b 62 3a b4 0e 02 3e
       -0.004805719 0.16103992 0.0008639624 0.12700921
000010 96 83 28 3d 5e 32 4a b6 ad 7d 5e 3c 47 30 7a 3d
       0.041141115 -3.0129663e-06 0.013579768 0.061081197
000020 ac ad b6 3d 1a 18 d8 bb f6 ba bb bd 03 3b 75 39
       0.08919844 -0.00659467 -0.09166519 0.00023387004
000030 b6 b0 43 bd b0 04 fb bd da fe b3 3c 1d e9 0b 3d
       -0.047775947 -0.122567534 0.021972109 0.03415786
000040 d4 5c 08 be 0e c2 25 b5 be b3 ff bc 74 7d 49 bc
       -0.13316661 -6.1749677e-07 -0.031213637 -0.012297977
000050 43 e0 ef 3d 29 47 cf bb 0b 87 f4 bb ef bd 27 bc
       0.117126964 -0.0063256216 -0.0074623874 -0.010238155
000060 74 c5 7c 3d 99 d7 9a bd d5 90 0c 3d 99 53 dd bd
       0.061711743 -0.07560653 0.03431781 -0.108069606
000070 8d d0 99 bd e2 9e 39 b4 49 82 75 bd 5a ba 18 b6
       -0.07510481 -1.7287269e-07 -0.059938703 -2.2758236e-06
000080 d9 c3 cc bc 98 31 b9 3c 0d be 80 3b e9 d6 86 bb
       -0.024995731 0.022606656 0.003928906 -0.0041149748
000090 c1 f2 04 3e 39 e8 35 3e 08 a9 81 3d bf 64 01 3d
       0.12983228 0.17764367 0.06331068 0.03159022
0000a0 64 bd 0c 3b 0b d3 60 34 4a 26 98 3c fd 08 a8 36
       0.002147519 2.0938403e-07 0.018572945 5.0078365e-06
0000b0 86 66 29 bd 8e f8 97 3c 50 26 02 3e 44 7a 27 bc
       -0.04135754 0.018551137 0.12709928 -0.0102220215
0000c0 dc 9d 63 bd b7 3e 42 3e ea fe 8f 3b 00 69 ac bd
       -0.05557047 0.18969236 0.004394402 -0.08418465
0000d0 c5 e1 9a 3c e3 61 0d bd 56 28 1c 3d 97 08 01 37
       0.018906483 -0.03451718 0.038124405 7.690999e-06
0000e0 c0 a0 be bd c1 a5 88 bc 04 96 c8 bd 93 90 d8 39
       -0.093080044 -0.0166806 -0.09794238 0.00041306447
0000f0 3c 7a e2 bd a8 dc 75 bd c4 f4 13 3d cf 25 f2 3c
       -0.110584706 -0.060024887 0.0361221 0.029559044
000100 4c c8 09 be a5 8c 33 3d 0c c4 03 bb d4 9c 5b 3b
       -0.13455313 0.0438353 -0.0020105867 0.0033510225
000110 80 1f ea bd 78 82 ce bb f3 28 02 be be 2c d9 3c
       -0.114317894 -0.006302174 -0.12710933 0.026510593
000120 34 18 c6 3d dd ad 68 3b 25 c5 82 3c c6 f7 4f bd
       0.09672585 0.0035504021 0.015963146 -0.050773405
000130 90 a6 a0 bd 3f e1 35 bd fb ff 48 3c fa fb 7c 39
       -0.07844269 -0.044404265 0.012268062 0.00024126461
000140 28 bc db 3d 35 39 fa 3c 84 f9 73 3d dc a5 bc bc
       0.10729247 0.030544857 0.05956413 -0.023028307
000150 09 11 f1 3d 3a f0 cc 3d f5 6a fd b8 73 d5 9f bd
       0.11770827 0.10006757 -0.000120839024 -0.07804384
000160 2b cc 0c bd 55 bc 46 bd ef 2e 68 3d e4 ce 84 3d
       -0.034374397 -0.04851945 0.056685384 0.06484774
000170 38 8e b9 bd da c4 82 3a de 1c 07 3e 8a 65 e5 b7
       -0.09060329 0.0009976879 0.13194606 -2.734621e-05
000180 27 f5 9f bd 95 ed a0 3d 98 68 96 3a 78 f5 c3 bd
       -0.07810431 0.07857815 0.0011475263 -0.09568304
000190 30 12 e0 bd bd eb 93 ba 8b 14 59 3d 4f a4 3f bd
       -0.10940969 -0.0011285465 0.052998107 -0.046787556
0001a0 76 d9 ad bd c6 2e 8c 3b 9c 41 0c 3d ec 51 fc 3a
       -0.08488743 0.0042780368 0.034242257 0.0019250489
0001b0 d7 52 b0 3d 97 32 8f bc d3 8e 85 bc 4f c8 b2 bd
       0.086095504 -0.017480178 -0.016303455 -0.08729612
0001c0 22 04 95 3d e4 8e 5c bc 6c cf ef bc 9e c7 10 3d
       0.07276179 -0.013461802 -0.029273711 0.03534662
0001d0 c4 9e a7 3d 2a 87 15 bc 7d ec ce bd 1f 2a 5f b9
       0.08184579 -0.009126464 -0.101037 -0.00021282629
0001e0 dd 18 85 bc cd 24 8b bd a6 28 d7 ba fd 1e b2 3d
       -0.016247207 -0.067941286 -0.0016415312 0.08697317
0001f0 23 38 0f be 77 b0 14 bb 46 38 9f bd e7 ed bf b6
       -0.13986258 -0.002268819 -0.07774405 -5.719939e-06
000200 1d d8 a7 3c 4d 1c d7 3c 2a 1b 8c bd 48 9a 17 ba
       0.020488793 0.026258612 -0.06841119 -0.00057831826
000210 6c 20 c5 3d 6f 53 04 3d 5f dc 0b 38 6b 88 10 3e
       0.096253246 0.03230613 3.334542e-05 0.1411454
000220 1c 27 04 3e 6c 6e 0a 3b 62 1d dd bb fd 14 11 bb
       0.12905544 0.0021122945 -0.0067478875 -0.0022137754
000230 61 26 69 3c ca d3 0f bd 7b fb 06 bd 91 f9 4e 3c
       0.014230342 -0.035114087 -0.032954674 0.012632743
000240 dd 63 09 be fe da 85 3d f5 d7 91 3a fc 1c 94 bd
       -0.13417001 0.0653591 0.0011126982 -0.07232091
000250 1b 6f 82 3d d6 25 5c 3d 19 97 63 3d da b4 6b bd
       0.06368848 0.05374702 0.05556402 -0.05754552
000260 18 7f c4 bd 4b 5d aa 3b b7 6a 9b bd 34 9e ae 3c
       -0.09594554 0.0051991097 -0.075887136 0.021315672
000270 da cb e9 3d 45 5d 02 3d d6 28 a0 bc e9 3e a0 3d
       0.11415835 0.03182723 -0.019550722 0.07824499
000280 d7 57 ff bd 2e 0a 72 bd 21 ae 23 3d 2c 6d c4 b3
       -0.12467926 -0.05909174 0.039960984 -9.1468195e-08
000290 df dc 99 bd c8 33 76 bc 09 b8 08 be 19 05 2a bd
       -0.07512831 -0.015026994 -0.13351454 -0.041508768
0002a0 fb 1f 24 bc f2 af 14 be 4b a1 93 ba 7a b5 ca 3d
       -0.01001739 -0.14520243 -0.0011263279 0.09897895
0002b0 05 f1 b8 3d b8 a7 94 3c e5 c0 14 bc d1 ad eb 3b
       0.09030346 0.01814638 -0.009079193 0.0071923514
0002c0 ac 0d 70 bd 23 c2 ba 3c a2 53 d9 3d 46 a0 84 38
       -0.05860679 0.02279765 0.10611655 6.324104e-05
0002d0 8e b1 b0 3d 2e 9e 07 3d 9d ac 82 3d ad 7a 85 3d
       0.08627616 0.033109836 0.063805796 0.06517539
0002e0 8d 3c 09 be b1 41 79 bb 8a c3 9d 3c 32 ac aa 3c
       -0.13402005 -0.003803354 0.01925828 0.020834062
0002f0 59 a8 97 bd 76 6a 38 bd 77 34 c3 bd 82 79 10 bc
       -0.07405157 -0.045023404 -0.09531491 -0.008818032
000300 a7 7e 14 3e 79 fe 31 be 61 73 15 bc b0 c3 7e 3d
       0.14501439 -0.1738223 -0.009121747 0.06219834
000310 7e 86 88 bd 1a d4 6b bd 34 d9 09 3d 79 86 86 bb
       -0.06666277 -0.057575323 0.033654407 -0.004105386
000320 f1 7b 36 3e fd a5 41 3c 29 28 a2 3c c1 49 a8 3b
       0.17820717 0.01181936 0.01979454 0.0051357453
000330 b4 dd 83 bd 0f a5 30 be b9 af 3b bc b0 be 10 be
       -0.06438771 -0.17250465 -0.01145547 -0.14135242
000340 c1 3d f5 3d 0e ee f9 34 19 5f d3 bc 67 7a 88 ba
       0.11974669 4.6553072e-07 -0.025802182 -0.0010412455
000350 32 6d ba bb 4e 82 ae bc 9c 55 0a bd 6a 86 be 3c
       -0.0056892866 -0.021302368 -0.03377305 0.023257453
000360 30 df d9 bd 03 e7 be bd c2 c6 a9 ba f6 72 89 3d
       -0.10638273 -0.09321406 -0.0012952911 0.0671138
000370 3f e6 55 3d e4 3a 60 bd 7d bd 47 bd c4 7d 46 bd
       0.052221533 -0.054743662 -0.048764694 -0.048459783
000380 bf d9 d5 bb 23 d0 fa bb 76 96 1c 3d 94 b0 06 bc
       -0.0065262015 -0.0076542064 0.03822943 -0.00822081
000390 55 c1 bd bd 69 45 17 be 86 12 68 bb 19 3e 14 bc
       -0.09265391 -0.14772572 -0.0035411431 -0.009048008
0003a0 e7 c9 cc bd 3a 3c aa 35 c4 f9 bf bc 08 2d 1b b6
       -0.09999447 1.2683515e-06 -0.023434527 -2.3123011e-06
0003b0 15 71 a8 3d 91 f3 87 bc 4a 83 49 bd 87 c4 8b bb
       0.08224694 -0.016595634 -0.049197473 -0.0042653712
0003c0 2a 52 19 be 8f 3b 09 3e 75 b4 cc bb 07 30 d3 bb
       -0.1497275 0.13401626 -0.006247098 -0.0064449343
0003d0 15 a9 ab 3d fa a3 50 38 1f 2b 3b 3d be fd 22 bd
       0.08381859 4.974378e-05 0.04569542 -0.03979277
0003e0 15 be 0e be 6d 99 15 bd 36 04 b0 3d d0 3d b3 39
       -0.13939698 -0.03652327 0.08594553 0.00034187594
0003f0 b6 3a 27 3d 2e de 1b 3e 39 75 4e 3b a8 7d 9f bd
       0.040827475 0.15221474 0.0031502976 -0.07787639

convs.1.att_src f4 [1, 4, 64]
000000 bf fa c8 3d 51 15 92 be df ef 16 be 2f 82 2a bd
       0.09813451 -0.28531888 -0.14739941 -0.04162806
000010 6e 80 37 be ec 55 70 be 81 66 78 be 8b ba cc bd
       -0.17920086 -0.23470277 -0.24257852 -0.09996518
000020 1f dc 6d be 80 7c 74 3d b3 14 de 3d 88 e6 87 3e
       -0.23228501 0.059689045 0.10843792 0.2654307
000030 06 c6 6c 3e 1c 4f 5b 3e 95 5e 56 be b6 0a 20 be
       0.23122415 0.21416897 -0.20934518 -0.15629086
000040 cc 77 1f 3e 12 d7 4e be 25 5b d1 3d 6e 37 62 be
       0.15573043 -0.2019923 0.102224626 -0.22091457
000050 2a 84 a0 be e0 6f 6b be 74 69 84 3e 26 de 49 3d
       -0.31350833 -0.22991896 0.25861704 0.049284123
000060 e9 f8 09 be 6b 6c 3f 3d fb c9 42 be fc d1 f5 3d
       -0.13473858 0.046734255 -0.19022362 0.12002942
000070 30 4a 82 3d 8a 72 69 be d3 0c a2 3b 4a 89 e7 3c
       0.063618064 -0.227976 0.0049453764 0.028263707
000080 51 75 8b 3e bd 83 21 bb 6f 24 53 3e 5b bf 08 bd
       0.27237943 -0.0024645173 0.20619367 -0.033385616
000090 56 5b 09 3e b9 13 87 bd cd 0a 9d bd fb f8 5f 3e
       0.13413748 -0.06595559 -0.07668076 0.21872322
0000a0 f0 30 fa 3b cb aa 85 3e 05 9f 5c bd d2 5a 38 3e
       0.0076352283 0.26106867 -0.05386259 0.18003395
0000b0 02 81 32 be 6a a5 70 3e 32 3b 0b be be 59 a4 3a
       -0.17432025 0.235006 -0.135968 0.0012538952
0000c0 a6 c8 c1 3d b6 8d 93 3e 8f a2 7e 3e cf 15 5a 3e
       0.09462099 0.28819054 0.24866699 0.21297382
0000d0 5e f4 95 3e 6f e7 e0 bb fb 60 82 3e cb e7 84 bd
       0.29288 -0.0068635265 0.25464615 -0.064895235
0000e0 4b d4 6c 3e 54 5d 13 3e 2e 13 8d 3e a8 e0 7d bd
       0.23127858 0.1439107 0.27553695 -0.061981827
0000f0 55 6b df 3d 1a 6d 22 3e 16 2e 88 be 93 4a 66 be
       0.10909144 0.15861931 -0.2659766 -0.22489385
000100 90 72 8d bc 32 bf 8f be 80 8c 39 3e 78 e1 db 3d
       -0.017266542 -0.28075558 0.18120003 0.10736364
000110 7b 8a 82 bd e7 eb 26 3e 1c 4d 96 be b6 4a 81 3e
       -0.06374069 0.16300927 -0.29355705 0.25252312
000120 f0 45 e2 bd 30 fb a9 bc cb 1c 52 3d 2a 5f 81 bd
       -0.11048496 -0.020749658 0.05129699 -0.06316979
000130 4e ac 78 3d 93 ff ea bd 39 c0 0b be da f7 10 3e
       0.060711198 -0.11474528 -0.13647546 0.14157048
000140 fd 5b 86 be 55 1d 82 bd 3e c6 8d 3e 57 cc 24 bd
       -0.26242056 -0.06353251 0.2769031 -0.040233936
000150 05 2d 3b 3e 1a 64 ea 3d d7 08 8f be 28 ea dd bd
       0.18278892 0.11444874 -0.27936432 -0.108356774
000160 50 64 f4 bd 1e ed 41 be 2b cf 55 be f6 52 a1 3d
       -0.119331956 -0.1893811 -0.2087981 0.07877152
000170 c8 1f 17 bd b6 bb 94 3d 36 32 bc 3d b9 94 97 3e
       -0.036895543 0.072623655 0.091892645 0.29605654
000180 3d 2f 8d 3e 5e 26 ee 3d 37 18 61 3e 21 4f 9c 3e
       0.27575102 0.11628412 0.21981893 0.3052912
000190 59 f4 d0 bc 7b 8a 90 3e 22 e6 a6 bd 4a 17 e8 bd
       -0.025507139 0.28230652 -0.08149363 -0.11332567
0001a0 30 bb e0 bd b3 c4 25 3e 9d 67 1f be 9d ef 7e 3e
       -0.10973203 0.16188316 -0.15566869 0.24896093
0001b0 5e 83 70 bc c2 81 7a 3d ff bf e7 bd c4 3a 05 3e
       -0.014679758 0.061158903 -0.11315917 0.13010699
0001c0 8b aa 8c 3e 47 de 19 be a0 49 43 bc 4c 0d f7 3d
       0.27473864 -0.15026198 -0.011919409 0.12063083
0001d0 77 3c 53 be 8e 0d ac bd 4f e8 8f be 53 12 03 3d
       -0.20628534 -0.08401023 -0.28106925 0.031999897
0001e0 0a af 2f 3c 24 5c 6b 3d fb 7d 18 3e 3a d3 a0 3e
       0.010722885 0.05746092 0.14891808 0.31411153
0001f0 67 f9 39 bd 8a 92 26 bd 30 98 46 3d fe 50 2a be
       -0.045403864 -0.040667094 0.04848498 -0.16632459
000200 4d b4 26 be 81 56 3b be eb 46 12 3d 1a ef 28 3e
       -0.16279717 -0.18294717 0.035712164 0.1649746
000210 84 6e b0 bd e2 cf 09 be 17 73 26 3e 92 f5 8f 3d
       -0.08614829 -0.13458207 0.16254841 0.07029261
000220 81 d5 e6 3d e9 f4 4b 3e 15 f4 1d 3e ca bf 36 3e
       0.112711914 0.19917645 0.15425141 0.17846599
000230 53 d3 78 3e 6a 0a 9e 3d f5 9f 4e be 88 e1 2d be
       0.24299364 0.0771683 -0.20178206 -0.16980565
000240 ae 2d 51 3e 62 a1 1c 3e 14 26 89 3d d0 88 23 be
       0.20427582 0.15295938 0.06696716 -0.15970159
000250 1e 35 37 3e 26 d3 d3 bd 3a 16 23 3e 3f a5 d4 3d
       0.17891356 -0.10343008 0.15926448 0.10383081
000260 31 58 a0 bd 4d 00 94 3e c0 1a e4 3d 9f 5a 50 be
       -0.07829321 0.2890648 0.11137915 -0.20347069
000270 a2 2a 4d be 89 4f 5c 3e 02 64 f2 bd 8d 30 98 bd
       -0.20035794 0.21514715 -0.11835481 -0.07431135
000280 a0 c7 54 3c ba e3 00 be 79 c7 09 3e 2a 04 ed bd
       0.012987047 -0.12586871 0.13454999 -0.1157306
000290 c1 57 88 3d 68 24 56 be c9 b0 8c be 35 75 45 3d
       0.06657363 -0.20912325 -0.27478626 0.04820748
0002a0 5a 62 85 be 2c 0f 1a 3e d9 05 96 be ba 4e 40 be
       -0.260516 0.1504485 -0.29301336 -0.18780032
0002b0 85 a2 69 3e 54 6f 19 be 08 a2 59 3e 10 e1 cb 3d
       0.22815903 -0.14983875 0.21253216 0.09955037
0002c0 84 64 2b 3e 32 76 de 3c 7f f2 bc bd e8 23 e5 bb
       0.16737562 0.02715597 -0.0922594 -0.0069928057
0002d0 d4 eb 14 be 85 79 13 3e 0d d8 a1 3c 4d 6f 3f be
       -0.14543086 0.14401825 0.019756341 -0.18694802
0002e0 0a ec bd 3d e3 eb 11 3e ae cc 13 be 14 e7 87 3c
       0.092735365 0.1425014 -0.14433548 0.016589679
0002f0 73 17 17 be 88 9f 25 be df 5c f6 3d cf 3d ff 3d
       -0.14755039 -0.16174138 0.120294325 0.12462961
000300 9f 20 76 be d8 43 a5 bd a3 53 59 be 6c 50 83 be
       -0.24035881 -0.08069581 -0.21223311 -0.25647295
000310 71 28 7b bd 5b cf e7 bd a0 6c 5a 3d dd 81 d7 bd
       -0.061317865 -0.11318847 0.05332625 -0.10522816
000320 1f bf 1a bc 8f f5 e1 bd ed 65 1e 3e 68 e1 43 3e
       -0.009444981 -0.11033165 0.15468569 0.19128954
000330 d0 fd 2c 3e 9a e3 7e be 1e 73 54 3e ce 58 fe bd
       0.16893697 -0.2489151 0.20747039 -0.12419282
000340 81 bd 00 be d7 2a 82 be 41 9d 1d be f8 15 36 be
       -0.1257229 -0.2542331 -0.15392019 -0.17781818
000350 a5 70 39 be ca bc a5 3d f6 1a ed bd 6f ce 8b 3d
       -0.18109377 0.08092649 -0.11577408 0.068264835
000360 fd 6d 23 be 1d ff 20 3e d2 8b e0 3d 57 5f 31 3e
       -0.15959926 0.15722318 0.109641686 0.17321526
000370 d2 ff 5b 3e 06 2c 86 3e 0e 1f 4e 3e 06 2c 42 3e
       0.21484306 0.26205462 0.20129034 0.18962106
000380 a2 69 07 be c7 82 0f 3e a7 84 de 3d 42 a5 d2 bd
       -0.1322389 0.14014731 0.10865145 -0.10285427
000390 4b 8c 24 3e 35 6c 30 3e 7d 4e e0 bd fe a4 8f be
       0.16069143 0.17228778 -0.109524705 -0.28055567
0003a0 5f 1a 2c 3e fa a6 83 3e 5c 0e 35 3e 82 6e bd bc
       0.16806935 0.2571333 0.17681259 -0.023123983
0003b0 87 49 32 be 9f ae 92 be 38 48 72 3e b1 3e ac bd
       -0.17410861 -0.2864885 0.23660362 -0.08410395
0003c0 a6 ac cf 3d eb a0 ca 3d 9f cf 8c 3e 79 f1 2a 3e
       0.10140352 0.09893974 0.27502152 0.16693677
0003d0 9f 80 8c bc ea 16 ff bd a3 63 10 3d b0 71 59 3e
       -0.017151175 -0.124555424 0.03525127 0.21234775
0003e0 56 35 5b be 33 ca 09 be 2d 5c 03 be 05 73 cd bd
       -0.21407065 -0.13456039 -0.12828131 -0.10031704
0003f0 6a 43 59 3e 77 53 72 3e 65 a8 65 3d fe f0 43 be
       0.21217123 0.23664652 0.056068797 -0.191349

convs.1.att_dst f4 [1, 4, 64]
000000 ee c5 6c 3e 37 a1 a4 bd a7 78 4c bb 87 c6 1b bc
       0.23122379 -0.08038562 -0.0031199844 -0.009507782
000010 0f 98 42 be ce 1e 83 3d 7d 91 3e bc 89 d5 23 3e
       -0.19003318 0.0640236 -0.011631367 0.15999426
000020 1c de 0a 3e 31 6e d4 3d 97 33 8b bc 8c 1d 04 be
       0.1356129 0.1037258 -0.016992373 -0.12901896
000030 38 b3 2e be 1f 64 91 be a9 0a e2 3a 4e fc 91 be
       -0.17060554 -0.283967 0.0017245609 -0.28512806
000040 80 8a 1f be 0b 22 1c bd 55 f0 70 3c cb 1e 74 3e
       -0.15580177 -0.038118403 0.014705737 0.23839872
000050 2d b4 8e bd be 8b 5e bd 82 b3 f9 bd ea f1 49 3e
       -0.069679596 -0.054332487 -0.121924415 0.19721189
000060 ea 11 91 be d5 68 5b be 0c a2 f6 3c b5 af ab bd
       -0.2833398 -0.21426709 0.030106567 -0.08383123
000070 c2 1f 9d bd 1e 9b 41 be b9 c0 3d 3d 08 94 66 3e
       -0.07672073 -0.18906829 0.046326373 0.22517407
000080 1f 94 53 be 8e 0d 64 be 3c a6 eb 3d 22 78 58 bc
       -0.20661972 -0.22270796 0.11506316 -0.013212236
000090 03 1c de 3d fd 06 48 3e 78 80 30 be 51 61 80 3e
       0.108451866 0.19533916 -0.17236507 0.25074247
0000a0 31 c0 bb bd d2 6a 0f 3e 19 02 87 bd c6 f6 28 be
       -0.09167517 0.14005592 -0.06592197 -0.16500387
0000b0 94 64 4d 3e b0 7e 44 be af 0c 93 3d 9f c6 47 3e
       0.20057899 -0.19188952 0.071801536 0.19509362
0000c0 68 0b 59 3e 7a 98 44 be 6d 6b 17 be b5 f8 55 be
       0.21195757 -0.1919879 -0.14787073 -0.20895655
0000d0 b3 8e 4f 3e 78 d7 23 3d ab 62 7f be bf 74 93 be
       0.20269279 0.04000041 -0.24939983 -0.28800008
0000e0 09 8d 82 be 4c c9 4d be c7 d0 2b 3e aa e6 39 3d
       -0.25498226 -0.2009632 0.16778861 0.045385994
0000f0 5e 30 cf 3d 1f 8c 20 be 28 0d ee bc e3 12 7d be
       0.10116647 -0.15678452 -0.029059008 -0.24714236
000100 88 92 78 bd 88 6a e1 3d 60 dc fe bc a1 3a 8b be
       -0.060686618 0.11006647 -0.031110942 -0.27193168
000110 3b 43 56 be 52 e0 09 be 04 2b 48 3e b7 ab 3f 3e
       -0.20924084 -0.13464478 0.19547659 0.18717848
000120 4a 86 0c be 9b 64 ca 3c 13 a2 88 3c 07 eb db 3d
       -0.13723102 0.024706176 0.016678846 0.10738187
000130 76 8d 92 be 2d 80 77 be 92 80 0b 3e 5c ed 40 be
       -0.2862355 -0.24169989 0.13623264 -0.18840545
000140 43 2a c2 bc c8 79 27 3e ae 27 56 bc d1 7b 85 3e
       -0.023701793 0.1635505 -0.013070984 0.26071027
000150 0c 43 47 3e 85 6b be 3d 8a 61 95 be 1c 23 84 3d
       0.1945917 0.092978515 -0.2917598 0.06452009
000160 d0 ef b5 3d 45 a6 63 be 68 2b 80 be db 2d 60 3c
       0.08883631 -0.22231396 -0.25033116 0.013682808
000170 23 53 39 3e 8a d5 08 3e a0 08 93 bd fa 35 0c 3e
       0.1809812 0.13362709 -0.071793795 0.13692465
000180 0f 12 82 bd 88 d5 0e be 16 00 17 3e de 73 29 3e
       -0.06351101 -0.13948643 0.14746127 0.16548106
000190 24 b7 50 be 5b 5e 0d be ba 94 cf 3d cf 0e d3 bd
       -0.20382363 -0.13805525 0.10135789 -0.10305559
0001a0 98 06 e5 3d af 21 f1 bb fe 2b 61 bd 46 fb 69 3e
       0.11182898 -0.0073587517 -0.054973595 0.2284976
0001b0 4b 3c 88 3d b3 70 b2 bd 29 e4 9d bd 86 c1 3b be
       0.06652125 -0.08712902 -0.07709534 -0.18335542
0001c0 f2 4e f5 bc 86 54 29 be f0 56 47 be dc 01 67 be
       -0.02994487 -0.1653615 -0.19466758 -0.22559303
0001d0 e3 57 7e be e0 01 4e 3e 0a 33 4a 3e 8f 71 80 be
       -0.24838214 0.20117903 0.19746032 -0.25086638
0001e0 27 4d 0d bb 0f e6 7f be 8b aa c8 3d d8 10 47 3e
       -0.002156088 -0.24990104 0.097981535 0.19440019
0001f0 23 ef 21 be e5 26 5d 3e da fe d4 bd ab 6c 83 be
       -0.1581388 0.21596868 -0.104001716 -0.25668845
000200 c3 15 3a be 07 c2 f0 3d 11 5d 3d 3e 3d b1 f8 bd
       -0.18172364 0.11755758 0.18492533 -0.121431805
000210 e1 b2 30 3d a5 ed 23 3e bf 4b 4f be f6 f6 a6 3a
       0.043139342 0.16008623 -0.20243739 0.0012738395
000220 27 6a 86 be f8 68 9d bd cb 7c ad 3d 40 7c 21 be
       -0.26252863 -0.07686037 0.08471068 -0.15770054
000230 de 13 7f be 27 5c 54 3e e2 d9 48 3e 9d c3 7c be
       -0.24909922 0.20738278 0.19614366 -0.24683996
000240 02 a2 63 3e f6 48 ca 3c 7d 15 af 3b cc 32 0a 3e
       0.2222977 0.024692994 0.005343138 0.1349594
000250 0c 64 73 3e 3e ad 88 3e 16 29 51 be 95 47 7f be
       0.23768634 0.26694673 -0.2042583 -0.2492965
000260 39 bc 33 3e 5d 8d 88 bc 53 1a 56 3e 11 84 d1 bd
       0.1755227 -0.01666897 0.2090848 -0.10230268
000270 cc 55 56 bd a9 8d d6 bd 53 df 8d be 2e 74 85 be
       -0.052327916 -0.10476238 -0.27709445 -0.260652
000280 48 76 53 bc 51 31 9b 3b fc 21 fb 3d b0 77 94 be
       -0.012906618 0.0047361036 0.122623414 -0.28997564
000290 ba 4f 85 3e 1e 70 74 be df 58 b4 bd 99 7c f9 bd
       0.2603739 -0.23870894 -0.08806013 -0.12181968
0002a0 ea 71 18 3d 1a 92 8d 3e 18 5c 9e 3c b1 bf 89 bb
       0.037218012 0.2765053 0.019331023 -0.0042037596
0002b0 73 f5 4c 3e e4 07 32 3c 78 3e 26 3e 2e 70 47 bc
       0.20015506 0.010866139 0.16234767 -0.012172742
0002c0 46 38 ab bc 84 26 84 bd db cc 5f 3e 95 f2 8f 3b
       -0.020900857 -0.06452659 0.2185549 0.0043929317
0002d0 ea 33 ee bc e1 86 89 be 2c f8 2c 3e 1b 3b 36 3d
       -0.029077489 -0.26860717 0.16891545 0.04448996
0002e0 b6 6e 4e 3d ad 1f 41 3e 68 32 64 3e 0d 08 51 be
       0.05039855 0.1885974 0.22284853 -0.20413227
0002f0 42 2f d2 3d 46 f7 6a 3d 15 cc 7a be 70 ef 58 be
       0.1026292 0.057364725 -0.24491914 -0.21185088
000300 1e f9 14 be 04 cc 8e 3e 5b 62 28 be 3a 95 96 be
       -0.14548156 0.27890027 -0.1644377 -0.29410726
000310 ae dc 8d be b8 6c 82 be 1c f5 88 3e 4c 28 d3 ba
       -0.27707428 -0.2547357 0.26749504 -0.0016110032
000320 3f 3e ab 3d f7 f6 3e 3e 4f 75 0d be d0 15 aa 3a
       0.08361482 0.18648897 -0.13814281 0.0012976471
000330 fa 0c d7 3d 29 8f 82 bd 83 5b 0b 3e 57 34 52 be
       0.10500522 -0.06374962 0.13609128 -0.20527779
000340 0a 1a 81 3e cd ea 8a 3e ab 02 86 be 2e b6 da 3d
       0.2521518 0.27132264 -0.2617391 0.10679279
000350 70 65 ac 3d e1 f2 59 3d b5 b2 34 be ea 85 e7 3d
       0.08417785 0.053210143 -0.17646296 0.11304839
000360 46 2f 9c 3d dd 4a 58 3e 9b 14 54 be 4f d5 93 3c
       0.07626204 0.21122308 -0.20710985 0.01804605
000370 dc 5c 4a 3e eb 7a 83 3e 7a b4 a5 3c 5d 15 49 3e
       0.19761986 0.25679716 0.02022766 0.19637056
000380 93 d0 30 be ca 7e 54 3e c9 c4 7d 3c 80 0a 52 be
       -0.17267065 0.20751491 0.015488812 -0.20511818
000390 06 e3 74 be cc 42 20 3e 5c de c1 bd 3c a6 9d 3d
       -0.23914728 0.15650481 -0.0946624 0.07697722
0003a0 8c eb 8c bc f2 05 81 3e 1c 3a e7 ba bf 03 60 be
       -0.017202161 0.25199848 -0.0017641219 -0.21876429
0003b0 88 f9 1d be e9 05 3d 3e 4a 43 de bc ec e6 07 3e
       -0.1542722 0.18459286 -0.027131695 0.13271683
0003c0 45 63 59 be d3 6c 3f bc e6 fc 8f 3e 8c a9 6b be
       -0.21229275 -0.011683661 0.28122634 -0.23013896
0003d0 19 79 8d 3e 58 9a 15 3e 19 83 9a 3d 71 45 4f 3e
       0.27631453 0.14609659 0.07544536 0.20241334
0003e0 fe 20 19 be 91 63 0f 3e e6 d4 fa bd a2 b0 64 bd
       -0.14953992 0.14002825 -0.122476384 -0.055832513
0003f0 09 76 a9 bd a2 d9 8a 3e 80 54 4b 3e c8 d1 10 be
       -0.082744665 0.27119166 0.19856453 -0.14142525
