trained_weights/trace/gat2.pth (torch, 328660 bytes, 27 tensors)

convs.0.att_src f4 [1, 4, 64]
000000 57 43 24 be cf e0 42 be 28 09 c9 bd ee 36 83 be
       -0.16041313 -0.1903107 -0.098161995 -0.25627846
000010 c3 c5 fe b9 fa 55 dc 3c d8 a3 81 3e f8 fc 09 be
       -0.00048594 0.026896466 0.25320315 -0.13475406
000020 a1 7b 34 be a5 ef 14 bd 51 46 24 be 87 a8 5c 3e
       -0.17625286 -0.036361355 -0.16042449 0.21548663
000030 03 76 b8 3b 89 6a 17 3e fe 44 34 3d 68 4d f8 3d
       0.0056293025 0.14786734 0.04401111 0.12124139
000040 bb 1a e0 3d 29 9b 33 bc 08 da e8 3d b0 1d 8c 3e
       0.109425984 -0.010962286 0.11369711 0.273664
000050 ca eb c9 bd aa ea 3c 3e 30 ff fb bb 7d 41 24 3e
       -0.09859426 0.18448892 -0.007690333 0.16040607
000060 30 66 75 3d c5 d2 cc bb fd 0b fb 3d c2 b9 89 3e
       0.059911907 -0.0062507116 0.12258146 0.26899534
000070 a6 4f 6a be b3 34 41 3e a3 5f 6d 3e 2f e0 74 3e
       -0.22881946 0.1886776 0.23181014 0.23913644
000080 f9 df 57 3e 1f 57 5b 3e 88 32 f2 3d 92 d1 07 bd
       0.21081533 0.21419953 0.11826044 -0.033158846
000090 31 94 c6 3c 37 63 35 3e 40 63 55 bd 39 b7 82 3e
       0.024240585 0.17713629 -0.052096605 0.25530413
0000a0 12 88 82 3e 09 ff 83 3e 57 d9 ea 3d c6 0c 1d 3e
       0.25494438 0.25780514 0.114672355 0.15336904
0000b0 e4 24 90 3c 5d 77 0b be 10 0e a9 3d 4d 81 68 3d
       0.017595716 -0.13619752 0.08254635 0.056763936
0000c0 bd 62 4b 3e 08 69 73 be b1 ee 6c 3d 03 78 32 bd
       0.19861884 -0.23770535 0.05784482 -0.043571483
0000d0 70 04 8e 3e b5 55 48 3e a3 f0 5f 3e 04 91 88 3e
       0.2773776 0.19563945 0.2186914 0.26673138
0000e0 6e d5 4a 3e ac ef 06 3e 7f a2 92 3d f7 bf 8a 3e
       0.1980798 0.13177365 0.071599 0.27099583
0000f0 d9 10 82 be 60 5a d7 bd 6c 18 29 3e 17 a1 7d 3e
       -0.2540348 -0.105152845 0.16513222 0.24768482
000100 14 54 26 be 40 25 b1 3d 65 39 77 3e 26 11 90 be
       -0.16243011 0.08649683 0.24142988 -0.28138083
000110 bf 74 0d 3d 46 d0 5d be 73 a8 77 3e ed 19 c5 3d
       0.034535166 -0.21661481 0.24185352 0.096240856
000120 6e 8d 8c 3e 47 33 92 be b1 f1 5e 3e a8 87 d7 bd
       0.27451652 -0.28554747 0.21771885 -0.10523921
000130 b7 71 82 3c 97 85 6e 3e 16 b4 7c be 08 11 88 3e
       0.015923364 0.23293148 -0.24678072 0.26575494
000140 b3 94 95 3d c2 8f 5e 3e 7f 78 79 3d 66 b1 07 be
       0.07303753 0.21734527 0.06090593 -0.13251266
000150 0b 56 80 bd 50 d3 07 3e 7b 9c 32 be 81 0d 5a 3e
       -0.062664114 0.13264203 -0.17442505 0.21294214
000160 23 02 f0 3d a8 b9 44 be 8f 50 a4 3d 37 05 0d be
       0.117191575 -0.19211447 0.08023178 -0.1377152
000170 98 6a 87 bc a5 e1 25 bd 48 1b 35 be 36 2c 37 3e
       -0.01653032 -0.040498395 -0.17686188 0.17887959
000180 00 4b af 3d e4 85 50 be 7d 85 90 be 68 b9 d9 bd
       0.08559227 -0.20363575 -0.28226843 -0.106310666
000190 b3 e1 a6 3d 95 f0 07 3e 0f ae 8f 3d ca c0 48 bd
       0.081485175 0.13275369 0.07015621 -0.049011983
0001a0 a5 8a 36 be f2 28 88 3d 31 bb ca 3d 5f ea 22 be
       -0.17826326 0.06648435 0.09898985 -0.15909718
0001b0 39 e5 3f 3e 8a 8e 62 3e e6 40 7f 3e 72 4b 5a be
       0.18739785 0.22124687 0.249271 -0.21317843
0001c0 69 3e 13 3e 69 f5 88 3d 5a 51 0f 3e 7b f6 dd bc
       0.14379276 0.06687433 0.13995877 -0.02709507
0001d0 84 fb 75 3e f6 6c 25 bb 53 cf e5 3c 04 fa ed 3c
       0.24021727 -0.0025241948 0.028052961 0.02904988
0001e0 12 93 7c 3e 37 de e3 bd da cf 86 3e 2f 55 a5 bd
       0.24665478 -0.111263685 0.26330453 -0.08072888
0001f0 63 49 04 3e fa 2d 0c 3c 4b 4f 8d 3e a3 89 35 bd
       0.1291862 0.008555884 0.27599558 -0.044320714
000200 64 28 d4 3d a2 88 47 3d f6 48 3d 3d 48 04 13 3e
       0.103592664 0.048714288 0.04621216 0.14357102
000210 62 c6 60 be 09 70 59 3e 99 ac 23 3e 20 ab 90 3e
       -0.21950677 0.21234144 0.1598381 0.28255558
000220 38 fb a9 3d 75 42 06 be 30 23 27 be 82 c1 60 3e
       0.08299869 -0.13111289 -0.16322017 0.21948817
000230 1a d6 14 3e 8e b7 46 3e f7 29 66 3e fc 3c d9 3a
       0.14534798 0.19405958 0.22476946 0.0016573961
000240 3f 5b 06 be b8 65 32 bd d8 b4 42 3d 95 41 e9 3d
       -0.13120745 -0.043554038 0.047535747 0.11389462
000250 a2 c1 2f 3e 0e 0b ae 3c 4e 2b 2e be 75 8c 8e 3e
       0.17163709 0.021245506 -0.17008707 0.27841535
000260 28 cc 9b bd 83 23 04 3e 64 a5 37 3e 2b e1 31 be
       -0.07607299 0.12904172 0.17934185 -0.17371051
000270 d1 c7 3a 3e 51 4e d9 3d e0 b6 86 3e 9d c5 a0 3d
       0.18240286 0.10610641 0.26311398 0.07850192
000280 3e 11 c9 bd ce 73 7e 3d 34 68 bf bd 41 1a 34 be
       -0.09817742 0.06212216 -0.09346047 -0.1758814
000290 eb 4d d8 bd f1 6c 45 bc c2 fd 01 be 24 ea 90 3e
       -0.10561737 -0.012049899 -0.12694457 0.28303635
0002a0 f5 34 10 bc 4a 2e 82 be f9 80 c1 bd f4 45 7c 3e
       -0.008801688 -0.2542594 -0.09448428 0.2463606
0002b0 63 f4 1a be b6 7f 44 bd 0d 8f 82 3e 93 73 11 3c
       -0.15132289 -0.047973357 0.25499764 0.008877653
0002c0 ef de 4b be c9 fa 72 be 79 e5 b0 bc 37 96 72 be
       -0.19909261 -0.2372848 -0.021593796 -0.23690115
0002d0 bf c6 8a be 09 2e 0f be 92 6b e4 bb 14 f4 cf 3d
       -0.27104756 -0.13982405 -0.006970831 0.10153976
0002e0 01 be 30 be 54 d3 0d be cb d6 2e be 11 47 49 be
       -0.1725998 -0.13850147 -0.17074125 -0.19656016
0002f0 19 39 20 3e 24 17 ad 3d 3d d8 dd bd f2 fe e3 bc
       0.15646781 0.08451679 -0.1083226 -0.027831528
000300 f7 ff 48 3e 6d c0 34 3e ef 4c 49 3e d6 c0 80 3e
       0.19628893 0.1765153 0.19658254 0.25147122
000310 10 b4 a6 3d 01 14 b1 3d 8b fa 5c bc 12 bc 9b bc
       0.08139813 0.086463936 -0.0134874685 -0.019010577
000320 e4 14 91 3e 42 64 34 be 62 5b 2b 3b e6 1f 98 bd
       0.2833625 -0.1761637 0.0026146998 -0.07427959
000330 75 07 71 be 46 1e 81 3c 96 bb e4 3d ff d3 da 3d
       -0.23538001 0.015761506 0.11168592 0.10684966
000340 38 57 c0 3d bf 82 b4 3d a7 ec 63 3e 8e d7 93 3e
       0.09391636 0.08814 0.22258244 0.28875393
000350 b1 39 da 3d b0 40 e7 bd 0b 1d 4e 3e 63 a5 25 be
       0.10655535 -0.11291635 0.20128267 -0.16176371
000360 29 e3 00 bd 67 78 80 3e ba ce 82 be d1 2c c5 3d
       -0.031466637 0.2509186 -0.25548345 0.09627689
000370 cd 84 0e bd 77 6b c4 bd 00 c2 cb bd 1e 94 89 3e
       -0.034794617 -0.0959081 -0.09949112 0.26870817
000380 fa 6c 30 3c 06 4e 2c be bb b8 25 3c 36 e1 dd bd
       0.01076817 -0.16826639 0.010114844 -0.10833971
000390 79 d1 81 3d d1 91 c8 3d 64 05 81 3e db ce 60 be
       0.06338782 0.09793437 0.25199425 -0.21953909
0003a0 1f ec 71 bd 91 63 1d be 98 14 15 be 40 79 69 3e
       -0.059063073 -0.15370013 -0.14558637 0.2280016
0003b0 56 6a 5a 3e 9a 0a 57 3e 0d a8 2b be c5 01 af bd
       0.21329626 0.21000138 -0.16763325 -0.085452594
0003c0 30 d0 97 3d 9a c7 4a 3e 13 a2 8e bd 4c 9e a2 bd
       0.074127555 0.19802704 -0.06964507 -0.07940349
0003d0 87 32 75 be 69 5f 7f be 72 1e c4 3d 32 5d b4 bd
       -0.23945056 -0.2493874 0.095761195 -0.08806838
0003e0 db 2b d9 3b 06 52 8a be e9 eb 54 be a7 e3 e2 3d
       0.0066275424 -0.27015704 -0.20793118 0.110785775
0003f0 c3 39 18 3e 16 80 91 be 1c 25 e6 3c 2e 0c 93 3d
       0.14865784 -0.28418034 0.028093867 0.071800575

convs.0.att_dst f4 [1, 4, 64]
000000 8f 9a 3a be b2 42 c5 3d bf 09 8c be ab 5a 71 bd
       -0.18223022 0.09631862 -0.27351186 -0.05892436
000010 10 ed 86 be 21 84 1e be 14 58 b9 3d 96 f7 c7 bc
       -0.2635274 -0.1548009 0.09050003 -0.02441005
000020 c3 55 55 be d4 88 ac bd ea 19 45 3e 6a 98 6a 3e
       -0.20833497 -0.084245354 0.19248167 0.22909704
000030 86 5d 0c be 2a 2a 52 3e f0 1f 36 3e fd 36 44 3e
       -0.13707551 0.20523897 0.1778562 0.19161601
000040 51 b2 03 3e 7f 9a 33 3e 9a b6 d4 3d f0 ca 4b bd
       0.12860991 0.17539404 0.10386391 -0.049754083
000050 c1 08 b6 bd 7c 59 59 3e 91 3a 45 be bc 32 ca bd
       -0.088883884 0.21225542 -0.19260623 -0.09872958
000060 62 ad 0a be 1f bf 2e 3e 5a 0c a9 3d 28 61 18 be
       -0.13542703 0.17065094 0.08254309 -0.14880812
000070 50 80 23 be 1a 02 f6 3d 38 4f 0f be 07 28 6d be
       -0.15966916 0.120121196 -0.13995063 -0.231598
000080 b8 74 63 be d8 9c e3 bd 24 a7 3c 3e fd 20 cb bd
       -0.22212493 -0.111139 0.18423134 -0.099184014
000090 3b fd d6 3d 45 96 8b bd 2d 3f 8e bd 26 3f ca 3d
       0.10497519 -0.06815771 -0.069456436 0.09875326
0000a0 fc 4f fa 3d 20 60 89 be 96 02 42 3e 7d 83 ad 3d
       0.12222287 -0.2683115 0.18946299 0.08472345
0000b0 5e ab 66 3e 46 74 43 3e c3 e7 87 be a0 7e 99 3d
       0.22526309 0.19087324 -0.26544008 0.07494855
0000c0 93 a7 32 3e 7b b8 7b 3e ef 1f 8a 3e 6e 39 5b be
       0.17446737 0.24582092 0.26977488 -0.21408626
0000d0 45 e9 64 bd f3 e0 82 3e 22 0e 11 be ba cb 62 3d
       -0.055886526 0.25562248 -0.14165547 0.05537007
0000e0 57 6f 6b be c3 c6 80 be 14 04 1e be 67 a1 ca 3c
       -0.22991692 -0.25151643 -0.15431243 0.024735166
0000f0 c8 15 44 3d 94 a8 89 3a e8 13 7c 3d aa ce 3a 3e
       0.047872335 0.0010502511 0.06154242 0.18242899
000100 00 bd 79 3e 2f 44 b9 bc 5a b5 91 bd 13 ab 03 3e
       0.24388504 -0.02261552 -0.07114668 0.12858228
000110 c2 52 7d bd ba c3 6f bd e2 14 9e bd 5c da 2e 3e
       -0.061846502 -0.05853627 -0.07718827 0.17075485
000120 fa c7 5a 3d 2f e5 b7 3d 89 17 ca bb f9 45 7d be
       0.05341337 0.0897926 -0.0061673564 -0.24733724
000130 3b d3 fa bd ee 56 c9 bd a1 df 3a 3e d4 d0 81 be
       -0.1224732 -0.09831034 0.1824937 -0.25354636
000140 80 f8 55 3e 28 8b 8d bd 84 70 a2 3d 81 4e 80 bd
       0.20895576 -0.069113076 0.07931617 -0.062649734
000150 32 bf 0e 3e 37 93 2e 3e a5 97 a9 3d d3 65 52 3e
       0.13940123 0.17048346 0.08280877 0.20546655
000160 49 45 1f be 93 84 3d be 3e 1c 3d 3e 76 db b6 3d
       -0.15553774 -0.18507604 0.18467805 0.089285776
000170 89 47 74 3e d6 b1 71 be 67 39 5b be fc 90 80 3e
       0.23855413 -0.23602995 -0.21408616 0.25110614
000180 40 55 6a 3d d4 b3 14 3e ab 23 74 be c2 5f a1 bd
       0.057210207 0.14521724 -0.23841731 -0.078795925
000190 05 08 89 3d b9 45 b4 3d 0a c3 82 be 1c 66 06 be
       0.06690983 0.08802361 -0.25539428 -0.13124889
0001a0 09 f9 25 3e e3 7f 80 3e 53 bc 4a 3e 68 7e 88 3d
       0.1620828 0.2509757 0.19798402 0.06664735
0001b0 b1 ee 84 be 38 fe 18 be 8c 97 f5 3c f9 c3 8a bd
       -0.25963357 -0.14940727 0.02997949 -0.0677566
0001c0 bc 67 65 3e 27 0b db bd d6 76 07 bd 5c a9 39 3b
       0.22402853 -0.106954865 -0.033072315 0.0028329706
0001d0 4a e5 0b 3e 2e af 2c bc 2a 99 7d 3e 30 78 98 3b
       0.13661686 -0.010539813 0.24765459 0.0046529993
0001e0 fc 33 7a be 9d 36 94 3c c4 01 81 3d 9a 9c 51 be
       -0.24433893 0.018092448 0.06299165 -0.20469895
0001f0 ce 86 7e be b7 c1 23 3e b9 ca 02 3e fa 60 22 bc
       -0.24856111 0.15991865 0.12772645 -0.009910816
000200 11 55 bb b9 dd 13 63 be 30 81 c9 3a 11 b5 7c 3e
       -0.000357308 -0.22175546 0.0015373584 0.24678446
000210 7c ad 78 bd 65 a3 1b be 93 72 68 be f5 a5 33 3e
       -0.060712323 -0.15199049 -0.22699957 0.17543776
000220 bf 8b 2a be 46 42 60 be 40 56 4d be a0 f0 36 3d
       -0.16654871 -0.21900281 -0.20052433 0.04466307
000230 1d 56 1c 3d aa c7 67 3d 3e f6 70 be 10 1d 46 3b
       0.03816806 0.0565869 -0.23531434 0.0030229725
000240 e9 4e 74 bd ac 1a 66 be fd 7d 1b 3d cc 9e 4e 3d
       -0.059645567 -0.22471112 0.03796195 0.05044441
000250 2c 10 f4 bd 11 e0 c3 3b 4f 48 2b 3d 56 ab 82 3e
       -0.11917147 0.0059776385 0.041817006 0.25521344
000260 b3 9e 8e 3b af 13 7a bd 03 e1 95 3d 49 08 59 3e
       0.0043524145 -0.061053928 0.07318308 0.21194567
000270 6b c2 bd 3d 32 16 03 3e 51 a0 be 3d 23 c9 50 3e
       0.09265598 0.12801436 0.09307922 0.20389228
000280 d6 27 e3 38 ea 27 69 be f5 ef 48 3e b4 c5 87 bd
       0.000108316235 -0.22769132 0.19622786 -0.06629506
000290 ad 7f 50 bd da 12 94 3d 53 8e 5f 3e 7f 6e 22 3e
       -0.05090301 0.07230158 0.21831636 0.15862463
0002a0 3d 5c f9 bc 4f dd 92 3c 71 49 5f be 6a 16 c5 3d
       -0.03043949 0.017927794 -0.2180536 0.09623416
0002b0 66 dd 6d bd 3c 04 61 be 3c d1 bd 3d 50 ed 82 3e
       -0.05807247 -0.21974272 0.09268424 0.2557168
0002c0 15 2c 33 3e 94 83 85 3e d6 4f f1 3d 3a ab b3 3d
       0.17497285 0.2607695 0.117828056 0.08772893
0002d0 62 26 88 3d fa 9b 1e be a1 0b 43 3d ff 72 5b be
       0.06647946 -0.15489188 0.047618512 -0.21430586
0002e0 85 d1 e8 3b a8 57 ca 3d 95 ce 3b 3e 76 da 78 3e
       0.007105055 0.0988 0.18340524 0.24302086
0002f0 84 0f 4b be 04 0a 4d be 88 fd 91 3d cb d7 31 be
       -0.19830137 -0.20023352 0.071284354 -0.17367475
000300 c1 25 0e be 4b fa 8b 3e 5d b0 fb bd 00 e7 83 be
       -0.1388159 0.27339396 -0.12289498 -0.25762177
000310 1e e2 81 be 25 d6 9b bd fe 7c ea 3d 2c 43 36 be
       -0.25367826 -0.07609204 0.114496216 -0.17799062
000320 dc dc 1b be 05 7e 23 bd fd 8d 75 3e c7 1e 67 3b
       -0.1522097 -0.039915103 0.23979945 0.0035266147
000330 90 65 15 3d ee ee 20 3e 50 6f 93 bd 6f 73 3a 3e
       0.03647381 0.15716144 -0.071989655 0.18208097
000340 5c af 3d 3e 56 52 7d be e4 5f 96 bc c5 0f 47 3e
       0.18523926 -0.2473844 -0.018356271 0.1943961
000350 56 36 04 3e 8d e2 ab bc 0c f3 4f bd a6 ab 57 bd
       0.12911353 -0.020982051 -0.050768897 -0.05265393
000360 1f ea 8a bc 62 40 60 be 68 29 8f 3e 97 a2 08 bc
       -0.01695734 -0.2189956 0.27961278 -0.008339546
000370 93 79 77 3d 19 f1 39 3d ed 72 3e 3e 10 f2 81 be
       0.060418677 0.045395944 0.18598528 -0.25379992
000380 36 85 63 be 20 de 4b 3d 26 1b 7d be a9 a8 ce bd
       -0.22218785 0.04977238 -0.24717388 -0.10090763
000390 ef 8b 1a be e3 40 31 3c 07 9a 45 3d a8 f1 3c 3e
       -0.15092443 0.010818693 0.048242595 0.1845156
0003a0 60 e5 e1 bd 97 8a 8e 3c 4f ac 07 3d 87 b5 a4 bd
       -0.11030078 0.01740007 0.03312331 -0.08042436
0003b0 cd af 1d 3e 3a 71 67 3e 01 37 23 3d 68 04 a1 3d
       0.15399094 0.22601786 0.039847378 0.078621686
0003c0 a3 44 bc 3d c5 7f 0d bc f3 a3 46 bc 1e e8 83 3c
       0.09192779 -0.00863642 -0.0121240495 0.016101893
0003d0 c1 5c 00 3e ac 09 94 bd 67 8c 5a be b5 9b 17 3e
       0.12535383 -0.07228407 -0.21342622 0.14805491
0003e0 5f 90 21 3e 17 3f 3c 3e f7 b8 29 bd fa 1c 55 be
       0.1577773 0.18383442 -0.04143616 -0.20811835
0003f0 52 91 c8 3d b9 cb 7e 3e 49 6b 3f be 7f 33 43 3e
       0.09793343 0.24882402 -0.1869327 0.19062613

convs.0.bias f4 [256]
000000 8a c3 91 3c 1c 21 fe bb ff 63 0d ba ae 22 95 3a
       0.017793436 -0.007755412 -0.0005393624 0.0011378133
000010 8a 3b 92 3b 58 a6 e5 3a 3d 40 29 3b c9 92 ab 3b
       0.004462664 0.0017520888 0.0025825643 0.005236004
000020 26 1c c1 3b 1a 12 32 bb b3 5a 96 bb 83 1a bf 3a
       0.005893248 -0.0027171434 -0.004588449 0.0014580045
000030 4e 7a ed 3b 4f d5 b3 3b d6 79 f3 bb ad 32 a2 3b
       0.007247246 0.005488075 -0.0074302955 0.0049498887
000040 52 5e f8 bb e9 a9 99 bc 66 52 95 3b d1 d5 23 3a
       -0.007579603 -0.018757777 0.004556942 0.00062498177
000050 30 ce 7d 39 18 07 80 3b 92 52 cc bb f6 50 10 3b
       0.00024204771 0.0039070956 -0.006235429 0.0022020913
000060 c7 a3 51 bc c0 a6 32 3c d2 00 20 bb cb 23 80 3b
       -0.012795395 0.010904014 -0.0024414551 0.003910517
000070 3c 07 bf bb bf 19 19 3b 45 46 4c bb 39 a3 ef b9
       -0.00582972 0.0023361293 -0.0031169814 -0.00045707243
000080 09 e5 91 ba 63 83 69 bc e2 a0 d5 bb 0b fa a1 3b
       -0.001113088 -0.014252516 -0.006519423 0.0049431375
000090 f7 37 d2 3a 89 a7 69 39 7e 62 96 3b e5 ff aa ba
       0.0016038407 0.00022283023 0.004589378 -0.0013046233
0000a0 80 b1 1a bb f3 4c c7 39 96 ed 63 3a ab 37 03 bb
       -0.0023604333 0.0003801357 0.0008694766 -0.0020022194
0000b0 ba b9 f2 ba d6 28 f9 3b a1 61 20 3b 0d cb f1 ba
       -0.0018518486 0.007603745 0.0024472254 -0.0018447355
0000c0 42 16 ee 3b 25 3a 9a bb a2 2c cd 3b a3 0d d7 3b
       0.007265837 -0.0047066384 0.006261424 0.006562905
0000d0 98 3d 81 3c 37 22 45 bc 4d 22 30 3c 69 dd 01 bc
       0.01577644 -0.012032083 0.010750365 -0.007926323
0000e0 67 30 46 bb a4 5b d1 bb e8 de 38 bb 21 f7 0c bb
       -0.0030241252 -0.0063890982 -0.0028209034 -0.0021509605
0000f0 fa 54 b1 3b d5 1b 30 bc ca ac 30 3c 5c 4e b0 3b
       0.0054117413 -0.010748823 0.010783384 0.005380435
000100 5d 3f b6 b8 16 6d 15 3b 11 20 9f bb 14 ac 3e bb
       -8.6902386e-05 0.0022800616 -0.0048561175 -0.0029094266
000110 84 a5 ee bb a6 3f 32 bb ba 1a ba bb a1 f4 70 ba
       -0.0072829146 -0.0027198582 -0.0056794556 -0.0009191726
000120 02 30 2f 3c 4b 97 48 39 de 16 1e bc 40 1a 3c 3b
       0.010692598 0.00019129847 -0.009649007 0.002870217
000130 06 90 00 bc 35 22 a2 3b a2 b2 f6 ba 18 94 bc bb
       -0.007846838 0.0049479255 -0.0018821547 -0.005754959
000140 2f a9 89 3b 06 ed 2c 3b c1 28 2f 3b 19 e9 c3 3b
       0.0042010765 0.0026386394 0.0026727172 0.005978715
000150 64 79 46 3c 1c 2c 88 3b 3e 9e 91 bb e1 20 aa ba
       0.012113903 0.004155649 -0.0044439128 -0.0012979769
000160 7f 63 81 ba ac 2e 2d ba 14 14 8f 3b 1b 56 17 3b
       -0.0009871571 -0.0006606381 0.004366407 0.0023092094
000170 e1 21 38 bb 36 1d d2 3a 9a e0 1d bb b8 bb 1d bc
       -0.0028096365 0.0016030434 -0.0024090172 -0.009627275
000180 53 db fe bb 70 90 b8 ba 0e 8b d2 bb 08 17 22 3b
       -0.0077776103 -0.0014081132 -0.006425268 0.0024732966
000190 b5 6c 0a bc 11 ab e9 3b 3a 14 8a bb ff 9a f0 b9
       -0.008448769 0.0071309884 -0.004213837 -0.00045891848
0001a0 24 ea bf bb 86 59 3c 3b b3 90 56 3b 31 47 68 3b
       -0.005856769 0.0028739884 0.0032740056 0.0035442824
0001b0 3d 33 a1 ba 35 86 6b 3b c4 b3 a1 3a f6 80 e2 ba
       -0.0012298595 0.0035938148 0.00123369 -0.0017280865
0001c0 6f f9 55 bc 83 c2 8a bb bc 4a 2b 3b 67 61 9f b9
       -0.013059958 -0.0042346134 0.0026137074 -0.00030399414
0001d0 2c fd 01 3c f5 a8 22 3b b1 d8 fc 3b 0d 2e ac 3b
       0.007933896 0.0024819945 0.0077162613 0.005254513
0001e0 97 36 ef 38 42 b5 0b 3c 6b ae 09 ba e3 5a e6 3a
       0.00011406576 0.008527102 -0.00052521256 0.0017574694
0001f0 f9 fe 60 bb 25 8e 59 3c d9 b0 de bb d0 6e d6 bb
       -0.0034331663 0.013278519 -0.006795984 -0.0065439716
000200 f1 f5 5f 3a e8 ae ad bb 51 e6 05 bc 84 4a ed 3b
       0.0008543423 -0.0053003915 -0.0081725875 0.007241549
000210 db 82 99 b9 21 fb d8 b9 0c b7 79 bb d3 15 95 bb
       -0.0002927993 -0.00041385836 -0.003810349 -0.004549721
000220 8a 2e 35 ba db 36 c9 bb ac e1 11 3c d0 51 4a bb
       -0.0006911537 -0.0061405725 0.008903902 -0.0030871518
000230 d7 37 1f bb 00 2d 6d 3b 9b 28 38 3c c3 46 7c 3b
       -0.0024294758 0.0036190152 0.01124015 0.0038494326
000240 12 26 29 b9 75 b5 57 3b 78 77 0e bc fb 70 b7 3b
       -0.00016131278 0.0032914553 -0.008695476 0.005598185
000250 fc 0a 9e 3b a8 42 28 bc 10 9c fb 3a 67 db 10 3c
       0.004823087 -0.010269798 0.001919629 0.008841372
000260 b0 cf 05 3a f2 ba 09 3b c3 4c f1 bb 95 50 68 3b
       0.0005104495 0.002101597 -0.007363887 0.0035448421
000270 56 80 a2 bb 04 11 5f 3b 14 10 0c bc 1e 99 3a 3b
       -0.0049591465 0.0034037242 -0.008548755 0.0028472613
000280 57 9d e0 3a f4 d4 a8 ba d4 18 3e 3a 8d 5b ae 3b
       0.0017136735 -0.0012880848 0.00072516245 0.0053209723
000290 70 25 dc bb 92 7d 3d bb 78 24 44 bc 01 18 65 bb
       -0.00671833 -0.0028913957 -0.011971585 -0.0034956934
0002a0 40 a0 2d 3b 01 23 15 b9 3f 81 95 bc 20 42 33 bb
       0.0026493222 -0.00014222787 -0.018250106 -0.0027352646
0002b0 45 b1 f9 bb 31 26 32 3b 52 3e 8c 3a c3 8f 94 3b
       -0.007620009 0.0027183408 0.0010699725 0.0045337393
0002c0 b3 1f 11 bc 50 f1 2a 3b 9f 13 c3 3b bb 68 39 3b
       -0.008857655 0.0026083775 0.0059532668 0.0028291184
0002d0 2c 9f 03 3b f1 07 e5 3b a4 8e bc 3b f2 88 06 bc
       0.0020083888 0.006989472 0.005754309 -0.008211361
0002e0 19 83 57 39 8a 9f ee 3b 23 a3 06 bb 37 51 e2 39
       0.00020552835 0.007282202 -0.0020544014 0.0004316659
0002f0 b8 e6 1d bb d3 2f 46 bb 31 d0 45 bc d8 7f 20 3c
       -0.0024093818 -0.0030240908 -0.0120735625 0.009796105
000300 eb df 06 3b f3 e8 14 3b 77 44 c0 3b d8 77 4e 3c
       0.0020580243 0.0022721856 0.0058675366 0.012601815
000310 ef cc ed bb c7 39 08 3b 7b d2 ee bb 2c 8a ed 3a
       -0.007257096 0.002078639 -0.007288275 0.0018122843
000320 8b 7e 61 3b ec 00 5c b9 31 7e cd bb 0d fc 76 3b
       0.00344077 -0.00020981178 -0.0062711467 0.0037686855
000330 a1 3c e4 ba ed 07 e4 3b e8 f3 40 3c 64 14 92 39
       -0.0017413088 0.0069589526 0.011776902 0.00027862482
000340 de f3 3e bc f0 9d 91 3a cc b9 8a b9 00 1e 92 3b
       -0.011654822 0.0011109691 -0.0002645984 0.0044591427
000350 24 50 c3 b9 1d 60 36 3b f3 4c 5d 3b ce 62 89 bc
       -0.00037253008 0.0027828284 0.003376779 -0.016770747
000360 43 8b e5 3b cf 4a b2 39 67 a3 2e 3c c1 a3 d6 bb
       0.0070051267 0.00034006542 0.010659075 -0.0065502827
000370 36 cb dd 3b 85 83 5d 3c cd 0d 90 bb 3e d1 75 3a
       0.0067686094 0.013520126 -0.0043961764 0.0009377188
000380 33 74 94 3a a1 20 87 3b fa bb ec 39 cf 18 57 3c
       0.0011326134 0.0041237627 0.0004515348 0.013128473
000390 09 d1 04 b9 dd 90 ea b9 3e 93 cc 3b fe 2b 88 3a
       -0.00012666373 -0.0004473989 0.0062431386 0.0010389087
0003a0 9c a4 8d 3b 8d ec b7 bb ac 56 07 3c 23 f2 a5 3a
       0.0043226015 -0.005612916 0.00826041 0.0012660663
0003b0 af ca a0 3b bb e3 95 bb af 78 01 3b f0 16 65 3b
       0.0049069743 -0.0045742667 0.001975577 0.0034956299
0003c0 66 f2 1f bb 64 3e 52 3c a3 a3 63 3c a3 1c 8f bb
       -0.0024405955 0.012832258 0.0138939945 -0.0043674274
0003d0 69 9e 63 3b 97 41 0d 3c 21 fd bd 3b f3 ec 2f bb
       0.003473187 0.008621595 0.0057979976 -0.0026844114
0003e0 4a c0 ca bb b5 d6 68 bb a1 52 05 3b 93 48 c5 3b
       -0.0061874734 -0.0035528366 0.002034344 0.0060206144
0003f0 2d 7d fb bb 99 5d c1 ba 92 54 fd 39 c3 41 18 3c
       -0.007674834 -0.0014752626 0.0004831893 0.009293023

convs.0.lin_src.weight f4 [256, 12]
000000 30 5e 5c bb 3e c3 02 3e ca bc 1b 3c ee 1f f0 3d
       -0.0033625476 0.12769791 0.00950546 0.1172484
000010 a4 ac 28 3d ab 4b 12 bb 44 17 3f 3c 7f 2f e0 3d
       0.041180268 -0.0022322934 0.011663262 0.10946559
000020 c0 a2 da 3d f9 f0 2f bd f7 67 d5 bd 13 20 56 3c
       0.10675573 -0.04295442 -0.1042022 0.0130691705
000030 83 0b 54 bd 47 0a e1 bd 88 46 7d 3d 44 64 a4 3d
       -0.05176879 -0.109882884 0.061834842 0.08026937
000040 fa f1 08 be d7 91 dc b9 3e 30 90 bc 24 8a 40 bd
       -0.13373557 -0.0004207033 -0.017601129 -0.04700674
000050 2c fe e3 3d e1 cb 69 bc f6 5b 46 3b 1d 3d 31 bd
       0.11132464 -0.0142698 0.0030267215 -0.043271173
000060 aa b3 83 3d 1c 50 84 bd bb 41 a0 3d 33 51 e6 bd
       0.064307526 -0.06460592 0.07825037 -0.11245956
000070 f2 d5 9a bd 52 10 09 b9 74 a9 b2 bd ac 2e 7b 3a
       -0.07560338 -0.00013071418 -0.08723727 0.0009581845
000080 1c c6 e6 bc 6d 3a 83 3d cc df 75 3c 15 a4 f8 bc
       -0.028170638 0.06407628 0.015006971 -0.030351678
000090 ce d8 12 3e bf 25 14 3e 3e 64 e4 3d db 9c 1d bb
       0.14340517 0.14467524 0.11151932 -0.0024049792
0000a0 40 45 8e 3a 60 ca 0d ba 25 1d b4 bc ae 71 11 ba
       0.0010854378 -0.00054088794 -0.021986553 -0.00055482506
0000b0 d5 7b 02 bd 85 3d a2 ba 57 29 b0 3d c7 49 32 bd
       -0.031856377 -0.0012377953 0.08601635 -0.04352739
0000c0 2c 7f 3f bd 2a 2a 17 3e df 8d f1 39 ee d5 08 be
       -0.04675214 0.14762178 0.00046072804 -0.13362858
0000d0 05 08 97 3c 41 fc 9f bd 89 06 f1 3c de f4 0d 3a
       0.018436441 -0.078117855 0.029422062 0.0005415211
0000e0 e8 dc 97 bd 2e b4 7c bd d6 67 01 be 76 df b3 b9
       -0.074151814 -0.06169527 -0.12637267 -0.00034308032
0000f0 93 e4 dd bd 8b 42 73 bd be 36 a3 3d ab c2 2a 3d
       -0.10834613 -0.059389632 0.079694256 0.041689556
000100 62 65 0a be a5 45 b7 3d 81 0a f5 3c bc b0 e9 3c
       -0.13515237 0.089488305 0.029912235 0.028526656
000110 c8 89 f0 bd 6f a7 f8 bc a9 9e ae bd 44 f0 8a 3d
       -0.1174503 -0.030353276 -0.08526356 0.06784108
000120 70 0d d6 3d a4 55 fc bb 6f 5e 5a 3d 6b 39 47 bd
       0.10451782 -0.007700639 0.053312715 -0.048638742
000130 36 39 a1 bd 44 a9 b8 bd 6a fc cc 3c 17 c7 68 3c
       -0.0787224 -0.0901666 0.025022704 0.014207623
000140 02 1a de 3d 21 f5 98 3d 5a be a7 3d 91 46 81 bd
       0.10844804 0.0746863 0.081906036 -0.063122876
000150 61 ed f8 3d 3c 47 bb 3d ba 61 00 bc c6 cd e5 bd
       0.121546514 0.09144446 -0.0078358 -0.11220889
000160 f4 14 20 bd 31 9e c2 bd 64 49 d7 3d b6 e8 e8 3d
       -0.039082482 -0.09502829 0.10512045 0.11372511
000170 b7 55 a6 bd ba e3 34 bc d1 5c fb 3d fc be 83 b9
       -0.081218176 -0.011040622 0.12273563 -0.00025128562
000180 ae bc a8 bd 69 c7 95 3d d9 ab ce ba 7a 09 f1 bd
       -0.08239113 0.07313425 -0.0015767767 -0.11769386
000190 0f dd e5 bd 8f c8 a7 bc ba e5 c6 3d 60 70 be bd
       -0.11223804 -0.020481376 0.097117856 -0.092987776
0001a0 dc 9d ab bd 38 a0 ce 3c f5 74 60 3c 65 35 c4 3c
       -0.08379719 0.025222883 0.01369976 0.023951242
0001b0 52 c4 aa 3d f2 8e 94 bb fd b4 57 bd 10 15 9b bd
       0.083382264 -0.004533642 -0.05266284 -0.07572377
0001c0 52 67 95 3d dd 66 48 bd 76 2f ee bc 40 1f a2 3d
       0.072950974 -0.048926223 -0.029075366 0.07916117
0001d0 2e b0 a2 3d 1c 06 3a ba 77 a3 a8 bd c7 96 90 39
       0.0794376 -0.0007096247 -0.082343034 0.00027578158
0001e0 b6 6a a3 bc c6 c0 64 bd 03 53 04 ba af 70 d1 3d
       -0.019948345 -0.055847906 -0.000504777 0.10226571
0001f0 10 b5 0e be e7 fa cd bc 15 bc d4 bd 83 7d 98 3b
       -0.13936257 -0.025144054 -0.10387436 0.004653634
000200 ac b6 84 3c 2d 48 89 3d 48 0a 6b bd 6f 45 84 bc
       0.016200386 0.067032196 -0.05738285 -0.01614639
000210 99 ef a0 3d 26 5f 26 3d e9 91 b9 3b 38 7d 0c 3e
       0.078581996 0.040618084 0.005663146 0.13719642
000220 23 ac 09 3e 25 73 c9 3c 2a bb 72 bd ee 61 cc bc
       0.13444571 0.024591038 -0.059260525 -0.02494904
000230 3d 1c 85 3c cd 9f a2 bd c5 1c 55 bd e0 77 42 3d
       0.016248817 -0.07940636 -0.05202939 0.047477603
000240 fa 0b 08 be 1f 3a 5a 3d 5c a8 10 3c 73 30 07 be
       -0.13285819 0.053278085 0.0088292025 -0.13202076
000250 d3 d1 86 3d 7e 10 cf 3d 21 b6 bb 3d ad fc d7 bd
       0.065829895 0.101105675 0.09165598 -0.10546241
000260 00 6b bf bd 81 c0 98 bc 4c 46 ea bd c0 85 78 3d
       -0.093465805 -0.01864648 -0.11439189 0.06067443
000270 4c 72 fe 3d a5 b5 2d 3d 88 5e 6d bd 77 8a ae 3d
       0.12424144 0.042409558 -0.05795148 0.08522504
000280 53 3b 00 be 67 98 db bd ce 7c 8f 3d 19 53 bf b8
       -0.1252263 -0.10722428 0.070062265 -9.123068e-05
000290 1f 77 9a bd 3a 6f 4a bd 39 bc 07 be b8 98 b1 bd
       -0.07542252 -0.04942248 -0.13255395 -0.08671707
0002a0 7d 9b 2d bc d2 22 0a be 84 d2 0d bb 95 44 0e 3e
       -0.010596153 -0.13489845 -0.002164037 0.1389335
0002b0 29 8d ba 3d ac fc 65 3d db b6 c3 bc ca 3c 1a 3d
       0.091089554 0.05614917 -0.023890903 0.03765563
0002c0 b7 ca 6f bd db 63 81 3d 17 53 d1 3d 9a 47 41 3c
       -0.058542933 0.06317874 0.10220926 0.011796856
0002d0 da ef cd 3d 03 78 5b 3c 3d 47 e6 3d 8d 68 4e 3d
       0.10055514 0.013395312 0.112440564 0.050392676
0002e0 5e 3f 0a be e8 1d f4 bc 72 4f bb bc 79 ea 75 3d
       -0.13500735 -0.029799417 -0.02286503 0.060038064
0002f0 36 68 8e bd 28 da b9 bd 0c 63 d7 bd 5d d0 27 bd
       -0.069534704 -0.09074813 -0.105169386 -0.040970195
000300 ec f7 01 3e aa 36 02 be 25 07 22 bd 5c 95 06 3e
       0.12692231 -0.12716165 -0.039557595 0.13142914
000310 4a de 88 bd d2 0e d8 bd e8 68 c1 3d 7a b0 fa bc
       -0.06683023 -0.10549702 0.094438374 -0.030601729
000320 b9 7b 16 3e 07 9f 5e 3d 0e d5 14 3d 48 22 09 3d
       0.14695634 0.05435088 0.036335997 0.03347996
000330 be 02 9a bd 2c 57 14 be ad 1e 3d bd 52 d4 09 be
       -0.07520054 -0.14486378 -0.046171833 -0.134599
000340 ac 84 05 3e df c6 f4 39 8d 2b d3 3b 8b 4e a4 bc
       0.13038892 0.00046687477 0.0064444006 -0.020056983
000350 e3 e5 32 bc f3 d8 6f bd 1a 77 b1 bc 15 fa 81 3d
       -0.010919067 -0.05855651 -0.021663237 0.063465275
000360 7e 2c d6 bd 22 30 e3 bd 66 7d 9e bc f7 e3 92 3d
       -0.10457705 -0.11093165 -0.019346904 0.07172387
000370 6a 51 54 3d 34 6a d1 bd 4d 71 ca bd a8 78 c2 bd
       0.051835455 -0.10225335 -0.09884892 -0.094956696
000380 6c 65 06 3b 94 ac 16 bd fc 17 69 3c b1 fd 22 bd
       0.002050723 -0.036785677 0.01422691 -0.03979272
000390 5d 37 d2 bd 18 82 05 be 36 2e 03 ba 6e c3 d7 3c
       -0.10264466 -0.13037908 -0.00050041394 0.026338305
0003a0 ae 37 ce bd 55 8f f2 b9 73 18 19 bd be 49 6e 3b
       -0.10069214 -0.00046264628 -0.037376832 0.0036359872
0003b0 69 a1 89 3d cf f7 c1 37 5d 2e f1 bb a4 ea fc bc
       0.0672024 2.3122788e-05 -0.0073602633 -0.030873604
0003c0 43 15 15 be f5 64 d3 3d 55 05 1c bd ee a1 87 bd
       -0.14558892 0.103219904 -0.038091023 -0.066226825
0003d0 0e 14 a1 3d ac 81 34 3c 16 2c 0b 3b 71 4e ad bd
       0.07865153 0.011017244 0.0021235994 -0.08462227
0003e0 da de f4 bd 61 c1 ac bd 78 71 69 3d c6 54 1b 36
       -0.11956568 -0.084353216 0.056992978 2.3146144e-06
0003f0 7e 43 47 3d 47 48 f1 3d d5 16 11 ba 5d cf cc bd
       0.04864835 0.11781364 -0.0005534713 -0.10000489

convs.0.lin_dst.weight f4 [256, 12]
000000 30 5e 5c bb 3e c3 02 3e ca bc 1b 3c ee 1f f0 3d
       -0.0033625476 0.12769791 0.00950546 0.1172484
000010 a4 ac 28 3d ab 4b 12 bb 44 17 3f 3c 7f 2f e0 3d
       0.041180268 -0.0022322934 0.011663262 0.10946559
000020 c0 a2 da 3d f9 f0 2f bd f7 67 d5 bd 13 20 56 3c
       0.10675573 -0.04295442 -0.1042022 0.0130691705
000030 83 0b 54 bd 47 0a e1 bd 88 46 7d 3d 44 64 a4 3d
       -0.05176879 -0.109882884 0.061834842 0.08026937
000040 fa f1 08 be d7 91 dc b9 3e 30 90 bc 24 8a 40 bd
       -0.13373557 -0.0004207033 -0.017601129 -0.04700674
000050 2c fe e3 3d e1 cb 69 bc f6 5b 46 3b 1d 3d 31 bd
       0.11132464 -0.0142698 0.0030267215 -0.043271173
000060 aa b3 83 3d 1c 50 84 bd bb 41 a0 3d 33 51 e6 bd
       0.064307526 -0.06460592 0.07825037 -0.11245956
000070 f2 d5 9a bd 52 10 09 b9 74 a9 b2 bd ac 2e 7b 3a
       -0.07560338 -0.00013071418 -0.08723727 0.0009581845
000080 1c c6 e6 bc 6d 3a 83 3d cc df 75 3c 15 a4 f8 bc
       -0.028170638 0.06407628 0.015006971 -0.030351678
000090 ce d8 12 3e bf 25 14 3e 3e 64 e4 3d db 9c 1d bb
       0.14340517 0.14467524 0.11151932 -0.0024049792
0000a0 40 45 8e 3a 60 ca 0d ba 25 1d b4 bc ae 71 11 ba
       0.0010854378 -0.00054088794 -0.021986553 -0.00055482506
0000b0 d5 7b 02 bd 85 3d a2 ba 57 29 b0 3d c7 49 32 bd
       -0.031856377 -0.0012377953 0.08601635 -0.04352739
0000c0 2c 7f 3f bd 2a 2a 17 3e df 8d f1 39 ee d5 08 be
       -0.04675214 0.14762178 0.00046072804 -0.13362858
0000d0 05 08 97 3c 41 fc 9f bd 89 06 f1 3c de f4 0d 3a
       0.018436441 -0.078117855 0.029422062 0.0005415211
0000e0 e8 dc 97 bd 2e b4 7c bd d6 67 01 be 76 df b3 b9
       -0.074151814 -0.06169527 -0.12637267 -0.00034308032
0000f0 93 e4 dd bd 8b 42 73 bd be 36 a3 3d ab c2 2a 3d
       -0.10834613 -0.059389632 0.079694256 0.041689556
000100 62 65 0a be a5 45 b7 3d 81 0a f5 3c bc b0 e9 3c
       -0.13515237 0.089488305 0.029912235 0.028526656
000110 c8 89 f0 bd 6f a7 f8 bc a9 9e ae bd 44 f0 8a 3d
       -0.1174503 -0.030353276 -0.08526356 0.06784108
000120 70 0d d6 3d a4 55 fc bb 6f 5e 5a 3d 6b 39 47 bd
       0.10451782 -0.007700639 0.053312715 -0.048638742
000130 36 39 a1 bd 44 a9 b8 bd 6a fc cc 3c 17 c7 68 3c
       -0.0787224 -0.0901666 0.025022704 0.014207623
000140 02 1a de 3d 21 f5 98 3d 5a be a7 3d 91 46 81 bd
       0.10844804 0.0746863 0.081906036 -0.063122876
000150 61 ed f8 3d 3c 47 bb 3d ba 61 00 bc c6 cd e5 bd
       0.121546514 0.09144446 -0.0078358 -0.11220889
000160 f4 14 20 bd 31 9e c2 bd 64 49 d7 3d b6 e8 e8 3d
       -0.039082482 -0.09502829 0.10512045 0.11372511
000170 b7 55 a6 bd ba e3 34 bc d1 5c fb 3d fc be 83 b9
       -0.081218176 -0.011040622 0.12273563 -0.00025128562
000180 ae bc a8 bd 69 c7 95 3d d9 ab ce ba 7a 09 f1 bd
       -0.08239113 0.07313425 -0.0015767767 -0.11769386
000190 0f dd e5 bd 8f c8 a7 bc ba e5 c6 3d 60 70 be bd
       -0.11223804 -0.020481376 0.097117856 -0.092987776
0001a0 dc 9d ab bd 38 a0 ce 3c f5 74 60 3c 65 35 c4 3c
       -0.08379719 0.025222883 0.01369976 0.023951242
0001b0 52 c4 aa 3d f2 8e 94 bb fd b4 57 bd 10 15 9b bd
       0.083382264 -0.004533642 -0.05266284 -0.07572377
0001c0 52 67 95 3d dd 66 48 bd 76 2f ee bc 40 1f a2 3d
       0.072950974 -0.048926223 -0.029075366 0.07916117
0001d0 2e b0 a2 3d 1c 06 3a ba 77 a3 a8 bd c7 96 90 39
       0.0794376 -0.0007096247 -0.082343034 0.00027578158
0001e0 b6 6a a3 bc c6 c0 64 bd 03 53 04 ba af 70 d1 3d
       -0.019948345 -0.055847906 -0.000504777 0.10226571
0001f0 10 b5 0e be e7 fa cd bc 15 bc d4 bd 83 7d 98 3b
       -0.13936257 -0.025144054 -0.10387436 0.004653634
000200 ac b6 84 3c 2d 48 89 3d 48 0a 6b bd 6f 45 84 bc
       0.016200386 0.067032196 -0.05738285 -0.01614639
000210 99 ef a0 3d 26 5f 26 3d e9 91 b9 3b 38 7d 0c 3e
       0.078581996 0.040618084 0.005663146 0.13719642
000220 23 ac 09 3e 25 73 c9 3c 2a bb 72 bd ee 61 cc bc
       0.13444571 0.024591038 -0.059260525 -0.02494904
000230 3d 1c 85 3c cd 9f a2 bd c5 1c 55 bd e0 77 42 3d
       0.016248817 -0.07940636 -0.05202939 0.047477603
000240 fa 0b 08 be 1f 3a 5a 3d 5c a8 10 3c 73 30 07 be
       -0.13285819 0.053278085 0.0088292025 -0.13202076
000250 d3 d1 86 3d 7e 10 cf 3d 21 b6 bb 3d ad fc d7 bd
       0.065829895 0.101105675 0.09165598 -0.10546241
000260 00 6b bf bd 81 c0 98 bc 4c 46 ea bd c0 85 78 3d
       -0.093465805 -0.01864648 -0.11439189 0.06067443
000270 4c 72 fe 3d a5 b5 2d 3d 88 5e 6d bd 77 8a ae 3d
       0.12424144 0.042409558 -0.05795148 0.08522504
000280 53 3b 00 be 67 98 db bd ce 7c 8f 3d 19 53 bf b8
       -0.1252263 -0.10722428 0.070062265 -9.123068e-05
000290 1f 77 9a bd 3a 6f 4a bd 39 bc 07 be b8 98 b1 bd
       -0.07542252 -0.04942248 -0.13255395 -0.08671707
0002a0 7d 9b 2d bc d2 22 0a be 84 d2 0d bb 95 44 0e 3e
       -0.010596153 -0.13489845 -0.002164037 0.1389335
0002b0 29 8d ba 3d ac fc 65 3d db b6 c3 bc ca 3c 1a 3d
       0.091089554 0.05614917 -0.023890903 0.03765563
0002c0 b7 ca 6f bd db 63 81 3d 17 53 d1 3d 9a 47 41 3c
       -0.058542933 0.06317874 0.10220926 0.011796856
0002d0 da ef cd 3d 03 78 5b 3c 3d 47 e6 3d 8d 68 4e 3d
       0.10055514 0.013395312 0.112440564 0.050392676
0002e0 5e 3f 0a be e8 1d f4 bc 72 4f bb bc 79 ea 75 3d
       -0.13500735 -0.029799417 -0.02286503 0.060038064
0002f0 36 68 8e bd 28 da b9 bd 0c 63 d7 bd 5d d0 27 bd
       -0.069534704 -0.09074813 -0.105169386 -0.040970195
000300 ec f7 01 3e aa 36 02 be 25 07 22 bd 5c 95 06 3e
       0.12692231 -0.12716165 -0.039557595 0.13142914
000310 4a de 88 bd d2 0e d8 bd e8 68 c1 3d 7a b0 fa bc
       -0.06683023 -0.10549702 0.094438374 -0.030601729
000320 b9 7b 16 3e 07 9f 5e 3d 0e d5 14 3d 48 22 09 3d
       0.14695634 0.05435088 0.036335997 0.03347996
000330 be 02 9a bd 2c 57 14 be ad 1e 3d bd 52 d4 09 be
       -0.07520054 -0.14486378 -0.046171833 -0.134599
000340 ac 84 05 3e df c6 f4 39 8d 2b d3 3b 8b 4e a4 bc
       0.13038892 0.00046687477 0.0064444006 -0.020056983
000350 e3 e5 32 bc f3 d8 6f bd 1a 77 b1 bc 15 fa 81 3d
       -0.010919067 -0.05855651 -0.021663237 0.063465275
000360 7e 2c d6 bd 22 30 e3 bd 66 7d 9e bc f7 e3 92 3d
       -0.10457705 -0.11093165 -0.019346904 0.07172387
000370 6a 51 54 3d 34 6a d1 bd 4d 71 ca bd a8 78 c2 bd
       0.051835455 -0.10225335 -0.09884892 -0.094956696
000380 6c 65 06 3b 94 ac 16 bd fc 17 69 3c b1 fd 22 bd
       0.002050723 -0.036785677 0.01422691 -0.03979272
000390 5d 37 d2 bd 18 82 05 be 36 2e 03 ba 6e c3 d7 3c
       -0.10264466 -0.13037908 -0.00050041394 0.026338305
0003a0 ae 37 ce bd 55 8f f2 b9 73 18 19 bd be 49 6e 3b
       -0.10069214 -0.00046264628 -0.037376832 0.0036359872
0003b0 69 a1 89 3d cf f7 c1 37 5d 2e f1 bb a4 ea fc bc
       0.0672024 2.3122788e-05 -0.0073602633 -0.030873604
0003c0 43 15 15 be f5 64 d3 3d 55 05 1c bd ee a1 87 bd
       -0.14558892 0.103219904 -0.038091023 -0.066226825
0003d0 0e 14 a1 3d ac 81 34 3c 16 2c 0b 3b 71 4e ad bd
       0.07865153 0.011017244 0.0021235994 -0.08462227
0003e0 da de f4 bd 61 c1 ac bd 78 71 69 3d c6 54 1b 36
       -0.11956568 -0.084353216 0.056992978 2.3146144e-06
0003f0 7e 43 47 3d 47 48 f1 3d d5 16 11 ba 5d cf cc bd
       0.04864835 0.11781364 -0.0005534713 -0.10000489

convs.1.att_src f4 [1, 4, 64]
000000 90 6b c8 3d 73 b7 84 be 6b cc 1b be a2 4b f1 bc
       0.09786141 -0.2592121 -0.15214698 -0.02945501
000010 57 7d 38 be 1a 16 73 be 45 27 74 be 59 7b e4 bd
       -0.18016563 -0.237389 -0.23843105 -0.11156339
000020 5b 83 60 be 8b 2a 47 3d 9a 78 ef 3d 39 fb 85 3e
       -0.21925108 0.048624557 0.11692925 0.2616823
000030 0a 80 5f 3e bb 43 59 3e 50 11 51 be 36 93 12 be
       0.21826187 0.21217243 -0.2041676 -0.14313969
000040 52 50 26 3e ba e2 4b be 13 80 ce 3d fd f2 6f be
       0.16241577 -0.19910708 0.10083022 -0.23432536
000050 37 4b 9b be 2d 8a 65 be 20 22 87 3e 5b 7d 78 3d
       -0.30330822 -0.22415991 0.26393223 0.060666423
000060 29 95 05 be a5 c9 80 3d ab e9 43 be 3d f9 01 3e
       -0.13045181 0.06288461 -0.19132106 0.12692733
000070 3d 39 93 3d d5 fb 78 be be df 05 3c cb 53 07 3d
       0.07188652 -0.24314816 0.00817102 0.033038896
000080 69 89 7b 3e bf e2 66 3a f5 4c 41 3e e0 e0 ec bc
       0.24564137 0.00088075915 0.18877013 -0.028915823
000090 27 72 09 3e 09 4c 6d bd b9 b6 af bd c0 c4 63 3e
       0.13422452 -0.05793384 -0.085797735 0.22243023
0000a0 36 94 45 3b b1 e4 83 3e 54 76 3f bd 0c 71 2d 3e
       0.0030148155 0.25760415 -0.046743706 0.16937655
0000b0 25 29 2a be fd 98 6d 3e cf 52 1a be dc b8 e1 3b
       -0.16617258 0.23202892 -0.15070651 0.006888492
0000c0 89 b7 98 3d 54 64 91 3e 71 d4 7c 3e 61 0d 62 3e
       0.074568816 0.28396857 0.24690415 0.22075416
0000d0 d6 16 93 3e a5 5c 80 3b b0 ef 86 3e 10 a8 73 bd
       0.2872836 0.003917294 0.26354742 -0.05948645
0000e0 00 d0 6a 3e 7d 96 13 3e 7e 41 8c 3e dc a6 57 bd
       0.22930908 0.14412875 0.27393717 -0.052649364
0000f0 a9 29 db 3d 0f be 20 3e 47 fb 86 be 59 c9 61 be
       0.107013054 0.15697502 -0.26363584 -0.22049464
000100 ea 56 13 bb 28 62 8c be 35 f4 21 3e c1 97 f8 3d
       -0.0022482225 -0.27418637 0.15815814 0.1213832
000110 b2 89 7b bd c6 f2 28 3e f9 04 94 be 74 89 82 3e
       -0.061410613 0.1649886 -0.28910044 0.25495493
000120 c7 be c3 bd 8a 95 62 bc 5e 27 ca 3c b0 82 a4 bd
       -0.09557872 -0.013829598 0.024676975 -0.08032739
000130 e8 06 ae 3d 7c 0a 04 be bf 2b fa bd eb 19 15 3e
       0.08497411 -0.12894624 -0.12215375 0.14560668
000140 4a cb 84 be 8b c0 89 bd 6f 41 8d 3e f2 f8 6e bd
       -0.25936347 -0.06726178 0.27588984 -0.05834288
000150 69 d6 16 3e e5 20 b7 3d 29 0a 84 be 69 5b a0 bd
       0.14730228 0.08941821 -0.25789002 -0.07829935
000160 a8 20 0d be a2 1d 32 be 23 5c 55 be 83 14 ad 3d
       -0.13781989 -0.17394117 -0.20835929 0.08451178
000170 5e 64 b5 bc e8 36 ad 3d de af a1 3d 22 3b 8d 3e
       -0.022142585 0.08457738 0.07894872 0.27584177
000180 b6 3d 81 3e 46 47 be 3d 7d 36 4d 3e ba c4 90 3e
       0.25242394 0.09290938 0.20040317 0.2827509
000190 11 35 aa bc 5f 4e 8a 3e 25 fa bb bd d3 8f f1 bd
       -0.020777257 0.27012917 -0.09178571 -0.117950104
0001a0 b6 90 cd bd c4 fe 27 3e 74 c9 24 be 0c a6 7e 3e
       -0.10037367 0.16405779 -0.16092473 0.2486803
0001b0 cc 3a f1 3a 48 94 8f 3d 42 cf e7 bd 4f 55 df 3d
       0.0018404364 0.07010704 -0.11318828 0.10904943
0001c0 9c 8f 83 3e 58 31 1c be 16 6e ed bb f2 4c 0f 3e
       0.25695503 -0.15253198 -0.0072457893 0.13994196
0001d0 b7 ec 46 be 91 78 cb bd 3e 63 86 be 24 e8 57 3d
       -0.19426237 -0.099351056 -0.2624759 0.05271162
0001e0 b0 bd 98 3c 19 4b 5a 3d 4f f6 27 3e 1f c3 94 3e
       0.018645138 0.053294275 0.16402553 0.29055116
0001f0 99 d5 1e bd ee d8 28 bd 9b 83 61 3d da 25 14 be
       -0.03877792 -0.041222505 0.05505715 -0.14467564
000200 b8 97 2e be 5a 73 40 be 47 b0 29 3d 00 09 2a 3e
       -0.17050064 -0.18794003 0.041427877 0.16604996
000210 64 d6 b4 bd 50 93 06 be 4c 29 2a 3e 33 12 97 3d
       -0.08829954 -0.13142133 0.16617316 0.07376518
000220 47 9e ef 3d be 95 49 3e 08 ff 20 3e 63 fe 38 3e
       0.11700111 0.19686028 0.15722287 0.18065791
000230 30 35 79 3e 86 3e 9d 3d ea d0 4e be 45 bb 2d be
       0.24336696 0.07677941 -0.20196882 -0.16965969
000240 90 ba 4c 3e 6c 04 19 3e 4a c2 7b 3d c5 f8 27 be
       0.19993043 0.14943093 0.061464585 -0.16403492
000250 8b f2 39 3e 74 5a c9 bd 62 03 22 3e bb a4 d1 3d
       0.18158929 -0.09831706 0.15821603 0.10236498
000260 4a a6 9d bd d0 2b 90 3e 43 9d e6 3d 15 d2 4d be
       -0.07697733 0.28158426 0.11260464 -0.20099671
000270 05 68 55 be bb 00 5b 3e 78 3d 02 be 64 ed 97 bd
       -0.20840462 0.21386997 -0.12718761 -0.074183255
000280 10 af 2f 3c 18 6b 07 be f3 29 10 3e 06 e4 da bd
       0.0107228905 -0.13224447 0.14078502 -0.10688023
000290 ec c4 79 3d 0d 0d 57 be 03 08 90 be f1 3e 68 3d
       0.060978815 -0.21001072 -0.28131112 0.05670065
0002a0 d7 bb 85 be 5e 24 13 3e 39 6f 95 be ac f7 45 be
       -0.26119873 0.14369342 -0.2918642 -0.1933276
0002b0 27 ec 6c 3e d8 3f 23 be 2d fb 57 3e 45 99 c9 3d
       0.2313696 -0.15942323 0.2109191 0.09843687
0002c0 2b ad 2a 3e 39 68 cb 3c 0c 6d bf bd a8 8d 1e bc
       0.16667621 0.02482997 -0.09346971 -0.009677328
0002d0 a5 69 19 be e5 1e 17 3e 88 eb 94 3c 01 f0 3e be
       -0.14981706 0.14757879 0.018178716 -0.18646242
0002e0 08 ef b4 3d 9f 8c 15 3e b7 50 16 be fc a4 b2 3c
       0.08834654 0.14604424 -0.14679228 0.021807186
0002f0 a8 3e 11 be 33 65 27 be d5 c7 ef 3d 39 51 05 3e
       -0.14184058 -0.16347198 0.11708037 0.13019265
000300 52 5c 75 be 54 e0 a8 bd c3 2b 5c be 23 68 87 be
       -0.23960999 -0.08245912 -0.21501069 -0.26446638
000310 39 63 88 bd ed 0d ea bd 2a 4a 68 3d a9 c4 d6 bd
       -0.0665955 -0.114284374 0.056711353 -0.10486729
000320 2e 6e 10 bc 08 85 e1 bd 22 07 21 3e 00 24 45 3e
       -0.008815331 -0.11011702 0.15725377 0.19252014
000330 d8 a0 2b 3e 70 28 80 be 43 9f 59 3e 33 b2 01 be
       0.16760576 -0.2503085 0.2125216 -0.12665634
000340 dc cf 02 be 14 b5 81 be f5 f2 1f be 14 55 34 be
       -0.12774605 -0.25333464 -0.15620025 -0.1761058
000350 0b fb 3c be 76 21 af 3d 02 87 f0 bd 41 ba 85 3d
       -0.1845514 0.08551304 -0.11744501 0.06529666
000360 83 cd 20 be 56 54 20 3e e2 18 e3 3d 34 fb 33 3e
       -0.15703396 0.15657172 0.110887304 0.17576295
000370 96 74 5d 3e dc be 88 3e 2b 73 50 3e 75 e5 41 3e
       0.21626505 0.26708114 0.20356433 0.18935187
000380 2f fb 06 be 06 1f 0f 3e 64 60 d7 3d b1 6b d3 bd
       -0.13181756 0.13976678 0.10516432 -0.10323275
000390 7f 2e 26 3e 7b 4e 37 3e 2a 86 e2 bd fe 4c 8f be
       0.16228674 0.17901032 -0.11060746 -0.27988428
0003a0 72 02 2b 3e 4f d4 83 3e 2d 1b 35 3e ed b7 de bc
       0.16700152 0.25747916 0.17686148 -0.027187312
0003b0 04 fb 30 be be 75 92 be 02 dd 74 3e 60 9a a9 bd
       -0.17283255 -0.28605455 0.23912433 -0.08281398
0003c0 9d 2a cd 3d df c1 cc 3d 50 e8 8f 3e 1d 16 2c 3e
       0.100178935 0.099979155 0.28106928 0.1680531
0003d0 f3 d7 79 bc 84 be 00 be 8a 5c 14 3d 27 95 5b 3e
       -0.01524924 -0.12572676 0.036221065 0.21443616
0003e0 cb 5c 5c be f2 c6 0b be b0 bb 02 be 63 01 d0 bd
       -0.21519773 -0.1365011 -0.1276691 -0.101565145
0003f0 0b 60 59 3e c6 dd 71 3e 13 4e 6a 3d 0d 4e 46 be
       0.21228044 0.23619756 0.057203364 -0.19365712

convs.1.att_dst f4 [1, 4, 64]
000000 e1 84 72 3e 1a bd a5 bd 9d 5a 9b bb e4 53 65 bc
       0.23683502 -0.08092709 -0.0047410266 -0.013997052
000010 b9 ce 44 be 54 08 8c 3d 17 8f b5 bb c3 f3 1b 3e
       -0.19219483 0.06837526 -0.0055407393 0.15229706
000020 81 31 0f 3e 81 bb c8 3d 34 dd 55 bc a1 a0 09 be
       0.13983728 0.098013885 -0.013053227 -0.13440181
000030 6f 7d 39 be c6 f3 92 be 05 d7 6b 3c 0e e4 92 be
       -0.18114255 -0.2870161 0.014394526 -0.28689617
000040 0b 64 23 be 0d f3 03 bd 22 95 98 3c 78 ab 70 3e
       -0.15956132 -0.032214213 0.0186258 0.2350291
000050 a0 eb 91 bd 3f 4f 56 bd 32 ce fd bd 86 6e 4c 3e
       -0.0712502 -0.05232167 -0.12392844 0.19964036
000060 f8 cb 90 be 22 8c 5f be ef 39 00 3d b3 bd b4 bd
       -0.28280616 -0.218308 0.03130525 -0.08825245
000070 65 c1 9c bd 7e 3d 48 be 6f f1 2b 3d 7f 9f 72 3e
       -0.076540746 -0.19554707 0.041978296 0.23693655
000080 ef 61 5c be 24 cf 6e be 4c 50 e4 3d 12 58 66 bc
       -0.21521734 -0.23321205 0.11148128 -0.014059084
000090 f2 f8 ea 3d 1e 1a 4f 3e f4 5f 3a be bb 34 83 3e
       0.11473264 0.20224807 -0.18200666 0.25626168
0000a0 b4 6c d2 bd 60 1d 0d 3e c9 9d 82 bd 2c 0d 31 be
       -0.1027464 0.13780737 -0.063777514 -0.17290181
0000b0 e7 d6 54 3e 63 33 4a be 71 13 87 3d 87 f9 47 3e
       0.20785104 -0.19746165 0.06595505 0.19528781
0000c0 48 03 55 3e 0b 68 47 be 66 a3 21 be 3a 68 5b be
       0.20802033 -0.19473283 -0.15784988 -0.21426478
0000d0 dc 66 4c 3e 24 a5 2a 3d 42 f5 7b be 10 ee 94 be
       0.19961113 0.041661397 -0.24605277 -0.29087877
0000e0 d3 af 84 be 64 4b 53 be 0f b8 29 3e b0 38 35 3d
       -0.25915393 -0.20634228 0.16574119 0.044243515
0000f0 43 c8 c9 3d 12 0d 25 be e8 44 e3 bc 15 53 81 be
       0.0985265 -0.16118267 -0.027742818 -0.252587
000100 98 bb 74 bd 8d 59 03 3e cf 0f 4f bd 51 44 85 be
       -0.059749216 0.1282713 -0.050552186 -0.26028684
000110 60 f8 44 be c2 75 08 be 01 47 71 3e 92 83 3f 3e
       -0.19235373 -0.13326171 0.23562242 0.18702534
000120 ed 86 1c be a5 a4 10 3d fb d7 36 bc b0 17 c4 3d
       -0.15285845 0.035313267 -0.011159892 0.095748305
000130 85 f7 94 be 1a 7e 7d be f3 c9 3d 3e 53 a0 3a be
       -0.29095092 -0.24755135 0.18534069 -0.18225221
000140 d9 6d 33 3c 54 4c 3c 3e 09 ff 8c bc f4 c7 6c 3e
       0.010951483 0.18388492 -0.017211454 0.23123151
000150 66 17 21 3e a8 6a 9c 3d 20 ef 8d be c0 9e d5 3d
       0.15731582 0.076375306 -0.277215 0.1043067
000160 8d 5f 98 3d 0d a4 62 be bd 36 8f be 01 6e 48 3c
       0.074401 -0.22132893 -0.2797145 0.012233258
000170 5f bc 49 3e 63 75 38 3e 45 a7 a4 bd c6 37 11 3e
       0.19700764 0.1801353 -0.08039717 0.14181432
000180 c4 cb cf bd d0 4f 33 be fc 9f ef 3d 82 fb 20 3e
       -0.10146287 -0.17510915 0.117004365 0.15720943
000190 49 6f 3a be d9 3b 3a be 46 72 8c 3d aa c8 b6 bd
       -0.18206514 -0.18186893 0.068577334 -0.089249924
0001a0 15 58 13 3e e1 d1 0a bd a3 09 39 bd b8 26 76 3e
       0.1438907 -0.033891562 -0.045175206 0.24038208
0001b0 da b1 ca 3d 4d 54 c1 bd f3 9a cb bd 5a f8 49 be
       0.09897204 -0.09439907 -0.099416636 -0.19723645
0001c0 1f 56 68 bd c2 8b 4e be 05 b1 3d be c7 28 6c be
       -0.056722756 -0.20170501 -0.18524559 -0.2306243
0001d0 37 dd 71 be 08 4a 37 3e 65 15 5d 3e ee 62 82 be
       -0.23619543 0.17899334 0.21590193 -0.25466102
0001e0 c3 b9 15 3c bf 76 75 be a7 fc 1b 3e 2b cd 2b 3e
       0.009138527 -0.2397108 0.15233098 0.16777484
0001f0 dd c1 ff bd bc 53 77 3e ef 92 da bd 37 9a 7c be
       -0.12488148 0.24153036 -0.106725566 -0.24668203
000200 7c ac 36 be 5b d9 fc 3d 75 9c 3a 3e 8b c0 05 be
       -0.17839235 0.12346145 0.18223746 -0.1306173
000210 29 f5 3f 3d ed d3 29 3e ba fa 5e be 4e 3f 8f bb
       0.046864662 0.1658475 -0.21775332 -0.00437156
000220 1c a1 88 be 23 3e 9a bd 33 d7 a8 3d 58 05 27 be
       -0.26685417 -0.07531383 0.08244171 -0.16310632
000230 92 d1 80 be 22 e5 59 3e 6e 82 48 3e ef d7 82 be
       -0.2515989 0.21278813 0.19581005 -0.2555537
000240 27 af 65 3e b2 58 db 3c e2 8a 81 3b 49 92 09 3e
       0.22430097 0.026775692 0.0039533237 0.1343471
000250 46 ca 78 3e 1c 4f 89 3e e9 6d 55 be 64 9a 86 be
       0.24295911 0.26818168 -0.20842709 -0.26289666
000260 ad 54 2f 3e 1b 8a 9a bc a2 73 6d 3e bf 1f ce bd
       0.17122145 -0.018864682 0.23188642 -0.10064649
000270 c0 f1 4a bd bb 78 d8 bd 34 31 8f be 21 74 89 be
       -0.049546957 -0.105699025 -0.27967227 -0.26846412
000280 cb 48 97 bc 63 e1 50 3c 28 59 fa 3d 1b b4 95 be
       -0.018467328 0.012749049 0.122240365 -0.29238972
000290 73 95 88 3e 63 9e 76 be 8c f2 bc bd db f2 01 be
       0.2667652 -0.24083857 -0.0922595 -0.12690298
0002a0 ee ac e6 3c 0f 8c 8d 3e 1e 44 56 3c 5d bd c3 3a
       0.028158631 0.2764592 0.013077764 0.0014933754
0002b0 1d 85 4f 3e 7d 20 27 3c fc 25 27 3e e9 7b 1d bc
       0.20265622 0.010200617 0.16323084 -0.009612062
0002c0 62 55 b6 bc 4d 75 80 bd 05 ad 5f 3e e8 f6 43 3c
       -0.02225751 -0.06272373 0.21843345 0.0119607225
0002d0 17 61 b5 bc 4b b8 8d be 2f ba 2c 3e 86 ed 3c 3d
       -0.022141023 -0.27679667 0.16867898 0.046124958
0002e0 13 ba 56 3d 85 a7 51 3e 49 2b 72 3e e0 18 57 be
       0.052423548 0.2047406 0.23649324 -0.21005583
0002f0 02 f6 d5 3d e6 99 62 3d 41 e0 81 be 36 d9 63 be
       0.10447313 0.05532255 -0.25366405 -0.22250828
000300 62 c3 15 be bb c4 93 3e 4c df 29 be 9c 4b 97 be
       -0.14625314 0.2886103 -0.16589087 -0.29549873
000310 0e e7 91 be a7 6b 83 be a7 92 89 3e b9 1d c5 39
       -0.28496593 -0.2566807 0.268697 0.00037596913
000320 55 da ac 3d 02 e3 40 3e 20 fc 0e be 5f e2 0a 3b
       0.08440081 0.18836597 -0.13963366 0.0021192057
000330 d0 af da 3d 29 d4 80 bd 7b be 0c 3e 64 5e 54 be
       0.10678065 -0.06290466 0.13744538 -0.20739132
000340 67 f3 81 3e cc 05 8c 3e 69 fb 86 be b1 e8 db 3d
       0.25381014 0.27348173 -0.26363686 0.10737742
000350 f9 b3 af 3d 00 f7 5a 3d 5e d4 3b be 65 1c ea 3d
       0.08579249 0.053458214 -0.1834273 0.11431197
000360 f7 f3 9b 3d 25 c9 59 3e a0 54 5a be 90 51 48 3c
       0.07614892 0.21268137 -0.21321344 0.012226477
000370 31 42 4c 3e f5 32 85 3e 1f 5c 95 3c 80 bc 4a 3e
       0.19947125 0.2601544 0.018232403 0.1979847
000380 65 fa 31 be 1f f6 57 3e ec 26 7d 3c fb 89 53 be
       -0.17380674 0.21089981 0.015451174 -0.20658104
000390 1b 27 77 be 33 d2 22 3e 58 52 c2 bd 86 ab 9e 3d
       -0.24136011 0.15900497 -0.09488362 0.07747559
0003a0 c3 83 85 bc 53 de 81 3e 26 7d 20 bb dc f4 62 be
       -0.01629818 0.25364932 -0.0024488657 -0.22163719
0003b0 c9 63 1f be f4 b2 3d 3e bd 02 da bc 63 c6 09 3e
       -0.15565409 0.18525296 -0.026612634 0.13454585
0003c0 2c 71 5d be 6e 39 57 bc 2a bc 90 3e 24 95 70 be
       -0.21625203 -0.013136251 0.28268558 -0.23494393
0003d0 fe 2d 8f 3e cb 04 1a 3e 60 07 9c 3d 05 f6 50 3e
       0.27964777 0.15040891 0.07618594 0.20406349
0003e0 87 c8 19 be cb 5d 12 3e d9 5d fd bd 98 45 68 bd
       -0.15017901 0.14293592 -0.12371416 -0.056706995
0003f0 db 09 ab bd fb 3e 8b 3e 66 89 51 3e 59 5e 13 be
       -0.08351489 0.27196488 0.2046257 -0.1439146
