trained_weights/trace/gat40.pth (torch, 328660 bytes, 27 tensors)

convs.0.att_src f4 [1, 4, 64]
000000 16 4f ef bd f0 3a 2c be b5 1f 0e be dd af 81 be
       -0.11685006 -0.16819358 -0.13879283 -0.25329486
000010 38 2d 1e 3d 71 2d 7c 3d 81 57 37 3e 12 30 19 be
       0.038617343 0.061566774 0.17904474 -0.14959744
000020 76 5d d1 bd 41 49 e5 bd 4a 84 04 be bd eb 26 3e
       -0.102229044 -0.11195613 -0.1294109 0.16300865
000030 b7 29 5e 3d 74 e8 e1 3d de b8 f9 3c 29 6c af 3d
       0.054239 0.11030665 0.03048366 0.08565552
000040 e4 3c 40 3d d3 6f 01 bd f7 f8 0e 3e 57 7d 8a 3e
       0.04693307 -0.031600785 0.1396216 0.27048752
000050 2a 9d e0 bc 6d d7 2f 3e 1b fd 06 3d 14 e9 3b 3e
       -0.027418692 0.17172022 0.032956224 0.18350631
000060 71 c4 e6 3b 8a 16 93 3a 47 33 2c 3d 69 b7 60 3e
       0.0070424606 0.0011221927 0.04204109 0.21944965
000070 6b 8e 51 be 33 b1 00 3e 6d f5 36 3e 19 2f 54 3e
       -0.20464484 0.12567596 0.1786706 0.20721091
000080 06 13 87 3e ed 9f 1e 3e 18 07 15 3e b0 e6 05 3c
       0.263817 0.15490694 0.14553487 0.008172676
000090 35 6e 1b 3b fe 56 18 3e 15 15 df bd 7b 16 4a 3e
       0.0023716812 0.14876935 -0.10892693 0.19735138
0000a0 65 1b 83 3e d4 b1 73 3e d2 91 8a 3d bc a7 b6 3d
       0.25606838 0.23798305 0.06766094 0.089187115
0000b0 b2 cc 3e 3d d0 82 ba bd 5a 70 e9 3d 36 c8 a0 3c
       0.04658193 -0.09106982 0.113983825 0.019626718
0000c0 5e 9e 19 3e 0d c3 46 be 07 f8 10 3d b3 0f c1 bd
       0.15001819 -0.19410343 0.035392787 -0.094268225
0000d0 94 0b 9c 3e c9 53 4d 3e 55 8e 88 3e 2b 7c a0 3e
       0.30477583 0.20051493 0.2667109 0.31344733
0000e0 47 07 2e 3e 3f b5 44 3d ff bc c9 3d c3 a0 73 3e
       0.16994964 0.048024412 0.09850501 0.23791794
0000f0 c4 6a 91 be e5 c9 93 bd 6c 66 05 3e 50 ef 8a 3e
       -0.28401768 -0.07216243 0.13027352 0.27135706
000100 82 30 a2 bd ef 11 04 3e 2c b2 79 3e 5d bb 8e be
       -0.079194084 0.12897466 0.24384373 -0.27877322
000110 8b 58 94 3d ed 12 39 be 49 3f 33 3e 49 0a 8e 3d
       0.07243451 -0.18073626 0.1750461 0.069355555
000120 19 a2 8a 3e e9 33 b2 be 43 5a 27 3e 80 6e ad bc
       0.27076796 -0.3480523 0.16343026 -0.021170855
000130 76 d5 23 bd 8a b3 98 3e 26 63 3c be 59 88 54 3e
       -0.039998494 0.29824477 -0.18397197 0.20755138
000140 bd e8 94 3c 88 ab 89 3e b5 a2 5f bc ad 1a ae bd
       0.018177385 0.2688868 -0.013649632 -0.08501182
000150 a2 af 0b 3c 23 11 c9 3d 8c b2 70 be 30 e9 6b 3e
       0.008525761 0.09817722 -0.2350561 0.23038173
000160 15 67 f4 3c 23 5d 87 be 27 2e 6c 3d 14 6a 95 bd
       0.02983431 -0.26438245 0.0576612 -0.072956234
000170 5d 2c 42 3d 81 28 a2 bd fe 83 eb bd 7c 28 71 3e
       0.04740559 -0.07917882 -0.11499785 0.235506
000180 25 65 89 3c 53 78 61 be 52 ea 8f be 69 6b 21 be
       0.016771862 -0.22018556 -0.2810846 -0.1576363
000190 b1 0e 29 3d 34 ab 41 3e 4b f2 04 3e 65 6d f9 3c
       0.041273776 0.18912965 0.12983052 0.030447671
0001a0 87 f4 07 be 8c 27 5a 3c c7 89 2a 3e 33 48 09 be
       -0.13276874 0.013315093 0.1665412 -0.13406448
0001b0 c5 07 87 3e 57 28 47 3e 55 82 55 3e b1 c4 8f be
       0.26373115 0.19448982 0.20850499 -0.2807975
0001c0 ea c5 89 3d 4c 26 78 bc 28 c5 f1 3d fb e0 9a bc
       0.06727202 -0.015145849 0.11805183 -0.018906107
0001d0 24 3e 91 3e ff 5c 9a bd 7a f9 53 bd 82 ce e0 3d
       0.28367722 -0.07537269 -0.05175159 0.10976888
0001e0 30 be 95 3e f6 2c 34 bd 10 9e ab 3e e9 ce fa bd
       0.29246664 -0.04398819 0.3351903 -0.12246496
0001f0 e5 07 8d 3d ff 4f 47 bb 56 14 98 3e d1 ef f4 bd
       0.068862714 -0.0030412672 0.29703015 -0.11959804
000200 e3 ba 23 3e ed 6f 9d bb ec 45 2f 3c f8 d3 0c 3e
       0.1598926 -0.0048046024 0.010697823 0.13752735
000210 8c eb 6f be be 9e 89 3e 7a 94 51 3e 2f 0c ae 3e
       -0.23429698 0.26878923 0.20466796 0.3399367
000220 a0 f0 10 3e cd d6 42 be b2 53 14 be 99 38 1f 3e
       0.14154291 -0.19027252 -0.14485052 0.15548934
000230 18 50 2a 3e 47 e1 67 3e 5b 48 89 3e 3d e6 1f bd
       0.16632116 0.2264453 0.26813015 -0.03903793
000240 ee 51 1b bd 46 8d d9 b8 f0 e7 a1 bc 66 d9 25 3e
       -0.03791993 -0.000103736806 -0.019763917 0.16196212
000250 b6 c1 fb 3d 61 63 69 bd 4d 02 09 be b1 b9 6a 3e
       0.12292807 -0.05697954 -0.13379784 0.22922398
000260 a2 7b 37 bd 38 ca 39 3e 90 f6 44 3e b3 1c f3 bd
       -0.04479564 0.18143547 0.19234681 -0.11870708
000270 69 bc e7 3d ad fc 2f 3e 2f 34 5d 3e 7e 36 a7 3d
       0.11315233 0.17186232 0.21601938 0.081646904
000280 61 1e 2e be d0 ee 0f bc fa ce 23 be db c2 73 be
       -0.17003776 -0.008784965 -0.15996924 -0.238048
000290 3f db 59 bd 2a ac 8a bd 12 77 95 bd 85 bb 5a 3e
       -0.053187605 -0.06771119 -0.072981015 0.21360596
0002a0 f8 28 c4 37 14 94 56 be 74 2a 9c bd b7 36 85 3e
       2.3384098e-05 -0.20954925 -0.07625285 0.26018307
0002b0 75 38 bc bd 85 fa a1 bd 3c 53 91 3e d0 e1 fd 3a
       -0.09190456 -0.07909111 0.28383815 0.0019369666
0002c0 91 0a 76 be cb bf 5e be d7 6c bd bc 6d cf 97 be
       -0.24027468 -0.2175285 -0.023123188 -0.2965044
0002d0 f4 c9 a1 be 98 c5 d6 bd 15 cf dc bc 5e d2 0a 3e
       -0.3159939 -0.10486907 -0.026954213 0.13556811
0002e0 7e 45 c5 bd 21 27 a3 bd 47 53 50 be b5 2d 1f be
       -0.09632395 -0.079664476 -0.20344268 -0.1554478
0002f0 0f 1b b9 3d 84 69 05 3e 52 a9 2d be 04 9e 05 3d
       0.09038364 0.13028532 -0.16959122 0.0326214
000300 9b 0f 2e 3e 4d 9d 65 3e 37 ba 0a 3e 1d 45 7e 3e
       0.1699814 0.22423287 0.13547598 0.24831052
000310 cb a1 d7 3c 18 77 0f 3e fa c2 96 bd 1f 17 01 3d
       0.026322266 0.14010274 -0.073614076 0.03151619
000320 0b 75 98 3e 22 04 07 be c4 25 67 3d ae 65 b9 bc
       0.29776797 -0.1318517 0.0564325 -0.022631492
000330 9a e2 91 be 0c 1a 8c 3d 94 69 25 3e a8 a5 46 3d
       -0.28493196 0.068409055 0.16153556 0.048497826
000340 55 94 09 3d fa 2d f0 3d 41 5a 8b 3e 37 05 b0 3e
       0.033588726 0.11727519 0.27217296 0.3437898
000350 53 06 10 3e fb b9 43 bd 27 25 0e 3e 49 69 44 be
       0.14064912 -0.047784787 0.1388136 -0.19180788
000360 59 88 42 3d 57 c9 9b 3e 26 bf 5a be c6 74 0b 3e
       0.047493313 0.30427048 -0.2136198 0.13618764
000370 73 83 88 3c 25 2e f0 bd fc 2d 43 bd cc d2 54 3e
       0.016664242 -0.11727551 -0.047651276 0.20783538
000380 dd 56 82 3d 23 86 5b be be af 3b bd 43 cc 1b be
       0.06364224 -0.21437888 -0.045821898 -0.15214638
000390 3e 52 34 3c c4 cd 0b 3e 57 49 53 3e 47 b9 5d be
       0.011005936 0.13652712 0.20633446 -0.21652709
0003a0 f8 a4 aa 3b 7f 4b ec bd 70 c5 a0 bd 76 2c 3f 3e
       0.005207654 -0.11537837 -0.07850158 0.18669304
0003b0 ab 93 57 3e b5 fe 17 3e 10 15 3d be 6c c3 76 bd
       0.21052425 0.14843257 -0.18465066 -0.060244963
0003c0 68 02 01 3e 17 59 72 3e 67 c4 8c bb 3d 17 0b be
       0.12598574 0.23666798 -0.004295874 -0.13583083
0003d0 c0 54 3d be 4d 1a 41 be 43 50 1f 3d 60 8b 0d be
       -0.18489361 -0.18857689 0.038894903 -0.13822699
0003e0 8d e3 4b bd 91 86 5e be 00 53 23 be 04 e3 29 3e
       -0.049777556 -0.2173102 -0.1594963 0.16590506
0003f0 8d 1b d8 3d dc e4 a9 be 72 57 1c bc 00 1b 56 3d
       0.1055213 -0.33182418 -0.009542333 0.052271843

convs.0.att_dst f4 [1, 4, 64]
000000 2b 14 d3 bd e1 89 96 3d d8 4c 63 be 9c 5a f7 3b
       -0.10306581 0.07350517 -0.22197282 0.0075486433
000010 d1 4f 43 be d2 ba fd bd b0 1a 74 3d 84 28 81 bc
       -0.19073416 -0.12389149 0.059595764 -0.01576639
000020 4b 30 29 be ad 2a 81 bd 22 2e 1b 3e 24 69 44 3e
       -0.16522329 -0.06306968 0.15154317 0.19180733
000030 46 65 b7 bd d9 6f 26 3e 93 b1 05 3e a3 e9 1d 3e
       -0.08954863 0.16253604 0.1305602 0.15421157
000040 24 11 b8 3d bc 93 00 3e f8 5e 76 3d 4f 7c 15 bd
       0.08987644 0.12556356 0.060149163 -0.036495503
000050 56 e3 63 bd 66 a9 2c 3e 2d c3 0d be 4c 81 7f bd
       -0.055636726 0.16861495 -0.13843985 -0.062379166
000060 f0 87 c2 bd d8 ea 03 3e 42 cc d5 3c 40 4f a5 bd
       -0.09498584 0.12882555 0.026098374 -0.08071756
000070 0f 1c f9 bd 51 15 79 3d 9f f2 d5 bd ba 23 1d be
       -0.12163555 0.060811345 -0.10446667 -0.1534566
000080 f1 fb 1b be d4 11 b8 bd 55 1a 1f 3e a9 26 c9 bc
       -0.15232827 -0.089877754 0.15537389 -0.024554567
000090 58 3b 6a 3d 9e e4 83 bd 33 40 68 bd 60 7f 98 3d
       0.0571855 -0.0644009 -0.05670185 0.0744617
0000a0 88 a2 7a 3d 6e 11 4e be a1 d6 02 3e e2 5d 59 3d
       0.061190158 -0.20123836 0.12777187 0.05306805
0000b0 e3 98 31 3e 9f b2 03 3e 3b be 4d be af 48 2f 3d
       0.17343478 0.12861107 -0.20092098 0.042793926
0000c0 d3 e9 00 3e fc f7 47 3e d1 f9 5a 3e cf 62 24 be
       0.12589197 0.19528192 0.2138436 -0.16053317
0000d0 41 98 d3 bc d4 35 40 3e 85 e0 b3 bd 68 8f 44 3d
       -0.025829436 0.18770534 -0.08783058 0.047988325
0000e0 e7 31 3a be e3 5e 44 be 48 2b e6 bd 0f 4e b0 3c
       -0.18183099 -0.19176821 -0.11238724 0.021521596
0000f0 4c 20 15 bc 3a e7 55 3c 4b de 35 3c ba 46 06 3e
       -0.009101938 0.013055617 0.011100362 0.13112918
000100 97 83 63 3e 0b 70 0a bd c3 91 dd bd 25 0a 01 3e
       0.22218166 -0.03379826 -0.108188175 0.12601526
000110 42 ed 01 bd 0b ee 8d bd d5 fb 86 bb 40 28 de 3d
       -0.031720407 -0.06930169 -0.004119376 0.10847521
000120 ef f3 3a 3d b8 ab b2 3c c4 55 f7 3b 12 aa 24 be
       0.04564279 0.021810398 0.007548066 -0.16080502
000130 54 93 cf bd 9f f8 9b bc 4c 38 2e 3e c7 0a 2b be
       -0.101355225 -0.01903945 0.17013663 -0.1670333
000140 a8 8c 22 3e 77 5f e9 bc 62 49 3a 39 b5 02 9e bd
       0.15873969 -0.028487904 0.0001776568 -0.0771536
000150 8a 87 29 3e dc c8 3d 3e 69 ac 43 3c 54 2d 39 3e
       0.1655561 0.18533653 0.011942961 0.18083698
000160 73 9d 39 be 54 56 49 be 8a 47 ea 3d 19 78 84 3d
       -0.18126468 -0.19661838 0.11439426 0.06468219
000170 d7 cf 82 3e 41 ac 72 be 86 b0 17 be 06 13 71 3e
       0.25549194 -0.23698522 -0.14813432 0.23542413
000180 19 e5 81 bc d9 38 92 3d cf 64 35 be cd 99 83 bc
       -0.015856313 0.07139749 -0.17714237 -0.016064549
000190 d4 cf 57 3d 96 ee b9 3d 5e 44 42 be 94 20 60 bd
       0.052688435 0.0907871 -0.18971393 -0.05471857
0001a0 54 d8 ab 3d a5 d3 54 3e ed 85 53 3e 11 08 82 3b
       0.08390871 0.20783861 0.20656557 0.0039682467
0001b0 95 41 33 be 52 f9 f2 bd 36 95 8d 3d 33 74 cd bd
       -0.17505486 -0.1186396 0.06913225 -0.10031929
0001c0 fa 71 14 3e 1d d8 f3 bd e4 5a 59 bd 5f 4e 76 bd
       0.14496604 -0.11906455 -0.053065196 -0.060133334
0001d0 2e 89 cf 3d 28 70 83 bd e3 b3 2c 3e bd 2f 01 3d
       0.10133587 -0.064178765 0.16865496 0.031539667
0001e0 e8 0f 2e be b7 45 26 3d 10 76 ec 3d b8 92 22 be
       -0.16998255 0.04059383 0.11545956 -0.15876281
0001f0 12 d4 81 be 1b 7c 19 3e 40 cf b7 3d fa f9 86 bd
       -0.2535711 0.14988749 0.08975077 -0.06590648
000200 af 7d cc 3d bb 40 37 be 9a 58 9d bd 26 6e 63 3e
       0.0998491 -0.17895786 -0.07682915 0.22209987
000210 d1 9e 02 bd ae 0c 9c bd 47 e2 f7 bd 01 15 c3 3d
       -0.03188974 -0.07619606 -0.12103706 0.095254906
000220 d9 54 15 be 27 01 67 be 5a 77 56 be 40 95 24 bd
       -0.14583148 -0.22559033 -0.20943967 -0.0401814
000230 89 68 87 3d cd ea b8 3d 87 15 15 be 2d 0c 9f bd
       0.066117354 0.0902916 -0.14558993 -0.07765994
000240 12 93 c0 bc f1 1a 0c be e4 4d 29 bd 4d ee 75 3a
       -0.023507629 -0.13682152 -0.041334048 0.0009381518
000250 0f 92 18 be 7e 92 8d bd c1 19 5d bd 40 3b 7a 3e
       -0.14899467 -0.06912707 -0.05397964 0.24436665
000260 8e c5 dd bb 00 f4 13 3d a5 10 9a 3d f6 a6 5b 3e
       -0.006767935 0.03612137 0.07522706 0.2145041
000270 a7 4a 0e 3c 7a 9d 22 3e 45 74 59 3d e8 1f 18 3e
       0.008684791 0.15880385 0.0530894 0.14855921
000280 04 9a 86 bd be 03 6b be 13 f9 da 3d 48 11 d9 bd
       -0.06572345 -0.22950646 0.106920384 -0.10598999
000290 e1 2e 3b 3d f7 52 a4 3d d7 c6 f2 3d c8 67 a4 3d
       0.045699004 0.08023637 0.11854332 0.08027607
0002a0 2c ed b7 bd 4a 03 55 bd 31 9c 5f be bf ff 7b 3d
       -0.08980784 -0.05200509 -0.21836926 0.061523195
0002b0 db 1a 2a 3d ab b0 02 be fb e0 95 3c 8e db 2c 3e
       0.041529518 -0.12762706 0.018295756 0.16880628
0002c0 29 2e e3 3d fe 64 31 3e 56 28 92 3d ad 50 dd bb
       0.11092789 0.17323682 0.071366 -0.006754002
0002d0 65 1b 57 3b 0b bb ae bd b6 b1 b8 3d 15 b3 f2 bd
       0.0032822725 -0.08531769 0.09018271 -0.118505634
0002e0 3b 3d 9e 3d 46 b0 d2 3d 8b 86 dd 3d 2f ac 28 3e
       0.077265225 0.10287528 0.10816678 0.16471933
0002f0 3a a0 ef bd 03 b0 0a be 73 48 6d bc 5f f0 1c be
       -0.11700483 -0.13543706 -0.014482605 -0.1532607
000300 5d ce 12 be 60 86 8d 3e 00 2e 05 be 3e 91 7b be
       -0.14336534 0.27641582 -0.13005829 -0.24567124
000310 2e 4a 82 be b8 30 f0 bc 3a 07 ba 3d 54 61 f5 bd
       -0.2544722 -0.029320106 0.090834096 -0.119814545
000320 72 7e e8 bd 68 0d 09 bd f1 42 76 3e 47 82 f7 3b
       -0.113522425 -0.03346005 0.24048974 0.007553372
000330 f7 7b 85 3a 94 79 29 3e bf b5 1a bd 56 d9 0f 3e
       0.0010184039 0.16550285 -0.037770983 0.14047751
000340 8f 38 fd 3d a9 57 76 be 00 b2 87 3c 6d 19 58 3e
       0.12364303 -0.24056877 0.01656437 0.21103449
000350 bf f9 ec 3d 59 ec 2a bc 60 21 9e bd 49 76 85 bd
       0.11571073 -0.010432326 -0.077212095 -0.06516702
000360 c0 aa 4f 3c c9 c1 29 be ec ce 77 3e 5a eb 3c 3b
       0.012674987 -0.1657783 0.24200028 0.0028826804
000370 0f fb 89 3d 0b 9c 86 3d 63 72 43 3e d6 9e 87 be
       0.06737339 0.065727316 0.19086604 -0.2648837
000380 68 23 31 be b9 8e f5 3c 7e 4f 79 be 97 b7 b8 bd
       -0.17298663 0.029975282 -0.2434673 -0.09019392
000390 eb f6 1d be c3 74 c2 3c 1e 45 36 3d a6 35 3e 3e
       -0.15426223 0.023737317 0.04449951 0.18575153
0003a0 41 28 94 bd 65 7a 04 bc 48 60 6b 3d ca a8 59 bd
       -0.0723424 -0.008085822 0.057464868 -0.053139485
0003b0 aa 63 19 3e d5 a0 3e 3e fc b4 9e ba 13 ed 5c 3d
       0.14979425 0.1861604 -0.0012108381 0.05393703
0003c0 7d f3 ed 3d 75 fe d0 3b b4 42 0a 3d c8 14 aa bc
       0.11618707 0.00637799 0.03375502 -0.020761862
0003d0 d7 1e f7 3d ee 9a 13 bd 66 93 69 be f5 53 ff 3d
       0.12066429 -0.036036424 -0.22810134 0.124671854
0003e0 30 50 e2 3d d3 59 33 3e e6 3b 96 bc 25 3b 12 be
       0.11050451 0.17514734 -0.018339109 -0.14280374
0003f0 42 18 c7 3d 56 5f 3e 3e de e1 1a be e7 94 38 3e
       0.09721424 0.18591055 -0.15125224 0.18025552

convs.0.bias f4 [256]
000000 32 93 43 3c 2a d3 06 bc 50 be 47 bc 82 02 87 3a
       0.01193695 -0.008229056 -0.01219137 0.001030043
000010 6e 92 89 3b 03 2f d0 bb 8d ee 35 bd e6 24 b2 3b
       0.004198364 -0.0063532605 -0.044416953 0.0054365275
000020 1d 70 ed 3c 36 50 ca 3a ca e6 63 ba 86 6b bd 3c
       0.028984124 0.0015435282 -0.0008693753 0.02312256
000030 31 c1 d8 3c 78 79 a3 bc a1 75 2c bd d0 27 a5 3b
       0.026459308 -0.019955382 -0.042104367 0.0050401464
000040 10 30 66 3b d2 a8 c6 bc d3 2e 9e 3b 53 56 eb 3b
       0.0035123862 -0.024250422 0.004827359 0.0071819215
000050 93 f1 3c 3a f8 44 ca 3b 17 f3 d2 3b 8e 96 99 3c
       0.0007207628 0.0061727725 0.00643767 0.018748548
000060 bf f0 9f bb 7c 6b 7d bb 76 64 aa bc 2c fc e9 3b
       -0.004880994 -0.0038668802 -0.020799857 0.007140657
000070 0a b5 ac bb e3 81 8b 3b ce d3 cb bb ac 8d 1c 3c
       -0.005270605 0.004257427 -0.0062203174 0.009555262
000080 50 9a 05 3c 08 62 12 bd 50 36 c0 3c 0f 1b 32 3d
       0.008154467 -0.03573802 0.023463398 0.043482836
000090 d6 72 8c 3c 90 c7 a6 bc d4 e0 85 3b f2 cd 3b bc
       0.017144602 -0.02035883 0.0040856395 -0.011462675
0000a0 50 96 ea bb 2b 4f e7 3b 8f e0 d5 3a 2c e2 42 3b
       -0.007159032 0.007058998 0.0016317534 0.002973686
0000b0 2a c2 b6 bb 3f 21 34 3c 79 eb 8f 3a d2 2c c0 3b
       -0.0055773454 0.010994255 0.001098021 0.005864718
0000c0 d2 a9 24 3c 42 56 8b bb 22 d5 d9 3b cd c2 08 3c
       0.010050254 -0.004252226 0.006647722 0.008347225
0000d0 84 15 29 3c fb 70 06 3b 06 7e 17 3c 58 45 4d bb
       0.010320071 0.002051412 0.009246355 -0.003132185
0000e0 7b 31 17 bd 70 28 62 bb 55 6e 2d bb e0 65 0a b9
       -0.036912423 -0.0034508966 -0.0026463468 -0.00013198657
0000f0 d7 19 dc bb b3 da c9 3b d0 c1 d1 3c ae f0 33 3b
       -0.0067169475 0.006160104 0.025605112 0.0027456689
000100 a6 f9 b8 3a 9e 0a 80 3a 2c bd 9e bb db 22 3a bc
       0.0014112487 0.0009768789 -0.0048443284 -0.011360849
000110 b7 0e df bb 0c 94 a6 39 8a 60 d5 bb 96 e4 56 bc
       -0.006807174 0.0003177229 -0.0065117525 -0.013116023
000120 bf bb 82 3c dc 30 87 38 ed fd a9 bc 3d b5 4b 3c
       0.015958665 6.4464024e-05 -0.020750964 0.012433347
000130 1e 26 b9 bb f8 73 83 3b 28 1f 39 bb 17 29 0c bd
       -0.005650296 0.0040116273 -0.002824733 -0.034218874
000140 66 67 03 3c af 7c 04 bb 81 32 8f 3b 6a 84 9c 3b
       0.008020258 -0.0020215919 0.004370034 0.004776527
000150 a8 33 55 3c 23 d2 05 bc df 3c b0 bc 75 7d 0f 3c
       0.013012804 -0.008167776 -0.0215134 0.008757939
000160 29 4c d3 3a 65 63 9c bb b6 f2 27 3c 93 ce 94 bb
       0.001612072 -0.004772591 0.010250738 -0.004541227
000170 e2 f1 13 bc fe f7 b0 3b 69 12 e3 bc 1a 08 98 bb
       -0.009029837 0.0054006567 -0.02771874 -0.0046396377
000180 db 59 1e 3a d9 90 96 bb 15 eb a7 bb c5 f6 0d 37
       0.0006040611 -0.004594904 -0.0051244595 8.46171e-06
000190 69 8d ec bb 35 3f 3d 3c b3 83 a4 bc 8a c6 84 3b
       -0.007219006 0.011550714 -0.02008233 0.004051988
0001a0 af 5a 16 bc 46 68 df 3b 0b 20 47 3c 1b 02 8d 3b
       -0.009176894 0.0068178503 0.012153636 0.0043032295
0001b0 67 cb 82 3b f0 a5 b0 bc f1 f5 74 3c 2f 59 c4 bb
       0.0039915326 -0.0215635 0.014951215 -0.005992077
0001c0 70 e2 de bc 81 66 0c 3b 2e 5b b5 bc 61 2d 00 3c
       -0.027207583 0.0021423402 -0.022138204 0.007823319
0001d0 30 13 70 3c d7 5f d6 bb 04 91 c4 3c b3 61 49 3c
       0.014653012 -0.0065421867 0.02399493 0.01229136
0001e0 32 02 67 bb a4 c5 0d 3d 83 99 27 3c fc 7b 4a 3c
       -0.0035249111 0.034612313 0.010229471 0.012358662
0001f0 82 88 dd 3b d5 4f 8b 3b e9 7b 7c bc e4 49 11 bc
       0.0067606578 0.00425146 -0.015410402 -0.008867715
000200 fe 21 0f bc 03 45 56 bc b4 1a dd bc e2 81 73 bb
       -0.008736132 -0.013077977 -0.026990272 -0.0037156274
000210 00 7a 70 3a 46 cd d8 bb db fc 49 bc ad 39 19 3b
       0.0009173453 -0.0066162674 -0.012328352 0.0023380325
000220 f9 1b 7d 39 4a a2 a7 bb 88 4e 8e 3b e3 59 94 bc
       0.00024138381 -0.005115782 0.0043428577 -0.018109268
000230 6b 5e 5f 3b 73 08 b8 3c 87 d4 7b bb a8 2b 25 bc
       0.0034083377 0.022464966 -0.0038426237 -0.010081209
000240 43 fd b1 3b 7a c9 2c 3c 84 ec 80 bb 6b f5 ba 3c
       0.0054318025 0.010546083 -0.003934445 0.022822103
000250 b7 67 c1 b9 8a ad 0e bc 84 0b 34 3b e8 a6 0a bd
       -0.00036889102 -0.008708367 0.0027472684 -0.03385058
000260 52 be 64 bb 08 9c dc 3b 57 53 f8 bb 98 68 c2 3c
       -0.0034903479 0.0067324676 -0.0075782943 0.023731515
000270 06 76 71 bc b2 5f f0 3c 6a 2e ae bb 4a 59 c0 38
       -0.014737612 0.029342506 -0.0053155916 9.171905e-05
000280 1b 34 1b 3c e7 2d be 3a 29 c1 f3 3b 37 03 a6 bb
       0.009472872 0.001450953 0.007438798 -0.005066301
000290 7a 74 77 bb c2 5f bf bb 12 a8 65 3b 13 c0 71 bc
       -0.0037758634 -0.0058402726 0.0035042805 -0.014755267
0002a0 32 76 5e 3a 52 c0 09 3c 1a 16 c3 bc 97 0b 2c bc
       0.00084862404 0.008407669 -0.02381425 -0.01050081
0002b0 0a ea 6e bb 57 4a 9d bb 2d d1 b5 3b ed 0a 25 3b
       -0.0036455416 -0.0048001218 0.0055486173 0.0025183514
0002c0 61 61 c3 bb f5 dc 4c 3c de d1 74 3a cc fa 54 3a
       -0.005962536 0.012503852 0.0009339134 0.000812453
0002d0 d9 9e c5 3c d4 23 03 3c 70 df 18 3c 05 00 35 bb
       0.024123596 0.008004148 0.009330615 -0.002761842
0002e0 16 5d 49 3c ca fe ab 3b 7c d2 86 bc 13 3f 1b 3d
       0.01229026 0.005248879 -0.016457789 0.03790195
0002f0 af 4d 38 3b 45 89 98 bb 04 1d a2 bb 73 08 af 3c
       0.0028122475 -0.0046550357 -0.0049473066 0.021366334
000300 2e 78 b2 3b d7 e3 86 3b ec 60 5f 3c dd 9d 44 3c
       0.0054464554 0.004116516 0.013633948 0.012000528
000310 17 81 71 bc 8a 04 38 3c 31 0e 1a bc fb 75 59 bc
       -0.01474025 0.011231551 -0.009402798 -0.013272758
000320 ba da 11 3c 33 f1 15 bc 5f 1c 74 bc 7d 99 47 3b
       0.008902246 -0.009151745 -0.014899342 0.0030456476
000330 2b ff a9 bb ba d7 5d 3c 63 a0 c5 bb 4e d0 21 bb
       -0.005187889 0.013540203 -0.0060310825 -0.002469081
000340 03 6d 7e bc 40 6d 5f 3b 3c e0 18 3b 2f 02 c3 3b
       -0.01552892 0.0034092218 0.0023327013 0.005951188
000350 20 4c c7 3c 8e dd b2 ba 7e 8b f9 3b 7a 53 1e bc
       0.024328291 -0.0013646351 0.0076155057 -0.009663457
000360 de 14 c9 b9 a5 45 84 3b d6 de 74 bc d4 bf 2e bb
       -0.00038353255 0.0040366226 -0.014945706 -0.0026664631
000370 cc 5f 62 3c f9 7e 10 bc e1 3b 0e 3c 31 99 36 3b
       0.013816785 -0.008819335 0.008681268 0.0027862305
000380 d6 82 99 3c fe 97 9b bb 9d c7 75 3a 60 a1 af bc
       0.018739145 -0.0047483435 0.0009375753 -0.021439254
000390 95 e3 88 3c 5c 9c 8f 3c 93 0a c3 ba 79 dd 6a bc
       0.016710082 0.017530613 -0.0014880471 -0.01433503
0003a0 77 53 d0 3a 11 c4 21 bc 4b 94 3c 3c 9e 73 55 3c
       0.0015894015 -0.009873406 0.011509965 0.013028054
0003b0 f4 85 ef 3b 8e 9d b1 3b 55 8e 6e 3b 63 46 1e 3c
       0.0073096696 0.0054203933 0.0036400754 0.009660336
0003c0 51 07 a8 b9 70 4f 33 3b ae ae 0b 3c 99 ae ef bb
       -0.00032048908 0.002736058 0.008525534 -0.007314515
0003d0 93 39 48 3c cb a4 5b 3c 76 7a f5 ba 43 73 9c 3c
       0.012220758 0.013405989 -0.0018728513 0.01909793
0003e0 af 99 69 3c 89 c9 25 3c 91 3d 60 bb 54 92 2c 3c
       0.014257832 0.0101188505 -0.0034216384 0.010532934
0003f0 48 64 cf bb bc 6e a2 bb fa 12 be bb e5 c8 c9 bb
       -0.006329093 -0.004957048 -0.005800602 -0.0061579817

convs.0.lin_src.weight f4 [256, 12]
000000 fb ad 8d bb 0f db 24 3e e6 ed 24 bb 36 00 22 3e
       -0.0043237186 0.16099189 -0.0025166213 0.15820393
000010 06 b1 29 3d 37 81 94 34 8e db c1 3c 32 3e 46 3d
       0.04142859 2.7661164e-07 0.023664262 0.048399158
000020 61 79 a5 3d 26 bc c3 bb 35 45 a9 bd 39 eb a3 39
       0.08079792 -0.005973357 -0.08265153 0.00031265037
000030 47 a1 47 bd 0e 79 fb bd c9 e5 8b 3c dc ce 34 3a
       -0.04873779 -0.12278949 0.017077344 0.00068972795
000040 e2 81 0a be 42 70 dc 32 5b 72 92 bd 10 ed de bb
       -0.13526109 2.566242e-08 -0.07150718 -0.0068031624
000050 97 bd f6 3d 33 0e 24 3c b1 a0 e7 bc c1 fc bb bb
       0.1204788 0.010013151 -0.028274866 -0.0057369177
000060 0b b8 75 3d 2a a8 9b bd 10 c6 cb 3c d1 f0 10 be
       0.05998997 -0.07600434 0.024874717 -0.14154364
000070 1c df 99 bd df 98 aa 32 59 be b4 bd 40 83 57 b4
       -0.07513258 1.9860122e-08 -0.088253684 -2.0071184e-07
000080 f7 32 bf bc de 55 85 3c 64 6d 8d bc 71 eb 00 bb
       -0.023339732 0.016276296 -0.017264076 -0.0019671584
000090 d4 2f 04 3e ad d6 35 3e 15 6a 4a 3d 9d c2 23 3d
       0.1290887 0.17757674 0.049417574 0.03998052
0000a0 f8 46 f7 3b 3e dd 92 33 19 5d 39 3d fc 66 e8 b4
       0.007546302 6.8388985e-08 0.0452548 -4.3288298e-07
0000b0 90 d8 47 bd 61 7e ab 3b 3e fb 1a 3e ce 2c a3 bb
       -0.048790514 0.0052335714 0.15134904 -0.0049797064
0000c0 01 28 65 bd ea af 42 3e 08 09 20 bc 04 15 62 bd
       -0.055946354 0.19012418 -0.009767778 -0.055195823
0000d0 de e2 ac 3c e0 78 c9 bc 71 65 95 3d da f5 a3 35
       0.021104272 -0.02459377 0.07294739 1.2215999e-06
0000e0 69 c1 d4 bd d0 0a 7a bc b0 66 a2 bd 3b 55 ff 3a
       -0.103884526 -0.015261367 -0.07929742 0.0019480357
0000f0 81 1e de bd 2b 8c 75 bd a5 e3 d7 3c 2a b5 02 3d
       -0.10845662 -0.059948128 0.026353667 0.031911053
000100 fb b4 09 be e4 29 06 3d 77 57 a3 bc b2 47 a0 3a
       -0.13447945 0.032754794 -0.019939167 0.0012228398
000110 db 06 e4 bd 78 0f 6b bb 95 7c 1b be 6b 90 91 3c
       -0.1113412 -0.0035867374 -0.15184243 0.01776906
000120 b3 04 c0 3d cb da 60 3b d6 dc 26 3c 8a 61 85 bd
       0.09375896 0.0034310098 0.010184487 -0.06512745
000130 da 11 a1 bd ba 3c 08 bd 4d 27 b3 3c 39 dd a8 37
       -0.07864733 -0.03326104 0.021869326 2.0130175e-05
000140 99 50 de 3d ed 48 bb 3c 29 72 e3 3c 25 11 76 bc
       0.108552165 0.022861922 0.027764397 -0.015018736
000150 1c ed f5 3d f9 52 cc 3d 10 32 01 bc 69 ff 8c bd
       0.12008116 0.09976763 -0.007885471 -0.06884653
000160 3e 60 cb bc eb 53 17 bd 92 56 27 3d 33 7f 54 3d
       -0.024826165 -0.036945265 0.040854044 0.05187912
000170 4f 91 cc bd e3 2d 75 bc b2 01 18 3e 49 2b 30 3a
       -0.09988653 -0.0149645535 0.14844397 0.0006720317
000180 20 8c 9d bd 20 cd a0 3d af 9b 3e bc bd 19 b5 bd
       -0.07692742 0.078516245 -0.011633798 -0.088428
000190 c5 58 da bd 7a 2c 8a b9 00 10 f2 3c 28 f6 10 bd
       -0.10661463 -0.0002635455 0.029548645 -0.035391003
0001a0 8e d5 b1 bd 7a fb 5e bc 08 4c 81 3d cc 95 28 3a
       -0.086833104 -0.013609761 0.0631333 0.0006431013
0001b0 f5 b8 b5 3d b0 b9 98 bc e3 17 e7 bb 63 a4 f5 bd
       0.088731684 -0.01864323 -0.007052408 -0.11994245
0001c0 a1 c7 93 3d 00 32 fa bb 6a 34 93 bd c9 52 cf 3c
       0.072158106 -0.007635355 -0.071877316 0.02530803
0001d0 be 93 ad 3d 9d f1 d2 3b 81 9b fe bd 04 70 e0 ba
       0.08475445 0.006437494 -0.12432004 -0.0017123227
0001e0 f1 7f 70 bc f9 74 8b bd 44 8e 5e 3c 46 62 8a 3d
       -0.014678941 -0.0680942 0.013583723 0.067570254
0001f0 c1 09 12 be 8d 1a 3b ba 3f e2 ab bd 67 02 d2 35
       -0.14261533 -0.000713744 -0.083927624 1.5646918e-06
000200 41 dc bb 3c f6 77 d8 3c 52 08 b6 bd 57 dc 35 ba
       0.022932174 0.02642439 -0.08888306 -0.0006937435
000210 b4 f1 ce 3d 24 8f 07 3d 48 bd 18 ba d6 e1 2b 3e
       0.10104695 0.033095494 -0.0005826545 0.16785368
000220 5c 70 04 3e 17 55 29 3a ba 79 19 3d 79 37 35 ba
       0.12933487 0.0006459518 0.037469603 -0.0006912868
000230 3c 71 43 3c 63 fa ce bc 33 34 14 bd e4 dd ee 3b
       0.011928853 -0.025265878 -0.036182594 0.007289635
000240 70 8d 09 be e7 56 88 3d 98 01 99 bb 5d fe 30 bd
       -0.1343286 0.066572 -0.0046693794 -0.04321133
000250 98 02 8a 3d 7e b5 2a 3d ba 90 9b 3d 97 eb 38 bd
       0.06738776 0.04167699 0.07595964 -0.04514655
000260 1f d6 d0 bd 45 1a 0e bb 2d 07 5f bd de ad 62 3c
       -0.1019709 -0.0021683138 -0.054450203 0.0138353985
000270 8d 9e ec 3d 73 06 02 3d da 1c 38 bc df 6c ba 3d
       0.11553679 0.03174443 -0.0112373475 0.09102797
000280 85 01 00 be 9f bb 3e bd ce f8 59 3d 9e 01 35 b6
       -0.1250058 -0.04656565 0.053215794 -2.6972043e-06
000290 c0 19 9c bd fd db d5 bb a1 a2 22 be f0 43 fb bc
       -0.07622099 -0.006526469 -0.1588235 -0.030672044
0002a0 aa f2 5e bc db 10 13 be c8 e5 10 bc f5 45 8d 3d
       -0.01360766 -0.14361899 -0.008843847 0.06898109
0002b0 fc e8 b9 3d d8 7d 36 3c 83 00 85 3c 0d 4d 5e 3b
       0.09077641 0.011138402 0.016235596 0.0033920438
0002c0 3e 6c 7b bd c8 d7 1f 3c e0 48 01 3e 03 b8 91 39
       -0.061382525 0.009756036 0.12625456 0.00027793655
0002d0 8a 54 ba 3d 59 2e 09 3d 5d 28 4f 3d 93 7a d5 3d
       0.09098156 0.033491466 0.050575603 0.1042377
0002e0 93 a9 07 be 35 27 be ba dc 45 72 3d 13 e0 58 3c
       -0.13248281 -0.0014507534 0.059148654 0.013237017
0002f0 eb 00 9b bd b4 0d 16 bd df ac c4 bd 4c 18 8a bb
       -0.075685345 -0.036634162 -0.09603285 -0.004214322
000300 87 99 14 3e 18 47 32 be 53 a0 36 ba b7 e7 0d 3d
       0.14511691 -0.17409933 -0.0006966639 0.03464481
000310 f7 fe 8e bd 3e 08 39 bd 55 ed f7 3a fd 2f d3 ba
       -0.069822244 -0.045173876 0.0018915335 -0.0016112324
000320 4e 99 4c 3e b7 34 6f 3c 7a 17 cb bb cc c6 d3 3a
       0.19980356 0.014599971 -0.006197867 0.0016157269
000330 10 f9 86 bd 00 de 30 be 1a f8 cc ba 08 83 30 be
       -0.06590474 -0.17272186 -0.0015637905 -0.17237484
000340 c8 22 d3 3d 9c 6f 7e b3 73 a2 87 bd 81 97 73 b9
       0.10309368 -5.924049e-08 -0.066227816 -0.00023230725
000350 9a 24 ed ba 7d 99 98 bb ba c7 5a bd e4 f2 74 3c
       -0.0018092573 -0.004656969 -0.05341313 0.014950488
000360 87 41 da bd 21 bb bd bd 7b fa 88 bb 95 6a 96 3d
       -0.106570296 -0.09264208 -0.00418025 0.07344548
000370 14 29 57 3d 8c 6d 2e bd 12 9f b0 bc ea 1b 17 bd
       0.05252941 -0.04258494 -0.021560226 -0.036891855
000380 d3 8d 37 bc 2d 94 49 bc a3 13 90 3d 6b 81 7a bb
       -0.011203247 -0.012303394 0.070349954 -0.0038224112
000390 be 42 bb bd 6e f1 16 be 69 37 1a 3c c5 42 af bc
       -0.091435894 -0.14740536 0.009412625 -0.021394143
0003a0 78 cc cf bd 68 4c 14 b4 1b 10 b0 bc 1c ea ec b5
       -0.10146421 -1.381137e-07 -0.021492055 -1.7651505e-06
0003b0 5f db c0 3d 5b 44 8c 3b 77 94 93 bd cf 65 01 bb
       0.09416842 0.0042806095 -0.07206052 -0.001974452
0003c0 fd 7b 19 be ff 7f 09 3e 62 88 b8 bb 85 f4 57 3c
       -0.14988704 0.13427733 -0.0056314925 0.013180857
0003d0 8a 1f c7 3d 4d 80 44 b6 b1 2b 9c 3d 7a 0d ef bc
       0.097228125 -2.9280957e-06 0.07625521 -0.02918123
0003e0 f0 0c 1c be 5f bb 00 bd fc 5e eb 3d a7 d8 f7 3a
       -0.1523931 -0.03142869 0.11492726 0.0018909172
0003f0 07 ef 23 3d 54 75 1c 3e 95 00 34 3b 80 08 38 bd
       0.040022876 0.15279132 0.0027466167 -0.04492998

convs.0.lin_dst.weight f4 [256, 12]
000000 fb ad 8d bb 0f db 24 3e e6 ed 24 bb 36 00 22 3e
       -0.0043237186 0.16099189 -0.0025166213 0.15820393
000010 06 b1 29 3d 37 81 94 34 8e db c1 3c 32 3e 46 3d
       0.04142859 2.7661164e-07 0.023664262 0.048399158
000020 61 79 a5 3d 26 bc c3 bb 35 45 a9 bd 39 eb a3 39
       0.08079792 -0.005973357 -0.08265153 0.00031265037
000030 47 a1 47 bd 0e 79 fb bd c9 e5 8b 3c dc ce 34 3a
       -0.04873779 -0.12278949 0.017077344 0.00068972795
000040 e2 81 0a be 42 70 dc 32 5b 72 92 bd 10 ed de bb
       -0.13526109 2.566242e-08 -0.07150718 -0.0068031624
000050 97 bd f6 3d 33 0e 24 3c b1 a0 e7 bc c1 fc bb bb
       0.1204788 0.010013151 -0.028274866 -0.0057369177
000060 0b b8 75 3d 2a a8 9b bd 10 c6 cb 3c d1 f0 10 be
       0.05998997 -0.07600434 0.024874717 -0.14154364
000070 1c df 99 bd df 98 aa 32 59 be b4 bd 40 83 57 b4
       -0.07513258 1.9860122e-08 -0.088253684 -2.0071184e-07
000080 f7 32 bf bc de 55 85 3c 64 6d 8d bc 71 eb 00 bb
       -0.023339732 0.016276296 -0.017264076 -0.0019671584
000090 d4 2f 04 3e ad d6 35 3e 15 6a 4a 3d 9d c2 23 3d
       0.1290887 0.17757674 0.049417574 0.03998052
0000a0 f8 46 f7 3b 3e dd 92 33 19 5d 39 3d fc 66 e8 b4
       0.007546302 6.8388985e-08 0.0452548 -4.3288298e-07
0000b0 90 d8 47 bd 61 7e ab 3b 3e fb 1a 3e ce 2c a3 bb
       -0.048790514 0.0052335714 0.15134904 -0.0049797064
0000c0 01 28 65 bd ea af 42 3e 08 09 20 bc 04 15 62 bd
       -0.055946354 0.19012418 -0.009767778 -0.055195823
0000d0 de e2 ac 3c e0 78 c9 bc 71 65 95 3d da f5 a3 35
       0.021104272 -0.02459377 0.07294739 1.2215999e-06
0000e0 69 c1 d4 bd d0 0a 7a bc b0 66 a2 bd 3b 55 ff 3a
       -0.103884526 -0.015261367 -0.07929742 0.0019480357
0000f0 81 1e de bd 2b 8c 75 bd a5 e3 d7 3c 2a b5 02 3d
       -0.10845662 -0.059948128 0.026353667 0.031911053
000100 fb b4 09 be e4 29 06 3d 77 57 a3 bc b2 47 a0 3a
       -0.13447945 0.032754794 -0.019939167 0.0012228398
000110 db 06 e4 bd 78 0f 6b bb 95 7c 1b be 6b 90 91 3c
       -0.1113412 -0.0035867374 -0.15184243 0.01776906
000120 b3 04 c0 3d cb da 60 3b d6 dc 26 3c 8a 61 85 bd
       0.09375896 0.0034310098 0.010184487 -0.06512745
000130 da 11 a1 bd ba 3c 08 bd 4d 27 b3 3c 39 dd a8 37
       -0.07864733 -0.03326104 0.021869326 2.0130175e-05
000140 99 50 de 3d ed 48 bb 3c 29 72 e3 3c 25 11 76 bc
       0.108552165 0.022861922 0.027764397 -0.015018736
000150 1c ed f5 3d f9 52 cc 3d 10 32 01 bc 69 ff 8c bd
       0.12008116 0.09976763 -0.007885471 -0.06884653
000160 3e 60 cb bc eb 53 17 bd 92 56 27 3d 33 7f 54 3d
       -0.024826165 -0.036945265 0.040854044 0.05187912
000170 4f 91 cc bd e3 2d 75 bc b2 01 18 3e 49 2b 30 3a
       -0.09988653 -0.0149645535 0.14844397 0.0006720317
000180 20 8c 9d bd 20 cd a0 3d af 9b 3e bc bd 19 b5 bd
       -0.07692742 0.078516245 -0.011633798 -0.088428
000190 c5 58 da bd 7a 2c 8a b9 00 10 f2 3c 28 f6 10 bd
       -0.10661463 -0.0002635455 0.029548645 -0.035391003
0001a0 8e d5 b1 bd 7a fb 5e bc 08 4c 81 3d cc 95 28 3a
       -0.086833104 -0.013609761 0.0631333 0.0006431013
0001b0 f5 b8 b5 3d b0 b9 98 bc e3 17 e7 bb 63 a4 f5 bd
       0.088731684 -0.01864323 -0.007052408 -0.11994245
0001c0 a1 c7 93 3d 00 32 fa bb 6a 34 93 bd c9 52 cf 3c
       0.072158106 -0.007635355 -0.071877316 0.02530803
0001d0 be 93 ad 3d 9d f1 d2 3b 81 9b fe bd 04 70 e0 ba
       0.08475445 0.006437494 -0.12432004 -0.0017123227
0001e0 f1 7f 70 bc f9 74 8b bd 44 8e 5e 3c 46 62 8a 3d
       -0.014678941 -0.0680942 0.013583723 0.067570254
0001f0 c1 09 12 be 8d 1a 3b ba 3f e2 ab bd 67 02 d2 35
       -0.14261533 -0.000713744 -0.083927624 1.5646918e-06
000200 41 dc bb 3c f6 77 d8 3c 52 08 b6 bd 57 dc 35 ba
       0.022932174 0.02642439 -0.08888306 -0.0006937435
000210 b4 f1 ce 3d 24 8f 07 3d 48 bd 18 ba d6 e1 2b 3e
       0.10104695 0.033095494 -0.0005826545 0.16785368
000220 5c 70 04 3e 17 55 29 3a ba 79 19 3d 79 37 35 ba
       0.12933487 0.0006459518 0.037469603 -0.0006912868
000230 3c 71 43 3c 63 fa ce bc 33 34 14 bd e4 dd ee 3b
       0.011928853 -0.025265878 -0.036182594 0.007289635
000240 70 8d 09 be e7 56 88 3d 98 01 99 bb 5d fe 30 bd
       -0.1343286 0.066572 -0.0046693794 -0.04321133
000250 98 02 8a 3d 7e b5 2a 3d ba 90 9b 3d 97 eb 38 bd
       0.06738776 0.04167699 0.07595964 -0.04514655
000260 1f d6 d0 bd 45 1a 0e bb 2d 07 5f bd de ad 62 3c
       -0.1019709 -0.0021683138 -0.054450203 0.0138353985
000270 8d 9e ec 3d 73 06 02 3d da 1c 38 bc df 6c ba 3d
       0.11553679 0.03174443 -0.0112373475 0.09102797
000280 85 01 00 be 9f bb 3e bd ce f8 59 3d 9e 01 35 b6
       -0.1250058 -0.04656565 0.053215794 -2.6972043e-06
000290 c0 19 9c bd fd db d5 bb a1 a2 22 be f0 43 fb bc
       -0.07622099 -0.006526469 -0.1588235 -0.030672044
0002a0 aa f2 5e bc db 10 13 be c8 e5 10 bc f5 45 8d 3d
       -0.01360766 -0.14361899 -0.008843847 0.06898109
0002b0 fc e8 b9 3d d8 7d 36 3c 83 00 85 3c 0d 4d 5e 3b
       0.09077641 0.011138402 0.016235596 0.0033920438
0002c0 3e 6c 7b bd c8 d7 1f 3c e0 48 01 3e 03 b8 91 39
       -0.061382525 0.009756036 0.12625456 0.00027793655
0002d0 8a 54 ba 3d 59 2e 09 3d 5d 28 4f 3d 93 7a d5 3d
       0.09098156 0.033491466 0.050575603 0.1042377
0002e0 93 a9 07 be 35 27 be ba dc 45 72 3d 13 e0 58 3c
       -0.13248281 -0.0014507534 0.059148654 0.013237017
0002f0 eb 00 9b bd b4 0d 16 bd df ac c4 bd 4c 18 8a bb
       -0.075685345 -0.036634162 -0.09603285 -0.004214322
000300 87 99 14 3e 18 47 32 be 53 a0 36 ba b7 e7 0d 3d
       0.14511691 -0.17409933 -0.0006966639 0.03464481
000310 f7 fe 8e bd 3e 08 39 bd 55 ed f7 3a fd 2f d3 ba
       -0.069822244 -0.045173876 0.0018915335 -0.0016112324
000320 4e 99 4c 3e b7 34 6f 3c 7a 17 cb bb cc c6 d3 3a
       0.19980356 0.014599971 -0.006197867 0.0016157269
000330 10 f9 86 bd 00 de 30 be 1a f8 cc ba 08 83 30 be
       -0.06590474 -0.17272186 -0.0015637905 -0.17237484
000340 c8 22 d3 3d 9c 6f 7e b3 73 a2 87 bd 81 97 73 b9
       0.10309368 -5.924049e-08 -0.066227816 -0.00023230725
000350 9a 24 ed ba 7d 99 98 bb ba c7 5a bd e4 f2 74 3c
       -0.0018092573 -0.004656969 -0.05341313 0.014950488
000360 87 41 da bd 21 bb bd bd 7b fa 88 bb 95 6a 96 3d
       -0.106570296 -0.09264208 -0.00418025 0.07344548
000370 14 29 57 3d 8c 6d 2e bd 12 9f b0 bc ea 1b 17 bd
       0.05252941 -0.04258494 -0.021560226 -0.036891855
000380 d3 8d 37 bc 2d 94 49 bc a3 13 90 3d 6b 81 7a bb
       -0.011203247 -0.012303394 0.070349954 -0.0038224112
000390 be 42 bb bd 6e f1 16 be 69 37 1a 3c c5 42 af bc
       -0.091435894 -0.14740536 0.009412625 -0.021394143
0003a0 78 cc cf bd 68 4c 14 b4 1b 10 b0 bc 1c ea ec b5
       -0.10146421 -1.381137e-07 -0.021492055 -1.7651505e-06
0003b0 5f db c0 3d 5b 44 8c 3b 77 94 93 bd cf 65 01 bb
       0.09416842 0.0042806095 -0.07206052 -0.001974452
0003c0 fd 7b 19 be ff 7f 09 3e 62 88 b8 bb 85 f4 57 3c
       -0.14988704 0.13427733 -0.0056314925 0.013180857
0003d0 8a 1f c7 3d 4d 80 44 b6 b1 2b 9c 3d 7a 0d ef bc
       0.097228125 -2.9280957e-06 0.07625521 -0.02918123
0003e0 f0 0c 1c be 5f bb 00 bd fc 5e eb 3d a7 d8 f7 3a
       -0.1523931 -0.03142869 0.11492726 0.0018909172
0003f0 07 ef 23 3d 54 75 1c 3e 95 00 34 3b 80 08 38 bd
       0.040022876 0.15279132 0.0027466167 -0.04492998

convs.1.att_src f4 [1, 4, 64]
000000 7f 45 c7 3d 7d 13 96 be b7 a6 12 be b5 f8 2e bd
       0.09730052 -0.29311743 -0.14321409 -0.042717654
000010 74 ea 39 be 9d d0 72 be 0d 5e 7c be 93 09 be bd
       -0.18155843 -0.23712392 -0.24645253 -0.0927917
000020 db a6 70 be 8e b9 87 3d 5a dd d2 3d b5 42 89 3e
       -0.2350115 0.066271886 0.10296126 0.26808706
000030 b1 32 74 3e 74 dc 5b 3e 4e 00 5d be 54 6f 25 be
       0.23847462 0.21470815 -0.21582147 -0.1615575
000040 ed 82 1a 3e af 6f 52 be a2 af d0 3d 2a 6b 5b be
       0.15089007 -0.20550416 0.10189749 -0.21427599
000050 6a 72 a2 be cb 4b 71 be cc a2 83 3e a1 f1 30 3d
       -0.31727916 -0.23564069 0.25710142 0.043199185
000060 27 e0 0e be 07 52 25 3d 58 05 42 be 93 e5 f7 3d
       -0.13952695 0.04036143 -0.18947351 0.12104335
000070 72 58 81 3d d1 f3 65 be 15 8e b6 3b 73 1d cf 3c
       0.06315698 -0.2245629 0.0055711367 0.025282597
000080 57 38 8f 3e be 11 cc bb 53 93 5b 3e 91 c1 09 bd
       0.2797267 -0.006227701 0.21442918 -0.033631865
000090 05 18 08 3e 89 fa 8f bd 8d 9f 97 bd 55 56 5e 3e
       0.13290413 -0.07030208 -0.07403479 0.2171262
0000a0 35 fb 52 3c fa 00 89 3e 57 c6 6f bd 51 00 3c 3e
       0.012877275 0.26758558 -0.05853876 0.18359496
0000b0 8c 1e 35 be 12 eb 75 3e 6a c0 04 be 68 46 ad 3a
       -0.17687434 0.24015453 -0.12964025 0.0013219835
0000c0 24 8f d6 3d e3 f9 94 3e 9f be 7f 3e 5e 00 55 3e
       0.10476521 0.29096898 0.2497506 0.20800921
0000d0 1c ec 97 3e a6 12 49 bc 70 7e 7f 3e 38 f1 8f bd
       0.29672325 -0.012272513 0.24950576 -0.07028431
0000e0 79 3e 6e 3e 38 a6 14 3e d1 03 91 3e 13 41 86 bd
       0.23266019 0.14516532 0.28323224 -0.06555381
0000f0 1b 9d e8 3d 68 dd 20 3e b3 5f 89 be 30 07 69 be
       0.113580905 0.1570946 -0.26830825 -0.22756648
000100 22 49 e9 bc ac 74 91 be 05 f3 44 3e b4 67 c2 3d
       -0.028477255 -0.28409326 0.1923333 0.09492436
000110 f6 b5 8d bd 98 da 25 3e c0 38 9a be 76 b5 82 3e
       -0.06919472 0.16196668 -0.30121422 0.2552907
000120 00 e0 f1 bd 85 e7 e6 bc f5 99 89 3d 81 ab 5f bd
       -0.11810303 -0.028186569 0.06718818 -0.05460692
000130 43 e1 4a 3d 4a ce cb bd b7 c0 1b be 58 8f 0f 3e
       0.049531233 -0.09951456 -0.15210234 0.14019525
000140 76 88 8a be d5 46 84 bd 1f 50 8e 3e 54 47 dd bc
       -0.27057236 -0.06458823 0.27795503 -0.027011551
000150 ca 22 4c 3e 85 35 02 3e 9a 85 95 be 4c b5 01 be
       0.19935146 0.12715729 -0.29203492 -0.12666816
000160 aa 3d e5 bd 51 bb 4d be 2d 64 58 be 86 0b 9f 3d
       -0.11193402 -0.20090987 -0.21131964 0.0776587
000170 b8 49 35 bd 11 9e 84 3d 62 a1 d3 3d 1c 84 9d 3e
       -0.044259757 0.06475461 0.10333516 0.30764854
000180 33 f3 91 3e 7d 7a 05 3e 87 31 6f 3e ac d6 a6 3e
       0.2850586 0.13035007 0.23358737 0.32585657
000190 e8 d9 f7 bc d7 fa 95 3e 20 0c 8d bd d8 78 ef bd
       -0.030255273 0.29292938 -0.06887078 -0.11692971
0001a0 88 aa ee bd 0f 62 26 3e b1 81 1c be 3e 2a 81 3e
       -0.1165362 0.16248344 -0.15283848 0.2522754
0001b0 77 70 ce bc 1d e5 60 3d 4b 9c f3 bd 60 06 13 3e
       -0.025200112 0.054906 -0.11895045 0.143579
0001c0 06 92 94 3e 33 2a 1b be cb f1 a7 bc e2 e1 da 3d
       0.29017657 -0.15152816 -0.020501038 0.10687615
0001d0 5d 65 63 be f1 71 8b bd af 45 95 be b6 09 a2 3c
       -0.22206636 -0.06808842 -0.29154727 0.019780021
0001e0 39 e7 ae 3b af f0 7b 3d 59 7f 12 3e 52 46 a9 3e
       0.0053376225 0.06150883 0.14306392 0.33061463
0001f0 86 5e 51 bd 70 92 27 bd a7 be 33 3d 31 a3 37 be
       -0.051115535 -0.040911138 0.043882992 -0.17933346
000200 c2 d4 26 be 8f 6e 3c be 27 80 1d 3d e0 da 2a 3e
       -0.16292098 -0.1840155 0.038452294 0.16685057
000210 e9 1a b1 bd 85 65 0d be 09 fa 23 3e fa 7a 93 3d
       -0.08647711 -0.13808258 0.1601335 0.0720119
000220 0d d7 df 3d cf fc 4b 3e 90 fc 1d 3e ba d7 34 3e
       0.109296896 0.19920658 0.15428376 0.17660418
000230 a1 cd 77 3e cd cf 9e 3d 44 c3 4b be 76 6a 2b be
       0.24199535 0.077544786 -0.19898707 -0.1673983
000240 91 85 58 3e 18 a3 1c 3e 5c 2d 91 3d 56 08 1f be
       0.21144702 0.1529659 0.0708873 -0.15530524
000250 04 79 35 3e e4 f1 d6 bd f8 45 25 3e ac 1e e3 3d
       0.17721945 -0.10495356 0.16139972 0.110898346
000260 2f e7 99 bd 35 6f 97 3e 09 0e e6 3d cf 2f 56 be
       -0.07514798 0.29577032 0.11233146 -0.20916675
000270 fa ee 4a be 26 29 5d 3e 08 6b f0 bd e2 8a a4 bd
       -0.19817725 0.21597728 -0.117391646 -0.08034302
000280 4b 09 84 3c fd 51 06 be f3 00 09 3e e1 7c 00 be
       0.016117712 -0.13117214 0.13379268 -0.12547638
000290 37 81 a0 3d 9a 4b 59 be 2c 45 8b be ab 59 3a 3d
       0.07837146 -0.21220246 -0.2720121 0.04549567
0002a0 1e 99 81 be 5d 92 23 3e d0 1a 95 be c5 45 43 be
       -0.25312132 0.15973802 -0.2912202 -0.19069584
0002b0 b3 ca 6a 3e 16 32 12 be 81 f1 60 3e f9 5f c6 3d
       0.22928886 -0.14276919 0.21967126 0.09686274
0002c0 d5 c8 2f 3e ca cd dc 3c e5 3f b9 bd f1 d3 11 bc
       0.17166455 0.026953597 -0.0904539 -0.008900628
0002d0 4d c1 19 be 67 71 12 3e 80 f4 d6 3c b0 88 40 be
       -0.15015145 0.14301072 0.026239634 -0.18802142
0002e0 bc 72 c6 3d 97 77 10 3e 0b ae 14 be 29 6c 91 3c
       0.096898526 0.1410812 -0.14519517 0.01775177
0002f0 1c 74 1c be cd d7 23 be 19 83 01 3e f1 e9 ff 3d
       -0.15278667 -0.1600029 0.12647666 0.12495793
000300 f1 c8 77 be 46 13 a2 bd c2 9d 58 be ab 7a 81 be
       -0.24197747 -0.07913832 -0.2115393 -0.252889
000310 7a e3 6f bd 14 5a ec bd 1a c4 44 3d 37 21 d8 bd
       -0.058566548 -0.115406185 0.04803858 -0.1055321
000320 44 08 14 bc 0c 41 e1 bd c6 ed 1a 3e a4 d8 43 3e
       -0.009035174 -0.10998735 0.15129766 0.1912561
000330 42 c1 2d 3e ab 14 7f be 62 8c 51 3e db 04 fa bd
       0.16968253 -0.24910228 0.20463708 -0.12207957
000340 d4 96 fb bd 4b e6 83 be 28 0f 1b be a1 93 3a be
       -0.122846276 -0.25761637 -0.151425 -0.18220378
000350 83 ee 33 be e2 7c 9b 3d 7e 9e ec bd c8 f1 93 3d
       -0.17571454 0.07592179 -0.115536675 0.072238505
000360 fe 17 2a be 01 2a 24 3e 24 27 d6 3d b3 72 30 3e
       -0.16610715 0.16031648 0.10456684 0.17231254
000370 12 6f 5c 3e cd 07 84 3e 9a 5f 4e 3e a9 c1 44 3e
       0.21526745 0.25787202 0.20153657 0.192145
000380 54 ac 08 be 53 15 12 3e 9b 4e e4 3d d1 33 d3 bd
       -0.13346988 0.14265947 0.11147805 -0.103126176
000390 95 51 24 3e f4 f8 2b 3e 05 bd e0 bd ea 03 92 be
       0.16046746 0.16794187 -0.109735526 -0.2851861
0003a0 ad 9d 2c 3e 2f 94 84 3e a0 bd 36 3e 8f f1 9d bc
       0.16857024 0.25894305 0.17845774 -0.019280223
0003b0 3a b6 35 be 85 2b 95 be f0 d5 70 3e e8 88 af bd
       -0.17745295 -0.29134765 0.2351911 -0.08571035
0003c0 48 18 e0 3d f5 a6 c9 3d 77 e8 8a 3e 1b 1d 2a 3e
       0.10942131 0.09846298 0.27130482 0.16612665
0003d0 e4 e6 a7 bc 92 9f fd bd c3 dd 08 3d 0c ff 57 3e
       -0.02049584 -0.12383951 0.033414613 0.21093386
0003e0 7f ee 5c be 1f a4 06 be 64 b7 07 be 0b 58 cc bd
       -0.21575354 -0.13148545 -0.13253552 -0.0997773
0003f0 fb 29 5c 3e 0b 1a 73 3e 96 d5 63 3d 3a 7f 44 be
       0.2150039 0.23740403 0.055623613 -0.19189158

convs.1.att_dst f4 [1, 4, 64]
000000 30 b1 6a 3e 89 bc 9e bd 31 5b 13 bb d0 45 8b bb
       0.22919154 -0.07750804 -0.0022484774 -0.0042502657
000010 cf 77 41 be af de 7a 3d 8b 92 58 bc e3 98 25 3e
       -0.1889336 0.061247524 -0.013218532 0.16171603
000020 b5 4d 0b 3e cc ce d9 3d 60 66 7f bc 4a 30 02 be
       0.13603862 0.106351465 -0.015588373 -0.12713733
000030 17 41 2d be ed 5a 91 be 28 74 b9 bb f4 c7 91 be
       -0.16919361 -0.28389683 -0.005659599 -0.28472865
000040 98 1b 1d be 80 64 2e bd 39 f1 2b 3c 6f a4 75 3e
       -0.15342557 -0.042576313 0.010494524 0.23988508
000050 a1 5b 8b bd 5c a4 62 bd dd 91 f6 bd 72 b7 4a 3e
       -0.06804586 -0.055332527 -0.1203954 0.19796541
000060 6c 6d 90 be e8 0c 57 be e9 4a ed 3c f8 12 a4 bd
       -0.28208482 -0.21001017 0.028966384 -0.080114305
000070 9c 63 9e bd 5c 37 3f be c8 00 4c 3d ff 4d 63 3e
       -0.07733843 -0.18673462 0.049805433 0.22197722
000080 4a 5b 55 be 3b 1e 5e be 5a 25 ed 3d ff 3a 47 bc
       -0.20835605 -0.2169122 0.1157939 -0.012160062
000090 52 76 d6 3d a2 63 46 3e 06 76 30 be 44 00 80 3e
       0.104717866 0.19373944 -0.17232522 0.25000203
0000a0 99 0a b3 bd b3 84 10 3e 24 54 83 bd cc c4 27 be
       -0.08742256 0.1411312 -0.06412533 -0.16383666
0000b0 96 a5 4b 3e 89 e7 40 be f9 84 9c 3d 1c d8 49 3e
       0.19887385 -0.18838324 0.0764255 0.19711345
0000c0 e2 be 5a 3e 26 2a 44 be 41 54 0f be 3a 74 4d be
       0.21361879 -0.19156703 -0.13996984 -0.20063868
0000d0 6c f3 54 3e f9 47 41 3d 83 04 80 be 28 3f 94 be
       0.20795983 0.04718778 -0.25003442 -0.28954434
0000e0 da b2 82 be 3f 5e 4b be d0 78 2d 3e 77 3e 49 3d
       -0.25527078 -0.19860171 0.16940618 0.049131837
0000f0 5e 3d d5 3d 9c c4 1f be 07 a9 ec bc 34 1b 7a be
       0.104120955 -0.15602344 -0.028889192 -0.2442444
000100 98 ed 57 bd ab c7 ed 3d 8a 2f 06 bd d4 b3 90 be
       -0.05271682 0.11610349 -0.03276018 -0.28262198
000110 87 a4 6c be ba 75 0c be 14 47 31 3e 06 07 4e 3e
       -0.23109637 -0.13716784 0.1731227 0.20119867
000120 69 de ed bd 18 b1 9e 3c 6d 28 ad 3c 46 fe e5 3d
       -0.11614687 0.019371554 0.02113744 0.112301394
000130 32 37 89 be 50 9c 7a be 2f e6 f7 3d 99 00 4b be
       -0.26799923 -0.24473691 0.12104451 -0.19824447
000140 97 28 2e bd 38 e3 19 3e bc 28 a5 bc d4 da 8d 3e
       -0.04251918 0.15028083 -0.020161025 0.27706015
000150 52 81 4e 3e a0 4e c3 3d 13 e5 9b be a6 f4 46 3d
       0.2016652 0.09536481 -0.30448207 0.04857316
000160 67 6a c6 3d 84 6e 61 be 92 2d 74 be ac 2f bf 3c
       0.096882634 -0.22014815 -0.23845509 0.023338161
000170 d3 cc 3f 3e f9 43 02 3e 05 53 9a bd db 88 06 3e
       0.18730478 0.12721242 -0.07535366 0.13138144
000180 d8 61 60 bd 79 02 04 be 2c 67 20 3e 41 4b 2a 3e
       -0.05478081 -0.12891568 0.15664357 0.1663027
000190 47 ad 58 be c6 05 02 be 5a 8e f4 3d 88 ac f2 bd
       -0.2115985 -0.12697515 0.11941214 -0.11849314
0001a0 5b 75 cc 3d dd 58 5a 3c e2 c1 93 bd 09 1d 71 3e
       0.09983321 0.013326851 -0.072147146 0.23546232
0001b0 33 19 8b 3d cd 56 af bd 6e 0c b2 bd a0 0e 36 be
       0.06791916 -0.08561478 -0.08693777 -0.17779016
0001c0 20 8e c4 bc ef b3 22 be 8f cb 56 be 34 9e 64 be
       -0.023993552 -0.15888952 -0.20976089 -0.22325975
0001d0 d3 28 87 be ad 9b 5a 3e c6 22 4a 3e e4 af 6f be
       -0.26398334 0.21348448 0.19739828 -0.2340694
0001e0 48 3b de 3b fb 1c 8a be 0b 94 ab 3d 40 8e 4f 3e
       0.006781969 -0.26975235 0.08377846 0.20269108
0001f0 c8 bb 3a be a4 e1 53 3e ca e3 bb bd 31 7e 7b be
       -0.18235695 0.20691544 -0.09174307 -0.24559857
000200 5f 67 41 be 55 a3 ea 3d 3a 7e 43 3e eb 6d eb bd
       -0.18887089 0.11456934 0.1909112 -0.114955746
000210 5d 30 26 3d 6b 2c 21 3e b3 33 48 be 7e 99 de 3b
       0.040573467 0.157396 -0.19550972 0.0067932
000220 3c 26 86 be 98 de a2 bd 86 9d b3 3d d4 16 20 be
       -0.26201046 -0.07952613 0.087702796 -0.15633708
000230 27 79 7f be 00 eb 51 3e 61 0f 4a 3e 02 ee 76 be
       -0.2494856 0.20499802 0.19732429 -0.2411423
000240 dc 37 64 3e 81 5c b4 3c 89 ae db 3b b0 e1 0b 3e
       0.22286934 0.022016766 0.006704156 0.13660312
000250 68 a2 70 3e 58 64 89 3e a0 46 4f be c9 1a 77 be
       0.23499453 0.2683437 -0.20241785 -0.24131311
000260 1c de 3a 3e 11 91 64 bc 5d bf 50 3e 21 1d d7 bd
       0.1824879 -0.013950602 0.203855 -0.10503603
000270 a3 e9 64 bd db b7 d5 bd e6 ea 8d be 15 34 86 be
       -0.055886876 -0.10435458 -0.27718276 -0.2621161
000280 10 25 15 bc 49 ba 71 bb bd c0 fd 3d 47 93 94 be
       -0.009103075 -0.0036884716 0.123902775 -0.29018614
000290 34 4f 88 3e 2d d1 77 be 33 e2 af bd 26 64 f2 bd
       0.26622927 -0.24200888 -0.08588066 -0.11835508
0002a0 70 4e 39 3d 40 d0 8e 3e be bd d2 3c 4a 19 18 bc
       0.04524082 0.27893257 0.025725242 -0.009283373
0002b0 de 63 4d 3e c6 54 3e 3c 50 ff 27 3e 1e ac 76 bc
       0.20057628 0.011616891 0.16405988 -0.015055684
0002c0 4b 9b a0 bc 47 c2 8a bd 7e fb 62 3e ff c3 ba ba
       -0.0196053 -0.06775337 0.22166249 -0.0014249085
0002d0 95 c3 16 bd c8 95 87 be b2 5a 30 3e cc d2 35 3d
       -0.036807615 -0.26481462 0.17222098 0.044390485
0002e0 24 bb 4a 3d 49 e5 3e 3e b4 0a 5e 3e f2 ec 4c be
       0.049494877 0.18642153 0.2168377 -0.20012262
0002f0 d7 88 d0 3d f5 b7 72 3d 03 a1 74 be 91 6e 51 be
       0.1018235 0.059257466 -0.23889546 -0.20452334
000300 0b 8a 14 be 57 3c 8c 3e 72 ce 27 be ed 6e 96 be
       -0.14505784 0.27389786 -0.16387346 -0.29381505
000310 0b 29 8d be 6f 24 82 be 8d e1 88 3e 7f 0b f5 ba
       -0.27570376 -0.25418422 0.26734582 -0.0018695443
000320 7c 84 ab 3d 05 9b 3e 3e bd 88 0c be f8 9a 42 3a
       0.08374879 0.18613823 -0.13724037 0.0007423605
000330 03 15 d5 3d 82 7c 84 bd c0 de 0a 3e c7 4c 51 be
       0.10404398 -0.064690605 0.13561535 -0.20439444
000340 0b 1b 81 3e fd 82 8a 3e 75 89 85 be 25 08 d9 3d
       0.25215945 0.2705306 -0.26081434 0.105972566
000350 dc cb ab 3d a8 0f 59 3d 13 0a 31 be 1c c3 e5 3d
       0.083884925 0.052993447 -0.17289 0.11218855
000360 1d 4d 9c 3d 23 d3 58 3e 32 3d 55 be 4f c2 d1 3c
       0.07631896 0.21174292 -0.20824125 0.025605349
000370 2d cc 49 3e 3d 79 82 3e 7e d8 ba 3c 35 1b 48 3e
       0.19706793 0.25483122 0.02280831 0.19541629
000380 bd 4e 30 be 88 0f 53 3e 7d 65 79 3c e8 88 51 be
       -0.17217536 0.20611393 0.015221951 -0.20462382
000390 ed 07 75 be 7a 67 20 3e 4b e3 c2 bd 9c c8 9c 3d
       -0.23928805 0.15664473 -0.09516009 0.07655451
0003a0 1d f9 96 bc a2 fa 80 3e 10 fa 7c ba 93 e3 5e be
       -0.018429333 0.25191218 -0.00096502993 -0.217665
0003b0 82 f4 1d be 35 02 3d 3e 55 73 dc bc 89 8e 07 3e
       -0.15425304 0.18457873 -0.026910463 0.13237967
0003c0 77 28 55 be 31 bf 26 bc 97 d4 8f 3e 5c 63 69 be
       -0.20816217 -0.0101774195 0.2809188 -0.22791809
0003d0 44 b5 8c 3e 68 7d 13 3e 4b b2 9a 3d d4 fc 4d 3e
       0.27482045 0.14403307 0.07553538 0.20115978
0003e0 2f 90 1a be 9c 3b 0e 3e d2 f8 fa bd 60 a9 63 bd
       -0.15094064 0.13889927 -0.1225449 -0.05558145
0003f0 30 ad a5 bd 04 a7 8a 3e 9b db 49 3e 78 12 11 be
       -0.080896735 0.27080548 0.19712679 -0.14167202
