trained_weights/trace/gat9.pth (torch, 328660 bytes, 27 tensors)

convs.0.att_src f4 [1, 4, 64]
00000000: bbb4 0dbe 0d02 44be a83e e3bd ea26 7cbe
00000010: fc5c 383d 816d 3b3d b61d 593e 8fb1 07be
00000020: 9b5f fcbd c488 8bbd 2a90 20be 76e8 463e
00000030: 28c8 133d ea33 0e3e 583b 563c c8d1 e53d
00000040: 3ee0 823d c798 e8bc 9e0b df3d e9ce 853e
00000050: 250d 6cbd cd08 3f3e 155a 653b c1a3 2a3e
00000060: 4e9b 903c 5cfd a7bc 66e5 be3d 1f4d 7e3e
00000070: db54 66be 885b 1c3e 55f2 583e 16e9 6f3e
00000080: 27cd 753e dae9 3f3e ba93 f83d 551d 57bc
00000090: f271 a23c e0e0 243e 28fe a1bd 71ae 673e
000000a0: c878 823e 390c 6a3e 66c7 c53d 64ed 033e
000000b0: e355 063d 7b7e e7bd 7bd6 b53d cd3a 9d3c
000000c0: fbbb 353e b96d 5bbe 5a27 783d ee69 aabd
000000d0: 6dd2 963e 4cc2 3f3e f5c3 7a3e 1989 953e
000000e0: 04c7 423e 6780 9c3d 79a1 8c3d f028 813e
000000f0: d852 88be 4848 cebd 5487 1f3e eda7 813e
00000100: b448 fcbd 62ad 063e 7452 833e 2ecc a0be
00000110: 78f3 a83d d1b4 2cbe 4374 453e 15dd 523d
00000120: 58ed 6c3e d63c a9be 5276 303e b1ba 67bd
00000130: 7f52 febc bda8 823e 67ab 47be 3943 693e
00000140: d207 0e3d 3429 863e 36a8 873c f72b b0bd
00000150: 32b9 5cbc 3954 bb3d 910e 55be 55eb 813e
00000160: 44be 883d 8107 72be f188 613d 0cac f3bd
00000170: 7b66 c73b d14a 88bd 27e9 05be 2df6 5b3e
00000180: ab29 383d 9805 60be e3f6 9fbe cf3e 13be
00000190: 9382 fc3c eb29 383e 79f6 d33d 4f1b a63a
000001a0: 7ce1 02be 50c4 743c 34c4 143e 2cd5 dbbd
000001b0: 8ca6 6e3e 6213 2c3e 9c09 6a3e 3546 74be
000001c0: 37c8 d63d 80b7 d23c 69b6 293e 5c31 113b
000001d0: 9f0b 923e 0b13 50bd 4c8b 91bc 5b49 903d
000001e0: 0f84 923e a79b 88bd befc 9c3e 2e08 afbd
000001f0: 6d9a a73d 01be 05bd 1fb8 8d3e 2131 b8bd
00000200: 8fa9 0c3e b87b 423c 91a4 6a3d ba62 0e3e
00000210: 9ef5 61be 8fb4 753e cc67 3e3e fdd0 a63e
00000220: d5d6 0b3e 12dd 2abe 5bb6 02be c069 3d3e
00000230: 13de 073e 17fd 3a3e bc68 683e 1531 88bc
00000240: f95d 9abd ea8b 36bd 20d3 883b 67be 253e
00000250: 12e3 183e 6c50 adbc 3bc9 04be 7d60 703e
00000260: 1a92 69bd 6b52 203e 2917 423e 8c25 1fbe
00000270: 07f4 233e 6b34 083e 643e 693e 807a cb3d
00000280: b86f 12be a0bf ba3c d413 0abe 1781 52be
00000290: df52 9ebd d027 72bd 43fc 9cbd 8b35 7b3e
000002a0: 804b c13c 4e49 60be 2bf5 61bd 8a26 883e
000002b0: 9c78 d6bd a1bd aebd 7cac 953e 205e 863c
000002c0: 3b94 68be 0376 4fbe d133 97ba 8692 83be
000002d0: ed31 99be 8fc7 0dbe bd43 06bd 720e c63d
000002e0: e0bb 11be b25a d7bd cd82 40be b365 25be
000002f0: 1c54 d13d 21a2 9c3d 2d52 14be 17b8 993c
00000300: 4691 393e cda8 5f3e 5cca 103e 9dad 7b3e
00000310: 60a0 1a3d 1c6c 023e 8603 88bd 151a c53c
00000320: 8dc3 9e3e db6e 0abe ddca 4d3d f4df 1ebd
00000330: 4510 8ebe a5dd 763d 8c8c 1e3e 2e38 6b3d
00000340: 9e01 513d 0d09 ca3d 8b82 873e 0c1d ab3e
00000350: 02fd 0f3e 5b08 80bd 83da 1c3e 70b3 4fbe
00000360: 736c 933c 3816 983e 96f2 60be cfb5 cc3d
00000370: 6c48 7bbb 6be1 d9bd 216e 5cbd edf0 5f3e
00000380: 3f27 3a3d 565f 51be de85 14bd 8165 0ebe
00000390: fbf4 9e3c 147f d93d 4730 523e 39f5 52be
000003a0: df10 aebb 8d0e f8bd 7a10 b7bd dc8e 443e
000003b0: 6f0a 6c3e c721 223e dffd 39be fc0c 92bd
000003c0: f521 f63d 4011 753e 0549 8bbc 251e f6bd
000003d0: d576 4cbe e4cb 4fbe 2c0e 463d a2bd 04be
000003e0: f875 34bd ffcf 65be 6c18 2abe b152 1f3e
000003f0: 8f33 013e ec67 a6be ca88 253c 337d 5b3d
-0.13838474 -0.19141407 -0.11095935 -0.2462422 0.04501055 0.045758728 0.2120274 -0.13251327
-0.12322923 -0.06813195 -0.15679994 0.19424614 0.036079556 0.13886991 0.013075672 0.11221653
0.06390427 -0.028393162 0.10890888 0.26134422 -0.057629723 0.18655701 0.003499632 0.1666403
0.01765218 -0.020506553 0.09321098 0.24834107 -0.22493307 0.15269291 0.21186192 0.23428759
0.2400404 0.18741551 0.121375516 -0.013129552 0.019829724 0.16101408 -0.079098046 0.22625138
0.25482774 0.22856225 0.09657173 0.12883526 0.03279675 -0.11303421 0.088787995 0.019193077
0.1774749 -0.21428575 0.060584404 -0.08320986 0.29457417 0.18726462 0.24488814 0.2920616
0.19021231 0.07641678 0.06866736 0.25226545 -0.26625705 -0.1007238 0.15578967 0.2532343
-0.123185545 0.13152078 0.25648844 -0.31405777 0.08249563 -0.16865851 0.19282632 0.05148037
0.23137414 -0.33054227 0.17232636 -0.056574527 -0.031045197 0.25519362 -0.19498979 0.2277955
0.034675427 0.2620331 0.016559701 -0.08602136 -0.013471888 0.091469236 -0.20806338 0.25374857
0.06676915 -0.23635675 0.055062238 -0.1189805 0.0060852147 -0.06654895 -0.13077222 0.21480627
0.044961613 -0.21877134 -0.31243047 -0.14379428 0.030823981 0.1798474 0.10349745 0.0012672934
-0.12781328 0.014939383 0.1452797 -0.10734019 0.2330572 0.16804269 0.22855228 -0.23854907
0.10487407 0.025722265 0.1657349 0.0022154665 0.2852449 -0.05079941 -0.017766617 0.070452414
0.28616378 -0.06670313 0.30661577 -0.08546482 0.08183751 -0.032651905 0.27679536 -0.089937456
0.13736556 0.011870317 0.05728585 0.13904849 -0.22066352 0.23994659 0.18594283 0.3258132
0.1365617 -0.16685894 -0.12764876 0.18497372 0.13268308 0.18260609 0.22696203 -0.016624967
-0.07537455 -0.044567026 0.0041755587 0.16185914 0.1493037 -0.021156512 -0.12967388 0.23474307
-0.0570241 0.1565644 0.18954147 -0.15541667 0.16011058 0.13301246 0.22777706 0.099354744
-0.1430043 0.022796452 -0.13484126 -0.20557056 -0.0773065 -0.05912 -0.076653026 0.24532144
0.023595572 -0.21902964 -0.05516545 0.26591903 -0.10472223 -0.085322626 0.29233158 0.016402304
-0.22712795 -0.20259862 -0.0011535828 -0.25697726 -0.29920903 -0.13845657 -0.032779444 0.09670724
-0.14231825 -0.10515346 -0.18799897 -0.16152076 0.10221121 0.07648111 -0.14484473 0.018764539
0.18121824 0.21841736 0.14139694 0.24577947 0.0377506 0.12736553 -0.06641297 0.024060288
0.31008568 -0.1351885 0.050242294 -0.038787797 -0.27746788 0.06026997 0.15483302 0.057426624
0.051026933 0.098650075 0.26466784 0.33420599 0.14061359 -0.06251594 0.1531773 -0.20283294
0.017996049 0.29704452 -0.21967539 0.09995615 -0.0038342727 -0.10638698 -0.053815965 0.2186925
0.045447584 -0.20446524 -0.03626048 -0.13905908 0.019403925 0.10619941 0.20526229 -0.20601358
-0.00531207 -0.1211215 -0.089386895 0.19195122 0.23050855 0.15833198 -0.1816325 -0.07131383
0.120181955 0.23932362 -0.017002592 -0.12017468 -0.19967206 -0.20292622 0.04835336 -0.12962964
-0.044057816 -0.22442625 -0.16610879 0.15558888 0.12617324 -0.3250116 0.010103414 0.053586196

convs.0.att_dst f4 [1, 4, 64]
00000000: 0355 15be e9b9 ae3d ddff 74be 6d7d e8bc
00000010: 3056 63be b519 0cbe 763f 973d 107c 76bc
00000020: 41b9 3bbe 5c8d 8abd 4b09 303e c2e8 513e
00000030: 82b2 dfbd bc60 393e 9e51 1c3e 15a4 2e3e
00000040: 63c5 d13d aec9 1e3e d088 a03d afc9 25bd
00000050: 328c 94bd 3a35 403e d780 2ebe ff5f a4bd
00000060: a7e8 e2bd 6c56 123e 5982 473d e25a eebd
00000070: 3490 09be 99ac bf3d bea4 f7bd 6b25 43be
00000080: bdc6 40be 4543 c7bd 3590 273e afbd 81bd
00000090: 40a1 b23d a318 78bd 71f1 62bd 0476 b03d
000000a0: b8a2 ae3d 8445 6cbe 323e 203e 4a01 913d
000000b0: bd5a 443e bfa9 1b3e c04c 68be 96cf 663d
000000c0: 865d 1c3e 4284 603e 9be7 723e 1703 41be
000000d0: 0e69 35bd 73c8 5c3e e170 e0bd ad09 0d3d
000000e0: c511 53be e527 59be 0f13 03be 8ad6 943c
000000f0: 8980 d93c d048 38b9 7a02 003d d277 133e
00000100: e97f 4e3e 0813 23bb 5d87 9dbd 70e1 c23d
00000110: 768a ecbc 606b 19bd 6c91 1bbd 2125 053e
00000120: df7b bc3c 2d0f 5c3d 5a1f 63bc 6c9f 50be
00000130: b3bb fabd b70d 5ebd 3d54 383e f903 56be
00000140: 12b2 2f3e 974f 0bbd 55ca 243d 0771 62bd
00000150: 500d 103e 524c 223e 67a0 673d afdd 4b3e
00000160: 5ed1 1abe 718c 2cbe c08b 123e 33a7 633d
00000170: f18d 683e faaf 66be 38f7 2fbe f716 693e
00000180: 750e ad3c 0212 d93d c4a4 53be b443 1ebd
00000190: a28c 0b3d f36b c43d c309 5ebe fde5 bcbd
000001a0: 848d f43d d03a 573e de40 413e e148 2d3d
000001b0: d76a 5dbe 2c0f 16be 672e 3f3d 829c 82bd
000001c0: be1a 3c3e 6a4e abbd 6eca a8bc 25f7 fdbc
000001d0: 408e 063e ba40 18bd 6565 513e 1ddc afbb
000001e0: dbc5 4ebe 866e a43c eb35 a43d ef94 26be
000001f0: eccf 75be 131b fa3d 0119 ba3d ff67 0abd
00000200: 7e7f 493d a123 3bbe 946c 0cbd d2c7 543e
00000210: e55d 00bd 4879 e5bd c7c3 39be ef36 053e
00000220: 4a91 0abe 05d0 3bbe 9b1c 36be 0177 6bb9
00000230: 859c 1d3d 57ab 7f3d fb5d 44be d836 a7bc
00000240: 6401 eabc 6e1b 38be a198 233b d418 ba3c
00000250: 8afd c0bd db24 0fbd c1c4 4cbb f6e4 5e3e
00000260: 68ce 1b3c 6e9e 8dbc 1e2a 693d 9064 3e3e
00000270: c17d 493d b7f1 f13d 99c3 863d fb07 283e
00000280: c7a9 2cbd 6e7c 4cbe 8384 1d3e 7afd 6cbd
00000290: 6eec 47bc 5cad 6e3d dddf 303e 495b ec3d
000002a0: 9856 6dbd f014 d2bc 23c3 3bbe 1fcb 803d
000002b0: f337 a1bc f38b 32be c143 493d 25b3 583e
000002c0: 2dc6 103e 1695 5d3e fc51 ad3d 3153 1b3d
000002d0: a73f f13c 0977 e9bd 5039 5d3d ffcd 2bbe
000002e0: a288 3a3d ecb2 9c3d d46c 133e 704b 4a3e
000002f0: 063f 22be 8d00 22be 302e f23c d39d 0fbe
00000300: 9177 0fbe fbcc 8d3e 3d79 fcbd f3ab 7dbe
00000310: 8357 81be 3834 2fbd 0941 cb3d 0a47 06be
00000320: 75cc f2bd 209e 00bd aa39 743e 1474 06bc
00000330: 494f b53b 5810 213e b532 4bbd e062 183e
00000340: f8e0 1a3e 7779 7ebe ae79 ce3a 58d3 4e3e
00000350: b5c6 023e e5fc 4dbc 4dd7 82bd a05e 86bd
00000360: 7484 53bb 8737 35be a175 883e 30e6 ccbc
00000370: e753 223d 8c89 683d 7c74 433e 63db 84be
00000380: ce7e 4ebe 370e 373d e6d8 79be 70ac c5bd
00000390: 0ddf 17be 7ca5 cb3b d8ae 083d a368 403e
000003a0: b422 b8bd 2dd2 11bb a60f 4c3d 9307 a0bd
000003b0: 1fce 1e3e e92f 523e ed7a 863c 0567 6c3d
000003c0: 3e8e d23d 3aa2 923b 48ed aa3c a4e4 1fbb
000003d0: 08ac 033e be50 50bd cc97 62be afd1 013e
000003e0: 19fa f13d 8c74 373e 22bb cdbc f8f9 29be
000003f0: 70ce d03d 7f1e 4c3e cfbb 1ebe dea1 343e
-0.1458321 0.08531553 -0.23925729 -0.02838012 -0.22200847 -0.13681681 0.07385151 -0.015044227
-0.18332388 -0.067652434 0.17191045 0.20498946 -0.109227195 0.18103307 0.1526551 0.1705478
0.10242727 0.15506622 0.07838595 -0.040475544 -0.07253303 0.18770304 -0.17041336 -0.08026122
-0.11079531 0.1429078 0.048708294 -0.11638428 -0.13433915 0.09359092 -0.12091969 -0.19057243
-0.18825813 -0.097296275 0.16363604 -0.063350074 0.08722162 -0.06057037 -0.055406038 0.0861626
0.0852713 -0.23073393 0.15648726 0.07080324 0.19175239 0.15201472 -0.22685528 0.056350313
0.15270051 0.21925452 0.23721163 -0.18848835 -0.04428964 0.2156084 -0.1095903 0.034433056
-0.20612247 -0.21206625 -0.12800239 0.018168706 0.026550548 -0.00017574732 0.03125236 0.14401177
0.20165981 -0.002488317 -0.07691834 0.09515655 -0.028874617 -0.037455916 -0.037980482 0.13002445
0.023008285 0.05372541 -0.013862455 -0.20373315 -0.12242832 -0.0542123 0.18000884 -0.20899953
0.17157772 -0.03401145 0.04023202 -0.055283573 0.14067578 0.15849426 0.056549456 0.19908784
-0.1511893 -0.16850449 0.14311123 0.055579375 0.22710396 -0.22528067 -0.1718415 0.22762667
0.021125058 0.10599138 -0.20668322 -0.038638785 0.034069665 0.09590902 -0.21683411 -0.09223554
0.119410545 0.21018529 0.18872401 0.04230583 -0.21622787 -0.14654225 0.046675112 -0.06377508
0.18369576 -0.08364566 -0.020604338 -0.031001637 0.13140202 -0.037171103 0.20448835 -0.0053668157
-0.20192663 0.020072233 0.080180965 -0.16267751 -0.24005097 0.12212195 0.090868 -0.033790585
0.04919385 -0.1827531 -0.034283236 0.2077935 -0.031339545 -0.11204773 -0.1814109 0.13009237
-0.13531986 -0.18341072 -0.1778435 -0.00022455679 0.038479347 0.06241926 -0.19176476 -0.020411894
-0.028565116 -0.17979214 0.00249628 0.022716917 -0.09423359 -0.034947257 -0.0031245204 0.21767029
0.00950966 -0.01728746 0.05692493 0.18593049 0.049192194 0.118136816 0.06580276 0.16409294
-0.0421541 -0.19969341 0.1538258 -0.05785892 -0.012202365 0.058270797 0.17272897 0.11540849
-0.05794391 -0.02564475 -0.18336158 0.06288742 -0.019679999 -0.17436199 0.04913688 0.21162088
0.14138098 0.21638903 0.08462903 0.037921134 0.029449297 -0.11399657 0.054009736 -0.167778
0.04554046 0.07651314 0.14396983 0.1975534 -0.15844354 -0.15820523 0.02956304 -0.14025049
-0.14010455 0.2769545 -0.12327812 -0.24772625 -0.2526208 -0.04277441 0.09924514 -0.13113037
-0.11855403 -0.0314008 0.23850122 -0.008206386 0.005533133 0.15728891 -0.049608905 0.14881468
0.15124881 -0.24851023 0.0015752816 0.20197809 0.12771113 -0.012572502 -0.063887216 -0.06561017
-0.0032274993 -0.17696963 0.26652244 -0.025012106 0.039630797 0.0567718 0.19087404 -0.2594863
-0.2016556 0.04469129 -0.24399146 -0.096520305 -0.14831181 0.0062147956 0.03336987 0.18789916
-0.08990994 -0.0022250519 0.04981961 -0.07813945 0.15508316 0.20526089 0.016416037 0.057715435
0.10281037 0.0044749053 0.020865098 -0.0024397755 0.12858593 -0.05085825 -0.22128218 0.12677644
0.118152805 0.17915553 -0.025113646 -0.16599262 0.10195625 0.19933508 -0.15501331 0.17639872

convs.0.bias f4 [256]
00000000: 75c3 263c 4905 b7bb 8fc9 e9bb edfc d8ba
00000010: cddb b23b 2a6b 4cbb 5e76 82bc 2649 d53b
00000020: d902 933c 3ffd 813b 37f4 7abb d8c3 113c
00000030: 2b75 8d3c 892f 53bc 6bad 01bd 63be 173b
00000040: 6fc2 2939 08eb b5bc ed05 bb3b c8d9 b93b
00000050: 974d d139 4492 463b 71e9 dc39 3717 323c
00000060: 0da3 ebbb 77c3 a63a 264e 56bc 3659 21ba
00000070: 68f7 63bb da9b dd39 a067 e9bb 5fe0 123c
00000080: 2820 a53b 2649 cabc 5e53 6d3c b2bb 083d
00000090: ed44 1a3c 7c19 3cbc 47f3 603b fab4 d9bb
000000a0: 3065 cfbb 6101 5a3b 7ad5 6d39 6439 ff3a
000000b0: 62c9 aabb 7c67 253c 2765 c939 b9ae 283b
000000c0: 30be 003c e14a 96bb f4d8 7e3b 2e07 103c
000000d0: 0623 3e3c 6bc6 223b 92e4 033c a4a1 92bb
000000e0: d1a8 d7bc f67c c7bb 264e 43bb 114d 7c39
000000f0: be98 a1bb 7a26 6fbb 09c4 7f3b 20a2 6c3b
00000100: 3d9b 76ba 80e7 913a a5ea e138 a5ac 45bc
00000110: 3f88 68bb 8fb5 f73a 902a bfbb e614 0cbc
00000120: 9064 133c 49ed 85b9 cb66 48bc 7596 063c
00000130: 8752 c3ba 11bd 9a3b 930f 1bbb b332 80bc
00000140: 1b8b a53b d6a4 1e39 957d 5e3b b915 f53b
00000150: d415 403c 4cb6 bfbb 1aa1 49bc 2423 e63b
00000160: 448f cab8 929f 84bb a5d6 313c 1aa9 2fbb
00000170: 1904 ccbb c4e5 193b c7eb 97bc bfec 9f3a
00000180: c303 7fba baf1 28bb d791 12b9 7f7d fc3b
00000190: 1d41 17bc e2a4 363c 984e 37bc 169b 183b
000001a0: 3b57 84bb 45d4 b83b a47f 233c 397a ca3b
000001b0: 6e97 513b 2734 19bc 8507 f13b 36cc adbb
000001c0: 8f1a 96bc 9537 8dbb 8738 18bc 84c2 b73b
000001d0: eb2b 733c 6cde c3bb 5e92 523c af39 1a3c
000001e0: b08a 89bb 0f52 cb3c ba7e b33b 6ab3 e93b
000001f0: 447b a53b e556 ba3b 9bfc 73bc 2813 17bc
00000200: b76b 40bb f046 5cbc c119 8bbc bbdc 02ba
00000210: dfef a73a 303b 9bbb 36a2 7abb 2ef3 8039
00000220: da35 8d39 db56 f9bb ea83 df3b 0e00 81bc
00000230: 46be 643a 3c48 9f3c 0d26 db3a 6c0c 57bb
00000240: 64bf 8c3b d5fe 123c 399a b8bb 4f73 5a3c
00000250: b44b 063b 896b 0fbc 11ba 493b 134e 8abc
00000260: 0c43 d3ba a8ac b33b cfa6 acbb e671 773c
00000270: 977c 11bc 4c7e a23c 1933 a0bb 1813 a4b9
00000280: 5518 903b 81d2 ecba 9d4e c03b 9e73 d9b8
00000290: d9ba 4ebb 0284 77bb f3bb 843b c8e0 21bc
000002a0: 2dc2 9fba b00e 933b 00f5 c0bc 09eb d5bb
000002b0: 28a5 46bb 85e5 dcba ff92 de3b 6315 023b
000002c0: 0713 f0bb 40bf 513c 8fa3 023b 13f5 713b
000002d0: 288b 963c 2fc7 143c 3374 5b3c 173d a238
000002e0: 8060 f33b 551d 5a3b ec05 61bc c222 e83c
000002f0: 028d 8337 b46f e4bb 4d34 bfbb c8ae 8e3c
00000300: cae9 fb3a 1de2 b93b beb8 003c 8b48 003c
00000310: 2cec 4abc f19f 133c d149 dfbb 7e1f d1bb
00000320: 8243 8e3b 08bc 96bb 1bbb 3bbc 4681 9c3b
00000330: 214a 9fbb d59e 2c3c 3415 edb9 55cb 1eba
00000340: d4bf 0ebc 5903 073a 5c37 e33b 8846 cd3b
00000350: ee88 213c 3ea8 1e39 9529 a33b 0504 2cbc
00000360: 48d2 03ba 0b76 683b d94c c6bb 6cf2 25bc
00000370: 5f54 5a3c 2748 2c3b f6ba 1a3c 7f1f 213b
00000380: d8a4 3c3c a031 09bb cb03 80ba 3be0 06bc
00000390: b6b7 183c 6302 043c 4abc f238 8574 97bb
000003a0: f6c8 393b 26a9 b0bb 9961 213c 19b0 093b
000003b0: 03eb 013c 2944 2e3b 8bcb 563a 8331 2e3c
000003c0: d9b2 02bb 37e2 a83b 2b69 183c c96d e4bb
000003d0: 6dc9 443c 0d01 4d3c aa04 e03a 4872 783c
000003e0: 723a e03b 64d1 e73b cb77 40bb 22a7 303c
000003f0: 2e59 dbbb 2cbd aeba 87dd 9abb 6ab1 213a
0.0101784365 -0.005585347 -0.0071346234 -0.001655487 0.005458331 -0.0031191804 -0.015925582 0.006508964
0.017945694 0.003966957 -0.0038292536 0.00889679 0.017267784 -0.012889751 -0.031659525 0.002315425
0.00016189528 -0.022206798 0.0057074935 0.0056717135 0.00039921395 0.0030299583 0.00042135597 0.010869793
-0.007191068 0.0012723048 -0.0130801555 -0.0006154956 -0.0034784917 0.00042268523 -0.0071229488 0.008964627
0.0050392337 -0.024693083 0.014485208 0.033382125 0.009415847 -0.011480685 0.0034324692 -0.0066438885
-0.006329201 0.0033264982 0.00022681608 0.001947206 -0.005211995 0.010095473 0.00038413072 0.0025738908
0.007857844 -0.004586563 0.0038886638 0.008790774 0.01160503 0.0024837505 0.008050101 -0.0044748355
-0.026325615 -0.0060878946 -0.0029801219 0.00024061302 -0.0049315384 -0.003649144 0.0039026758 0.0036107376
-0.00094072876 0.0011131614 0.00010772542 -0.012065087 -0.00354816 0.0018898713 -0.0058339313 -0.008549904
0.008996144 -0.00025544528 -0.012231539 0.008214583 -0.0014901914 0.0047222455 -0.0023660406 -0.015649175
0.005051983 0.0001512946 0.0033949364 0.007479396 0.011723954 -0.005850589 -0.012306476 0.007023232
-9.658796e-05 -0.0040473426 0.010854398 -0.0026803673 -0.0062260744 0.0023482898 -0.018545045 0.0012201293
-0.00097280386 -0.0025778846 -0.00013977975 0.00770539 -0.009231833 0.01114771 -0.011188172 0.0023285798
-0.004038719 0.005640539 0.009979162 0.006179121 0.0031981128 -0.009350813 0.0073556327 -0.005303885
-0.018323211 -0.0043096044 -0.009290821 0.005607905 0.014842014 -0.0059774425 0.0128522795 0.009413167
-0.004197441 0.024819402 0.0054777535 0.0071319835 0.005050095 0.005686628 -0.014891769 -0.009220876
-0.0029361078 -0.013444647 -0.016980054 -0.0004991998 0.0012812576 -0.0047372803 -0.0038243658 0.00024595245
0.00026933738 -0.007609231 0.0068211453 -0.015747096 0.0008725863 0.019443624 0.0016719714 -0.00328138
0.0042952765 0.0089718895 -0.005633619 0.013333156 0.00204919 -0.008753666 0.003078107 -0.016882932
-0.0016118004 0.0054832287 -0.0052689086 0.015102839 -0.008879802 0.019835614 -0.004888904 -0.00031294744
0.004397432 -0.0018068106 0.0058687464 -0.00010368902 -0.0031544475 -0.0037767892 0.0040507256 -0.009880252
-0.0012188606 0.004487835 -0.023554325 -0.0065282625 -0.0030310843 -0.001685307 0.0067924256 0.0019849173
-0.007326487 0.012801945 0.0019933914 0.0036919757 0.018376902 0.009080692 0.013394403 7.736141e-05
0.007427275 0.0033281643 -0.013734322 0.028336886 1.5682079e-05 -0.006971324 -0.005835092 0.017417327
0.0019219455 0.0056727068 0.007856546 0.007829796 -0.012385409 0.009010301 -0.0068142195 -0.006381928
0.0043415437 -0.004600052 -0.011458184 0.004776153 -0.004861132 0.010535915 -0.0004521996 -0.00060575205
-0.008712728 0.000515034 0.0069340896 0.0062645115 0.009859307 0.0001513073 0.004979322 -0.010499005
-0.0005028588 0.003547075 -0.0060516414 -0.010128599 0.01332578 0.0026288123 0.009443989 0.0024585424
0.011513911 -0.002093412 -0.0009766755 -0.008232172 0.009321144 0.00805721 0.00011574531 -0.0046220445
0.0028348542 -0.005391258 0.009849929 0.0021009503 0.007929566 0.002659092 0.00081937824 0.010631922
-0.0019943027 0.00515392 0.009302418 -0.006971095 0.012010914 0.012512458 0.0017091234 0.0151639655
0.0068429047 0.007074522 -0.0029368277 0.010782035 -0.0066939807 -0.0013331524 -0.004726115 0.00061680994

convs.0.lin_src.weight f4 [256, 12]
00000000: 3ed4 8ebb a40b 233e b001 a0b9 0836 dd3d
00000010: 1bc3 283d 56bb f236 14dc 0c3c b132 953d
00000020: 2c2e cc3d 8e3f 81bc 982b d1bd c3fb 553a
00000030: 9a78 4bbd 8fd9 f8bd ec71 fb3c 4f76 7a3d
00000040: 5cb8 08be 870e 3236 c129 39bc 0ecb 9abc
00000050: 161f ea3d 08e9 c1ba 1e57 cd3a 73c7 84bc
00000060: 470e 7b3d 0704 99bd c4a9 353d 3b04 d5bd
00000070: 7358 9abd 82d0 b633 1bec 6fbd f5b6 2537
00000080: 93b4 d8bc 781f 033d c807 613c 03c9 00bc
00000090: 52e6 063e f30d 343e 9f37 993d 3b40 e63b
000000a0: d540 1d3b c790 13b6 5d11 90ba c1f7 5bb6
000000b0: 15a7 15bd ce78 833a 54cb d93d 30e8 85bc
000000c0: 3f82 53bd 2eaf 3f3e b290 ceba 36dc e3bd
000000d0: c6bd 9a3c 03f2 35bd 5905 9e3c ad13 bd36
000000e0: bc97 a8bd 7287 f5bc 876b e3bd 5887 1539
000000f0: 514e e0bd 8b1e 77bd fbe3 3c3d 1960 0d3d
00000100: 900d 0abe fe5d 5f3d 4b05 f23b a6e3 df3b
00000110: 9fed ebbd 775a 1dbc e8aa d2bd 2f95 113d
00000120: 2497 cb3d 3f1c 623b 0d3a c23c d6e1 40bd
00000130: 39ea a0bd 39df 61bd a6a4 1c3c 4a82 8a3a
00000140: 1c77 db3d 6b2d 293d df9f 963d 0872 01bd
00000150: 52c3 f63d e5bd cb3d fb0d f0b9 1e1e c3bd
00000160: ada1 15bd 86eb 73bd c459 8d3d 4b4d 9d3d
00000170: 6597 adbd e538 9aba 4121 fa3d a4b1 8036
00000180: 59bf a2bd 4789 9f3d 8d85 13b9 9ab2 dcbd
00000190: b229 e2bd 06ce 47bb 6d03 863d fa55 6cbd
000001a0: 85d2 abbd bbff a93b ee1a 8c3c 0398 943b
000001b0: 1087 af3d 6f14 85bc 94c2 bfbc 7d7e 92bd
000001c0: e61b 953d a088 a6bc 2a16 6fbc 67ac 393d
000001d0: 2f5b a43d 0c1b a739 3296 afbd e66c 03b8
000001e0: fc47 95bc ae46 89bd abd9 4e3a c57e c73d
000001f0: ed58 0fbe ace6 a6bb e1ad a4bd 6028 12b8
00000200: 2182 973c f0e6 163d 9a2d 71bd 4d54 d1ba
00000210: 3ec5 b13d b882 083d 0cc0 4139 ac8c 0a3e
00000220: eb9c 063e 293c 9e3b 92c5 dcbc 16db a3bb
00000230: 104b 783c 2f38 38bd 5b5b 31bd b8ce 9d3c
00000240: 51d6 08be 7662 823d 5702 38b8 0cfd d0bd
00000250: 16ac 843d c158 853d 56c2 6e3d 2993 8dbd
00000260: 5063 bdbd 0168 06bb 14b7 c1bd 9b6f f23c
00000270: d2ba ed3d 2cd0 053d c21d e0bc ab59 a33d
00000280: ddc8 ffbd 07ea 90bd f38b 2e3d ca2d 1435
00000290: b1ba 98bd 54dd a8bc 50c8 02be b929 55bd
000002a0: e433 2cbc 8583 13be 38a2 0038 0397 f43d
000002b0: c118 b93d f977 d43c aaa3 1bbc e80b 4a3c
000002c0: e8d0 70bd a437 043d ac4e d43d b440 0d3a
000002d0: 14d4 b63d d612 033d c1f9 9a3d 8962 4f3d
000002e0: 314a 09be 369d f6bb 332e 39bb e11e ee3c
000002f0: f16d 94bd a0c1 64bd 45a1 ccbd 2188 6ebc
00000300: 216b 0f3e 8330 2fbe 54cd 5cbc b46a c13d
00000310: 8517 89bd 9aa3 8dbd 0954 683d 31b0 02bc
00000320: 0d46 233e 2ce9 c73c 0a69 fb3c b537 1e3c
00000330: 81a7 8bbd 6dce 2ebe 2372 92bc 0e7f 00be
00000340: 5eeb fb3d 506f bfb5 a888 4ebb ffaa 3cbb
00000350: a63f 1abc a9d5 e3bc 729f b8bc 5498 023d
00000360: 0909 d8bd 5cbd c1bd 5e8d 3bbb 6b29 833d
00000370: 9356 553d 4d82 87bd a29e 83bd 7fa8 73bd
00000380: 6bfc 39bb bf8f 4ebc f909 bd3c d25e 61bc
00000390: f3aa c3bd 873c 16be 5a83 8f39 6672 5d3c
000003a0: e8d5 cdbd e466 2db7 5fe0 91bc 98dd feb7
000003b0: 46bb 983d 5ae2 24ba 2396 04bd 1b6b 05bc
000003c0: 9fca 16be c8de 063e 3f3d 4ebc d89a 16bd
000003d0: 0853 af3d 1870 df39 87c0 683c 1380 4dbd
000003e0: b70b 05be 8c33 4bbd 36f2 8f3d 2758 c638
000003f0: cac4 323d c890 193e 4238 22ba ff7e bfbd
-0.0043587973 0.1592241 -0.00030518835 0.10801321 0.041201692 7.233971e-06 0.008597393 0.07285059
0.09969744 -0.015777376 -0.10213393 0.00081628206 -0.04967556 -0.12150871 0.03069397 0.061147984
-0.13351578 2.6532523e-06 -0.011301459 -0.018895652 0.114317104 -0.001479418 0.0015666222 -0.016208386
0.061292913 -0.07471471 0.044351354 -0.104011975 -0.075364016 8.512963e-08 -0.058574777 9.877364e-06
-0.026453292 0.032012433 0.013734765 -0.007860425 0.13173798 0.17583446 0.07481312 0.0070267
0.0023994942 -2.1988978e-06 -0.0010991503 -3.2777755e-06 -0.036536295 0.001003051 0.10634485 -0.016346067
-0.051637884 0.1871917 -0.0015759675 -0.11125986 0.01888932 -0.044420253 0.01928966 5.6349295e-06
-0.08232066 -0.029971812 -0.111044936 0.00014260167 -0.10952438 -0.060331862 0.046115857 0.034515474
-0.13481736 0.054532997 0.007385885 0.0068325577 -0.11519932 -0.009604088 -0.10286504 0.035542663
0.09940937 0.00345017 0.023709321 -0.047090374 -0.078571744 -0.055144522 0.00956074 0.0010567394
0.10716078 0.04130308 0.07354712 -0.03160289 0.12048973 0.09948329 -0.00045786783 -0.09527229
-0.03653114 -0.059550785 0.06901887 0.07680758 -0.08476142 -0.0011766223 0.12213374 3.8353774e-06
-0.07946653 0.077898555 -0.00014068764 -0.10776253 -0.11043109 -0.003048779 0.06543622 -0.05769918
-0.08389763 0.005187956 0.017102685 0.004534723 0.08570683 -0.016245095 -0.023408212 -0.07153032
0.07280712 -0.02032882 -0.014592687 0.04533043 0.080252044 0.00031872874 -0.08573569 -3.1334253e-05
-0.018222801 -0.06702934 0.00078907114 0.09740976 -0.13998766 -0.005093416 -0.08040977 -3.4846715e-05
0.018494667 0.036841333 -0.05888138 -0.0015970558 0.08680199 0.033327788 0.00018477457 0.13530225
0.13145797 0.004828949 -0.026949678 -0.0050004823 0.015154615 -0.044975456 -0.043300014 0.01926361
-0.13363005 0.06366436 -4.3871198e-05 -0.10204515 0.06478135 0.06511069 0.058290802 -0.06912834
-0.09247458 -0.0020508769 -0.094587475 0.029594233 0.11607899 0.03266923 -0.02735794 0.07976087
-0.124894835 -0.07075887 0.042613935 5.520093e-07 -0.074574836 -0.02061335 -0.12771726 -0.052041743
-0.010510419 -0.1440564 3.0668656e-05 0.11942866 0.090379246 0.025936114 -0.00949947 0.01233194
-0.05879298 0.032279626 0.10366568 0.00053883647 0.089271694 0.032000385 0.07567168 0.05063108
-0.13407208 -0.007526065 -0.0028256297 0.029067459 -0.07247532 -0.055848718 -0.09991697 -0.014558823
0.1400571 -0.1710835 -0.013476688 0.0944418 -0.06693939 -0.0691597 0.056720767 -0.007976578
0.15944691 0.024403177 0.030689735 0.009656836 -0.06819058 -0.17070933 -0.01787669 -0.12548468
0.12300752 -1.4263005e-06 -0.003151456 -0.0028788445 -0.009414589 -0.027811842 -0.022536967 0.031883553
-0.10548598 -0.094599456 -0.0028618197 0.06404384 0.052084517 -0.0661665 -0.06426741 -0.059486862
-0.0028379213 -0.012607514 0.023076044 -0.013755517 -0.0955409 -0.14671527 0.0002737295 0.013516044
-0.10050565 -1.033556e-05 -0.017807184 -3.0382347e-05 0.074575946 -0.00062898325 -0.032369744 -0.008143212
-0.14725731 0.13170922 -0.012587844 -0.036768764 0.08560759 0.0004261739 0.014206058 -0.05017097
-0.1299275 -0.049609706 0.0702862 9.4577954e-05 0.043644704 0.14996636 -0.00061881926 -0.093503945

convs.0.lin_dst.weight f4 [256, 12]
00000000: 3ed4 8ebb a40b 233e b001 a0b9 0836 dd3d
00000010: 1bc3 283d 56bb f236 14dc 0c3c b132 953d
00000020: 2c2e cc3d 8e3f 81bc 982b d1bd c3fb 553a
00000030: 9a78 4bbd 8fd9 f8bd ec71 fb3c 4f76 7a3d
00000040: 5cb8 08be 870e 3236 c129 39bc 0ecb 9abc
00000050: 161f ea3d 08e9 c1ba 1e57 cd3a 73c7 84bc
00000060: 470e 7b3d 0704 99bd c4a9 353d 3b04 d5bd
00000070: 7358 9abd 82d0 b633 1bec 6fbd f5b6 2537
00000080: 93b4 d8bc 781f 033d c807 613c 03c9 00bc
00000090: 52e6 063e f30d 343e 9f37 993d 3b40 e63b
000000a0: d540 1d3b c790 13b6 5d11 90ba c1f7 5bb6
000000b0: 15a7 15bd ce78 833a 54cb d93d 30e8 85bc
000000c0: 3f82 53bd 2eaf 3f3e b290 ceba 36dc e3bd
000000d0: c6bd 9a3c 03f2 35bd 5905 9e3c ad13 bd36
000000e0: bc97 a8bd 7287 f5bc 876b e3bd 5887 1539
000000f0: 514e e0bd 8b1e 77bd fbe3 3c3d 1960 0d3d
00000100: 900d 0abe fe5d 5f3d 4b05 f23b a6e3 df3b
00000110: 9fed ebbd 775a 1dbc e8aa d2bd 2f95 113d
00000120: 2497 cb3d 3f1c 623b 0d3a c23c d6e1 40bd
00000130: 39ea a0bd 39df 61bd a6a4 1c3c 4a82 8a3a
00000140: 1c77 db3d 6b2d 293d df9f 963d 0872 01bd
00000150: 52c3 f63d e5bd cb3d fb0d f0b9 1e1e c3bd
00000160: ada1 15bd 86eb 73bd c459 8d3d 4b4d 9d3d
00000170: 6597 adbd e538 9aba 4121 fa3d a4b1 8036
00000180: 59bf a2bd 4789 9f3d 8d85 13b9 9ab2 dcbd
00000190: b229 e2bd 06ce 47bb 6d03 863d fa55 6cbd
000001a0: 85d2 abbd bbff a93b ee1a 8c3c 0398 943b
000001b0: 1087 af3d 6f14 85bc 94c2 bfbc 7d7e 92bd
000001c0: e61b 953d a088 a6bc 2a16 6fbc 67ac 393d
000001d0: 2f5b a43d 0c1b a739 3296 afbd e66c 03b8
000001e0: fc47 95bc ae46 89bd abd9 4e3a c57e c73d
000001f0: ed58 0fbe ace6 a6bb e1ad a4bd 6028 12b8
00000200: 2182 973c f0e6 163d 9a2d 71bd 4d54 d1ba
00000210: 3ec5 b13d b882 083d 0cc0 4139 ac8c 0a3e
00000220: eb9c 063e 293c 9e3b 92c5 dcbc 16db a3bb
00000230: 104b 783c 2f38 38bd 5b5b 31bd b8ce 9d3c
00000240: 51d6 08be 7662 823d 5702 38b8 0cfd d0bd
00000250: 16ac 843d c158 853d 56c2 6e3d 2993 8dbd
00000260: 5063 bdbd 0168 06bb 14b7 c1bd 9b6f f23c
00000270: d2ba ed3d 2cd0 053d c21d e0bc ab59 a33d
00000280: ddc8 ffbd 07ea 90bd f38b 2e3d ca2d 1435
00000290: b1ba 98bd 54dd a8bc 50c8 02be b929 55bd
000002a0: e433 2cbc 8583 13be 38a2 0038 0397 f43d
000002b0: c118 b93d f977 d43c aaa3 1bbc e80b 4a3c
000002c0: e8d0 70bd a437 043d ac4e d43d b440 0d3a
000002d0: 14d4 b63d d612 033d c1f9 9a3d 8962 4f3d
000002e0: 314a 09be 369d f6bb 332e 39bb e11e ee3c
000002f0: f16d 94bd a0c1 64bd 45a1 ccbd 2188 6ebc
00000300: 216b 0f3e 8330 2fbe 54cd 5cbc b46a c13d
00000310: 8517 89bd 9aa3 8dbd 0954 683d 31b0 02bc
00000320: 0d46 233e 2ce9 c73c 0a69 fb3c b537 1e3c
00000330: 81a7 8bbd 6dce 2ebe 2372 92bc 0e7f 00be
00000340: 5eeb fb3d 506f bfb5 a888 4ebb ffaa 3cbb
00000350: a63f 1abc a9d5 e3bc 729f b8bc 5498 023d
00000360: 0909 d8bd 5cbd c1bd 5e8d 3bbb 6b29 833d
00000370: 9356 553d 4d82 87bd a29e 83bd 7fa8 73bd
00000380: 6bfc 39bb bf8f 4ebc f909 bd3c d25e 61bc
00000390: f3aa c3bd 873c 16be 5a83 8f39 6672 5d3c
000003a0: e8d5 cdbd e466 2db7 5fe0 91bc 98dd feb7
000003b0: 46bb 983d 5ae2 24ba 2396 04bd 1b6b 05bc
000003c0: 9fca 16be c8de 063e 3f3d 4ebc d89a 16bd
000003d0: 0853 af3d 1870 df39 87c0 683c 1380 4dbd
000003e0: b70b 05be 8c33 4bbd 36f2 8f3d 2758 c638
000003f0: cac4 323d c890 193e 4238 22ba ff7e bfbd
-0.0043587973 0.1592241 -0.00030518835 0.10801321 0.041201692 7.233971e-06 0.008597393 0.07285059
0.09969744 -0.015777376 -0.10213393 0.00081628206 -0.04967556 -0.12150871 0.03069397 0.061147984
-0.13351578 2.6532523e-06 -0.011301459 -0.018895652 0.114317104 -0.001479418 0.0015666222 -0.016208386
0.061292913 -0.07471471 0.044351354 -0.104011975 -0.075364016 8.512963e-08 -0.058574777 9.877364e-06
-0.026453292 0.032012433 0.013734765 -0.007860425 0.13173798 0.17583446 0.07481312 0.0070267
0.0023994942 -2.1988978e-06 -0.0010991503 -3.2777755e-06 -0.036536295 0.001003051 0.10634485 -0.016346067
-0.051637884 0.1871917 -0.0015759675 -0.11125986 0.01888932 -0.044420253 0.01928966 5.6349295e-06
-0.08232066 -0.029971812 -0.111044936 0.00014260167 -0.10952438 -0.060331862 0.046115857 0.034515474
-0.13481736 0.054532997 0.007385885 0.0068325577 -0.11519932 -0.009604088 -0.10286504 0.035542663
0.09940937 0.00345017 0.023709321 -0.047090374 -0.078571744 -0.055144522 0.00956074 0.0010567394
0.10716078 0.04130308 0.07354712 -0.03160289 0.12048973 0.09948329 -0.00045786783 -0.09527229
-0.03653114 -0.059550785 0.06901887 0.07680758 -0.08476142 -0.0011766223 0.12213374 3.8353774e-06
-0.07946653 0.077898555 -0.00014068764 -0.10776253 -0.11043109 -0.003048779 0.06543622 -0.05769918
-0.08389763 0.005187956 0.017102685 0.004534723 0.08570683 -0.016245095 -0.023408212 -0.07153032
0.07280712 -0.02032882 -0.014592687 0.04533043 0.080252044 0.00031872874 -0.08573569 -3.1334253e-05
-0.018222801 -0.06702934 0.00078907114 0.09740976 -0.13998766 -0.005093416 -0.08040977 -3.4846715e-05
0.018494667 0.036841333 -0.05888138 -0.0015970558 0.08680199 0.033327788 0.00018477457 0.13530225
0.13145797 0.004828949 -0.026949678 -0.0050004823 0.015154615 -0.044975456 -0.043300014 0.01926361
-0.13363005 0.06366436 -4.3871198e-05 -0.10204515 0.06478135 0.06511069 0.058290802 -0.06912834
-0.09247458 -0.0020508769 -0.094587475 0.029594233 0.11607899 0.03266923 -0.02735794 0.07976087
-0.124894835 -0.07075887 0.042613935 5.520093e-07 -0.074574836 -0.02061335 -0.12771726 -0.052041743
-0.010510419 -0.1440564 3.0668656e-05 0.11942866 0.090379246 0.025936114 -0.00949947 0.01233194
-0.05879298 0.032279626 0.10366568 0.00053883647 0.089271694 0.032000385 0.07567168 0.05063108
-0.13407208 -0.007526065 -0.0028256297 0.029067459 -0.07247532 -0.055848718 -0.09991697 -0.014558823
0.1400571 -0.1710835 -0.013476688 0.0944418 -0.06693939 -0.0691597 0.056720767 -0.007976578
0.15944691 0.024403177 0.030689735 0.009656836 -0.06819058 -0.17070933 -0.01787669 -0.12548468
0.12300752 -1.4263005e-06 -0.003151456 -0.0028788445 -0.009414589 -0.027811842 -0.022536967 0.031883553
-0.10548598 -0.094599456 -0.0028618197 0.06404384 0.052084517 -0.0661665 -0.06426741 -0.059486862
-0.0028379213 -0.012607514 0.023076044 -0.013755517 -0.0955409 -0.14671527 0.0002737295 0.013516044
-0.10050565 -1.033556e-05 -0.017807184 -3.0382347e-05 0.074575946 -0.00062898325 -0.032369744 -0.008143212
-0.14725731 0.13170922 -0.012587844 -0.036768764 0.08560759 0.0004261739 0.014206058 -0.05017097
-0.1299275 -0.049609706 0.0702862 9.4577954e-05 0.043644704 0.14996636 -0.00061881926 -0.093503945

convs.1.att_src f4 [1, 4, 64]
00000000: f2fe c83d f413 91be d64b 18be f333 2cbd
00000010: 57c7 37be edd1 6fbe bd32 77be efb5 d2bd
00000020: f778 6dbe b5ad 6a3d 1b61 e23d f98f 873e
00000030: 7417 6a3e fbc5 5b3e 99d5 53be b237 1ebe
00000040: 9251 213e 92c4 4dbe 672c d23d 0ae0 65be
00000050: c843 a0be ddce 69be 45da 843e a2c2 503d
00000060: fc74 08be a7e1 493d 1c30 43be 7fcf f43d
00000070: eb84 823d fdce 6bbe 7de7 813b 37da f23c
00000080: 2b68 8a3e 7e50 f0ba 2428 503e 2bf8 07bd
00000090: a33c 0a3e b0bb 83bd c766 9fbd b8f6 603e
000000a0: 20fe ba3b da90 843e 2d07 57bd b02d 373e
000000b0: 25d0 31be 5191 6f3e a20e 0ebe 22aa 863a
000000c0: fbd2 b93d fa65 933e 6c86 7e3e 8223 5c3e
000000d0: 9676 953e ee4f b3bb 3c8f 833e 47a7 80bd
000000e0: 17f7 6c3e 53a1 123e 45b9 8b3e c433 7ebd
000000f0: 8b01 dc3d 190d 233e fb3a 88be 7be2 65be
00000100: e964 8bbc 6213 8fbe b3eb 343e 05ab e83d
00000110: f7b1 70bd 450b 2a3e f274 95be 1927 813e
00000120: 755c e5bd 5621 a3bc c0d0 3f3d be1a 8bbd
00000130: 4ad9 7b3d 9110 e8bd b6c6 02be ce37 143e
00000140: 56d5 83be 92d0 82bd f44e 8e3e dea2 44bd
00000150: e77e 323e 3a9a e43d 3fa3 8cbe 9a47 c8bd
00000160: 9edd fbbd 196b 3ebe 2673 57be a401 a13d
00000170: a928 0bbd 8f0d 9e3d a6da bb3d 704c 983e
00000180: 5b48 8a3e f542 e23d a595 593e d956 993e
00000190: 0488 b0bc 1719 8e3e f489 b8bd 4129 dabd
000001a0: 5880 d9bd 3e35 243e dfe8 1ebe 7454 7e3e
000001b0: 5b3c 32bc 8aae 7a3d 5ac7 e7bd e4d2 033e
000001c0: e189 8a3e 508f 1cbe be3b fbbb bfc8 003e
000001d0: bf35 48be fcde c1bd 5191 8fbe 9fa7 073d
000001e0: 8467 3f3c e658 723d 2aed 263e 28b7 9d3e
000001f0: 2159 22bd 6ddc 1cbd 18fd 483d dd69 26be
00000200: 39b7 26be 6bfd 3bbe 1277 0d3d 3959 283e
00000210: 7126 b0bd 67e7 07be 7385 283e 1bd8 8d3d
00000220: 732f eb3d a1c3 4c3e 41ae 1d3e 97dc 373e
00000230: 53b3 793e 6639 9d3d 4561 50be b722 2fbe
00000240: 4c42 4e3e 54b8 1c3e 1a4c 843d 6ba3 27be
00000250: 3b41 383e 3532 d3bd 7e73 223e 6a23 cd3d
00000260: f38e a3bd ed77 923e 97d5 e33d a4ad 4dbe
00000270: 749c 4ebe d7f8 5b3e c855 f5bd 3edc 92bd
00000280: 15c1 333c b7e3 febd d9c1 0a3e 7b90 e3bd
00000290: c1af 7c3d 99c2 54be 13ce 8dbe 1d90 4c3d
000002a0: e126 87be d88b 153e e976 96be 22a9 3fbe
000002b0: 64cf 693e 6c8a 1dbe f133 563e b610 ce3d
000002c0: eaf8 293e 65af df3c d240 c1bd d406 bbbb
000002d0: ae6d 13be c051 143e 87f8 8d3c 05e3 3ebe
000002e0: 04ad ba3d 3487 133e 2ac2 13be 9879 853c
000002f0: eadf 14be 7bb8 26be 856e f13d 900c 003e
00000300: c5a0 75be 27e1 a5bd b1ad 5abe 6dc8 84be
00000310: 1426 81bd f618 e8bd 2808 613d ad25 d7bd
00000320: 1f44 20bc d10b e2bd 5ad9 1f3e 0157 443e
00000330: b30a 2d3e bbe9 7ebe 5985 563e b354 00be
00000340: 79c1 01be dec9 81be 5acd 1ebe 91a8 34be
00000350: 3061 3bbe b6cf a93d 462f efbd f868 883d
00000360: 46ed 21be 9d36 203e bb85 e33d 02d0 313e
00000370: 1537 5c3e 8f3e 873e bd32 4e3e 4063 413e
00000380: d4dc 06be 2545 0f3e 53bf db3d 414e d3bd
00000390: 6f72 253e 50dd 323e 9565 e0bd 4528 8fbe
000003a0: 9015 2c3e 687d 833e 4bbc 343e af47 cebc
000003b0: 825d 31be a1b2 92be daed 733e bf23 acbd
000003c0: 697c cb3d f2e7 ca3d b1b2 8d3e d04e 2b3e
000003d0: 1058 81bc bc07 ffbd 4b20 133d f835 5a3e
000003e0: d8f3 5abe 2f7e 0abe 16a5 02be d41c cebd
000003f0: d203 593e bc07 723e 1d3a 683d 8aaf 44be
0.09814252 -0.28335536 -0.14872679 -0.04204173 -0.17947136 -0.23419924 -0.24140449 -0.10288607
-0.23190676 0.057294566 0.11053678 0.2647703 0.22860509 0.21462242 -0.2068695 -0.15450934
0.15753773 -0.20094517 0.10262375 -0.22448745 -0.31301713 -0.22832818 0.25947776 0.050966866
-0.13325876 0.049287464 -0.19061321 0.11953639 0.06373008 -0.23028179 0.003964363 0.029645069
0.270326 -0.0018334535 0.20327812 -0.033195656 0.13499694 -0.06432283 -0.07783275 0.21969116
0.0057065636 0.25891763 -0.052497078 0.17888522 -0.17364557 0.23395278 -0.1387277 0.0010274092
0.090734445 0.2878874 0.24855965 0.2149792 0.29192036 -0.005472175 0.25695217 -0.062819056
0.23141132 0.14319353 0.27289787 -0.062061086 0.10742482 0.15922965 -0.266075 -0.22449677
-0.017015891 -0.27944475 0.17668037 0.113607444 -0.05876347 0.16605861 -0.29190785 0.25225142
-0.111992754 -0.019913357 0.04682994 -0.0679221 0.06148652 -0.11331285 -0.12771115 0.14474413
-0.257487 -0.06387438 0.2779461 -0.048006885 0.17431222 0.11162229 -0.27468297 -0.09779282
-0.122981295 -0.18595542 -0.2104002 0.07861641 -0.033974323 0.0771743 0.09172563 0.29745817
0.27008328 0.11047927 0.21248491 0.29949072 -0.021549232 0.27753517 -0.090106875 -0.106524
-0.10620183 0.16035935 -0.15518521 0.24836904 -0.010878648 0.06120161 -0.1131732 0.12873417
0.27058318 -0.15289044 -0.007667034 0.12576579 -0.19551753 -0.09466359 -0.28040555 0.03311884
0.011682395 0.05916681 0.16301408 0.308038 -0.03963578 -0.038296152 0.049069494 -0.16251321
-0.16280831 -0.1835839 0.034537382 0.16440286 -0.08601082 -0.13271867 0.16457157 0.069259845
0.114836596 0.19996502 0.15398504 0.17955242 0.24384813 0.076769635 -0.20349605 -0.17103086
0.20142478 0.1530469 0.06459828 -0.16370933 0.17993633 -0.103123106 0.1586437 0.1001652
-0.0798625 0.2860712 0.111247234 -0.2008577 -0.2017687 0.21481644 -0.11979252 -0.07170914
0.010971327 -0.12445777 0.1355051 -0.11111542 0.06169105 -0.20777358 -0.27696285 0.049942125
-0.2639685 0.14604127 -0.29387596 -0.18716863 0.2283302 -0.15384835 0.20918252 0.10061781
0.1659886 0.027305314 -0.094361916 -0.005707601 -0.14397308 0.1448431 0.017330421 -0.18641289
0.09115031 0.14407045 -0.14429536 0.016293332 -0.14538541 -0.16281311 0.11788658 0.12504792
-0.2398711 -0.08099585 -0.2135532 -0.25934163 -0.06306091 -0.11332886 0.05493942 -0.10505233
-0.009781866 -0.1103741 0.15610257 0.19173814 0.16898613 -0.24893849 0.20949306 -0.1253231
-0.1267146 -0.25349325 -0.15508023 -0.17642428 -0.18298793 0.08291571 -0.116789386 0.06660646
-0.15813169 0.15645833 0.111094914 0.17364505 0.21505387 0.26414916 0.20136543 0.18885517
-0.13170177 0.1399122 0.107298516 -0.1031766 0.16156934 0.17467237 -0.10956875 -0.2796041
0.168051 0.25681615 0.17649953 -0.025180666 -0.17320827 -0.28651908 0.23821202 -0.084052555
0.09935839 0.09907521 0.27675393 0.16729283 -0.015789062 -0.12452647 0.03591947 0.2130965
-0.21382082 -0.13524698 -0.12758288 -0.10064092 0.21192864 0.23635763 0.056696046 -0.19207588

convs.1.att_dst f4 [1, 4, 64]
00000000: 2f06 6e3e e44c a9bd 63e4 8ebb 84c0 62bc
00000010: c828 44be 9a8d 883d 5fb9 18bc 1355 203e
00000020: 1f60 0a3e 6934 d03d 115a 89bc 1b98 05be
00000030: 7730 32be f379 91be 25a0 163c 367e 92be
00000040: 8d99 20be 25c2 0abd 361e 8e3c 8021 723e
00000050: fd1b 91bd fbff 58bd e2d0 fbbd b187 493e
00000060: 2ebf 90be 6310 5ebe 764c fb3c f18b b2bd
00000070: 1497 9ebd a038 43be d095 303d fa0f 6a3e
00000080: edd9 51be f11b 69be 819e ea3d 7c3d 63bc
00000090: 7c71 e43d 9982 4a3e 5559 30be c95d 813e
000000a0: 1a71 c9bd 8026 0c3e 371f 87bd 3bec 29be
000000b0: 69a2 4d3e fb21 47be dbc4 8e3d cf47 463e
000000c0: 7f9b 573e 0323 45be c020 1bbe e6a6 58be
000000d0: fc08 4e3e efa3 113d 0ca1 7dbe 9ead 92be
000000e0: ba77 82be d36d 50be 7e34 293e cabc 293d
000000f0: 4105 ca3d bacb 20be 3840 f8bc d26c 80be
00000100: f102 8fbd b3dd f33d f5fa 1ebd 8611 84be
00000110: b179 46be 8e3a eebd 1905 543e d07e 3d3e
00000120: bd0d 1cbe d002 c53c adce 2f3c ac2d cf3d
00000130: 7ed8 98be 6166 6cbe c23c 233e 7594 3cbe
00000140: b5bd e2b9 92db 2b3e 40dc d5bb 3b5f 793e
00000150: 9eb0 373e 8e89 be3d c49c 91be 251b ab3d
00000160: 47a2 a83d 9b04 5fbe 3082 86be e3cd e43b
00000170: ac0d 413e 317d 203e dd79 88bd a368 193e
00000180: 5a45 9fbd 0f6f 1cbe 2891 053e 503c 213e
00000190: eb25 40be b73c 23be 2a29 aa3d 14db a7bd
000001a0: a911 043e e879 d3bc b140 2cbd 93a3 673e
000001b0: 7bc4 943d 4061 c6bd 0657 a1bd 2afa 3bbe
000001c0: 8910 1dbd d925 3bbe 3c54 3ebe 2389 60be
000001d0: 9b7b 6abe 8242 383e 4386 4b3e a8fb 86be
000001e0: c5d7 92bb 47d9 74be 2403 fa3d f3db 393e
000001f0: e116 0fbe 8f61 6c3e 0b2b dfbd f803 82be
00000200: 0029 34be 3443 f43d 52c3 383e 8852 01be
00000210: 999a 393d ad21 263e c7b9 53be ba35 29bb
00000220: bbb0 86be d593 97bd 821c a93d 4dbc 22be
00000230: ca8b 7ebe fc05 563e f6c4 473e 297f 80be
00000240: 4d3f 633e b359 d93c 7f90 923b 93b3 083e
00000250: 8e8f 753e 9e2b 883e b48a 52be f3cf 82be
00000260: 7c3f 2e3e 8d9f 93bc eb5a 5c3e cad3 ccbd
00000270: 9545 4cbd fd0d d7bd 53ec 8dbe d828 85be
00000280: 7f3b 84bc aff1 303c 7659 f93d 8672 94be
00000290: ff19 843e eb6b 72be 72bd b7bd 1afb febd
000002a0: aedc f93c b8c3 8c3e ef69 643c f7f1 17ba
000002b0: c0af 4c3e 3b6f 293c bf36 253e d0da 24bc
000002c0: 947b afbc 933a 7fbd 1d71 5d3e 2f49 153c
000002d0: 368e c2bc 9ccb 8abe c007 2b3e 5307 383d
000002e0: 69e7 523d fc8b 443e a642 693e 62e3 53be
000002f0: 4052 d33d f50b 633d 23a7 7ebe 4f13 5ebe
00000300: de3b 15be 90c4 903e 23f7 28be 58cb 96be
00000310: 99df 8ebe 7ac8 82be 25dd 883e 9f6c 75ba
00000320: 5a59 ab3d a190 3f3e 9a13 0ebe c10f e83a
00000330: 5bcf d83d 5b46 81bd c3e1 0b3e 73f1 52be
00000340: c54e 813e cd2d 8b3e 6e5c 86be 0469 db3d
00000350: e28c ad3d 9a3a 5a3d dbc7 37be b88c e83d
00000360: 35b8 9b3d d55d 583e dc1e 55be 513f 633c
00000370: 6ef1 4a3e 9a20 843e 4491 993c 8ba8 493e
00000380: 2028 31be f6c8 553e c8d8 7e3c 2fa2 52be
00000390: 400e 75be 53cc 203e 335e c1bd a2ee 9d3d
000003a0: ab40 87bc 1a35 813e 7ee3 0cbb 1c0b 61be
000003b0: c551 1ebe 88ec 3c3e fb7e dcbc f448 083e
000003c0: 7064 5bbe ef69 4ebc b421 903e 9672 6dbe
000003d0: 8709 8e3e 3077 173e e4dd 9a3d 31fb 4f3e
000003e0: e4ad 18be 41a4 103e 7679 fbbd 44cf 65bd
000003f0: d844 aabd e9f5 8a3e 7058 4d3e 3061 11be
0.23244546 -0.08266619 -0.004360722 -0.013839845 -0.19156182 0.06667633 -0.00932154 0.15657453
0.1351323 0.101662464 -0.01676658 -0.13046305 -0.174013 -0.28413352 0.009193455 -0.28611916
-0.15683575 -0.033876557 0.01734839 0.23645592 -0.070854165 -0.052978497 -0.122957006 0.19680668
-0.2827086 -0.21685939 0.030676108 -0.08718098 -0.077436596 -0.1906457 0.043111622 0.22857657
-0.20493288 -0.22764565 0.114560135 -0.0138696395 0.11154458 0.19776382 -0.17221577 0.25266865
-0.098360255 0.13686562 -0.06597751 -0.16594021 0.20081486 -0.19446556 0.06971141 0.1936333
0.21055411 -0.19251637 -0.15149212 -0.21157417 0.20120615 0.03555673 -0.24768466 -0.28648084
-0.2548197 -0.20354395 0.1652393 0.04143981 0.09864283 -0.15702716 -0.03030406 -0.25083023
-0.06982983 0.1190752 -0.03881355 -0.2579462 -0.19382359 -0.11632262 0.2070507 0.18505406
-0.15239616 0.024049193 0.010730428 0.10116133 -0.2985267 -0.2308593 0.15941146 -0.18416007
-0.00043247422 0.16782978 -0.0065265 0.24352734 0.17938468 0.0930358 -0.28439915 0.08354787
0.08234077 -0.217791 -0.262712 0.0069825514 0.18852872 0.15672757 -0.066638686 0.14981322
-0.077769 -0.1527674 0.13043654 0.15745664 -0.18764465 -0.1594113 0.08308633 -0.08196083
0.12897362 -0.025814965 -0.042053882 0.22620992 0.07264038 -0.09686518 -0.078779265 -0.18357149
-0.038345847 -0.18276156 -0.1858682 -0.21927314 -0.22898714 0.1799412 0.19875436 -0.26363873
-0.004481288 -0.2391101 0.1220763 0.1815031 -0.13973571 0.2308409 -0.10896882 -0.25393653
-0.17593765 0.119268805 0.18043259 -0.1262914 0.04531345 0.16223784 -0.20676337 -0.0025819377
-0.2630671 -0.074012436 0.082573906 -0.15892144 -0.24858013 0.2090072 0.19508728 -0.25097016
0.22192116 0.02653203 0.0044727917 0.13349752 0.23980543 0.26595777 -0.20560724 -0.25549278
0.17016405 -0.018020416 0.21519057 -0.10001333 -0.049871046 -0.10500715 -0.27719364 -0.26007724
-0.016141651 0.010799809 0.121752664 -0.28993624 0.25801083 -0.2367398 -0.08971681 -0.124502376
0.030500736 0.27493072 0.013941272 -0.00057962484 0.19988918 0.010341461 0.16134165 -0.010061935
-0.021421231 -0.06231172 0.2162518 0.009111687 -0.023749452 -0.27108467 0.16702175 0.04492886
0.05149022 0.19194025 0.2277933 -0.20692208 0.10318422 0.055431325 -0.24868445 -0.21687053
-0.14573619 0.28274965 -0.16500525 -0.29452014 -0.27904966 -0.25543576 0.2673122 -0.0009362194
0.08366652 0.18707515 -0.13874665 0.001770489 0.10586425 -0.06312247 0.1366034 -0.20599918
0.2525541 0.2718338 -0.26242393 0.107133895 0.08474137 0.053278543 -0.17947333 0.11354965
0.07603494 0.21129544 -0.20812553 0.013870076 0.1981866 0.25806123 0.018746026 0.196932
-0.17300463 0.20877442 0.015554614 -0.2056968 -0.23931217 0.15702944 -0.09441795 0.07711531
-0.016510328 0.25235826 -0.00214979 -0.21976894 -0.1546088 0.18449605 -0.026916018 0.1330908
-0.21425033 -0.012598499 0.28150713 -0.23188242 0.27741644 0.1479156 0.075618535 0.20310666
-0.14910084 0.14125158 -0.12279026 -0.056105867 -0.08313912 0.2714074 0.20053267 -0.1419723
