trained_weights/trace/selfattention16.pth (torch, 21775 bytes, 8 tensors)

multihead_self_attention.multihead_attn.in_proj_weight f4 [96, 32]
0.09390922 0.011514909 1.9262181e-06 -0.10558649 0.05814847 3.652086e-07 0.034226947 -1.1094335e-05
-0.056187086 -0.1076357 0.022676893 -0.02944489 -0.1114523 1.0926348e-06 0.0067082224 0.042346902
-0.00615289 -0.013905099 -0.11753213 -0.034223814 -0.030453954 0.015182281 0.02078102 -0.007871874
0.088671274 -0.057112075 0.045679945 0.12532026 4.25141e-06 0.08802521 -0.112032086 -0.12990274
-0.0028068249 -0.027840916 -0.053780492 -0.06285096 0.0044066906 -1.067092e-06 0.045144722 0.05708962
0.010824378 -0.075148664 0.046720203 0.08691162 0.028230246 4.719465e-06 -0.0028686367 0.018602544
0.0003200167 -0.13226905 0.04144014 0.017518824 0.02913313 0.0052671535 0.017314425 0.060359586
-0.04795731 -0.04590881 4.7310007e-07 0.0046250345 1.2605436e-06 -0.083143435 -0.012672049 0.110170074
-0.12303213 0.010693209 -0.09729713 0.061647445 1.9594698e-07 -6.6907137e-07 0.08910674 -0.0026252414
0.05385571 -0.01690072 0.12624675 -2.1745716e-05 0.042607218 -0.089538634 0.06824489 -8.37896e-07
-0.01881223 -0.103743054 0.03498426 -0.0863454 0.040479757 0.00496757 -0.004163494 -0.039750688
-0.011398811 -0.055787563 6.125218e-07 -0.08054393 1.5577323e-05 -3.347225e-06 0.053054627 -0.0073391832
0.055319905 0.09878316 0.11359942 -0.02001933 0.011113904 1.4179451e-05 0.11003183 -1.4867005e-06
-0.0003930734 -0.0073675914 -0.082302764 -0.022303507 -0.00017688722 0.050126657 -3.7681987e-06 0.001494139
0.012693288 -1.7681888e-05 -0.035178192 -0.057946462 -0.040185004 -0.08044107 -0.0055776434 0.0837194
0.10959296 -0.1251352 -0.0028555149 0.117201045 1.7756997e-06 0.11960317 0.049648587 1.2719983e-06
0.03133094 0.12253693 -0.013942999 -1.1536669e-07 0.0051142303 0.10282638 0.058762766 -8.948806e-06
0.1314687 -0.03269874 0.12573312 0.08102655 0.059639826 0.098620094 -0.13096806 -2.3430744e-06
-4.7529315e-06 -0.07618944 -0.050634023 0.0921052 -0.0032390037 -0.12723532 -0.12871128 -0.10760242
-0.02446404 -0.015267873 1.4919805e-06 0.044898033 0.08371779 -0.02728448 -9.390508e-09 0.06652036
-0.0055764373 0.0012700377 -3.1808023e-07 0.094974935 4.7101407e-06 -0.0053581046 7.316988e-07 0.022181083
-0.06383026 0.06893485 0.06885736 -0.027500307 -0.014200413 0.007942578 -0.12984154 0.042974267
2.2878667e-07 1.2290729e-05 -0.0421313 -0.108537085 0.07915647 -0.06842272 -0.12727137 -0.042210635
0.060696132 0.12593135 -0.041433234 0.11204164 0.042054377 0.06740703 -0.037111785 0.10225172
0.0025345976 0.071525194 0.00021591614 -0.026570762 9.229138e-08 -0.10877382 0.121011734 0.015357976
0.019719351 -0.06027918 -0.004784616 -0.1069949 -0.08617492 -1.5167803e-08 -0.093412526 0.030319482
-0.068014905 0.0006473743 0.09814469 0.10035019 0.07256067 0.0024223838 0.010527402 0.039328307
-1.0187092e-06 -0.028115889 -0.011777881 2.7989051e-07 0.037647434 2.224191e-06 -1.0522243e-06 0.11404452
-0.115943015 -7.5403214e-08 -0.11465572 9.55357e-07 0.0045525916 0.041313592 0.063495256 0.037519272
0.015909037 -0.044227947 0.10021982 0.07152327 0.06522282 0.12863025 -0.09908276 -0.06093145
-0.044616938 -0.009493873 -0.105710894 9.317329e-07 0.0037795447 -3.918643e-07 0.020295417 0.1318235
-0.08395339 -2.5558109e-06 0.10719115 3.322912e-07 -0.122749336 0.03270804 -0.04016957 0.04116068
00000000: 7a53 c03d 07a9 3c3c 2d44 0136 bb3d d8bd
00000010: 172d 6e3d e311 c434 8e31 0c3d ce21 3ab7
00000020: 6e24 66bd 1b70 dcbd e4c4 b93c 6936 f1bc
00000030: 1a41 e4bd a5a6 9235 a6d0 db3b f273 2d3d
00000040: 2f9e c9bb 36d2 63bc afb4 f0bd 452e 0cbd
00000050: 927a f9bc 1abf 783c f53c aa3c 08f9 00bc
00000060: 4999 b53d 5aee 69bd e51a 3b3d f453 003e
00000070: 55a7 8e36 9046 b43d 1471 e5bd 3905 05be
00000080: b5f2 37bb a212 e4bc ef48 5cbd 01b8 80bd
00000090: 0066 903b 0039 8fb5 ace9 383d ced6 693d
000000a0: bb58 313c 8be7 99bd af5d 3f3d b8fe b13d
000000b0: 1e43 e73c e55b 9e36 bdff 3bbb 5d64 983c
000000c0: eac7 a739 8a71 07be 23bd 293d a383 8f3c
000000d0: 9aa8 ee3c 1698 ac3b fbd6 8d3c 9d3b 773d
000000e0: e26e 44bd e00a 3cbd 61fe fd34 9a8d 973b
000000f0: f32f a935 1b47 aabd 6d9e 4fbc d9a0 e13d
00000100: 45f8 fbbd 9232 2f3c b843 c7bd 0882 7c3d
00000110: 7f65 5234 3c9a 33b5 987d b63d 3e0c 2cbb
00000120: ce97 5c3d 6173 8abc d446 013e 926a b6b7
00000130: e884 2e3d 0860 b7bd fac3 8b3d c6eb 60b5
00000140: 1b1c 9abc 3d77 d4bd a84b 0f3d dbd5 b0bd
00000150: 1ace 253d ffc6 a23b eb6d 88bb 9ed1 22bd
00000160: 14c2 3abc 8081 64bd 2d6c 2435 37f4 a4bd
00000170: 0cac 8237 e3a0 60b6 cf4f 593d 887d f0bb
00000180: 2097 623d d34e ca3d d0a6 e83d 94ff a3bc
00000190: 1817 363c 47e4 6d37 5e58 e13d a48a c7b5
000001a0: 6b15 ceb9 d66b f1bb 5a8e a8bd d8b5 b6bc
000001b0: cd7a 39b9 9c51 4d3d 29e1 7cb6 fcd6 c33a
000001c0: 82f7 4f3c 9153 94b7 0217 10bd 4559 6dbd
000001d0: 0899 24bd 4abe a4bd aac4 b6bb 1475 ab3d
000001e0: 4672 e03d 7123 00be 9723 3bbb 1a07 f03d
000001f0: 9454 ee35 82f2 f43d 515c 4b3d 87b9 aa35
00000200: df54 003d a4f4 fa3d 2d71 64bc 82bf f7b3
00000210: 4695 a73b a396 d23d 3ab1 703d d422 16b7
00000220: bb9f 063e 1def 05bd 2fc0 003e 3ff1 a53d
00000230: e448 743d 55f9 c93d 7e1c 06be b63d 1db6
00000240: 5f7b 9fb6 3609 9cbd 9f65 4fbd a7a1 bc3d
00000250: 7745 54bb fa49 02be e4cc 03be a85e dcbd
00000260: cf68 c8bc 1a26 7abc 0f40 c835 00e7 373d
00000270: 3c74 ab3d b483 dfbc e453 21b2 d43b 883d
00000280: 8cba b6bb 6577 a63a 9dc4 aab4 3882 c23d
00000290: cd0b 9e36 0a93 afbb f569 4435 1ab5 b53c
000002a0: 70b9 82bd b72d 8d3d 1605 8d3d 5348 e1bc
000002b0: d9a8 68bc 9621 023c 2ef5 04be c905 303d
000002c0: 67a8 7534 4734 4e37 df91 2cbd b148 debd
000002d0: ca1c a23d 3621 8cbd 6d53 02be 0fe5 2cbd
000002e0: 829c 783d 26f4 003e e5b5 29bd 1676 e53d
000002f0: 3641 2c3d b20c 8a3d 8702 18bd 5a69 d13d
00000300: 7e1b 263b cd7b 923d 8c67 6239 edaa d9bc
00000310: b931 c633 cfc4 debd 00d5 f73d 05a0 7b3c
00000320: 7a8a a13c 4de7 76bd 45c8 9cbb 2420 dbbd
00000330: 7a7c b0bd 5a4a 82b2 114f bfbd 9060 f83c
00000340: 664b 8bbd 8eb4 293a 1500 c93d 6784 cd3d
00000350: b09a 943d dbc0 1e3b 207b 2c3c b816 213d
00000360: 95ba 88b5 4b53 e6bc 03f8 40bc dc43 9634
00000370: 3234 1a3d 4f43 1536 273a 8db5 2c90 e93d
00000380: 8873 edbd 5bed a1b3 9ed0 eabd d139 8035
00000390: e82d 953b 7138 293d cd09 823d cfad 193d
000003a0: ab53 823c 5d28 35bd 0d40 cd3d cb7a 923d
000003b0: 8b93 853d a6b7 033e e7eb cabd 4293 79bd
000003c0: 40c0 36bd 318c 1bbc f47e d8bd 331c 7a35
000003d0: 3db2 773b 6b61 d2b4 9342 a63c bdfc 063e
000003e0: c1ef abbd 7f84 2bb6 0987 db3d c165 b234
000003f0: 0164 fbbd def8 053d d988 24bd 1a98 283d

multihead_self_attention.multihead_attn.in_proj_bias f4 [96]
0.0 0.0 0.0 0.0 0.0 0.0 0.0 0.0
0.0 0.0 0.0 0.0 0.0 0.0 0.0 0.0
0.0 0.0 0.0 0.0 0.0 0.0 0.0 0.0
0.0 0.0 0.0 0.0 0.0 0.0 0.0 0.0
0.0 0.0 0.0 0.0 0.0 0.0 0.0 0.0
0.0 0.0 0.0 0.0 0.0 0.0 0.0 0.0
0.0 0.0 0.0 0.0 0.0 0.0 0.0 0.0
0.0 0.0 0.0 0.0 0.0 0.0 0.0 0.0
-0.0067717866 0.018863354 0.0068130577 -0.00052990275 -0.02033786 -0.0024445183 -0.0005845555 -0.013433088
0.0028602565 -0.00057296455 -0.00063453714 -0.005908689 5.4023443e-05 0.023864893 -0.0021084629 0.00016445319
0.007565645 -0.0043075993 -0.013682679 -0.018022304 -0.002477705 -0.009038294 0.0030290172 0.005684958
0.018336654 -0.0037835508 -0.026894936 0.011497268 -0.004456282 0.0014969695 -0.0040311343 -0.0031062707
00000000: 0000 0000 0000 0000 0000 0000 0000 0000
00000010: 0000 0000 0000 0000 0000 0000 0000 0000
00000020: 0000 0000 0000 0000 0000 0000 0000 0000
00000030: 0000 0000 0000 0000 0000 0000 0000 0000
00000040: 0000 0000 0000 0000 0000 0000 0000 0000
00000050: 0000 0000 0000 0000 0000 0000 0000 0000
00000060: 0000 0000 0000 0000 0000 0000 0000 0000
00000070: 0000 0000 0000 0000 0000 0000 0000 0000
00000080: 0000 0000 0000 0000 0000 0000 0000 0000
00000090: 0000 0000 0000 0000 0000 0000 0000 0000
000000a0: 0000 0000 0000 0000 0000 0000 0000 0000
000000b0: 0000 0000 0000 0000 0000 0000 0000 0000
000000c0: 0000 0000 0000 0000 0000 0000 0000 0000
000000d0: 0000 0000 0000 0000 0000 0000 0000 0000
000000e0: 0000 0000 0000 0000 0000 0000 0000 0000
000000f0: 0000 0000 0000 0000 0000 0000 0000 0000
00000100: dde5 ddbb 5287 9a3c 1240 df3b 2ce9 0aba
00000110: 959b a6bc 3634 20bb db3c 19ba 7416 5cbc
00000120: 2473 3b3b 0033 16ba 1157 26ba ad9d c1bb
00000130: 3b97 6238 4f80 c33c 232e 0abb 1171 2c39
00000140: 3be9 f73b c326 8dbb 512d 60bc 83a3 93bc
00000150: fe60 22bb 5a15 14bc 7a82 463b e248 ba3b
00000160: c036 963c 73f5 77bb c552 dcbc 0a5f 3c3c
00000170: 0106 92bb f635 c43a 9b17 84bb 9392 4bbb

multihead_self_attention.multihead_attn.out_proj.weight f4 [32, 32]
-0.1381073 0.0922251 0.18366364 -0.13249238 -0.0152904885 0.024579152 -0.07373832 -0.16868418
0.053612053 0.13400301 0.09293995 -0.04901635 -0.044175163 0.20008773 -0.0027207772 0.032637343
0.13969842 0.16324481 0.0078067933 0.12734538 -0.11544694 -0.14810285 -0.09839481 0.17995848
0.19668177 -0.060519177 -0.17805 0.14424515 -0.07058721 0.12903537 -0.04408858 0.14699379
0.10379018 -0.068602994 -0.11438899 -0.09859872 0.1684216 0.025801249 -0.0136283 -0.08349509
-0.13537195 0.046876855 0.16676491 0.14555453 -0.07514832 -0.06956749 -0.011022906 0.045674276
-0.15455031 0.019806568 0.047590576 -0.08747955 -0.0037886177 0.01947383 -0.14517868 -0.052702177
-0.0023809487 -0.069454946 -0.0068580844 0.058868684 0.114564344 0.14165908 -0.011641986 -0.093624316
0.07262383 -0.06641338 0.13322012 -0.0781353 0.002246006 0.12455054 0.124739334 -0.0018308675
-0.15230708 0.16805395 -0.082427844 0.060537014 -0.11968694 -0.061582733 0.030632522 0.07235561
-0.14174663 0.061365508 0.18525632 0.18231253 0.03466513 -0.07690799 0.06689195 0.14052856
0.07749198 -0.074091464 -0.11126748 -0.09923822 0.025958052 -0.10525474 0.17013884 0.16670519
-0.17542534 -0.12122597 -0.10405172 0.016230736 -0.016829694 0.11870582 -0.13247289 0.002513247
0.07073525 -0.061340943 -0.13241832 0.07076586 0.10141078 -0.10258037 -0.0039440505 -0.11243809
0.015581404 0.14926592 -0.14471613 0.117871985 -0.11977442 0.068754815 0.09107898 -0.073552296
0.114403754 -0.038511097 0.033008005 0.031065825 0.11341124 -0.0022260938 0.0993708 0.1307706
0.051015645 0.17688552 0.046484906 0.1404886 -0.091291405 -0.003562765 0.045968886 -0.027217899
-0.09029901 0.06409884 0.044602808 -0.032078777 0.11124909 -0.05364875 0.09650794 0.019420411
-0.07725822 -0.15617295 -0.092373036 -0.056444135 0.17412293 0.055089496 0.0024289538 0.035488132
-0.03438752 -0.12919606 -0.13031904 0.052822594 -0.070111856 -0.026282778 -0.063460454 -0.033840988
0.09701866 0.14827646 0.14611453 -0.039418876 0.011137588 0.05015 -0.167601 0.1426263
0.1335951 -0.0022827948 0.14014009 0.059336774 0.14638576 0.16345716 0.14979789 0.14254403
0.1496795 0.05355448 0.07514398 0.10728942 -0.039816048 0.13857765 0.046609767 -0.07789081
-0.1465573 -0.07378997 -0.12359496 0.08705978 0.075375795 0.018357852 0.1665079 -0.17196429
0.091016315 0.15157546 0.044284366 -0.13328288 0.14519615 0.10469976 -0.0645221 0.09170952
0.14389269 -0.10787722 0.1165397 -0.009181156 -0.14338808 -0.1320249 -0.0949095 -0.038558975
-0.087455705 -0.15765436 0.068281576 0.11793475 -0.0854122 -0.12590826 0.11926929 -0.009640237
0.13846034 -0.16945258 -0.112053566 0.13447583 -0.18632741 -0.03632148 -0.1683656 -0.10544868
0.0041853227 -0.08789383 -0.07156412 0.17553677 -0.07618506 -0.04331703 0.15547577 0.06668544
-0.09778707 -0.16060743 0.09118072 -0.17659172 0.16217294 0.0204464 -0.09770511 0.048704103
-0.04075812 -0.03289359 0.14785196 0.07958509 -0.0043349783 0.03314088 -0.1974358 0.10260249
-0.0058816406 -0.098210946 0.08902626 0.0021916754 0.015743222 -0.16279286 -0.0063709524 0.14486924
00000000: 006c 0dbe 83e0 bc3d 5212 3c3e 15ac 07be
00000010: f584 7abc 385a c93c 1e04 97bd 8cbb 2cbe
00000020: 5098 5b3d 1638 093e 4d57 be3d 5ec5 48bd
00000030: 04f1 34bd cce3 4c3e 114f 32bb bcae 053d
00000040: 1a0d 0f3e a629 273e 21d0 ff3b d466 023e
00000050: 726f ecbd 46a8 17be 3883 c9bd 0947 383e
00000060: f266 493e f5e2 77bd bd52 36be 00b5 133e
00000070: 0790 90bd d921 043e 3a96 34bd 8a85 163e
00000080: f28f d43d ba7f 8cbd c644 eabd 20ee c9bd
00000090: b676 2c3e 245d d33c 3c49 5fbc 79ff aabd
000000a0: f29e 0abe f201 403d 6cc4 2a3e 3f0c 153e
000000b0: 5de7 99bd 6679 8ebd 6b99 34bc f314 3b3d
000000c0: 7042 1ebe 6241 a23c 56ee 423d 7a28 b3bd
000000d0: 754a 78bb 9587 9f3c b8a9 14be 3dde 57bd
000000e0: b109 1cbb 653e 8ebd c8b9 e0bb 4a20 713d
000000f0: b6a0 ea3d 140f 113e 07be 3ebc 1bbe bfbd
00000100: cdbb 943d bd03 88bd db6a 083e 6605 a0bd
00000110: ba31 133b 5a14 ff3d 5677 ff3d b8f9 efba
00000120: 63f6 1bbe 5616 2c3e eecf a8bd a9f5 773d
00000130: 6d1e f5bd 2d3e 7cbd 0ef1 fa3c 2e2f 943d
00000140: 0726 11be 665a 7b3d d5b3 3d3e 23b0 3a3e
00000150: 06fd 0d3d f081 9dbd a6fe 883d b8e6 0f3e
00000160: 1db4 9e3d 44bd 97bd 34e0 e3bd 683d cbbd
00000170: fba5 d43c cc8f d7bd e038 2e3e c4b4 2a3e
00000180: b3a2 33be 5245 f8bd 1119 d5bd 52f6 843c
00000190: 6dde 89bc 091c f33d f9a6 07be 4ab5 243b
000001a0: a5dd 903d a440 7bbd ab98 07be b1ed 903d
000001b0: 74b0 cf3d a815 d2bd 183d 81bb f145 e6bd
000001c0: 2549 7f3c 2ad9 183e 7730 14be de66 f13d
000001d0: 4b4c f5bd 53cf 8c3d 9e87 ba3d 96a2 96bd
000001e0: 844c ea3d d0bd 1dbd 6733 073d c27d fe3c
000001f0: 2744 e83d a8e3 11bb eb82 cb3d bae8 053e
00000200: c8f5 503d 7a21 353e f566 3e3d 3edc 0f3e
00000210: fdf6 babd 477d 69bb df49 3c3d 12f8 debc
00000220: b0ee b8bd 4146 833d 6fb1 363d 0965 03bd
00000230: 90d6 e33d cbbe 5bbd f4a5 c53d 8e17 9f3c
00000240: 8f39 9ebd cdeb 1fbe 132e bdbd f731 67bd
00000250: 484d 323e 86a5 613d 152f 1f3b 015c 113d
00000260: eed9 0cbd f94b 04be 5b72 05be 815c 583d
00000270: ce96 8fbd fb4e d7bc 8ef7 81bd d99c 0abd
00000280: b8b1 c63d c9d5 173e 0c9f 153e b075 21bd
00000290: 6e7a 363c 166a 4d3d 999f 2bbe a10c 123e
000002a0: 27cd 083e f19a 15bb e280 0f3e 1e0b 733d
000002b0: 26e6 153e 5061 273e 9e64 193e 10f7 113e
000002c0: 9545 193e f15b 5b3d 16e5 993d 8eba db3d
000002d0: 2716 23bd 4de7 0d3e e2e9 3e3d 3885 9fbd
000002e0: 1e13 16be 321f 97bd 5b1f fdbd 664c b23d
000002f0: a05e 9a3d 3563 963c 0c81 2a3e 6817 30be
00000300: c366 ba3d 9936 1b3e 8663 353d 4f7b 08be
00000310: 4dae 143e d46c d63d 2a24 84bd 33d2 bb3d
00000320: 9b58 133e bbee dcbd 5eac ee3d 8f6c 16bc
00000330: 53d4 12be 8931 07be e95f c2bd 04f0 1dbd
00000340: fa1b b3bd 2570 21be 36d7 8b3d c687 f13d
00000350: 97ec aebd 18ee 00be 7543 f43d 16f2 1dbc
00000360: 8cc8 0d3e fa84 2dbe 577c e5bd 08b4 093e
00000370: 9dcc 3ebe d5c5 14bd 0868 2cbe 7af5 d7bd
00000380: 0825 893b ae01 b4bd 3690 92bd e9bf 333e
00000390: ea06 9cbd 336d 31bd 0a35 1f3e 6092 883d
000003a0: 9644 c8bd 4676 24be f5bc ba3d 76d4 34be
000003b0: aa10 263e 357f a73c 9e19 c8bd f47d 473d
000003c0: fdf1 26bd 6ebb 06bd 8166 173e 82fd a23d
000003d0: 6f0c 8ebb bbbe 073d 9c2c 4abe 4121 d23d
000003e0: c7ba c0bb d222 c9bd 6653 b63d 36a2 0f3b
000003f0: eef7 803c 2cb3 26be 6cc3 d0bb 9a58 143e

multihead_self_attention.multihead_attn.out_proj.bias f4 [32]
0.021773446 -0.007439373 -0.0054571764 -0.015002686 0.013881196 -0.0002888298 -0.002889533 -0.0140823545
-0.00040086955 0.007699516 -0.001489665 0.024999999 -0.00936839 -0.00219047 0.006486024 -0.002284486
-0.006020498 0.0074680066 0.0010208994 0.0017208061 -0.0048860963 0.010099982 -0.011072284 0.031429503
-0.0187714 -0.0076661333 -0.0012761739 -0.010646858 0.007066913 0.01972608 -0.008090619 0.0132014295
00000000: 3a5e b23c fcc5 f3bb 1dd2 b2bb d3cd 75bc
00000010: f56d 633c 146e 97b9 525e 3dbb adb9 66bc
00000020: cd2b d2b9 394c fc3b dd40 c3ba cccc cc3c
00000030: e07d 19bc fd8d 0fbb b688 d43b 51b7 15bb
00000040: 9947 c5bb 2eb6 f43b b3cf 853a ac8c e13a
00000050: 8c1b a0bb 657a 253c 8668 35bc 39bc 003d
00000060: 7bc6 99bc 3034 fbbb 4a45 a7ba 2970 2ebc
00000070: 9091 e73b 9798 a13c 848e 04bc cf4a 583c

multihead_self_attention.fc.weight f4 [12, 32]
0.019201837 -0.1186202 -0.034580387 0.14223696 0.029500615 0.03005345 0.076174825 0.07640985
0.15393884 0.15223964 0.077955194 0.048097122 0.09773243 0.11352798 0.008034025 -0.11752457
-0.1370432 0.057702754 0.1627832 0.01101043 0.088686675 -0.005677551 0.076084845 0.14575109
0.047893863 -0.1427381 0.028210819 0.17939042 -0.15520327 -0.17053679 -0.0044616903 0.05854076
-0.033920925 0.06345336 -0.124942265 0.1766765 0.001475568 0.09038471 -0.17103353 -0.07096668
-0.13262567 0.0747746 0.13716443 0.043008845 0.1817816 -0.08310484 0.040453814 0.070241034
-0.044884898 0.025083236 0.033605605 -0.116803534 -0.063832544 -0.030561227 0.020206762 -0.18913542
-0.13048394 0.1201432 0.02820449 0.16683705 0.023756221 -0.041359 -0.051079337 -0.13686143
-0.14206907 0.121615045 0.14569208 0.151777 -0.13264844 0.09528561 0.14703679 0.08298645
-0.041983914 -0.07563303 -0.08736475 -0.028017338 0.05523806 0.0063666063 -0.00028760266 -0.009330666
0.06127143 -0.15957922 0.03906633 0.029698987 0.14044464 -0.18186082 0.019677375 -0.2022072
0.060791373 0.16740659 0.08794405 0.15742198 -0.121461846 -0.19309351 -0.014489039 -0.15324771
-0.053021695 -0.05357978 -0.12947556 0.12098084 0.043232203 0.07370791 -0.15018897 0.18244661
-0.114251025 -0.018669575 0.026050514 -0.16940448 0.12185714 -0.120034106 -0.10600025 0.1850166
-0.10440824 -0.07254259 -0.04197841 -0.077885896 -0.03640269 -0.01985102 0.08526478 -0.13452645
0.12816599 0.16360894 -0.1707893 -0.071960144 -0.13643342 -0.11001813 0.16991286 0.14295706
0.06746133 0.052559827 -0.1577011 -0.13723238 -0.09258883 0.09635045 -0.13592707 -0.103803
-0.105023906 -0.106106356 -0.060062103 0.028476533 0.011444691 -0.02712738 -0.12098009 -0.031603765
-0.050015606 -0.08057671 -0.077841036 -0.136418 0.013618851 0.019472964 0.0006749525 0.12792005
-0.14561956 0.09990403 0.119188994 0.021708665 0.17598203 0.019236872 -0.1087512 -0.14414221
0.1314256 -0.1268528 0.080988705 -0.09567226 -0.17261276 -0.07829083 -0.10691913 -0.10423635
0.07831426 -0.10606593 0.08616472 -0.02600364 0.07088447 0.0894541 0.1470528 0.03952007
0.055280484 0.07199625 0.09471671 -0.053276658 0.12348528 0.060792595 -0.09485099 -0.07503701
-0.17752753 0.11646887 0.14978582 0.07204966 0.115925334 -0.013166308 -0.068389066 0.084676884
-0.16300532 -0.1752606 -0.0069804057 -0.04076991 0.12256852 -0.17059106 -0.13864408 -0.095188074
-0.045706425 -0.15280187 0.13054654 -0.01229281 -0.15090218 0.118906595 0.16035123 -0.12608111
0.15800105 0.05514708 0.106231846 -0.016805446 0.036402546 -0.12833248 0.06600557 -0.008826622
0.09651964 0.14881027 -0.02102495 0.18181337 0.092141606 0.011300564 0.124305144 0.0039988286
-0.013276888 0.15042256 -0.09043136 -0.13101661 -0.0204954 -0.06054317 0.13247979 0.082864344
-0.033001713 0.0056344382 -0.030759454 -0.11180383 0.08265162 0.008664145 0.019107226 0.085379586
-0.044144616 -0.123081386 -0.13303858 -0.10142292 0.12727393 -0.048329275 0.12353825 -0.16467655
0.06949795 0.04618971 0.08704341 0.099476494 0.16635463 -0.11927823 -0.08386219 0.12826736
00000000: 2c4d 9d3c 26ef f2bd 2aa4 0dbd 91a6 113e
00000010: 46ab f13c a732 f63c 8c01 9c3d c47c 9c3d
00000020: 25a2 1d3e b5e4 1b3e f9a6 9f3d 7d01 453d
00000030: f127 c83d 5c81 e83d 25a1 033c b9b0 f0bd
00000040: 0d55 0cbe b959 6c3d a4b0 263e 1765 343c
00000050: 5ca1 b53d c00a babb 5fd2 9b3d c63f 153e
00000060: 5b2c 443d f029 12be 601a e73c 1fb2 373e
00000070: 9bed 1ebe 32a1 2ebe 5f33 92bb 70c8 6f3d
00000080: abf0 0abd d6f3 813d bbe1 ffbd afea 343e
00000090: d967 c13a 9e1b b93d 6a23 2fbe fb56 91bd
000000a0: 06cf 07be 6d23 993d d574 0c3e 0b2a 303d
000000b0: f524 3a3e df32 aabd e6b2 253d 88da 8f3d
000000c0: 3ad9 37bd 5c7b cd3c 08a6 093d b136 efbd
000000d0: a3ba 82bd 8a5b fabc a788 a53c b7ac 41be
000000e0: 959d 05be a30d f63d 1a0d e73c 55d7 2a3e
000000f0: 689c c23c 0e68 29bd 9138 51bd 6725 0cbe
00000100: 8e7a 11be 4f11 f93d 4e30 153e 6e6b 1b3e
00000110: fed4 07be 1a25 c33d d090 163e cdf4 a93d
00000120: 53f7 2bbd 7de5 9abd 4aec b2bd 9e84 e5bc
00000130: 4e41 623d f79e d03b 60c9 96b9 a6df 18bc
00000140: c0f7 7a3d bc68 23be 0404 203d 4a4b f33c
00000150: b8d0 0f3e b939 3abe 7232 a13c 670f 4fbe
00000160: 6000 793d a26c 2b3e 031c b43d 3a33 213e
00000170: fdc0 f8bd 4eba 45be 6f63 6dbc f8ec 1cbe
00000180: 472d 59bd 7976 5bbd 3e95 04be cdc4 f73d
00000190: 4014 313d 2cf4 963d 23cb 19be 49d3 3a3e
000001a0: 71fc e9bd f0f0 98bc e367 d53c 5e78 2dbe
000001b0: 3c90 f93d 71d4 f5bd a916 d9bd fe74 3d3e
000001c0: fdd3 d5bd 3691 94bd 8ef1 2bbd a482 9fbd
000001d0: fd1a 15bd 9b9e a2bc 4d9f ae3d 4dc1 09be
000001e0: f23d 033e 1a89 273e 64e3 2ebe d75f 93bd
000001f0: 34b5 0bbe 2f51 e1bd a3fd 2d3e 5663 123e
00000200: 2a29 8a3d f948 573d 667c 21be a586 0cbe
00000210: 369f bdbd 6253 c53d 7730 0bbe ab96 d4bd
00000220: c616 d7bd 4a4e d9bd ae03 76bd 9e47 e93c
00000230: 8382 3b3c 3d3a debc 69c4 f7bd f372 01bd
00000240: 2add 4cbd 6705 a5bd 1f6b 9fbd 29b1 0bbe
00000250: 9a21 5f3c c485 9f3c 4cef 303a 79fd 023e
00000260: 4b1d 15be 7c9a cc3d 5c19 f43d 5fd6 b13c
00000270: a234 343e a596 9d3c f3b8 debd 049a 13be
00000280: 6f94 063e b3e5 01be 68dd a53d d1ef c3bd
00000290: 66c1 30be f156 a0bd 6bf8 dabd de79 d5bd
000002a0: 3a63 a03d 1839 d9bd 2177 b03d 9605 d5bc
000002b0: e12b 913d b633 b73d 0295 163e ccdf 213d
000002c0: ca6d 623d c572 933d d6fa c13d a038 5abd
000002d0: dae5 fc3d a801 793d 3c41 c2bd 01ad 99bd
000002e0: c7c9 35be 3b87 ee3d 7461 193e c68e 933d
000002f0: 436a ed3d 80b7 57bc 910f 8cbd 136b ad3d
00000300: deea 26be 8477 33be e3bb e4bb 59fe 26bd
00000310: 3405 fb3d 6caf 2ebe b7f8 0dbe f7f1 c2bd
00000320: a936 3bbd 1878 1cbe fead 053e c867 49bc
00000330: 1a86 1abe 4d85 f33d 1d33 243e 681b 01be
00000340: 07cb 213e e8e1 613d 1590 d93d 93ab 89bc
00000350: d61a 153d 9769 03be ee2d 873d 899d 10bc
00000360: 17ac c53d b861 183e 843c acbc 492d 3a3e
00000370: bdb4 bc3d 0026 393c b293 fe3d 9b08 833b
00000380: 4e87 59bc 5f08 1a3e 1434 b9bd 3829 06be
00000390: f8e5 a7bc 1dfc 77bd c8a8 073e c8b4 a93d
000003a0: ce2c 07bd 18a1 b83b 40fb fbbc 68f9 e4bd
000003b0: 4145 a93d 0ff4 0d3c c286 9c3c 7edb ae3d
000003c0: fcd0 34bd 1812 fcbd 443b 08be d2b6 cfbd
000003d0: 1954 023e ebf4 45bd 9f01 fd3d f8a0 28be
000003e0: f154 8e3d 6c31 3d3d d143 b23d 55ba cb3d
000003f0: de58 2a3e 2548 f4bd f1bf abbd 8558 033e

multihead_self_attention.fc.bias f4 [12]
0.10264502 -0.013390903 0.03344436 0.053803433 -0.16231139 -0.10635589 0.05098744 0.102541514
0.04804199 0.15472992 0.11706108 -0.111234166
00000000: 8d37 d23d 8565 5bbc f4fc 083d fd60 5c3d
00000010: f534 26be 1ed1 d9bd 35d8 503d 4901 d23d
00000020: adc7 443d 8571 1e3e b8bd ef3d bdce e3bd

fc.weight f4 [12, 12]
0.02861812 0.099661544 -0.20506994 0.16162874 -0.03430706 0.22397088 0.26592535 -0.20558076
0.10182874 -0.19808578 -0.27014223 0.15947813 0.059840795 -0.044934765 -0.076997966 -0.059478093
0.17602724 0.026272476 -0.14435557 -0.085418075 -0.19131027 0.09467794 0.15367064 0.1430269
0.14727977 -0.07416025 0.07141885 0.20939893 0.037627496 -0.0213102 0.3108717 0.21105832
-0.2194665 0.31520498 -0.2377374 0.092886426 -0.010954798 -0.24368472 0.20778967 -0.2131053
0.04970503 -0.05009374 0.15864828 -0.3096757 0.14006405 -0.08644253 -0.13678437 0.07150822
0.1777392 -0.069130786 -0.2722656 -0.13006164 -0.171057 0.2522646 -0.23032252 -0.11467183
0.01105263 0.17839818 -0.10498952 0.24427457 0.24154605 -0.13924873 0.27247548 0.33368304
0.041391354 -0.12650365 -0.24432835 0.18502684 0.19363952 0.20636325 0.038603343 -0.026030026
-0.2066417 -0.01985359 0.17847317 -0.19138543 -0.15978718 -0.08196578 0.041385837 0.005109366
-0.017549725 0.17131199 0.26674083 0.29557744 0.16110314 -0.030250141 0.33355495 0.12261711
-0.110864416 -0.27944914 -0.21276015 0.03485664 0.16077806 0.12270568 -0.020137455 0.13196777
-0.2827102 0.033653338 -0.07911098 0.1594427 0.27582046 -0.21447402 -0.22478351 0.23365267
0.23542672 -0.059268508 -0.2897886 -0.24201293 -0.03722173 -0.08156872 0.07213624 0.27407146
-0.32615843 0.0739496 -0.034761366 0.15527269 -0.2643184 0.016178071 0.060352895 0.13840635
0.24412191 -0.19212711 -0.11673012 -0.025986614 0.016277665 0.30931887 0.02421729 -0.09924255
0.12406655 0.052251186 -0.055483192 -0.10396933 -0.11764868 0.1530448 0.32857224 -0.19599727
-0.22522095 0.092580386 0.04678528 -0.23392038 0.239665 0.30217323 0.3010564 0.25960952
00000000: 8c70 ea3c 5a1b cc3d dbfd 51be 0182 253e
00000010: 8f85 0cbd 9f58 653e 5e27 883e c383 52be
00000020: 968b d03d 00d7 4abe 1550 8abe 3c4e 233e
00000030: 9f1b 753d 840d 38bd 1cb1 9dbd 4d9f 73bd
00000040: 7c40 343e 6039 d73c f2d1 13be acef aebd
00000050: d7e6 43be 82e6 c13d d65b 1d3e a575 123e
00000060: 82d0 163e 54e1 97bd 0c44 923d ac6c 563e
00000070: 4a1f 1a3d bb92 aebc 932a 9f3e ac1f 583e
00000080: d4bb 60be 8c62 a13e 6f71 73be 3d3b be3d
00000090: c17b 33bc 7d88 79be d1c6 543e 4738 5abe
000000a0: 8097 4b3d 182f 4dbd b274 223e d08d 9ebe
000000b0: f36c 0f3e c808 b1bd 3411 0cbe e772 923d
000000c0: 4401 363e 7194 8dbd 6666 8bbe e12e 05be
000000d0: 9129 2fbe d328 813e abd9 6bbe 10d9 eabd
000000e0: 1716 353c 03ae 363e bf04 d7bd 1d23 7a3e
000000f0: d957 773e 3897 0ebe e881 8b3e 81d8 aa3e
00000100: fb89 293d 2c8a 01be 3631 7abe ad77 3d3e
00000110: 7049 463e e350 533e 8a1e 1e3d ec3c d5bc
00000120: e299 53be ffa3 a2bc acc1 363e 8bfa 43be
00000130: 409f 23be addd a7bd 3284 293d 786c a73b
00000140: 71c4 8fbc 696c 2f3e 4192 883e ed55 973e
00000150: 39f8 243e 25cf f7bc b7c7 aa3e ae1e fb3d
00000160: e20c e3bd f513 8fbe ccdd 59be d6c5 0e3d
00000170: 01a3 243e 1e4d fb3d 4ef7 a4bc 8f22 073e
00000180: 64bf 90be 15d8 093d f004 a2bd f244 233e
00000190: 5738 8d3e 149f 5bbe a62d 66be a542 6f3e
000001a0: b413 713e 89c3 72bd 2c5f 94be 3dd2 77be
000001b0: d075 18bd 800d a7bd 2abc 933d 1853 8c3e
000001c0: 3dfe a6be e372 973d ef61 0ebd ceff 1e3e
000001d0: be54 87be e087 843c 9934 773d 65ba 0d3e
000001e0: 18fb 793e f8bc 44be 3310 efbd e1e1 d4bc
000001f0: bd58 853c 0b5f 9e3e 5763 c63c ae3f cbbd
00000200: 9a16 fe3d 5705 563d 5842 63bd dfed d4bd
00000210: cbf1 f0bd c7b7 1c3e 9f3a a83e 82b3 48be
00000220: 52a0 66be c99a bd3d eca1 3f3d d388 6fbe
00000230: be6a 753e 73b6 9a3e 1124 9a3e 8aeb 843e

fc.bias f4 [12]
-0.260134 0.12974827 -0.01666034 -0.13734107 -0.22657786 -0.2567227 0.14622581 -0.011142314
-0.2577044 -0.10564376 0.16274339 -0.3109607
00000000: 4930 85be bbdc 043e 447b 88bc 23a3 0cbe
00000010: 0704 68be 2871 83be 38bc 153e 418e 36bc
00000020: d5f1 83be c15b d8bd 34a6 263e 3e36 9fbe
