trained_weights/trace/selfattention37.pth (torch, 21775 bytes, 8 tensors)

multihead_self_attention.multihead_attn.in_proj_weight f4 [96, 32]
0	0x3d9bdacd	0.07610092
1	0x3bace845	0.005276712
2	0x32981071	1.7702606e-08
3	0xbdb28524	-0.08716801
4	0x3d3051dc	0.043046817
5	0x34005778	1.195275e-07
6	0x3cb69e02	0.02229214
7	0x364e8e2b	3.0779145e-06
8	0xbd291e11	-0.04128844
9	0xbdb68443	-0.08911946
10	0x3c56bb77	0.013106219
11	0xbc96af97	-0.018394275
12	0xbdbdf95c	-0.09276077
13	0x32d4e773	2.47853e-08
14	0x3b228b71	0.0024802352
15	0x3ceeb6e1	0.029139938
16	0xbb0fb570	-0.0021928214
17	0xbbdfac65	-0.006825971
18	0xbdc9e337	-0.09857791
19	0xbcb69895	-0.022289554
20	0xbc9d57e7	-0.019206954
21	0x3bfbe61f	0.0076873447
22	0x3c3f71a4	0.011684809
23	0xbb4bce34	-0.0031098248
24	0x3d91c1d8	0.07117051
25	0xbd2c8295	-0.04211672
26	0x3d03255b	0.032018047
27	0x3dd93403	0.106056236
28	0xb4937f33	-2.7473433e-07
29	0x3d9083de	0.07056402
30	0xbdbf1bc3	-0.09331467
31	0xbde23d92	-0.110469
32	0xba3598f5	-0.00069273944
33	0xbc8c3361	-0.017114343
34	0xbd205335	-0.039141852
35	0xbd41b5d1	-0.047292534
36	0x3ab16ef0	0.001353709
37	0xb396cddc	-7.022365e-08
38	0x3d013e55	0.031553585
39	0x3d2c6d78	0.042096585
40	0x3b9ecd53	0.004846254
41	0xbd6fdf98	-0.058562845
42	0x3d06da71	0.032923166
43	0x3d8e6041	0.06951953
44	0x3c8ebbfd	0.017423624
45	0xb4a6e74a	-3.1088194e-07
46	0xba3bab12	-0.00071589753
47	0x3c255412	0.010090845
48	0x3762510a	1.3489518e-05
49	0xbde6ea00	-0.11275101
50	0x3ce859b5	0.028363088
51	0x3c189f0f	0.009315266
52	0x3c94a36b	0.01814433
53	0x3ae5e747	0.001754024
54	0x3c163f54	0.009170372
55	0x3d3879e2	0.04503811
56	0xbd0b474b	-0.034003537
57	0xbd03f5e4	-0.03221692
58	0xb2d63f52	-2.4941674e-08
59	0x3abe6722	0.0014526586
60	0x33b0da49	8.2353445e-08
61	0xbd8727c9	-0.06599385
62	0xbbc52087	-0.0060158405
63	0x3dbb777c	0.09153649
64	0xbdd4b293	-0.10385623
65	0x3b9c2760	0.004765436
66	0xbda268f4	-0.079301745
67	0x3d3d3e72	0.04620213
68	0xb2bd4506	-2.2033884e-08
69	0x33d2419c	9.790821e-08
70	0x3d929843	0.07157948
71	0xba2418ea	-0.0006259816
72	0x3d20995f	0.039208766
73	0xbc117732	-0.008878516
74	0x3ddb0764	0.10694769
75	0x366c8b91	3.5247979e-06
76	0x3cf08ba2	0.029363457
77	0xbd936d0a	-0.07198532
78	0x3d55d8da	0.05220876
79	0xb31d65a8	-3.6646867e-08
80	0xbc27cf47	-0.01024229
81	0xbdaeede0	-0.08541465
82	0x3cbbc1c5	0.022919545
83	0xbd8d4a05	-0.06898884
84	0x3ce1a2ad	0.02754339
85	0x3ad33adb	0.0016115563
86	0xbaa34840	-0.0012457445
87	0xbcdc8e3e	-0.026923295
88	0xbbaa8451	-0.0052037616
89	0xbd27a77c	-0.04093121
90	0xb25f9335	-1.3013779e-08
91	0xbd8230f1	-0.06356991
92	0xb65ca590	-3.2878925e-06
93	0x34299c61	1.5796242e-07
94	0x3d1daeee	0.038496904
95	0xbb38a18d	-0.0028172464
96	0x3d25f17a	0.040513493
97	0x3da54a75	0.08070842
98	0x3dc22d3d	0.09481285
99	0xbc363af6	-0.011122456
100	0x3ba4aed7	0.0050257253
101	0xb5575d83	-8.022982e-07
102	0x3dbb3250	0.09140456
103	0xb328de47	-3.9317708e-08
104	0xb7bb346b	-2.2316546e-05
105	0xbb39a44f	-0.0028326695
106	0xbd858c61	-0.06520916
107	0xbc521b72	-0.012823926
108	0xb5104fdc	-5.376039e-07
109	0x3d131434	0.03590794
110	0x34590c55	2.0214186e-07
111	0x39883874	0.00025982002
112	0x3bc593f2	0.0060295993
113	0x34b95fee	3.4528733e-07
114	0xbcbd1391	-0.023080619
115	0xbd2f9398	-0.042865366
116	0xbcdf9473	-0.027292466
117	0xbd81febf	-0.06347417
118	0xbaf9af54	-0.0019049444
119	0x3d8841d7	0.06653183
120	0x3dba56c0	0.090985775
121	0xbdd8d6af	-0.10587823
122	0xba3a5ff6	-0.0007109636
123	0x3dc93ce1	0.09826065
124	0xb43f347d	-1.7807356e-07
125	0x3dcdf461	0.10056377
126	0x3d115b05	0.035487194
127	0xb43e2f14	-1.7712256e-07
128	0x3ca32a78	0.019917712
129	0x3dd3b918	0.10338038
130	0xbbe0802a	-0.006851216
131	0x2fcc9518	3.721332e-10
132	0x3adc51d6	0.0016809057
133	0x3dad2534	0.084543616
134	0x3d329500	0.04359913
135	0x3540e513	7.185892e-07
136	0x3de55531	0.111978896
137	0xbcac4fb8	-0.021034107
138	0x3dda0447	0.10645347
139	0x3d831c9a	0.0640194
140	0x3d35d127	0.044388916
141	0x3da4f97c	0.08055398
142	0xbde4580e	-0.111496076
143	0x33ee9850	1.1110444e-07
144	0x34a95e88	3.1547484e-07
145	0xbd73d19f	-0.059526082
146	0xbd14e90d	-0.036355067
147	0x3d985f28	0.074400246
148	0xba61310c	-0.00085903774
149	0xbddcfa50	-0.10789931
150	0xbddfe39a	-0.109320834
151	0xbdb673a2	-0.08908774
152	0xbc6d1cd9	-0.01447221
153	0xbbfdd0b8	-0.0077458285
154	0x338e94f8	6.6394875e-08
155	0x3d005e28	0.031339794
156	0x3d88410b	0.06653031
157	0xbc8897af	-0.01667389
158	0x3080619a	9.340966e-10
159	0x3d4f6378	0.05063197
160	0xbaf99b6d	-0.0019043513
161	0x39514459	0.00019957255
162	0xb2acd412	-2.0119874e-08
163	0x3d9dea33	0.077106856
164	0xb4a63e22	-3.0965117e-07
165	0xbaeba761	-0.001797896
166	0x33eeb609	1.11158506e-07
167	0x3c50984b	0.012731622
168	0xbd455a18	-0.048181623
169	0x3d586f9e	0.05284082
170	0x3d582527	0.052769806
171	0xbc89fd7e	-0.016844507
172	0xbbe622ea	-0.007023205
173	0x3b4e6292	0.0031491858
174	0xbde21ea3	-0.11041
175	0x3cf32158	0.029678985
176	0x309b30b5	1.1291578e-09
177	0xb55961ec	-8.0981295e-07
178	0xbced32ff	-0.02895498
179	0xbdb846bf	-0.08997869
180	0x3d7f185d	0.062279094
181	0xbd568395	-0.05237158
182	0xbddd0c81	-0.107934006
183	0xbcedc1ab	-0.029023012
184	0x3d39b88e	0.04534202
185	0x3dda6840	0.10664415
186	0xbce84d56	-0.02835719
187	0x3dbf208c	0.0933238
188	0x3ceca8b0	0.02888903
189	0x3d52b4fc	0.05144213
190	0xbcca4df8	-0.024695382
191	0x3dac070d	0.08399782
192	0x3a1b8de3	0.00059339235
193	0x3d622e3b	0.05521987
194	0x3664ff62	3.41233e-06
195	0xbc83fcdf	-0.01611179
196	0x361f865e	2.3771058e-06
197	0xbdb8bd17	-0.09020441
198	0x3dd0b923	0.10191562
199	0x3bffd606	0.007807496
200	0x3c32a020	0.010902435
201	0xbd382dcd	-0.044965554
202	0xbac808e1	-0.0015261435
203	0xbdb5442d	-0.08850894
204	0xbd8cf64e	-0.068829164
205	0x3170ce29	3.5041785e-09
206	0xbd9ae52e	-0.07563244
207	0x3c9c7419	0.019098328
208	0xbd54fc15	-0.051998217
209	0x3881ab37	6.1830906e-05
210	0x3da40d80	0.080103874
211	0x3da85512	0.08219351
212	0x3d661622	0.05617345
213	0x3a1129b0	0.0005537523
214	0x3b98d22d	0.004663727
215	0x3cd99eb0	0.026564926
216	0xb381d5eb	-6.045942e-08
217	0xbc8dfd46	-0.017332684
218	0xbbb25956	-0.0054427786
219	0x3294c98e	1.7321124e-08
220	0x3ccdfdcb	0.025145432
221	0xb41fa2c5	-1.4867244e-07
222	0xb3969c33	-7.013332e-08
223	0x3dc30c73	0.09523859
224	0xbdc6c515	-0.09705559
225	0x32271e48	9.7275645e-09
226	0xbdc43f0b	-0.09582337
227	0xb43551a6	-1.6886642e-07
228	0x3aba12a1	0.0014196226
229	0x3ce776dc	0.028254919
230	0x3d441afe	0.047877304
231	0x3ccd1bbb	0.025037637
232	0x3c0621fb	0.0081868125
233	0xbcfbfc6a	-0.030760009
234	0x3da81441	0.08206988
235	0x3d622c62	0.055218108
236	0x3d4a8aaa	0.049448647
237	0x3ddfbaac	0.10924277
238	0xbda5df3e	-0.08099221
239	0xbd3a9781	-0.04555464
240	0xbcfebde9	-0.031096416
241	0xbb846e68	-0.0040414818
242	0xbdb2c32f	-0.087286346
243	0x33bfe610	8.935979e-08
244	0x3a8d9bb1	0.0010803846
245	0xb20b8078	-8.120075e-09
246	0x3c398f5e	0.011325685
247	0x3de608a4	0.11232117
248	0xbd88b477	-0.06675046
249	0x33aaea00	7.958806e-08
250	0x3db5a635	0.08869592
251	0xb30566a2	-3.105982e-08
252	0xbdd4241d	-0.103584506
253	0x3cac5fb7	0.021041734
254	0xbcdf78eb	-0.027279338
255	0x3ce664d7	0.028124256

multihead_self_attention.multihead_attn.in_proj_bias f4 [96]
0	0x00000000	0.0
1	0x00000000	0.0
2	0x00000000	0.0
3	0x00000000	0.0
4	0x00000000	0.0
5	0x00000000	0.0
6	0x00000000	0.0
7	0x00000000	0.0
8	0x00000000	0.0
9	0x00000000	0.0
10	0x00000000	0.0
11	0x00000000	0.0
12	0x00000000	0.0
13	0x00000000	0.0
14	0x00000000	0.0
15	0x00000000	0.0
16	0x00000000	0.0
17	0x00000000	0.0
18	0x00000000	0.0
19	0x00000000	0.0
20	0x00000000	0.0
21	0x00000000	0.0
22	0x00000000	0.0
23	0x00000000	0.0
24	0x00000000	0.0
25	0x00000000	0.0
26	0x00000000	0.0
27	0x00000000	0.0
28	0x00000000	0.0
29	0x00000000	0.0
30	0x00000000	0.0
31	0x00000000	0.0
32	0x00000000	0.0
33	0x00000000	0.0
34	0x00000000	0.0
35	0x00000000	0.0
36	0x00000000	0.0
37	0x00000000	0.0
38	0x00000000	0.0
39	0x00000000	0.0
40	0x00000000	0.0
41	0x00000000	0.0
42	0x00000000	0.0
43	0x00000000	0.0
44	0x00000000	0.0
45	0x00000000	0.0
46	0x00000000	0.0
47	0x00000000	0.0
48	0x00000000	0.0
49	0x00000000	0.0
50	0x00000000	0.0
51	0x00000000	0.0
52	0x00000000	0.0
53	0x00000000	0.0
54	0x00000000	0.0
55	0x00000000	0.0
56	0x00000000	0.0
57	0x00000000	0.0
58	0x00000000	0.0
59	0x00000000	0.0
60	0x00000000	0.0
61	0x00000000	0.0
62	0x00000000	0.0
63	0x00000000	0.0
64	0xbc002a0a	-0.007822523
65	0x3cc9d31c	0.024636798
66	0x3be8e9c5	0.0071079456
67	0x3b0dd354	0.0021640854
68	0xbc97f99e	-0.018551644
69	0xb9cd257c	-0.00039128575
70	0x39bfbe82	0.00036572298
71	0xbc95d826	-0.018291544
72	0xbb740714	-0.0037235664
73	0xb982cf62	-0.00024950044
74	0xbaf13100	-0.0018401444
75	0xbb9b5018	-0.0047397725
76	0x3af2eeee	0.0018534341
77	0x3cbc7f9c	0.023010068
78	0x3a1cdf01	0.0005984158
79	0xbaf569dd	-0.0018723566
80	0x3bef5ceb	0.007304778
81	0xbbd3fa2c	-0.006469032
82	0xbc8d4a0c	-0.017247222
83	0xbc957012	-0.018241916
84	0xba432a00	-0.0007444918
85	0xbbe5a712	-0.0070084417
86	0x3b67eb2e	0.003538798
87	0x3b86110b	0.004091387
88	0x3c852e9c	0.016257577
89	0xbb9aa329	-0.0047191572
90	0xbcda4cf5	-0.026648024
91	0x3c369279	0.01114332
92	0xbb7bf3c9	-0.0038444868
93	0x39e9e1ff	0.00044609603
94	0xbb20d36b	-0.0024540077
95	0xbb7a13a4	-0.003815868

multihead_self_attention.multihead_attn.out_proj.weight f4 [32, 32]
0	0xbe13da19	-0.14438666
1	0x3dbb4f8e	0.09146033
2	0x3e3d0008	0.18457043
3	0xbe02ee20	-0.1278615
4	0xbc1d1132	-0.009586619
5	0x3ce8d777	0.028423054
6	0xbd8baba9	-0.06819851
7	0xbe29efc6	-0.16595373
8	0x3d54002e	0.051757984
9	0x3e056238	0.13025749
10	0x3dc0e5c7	0.094188266
11	0xbd4eac4f	-0.050457295
12	0xbd3fe9bc	-0.046853766
13	0x3e4c76a7	0.19967137
14	0x3a016b8b	0.00049369846
15	0x3d0800ae	0.033203773
16	0x3e0cfc3e	0.13768098
17	0x3e27d70a	0.16390625
18	0x3c147202	0.009060385
19	0x3e069eb0	0.13146472
20	0xbdf1d5fc	-0.118083924
21	0xbe150729	-0.14553513
22	0xbdca5d42	-0.09881069
23	0x3e38b92e	0.1803939
24	0x3e46c59e	0.19411322
25	0xbd705a0c	-0.058679625
26	0xbe330e8b	-0.17486016
27	0x3e16b171	0.14716126
28	0xbd9851e0	-0.074374914
29	0x3e020e86	0.12700853
30	0xbd27b681	-0.040945534
31	0x3e1596ec	0.14608353
32	0x3dd84377	0.10559743
33	0xbd84d982	-0.06486799
34	0xbde64519	-0.11243648
35	0xbdc7e523	-0.09760501
36	0x3e2a9387	0.1665784
37	0x3cdf9f41	0.027297618
38	0xbc8b60e6	-0.017013978
39	0xbdab5fb1	-0.08367861
40	0xbe0e9ea7	-0.13927709
41	0x3d2dd678	0.04244086
42	0x3e2c0440	0.16798496
43	0x3e134447	0.14381514
44	0xbd8fd567	-0.07023125
45	0xbd8d42cf	-0.06897508
46	0xbc1fd711	-0.009755866
47	0x3d4e7475	0.05040403
48	0xbe208934	-0.15677339
49	0x3c8064c2	0.015673045
50	0x3d394162	0.04522837
51	0xbdb5a8a5	-0.08870057
52	0xbb2c135f	-0.0026256663
53	0x3ca86a32	0.02055845
54	0xbe1bdd14	-0.15221053
55	0xbd58964d	-0.052877713
56	0xbb8296a6	-0.003985244
57	0xbd8e2662	-0.06940915
58	0xbb0d4708	-0.002155723
59	0x3d6d4466	0.057926558
60	0x3df10e2c	0.11770281
61	0x3e11dc4f	0.14244197
62	0xbc28b4e7	-0.010297037
63	0xbdc512d8	-0.09622735
64	0x3d926c48	0.07149559
65	0xbd893a22	-0.06700541
66	0x3e09d0c2	0.13458541
67	0xbd9e9849	-0.0774389
68	0x3b9e6f7b	0.004835067
69	0x3e0065d6	0.12538847
70	0x3e087f00	0.13329697
71	0xba9593cf	-0.0011411848
72	0xbe1a18eb	-0.15048568
73	0x3e2a7e89	0.16649832
74	0xbdaac4c9	-0.08338315
75	0x3d79151b	0.060811143
76	0xbe0084cb	-0.12550656
77	0xbd7b1409	-0.061298404
78	0x3d00b079	0.031418297
79	0x3d897152	0.06711067
80	0xbe10ecae	-0.14152786
81	0x3d83eb4a	0.06441362
82	0x3e3e7201	0.18598177
83	0x3e3c435e	0.18385074
84	0x3d0705e7	0.032964613
85	0xbd9ebfad	-0.07751403
86	0x3d93c712	0.07215704
87	0x3e112ead	0.14177962
88	0x3d9ffd4e	0.07811986
89	0xbd968a2f	-0.07350575
90	0xbdea4c3f	-0.11440324
91	0xbdc694a5	-0.096963204
92	0x3cab4ac2	0.02090967
93	0xbdda8691	-0.10670198
94	0x3e2e93ec	0.17048615
95	0x3e2b1459	0.16706981
96	0xbe300155	-0.17188008
97	0xbdfb64e2	-0.12275101
98	0xbddaeaef	-0.10689341
99	0x3c3cfb62	0.011534544
100	0xbca8135d	-0.020517046
101	0x3deaf544	0.11472562
102	0xbe0ecc69	-0.13945164
103	0x39f30798	0.0004635423
104	0x3d94a158	0.072573364
105	0xbd61a91d	-0.05509292
106	0xbe098c35	-0.13432391
107	0x3d95afae	0.07308899
108	0x3dd22190	0.10260308
109	0xbdd391b5	-0.10330526
110	0xbbf94ea5	-0.007608252
111	0xbde868a0	-0.11348081
112	0x3c98e9d7	0.018666191
113	0x3e19e770	0.15029693
114	0xbe1373fb	-0.14399712
115	0x3deb4133	0.11487045
116	0xbdf1662e	-0.11787067
117	0x3d88d8e8	0.066819966
118	0x3dbdbe38	0.09264797
119	0xbd99481c	-0.07484457
120	0x3def8579	0.1169538
121	0xbd221d52	-0.039578743
122	0x3cf1573d	0.029460544
123	0x3ce11b33	0.02747879
124	0x3dee4ad3	0.11635365
125	0xba5b9cff	-0.0008377581
126	0x3dc5e81f	0.09663414
127	0x3e086595	0.1332
128	0x3d697ce9	0.05700389
129	0x3e413fe7	0.18872033
130	0x3d570441	0.05249429
131	0x3e0da16e	0.13831112
132	0xbdca1147	-0.09866577
133	0xbb05e0c7	-0.0020428167
134	0x3d16bf61	0.036803607
135	0xbcfbbd5b	-0.03072994
136	0xbdbb4b02	-0.09145166
137	0x3d6d686d	0.057960916
138	0x3d44befd	0.048033703
139	0xbd073e27	-0.033018257
140	0x3df26a78	0.118367136
141	0xbd4b7ab6	-0.049677573
142	0x3dc6eacb	0.09712752
143	0x3cc6363b	0.024195781
144	0xbda0fc49	-0.078606196
145	0xbe24fb35	-0.16111453
146	0xbdd00b73	-0.10158434
147	0xbd8282e3	-0.06372621
148	0x3e38373c	0.1798982
149	0x3d589f1d	0.052886117
150	0xbaa0513b	-0.001223124
151	0x3d1c0131	0.038087074
152	0xbd0a37f4	-0.033744767
153	0xbe085832	-0.13314894
154	0xbe033a45	-0.12815197
155	0x3d57ba66	0.052667998
156	0xbd802068	-0.06256181
157	0xbcb61946	-0.022228848
158	0xbd80820c	-0.062748045
159	0xbd3276e3	-0.04357041
160	0x3dc86cf7	0.097864084
161	0x3e1b4ea4	0.15166718
162	0x3e1695cc	0.1470558
163	0xbd1e4d30	-0.03864783
164	0x3c25964c	0.010106634
165	0x3d536be1	0.051616553
166	0xbe33bc15	-0.17552216
167	0x3e11e128	0.14246047
168	0x3e02a5f2	0.12758616
169	0xbb9a48d8	-0.0047083907
170	0x3e106648	0.14101517
171	0x3d6c25bc	0.057653174
172	0x3e1c296e	0.15250179
173	0x3e2732a7	0.16327916
174	0x3e1a9808	0.15097058
175	0x3e17cbbc	0.14823812
176	0x3e16fec0	0.14745617
177	0x3d482142	0.048859842
178	0x3d96b297	0.07358282
179	0x3dd910d1	0.105989106
180	0xbd1d3f10	-0.03839022
181	0x3e10075e	0.1406531
182	0x3d1d09b2	0.038339324
183	0xbda1b429	-0.07895691
184	0xbe181b05	-0.14854057
185	0xbd965e42	-0.07342197
186	0xbdf048ef	-0.11732661
187	0x3dae7189	0.08517749
188	0x3da26589	0.079295225
189	0x3c9d2c3c	0.019186132
190	0x3e2cd67c	0.16878694
191	0xbe32116a	-0.17389455
192	0x3dbfb421	0.09360529
193	0x3e16011d	0.14648862
194	0x3d2a9549	0.041646276
195	0xbe087af2	-0.1332815
196	0x3e145aff	0.14487837
197	0x3dd3e7dc	0.10346958
198	0xbd8274c2	-0.06369926
199	0x3dbc59d1	0.091968186
200	0x3e15009a	0.1455101
201	0xbdc3d097	-0.0956127
202	0x3dec35ae	0.11533676
203	0xbc0f302e	-0.008739514
204	0xbe172ad1	-0.14762427
205	0xbe08630a	-0.1331903
206	0xbdc34d8e	-0.09536277
207	0xbd2e7f11	-0.04260165
208	0xbdb1edf0	-0.08687961
209	0xbe1f3847	-0.15548812
210	0x3d94445c	0.07239601
211	0x3df4710d	0.11935625
212	0xbdb17b1d	-0.0866606
213	0xbe011980	-0.12607384
214	0x3df6c8e0	0.120500326
215	0xbc3244b2	-0.010880636
216	0x3e0e9110	0.13922524
217	0xbe2c3a26	-0.16819057
218	0xbdeac9b9	-0.11464257
219	0x3e08a639	0.13344659
220	0xbe3fcdfd	-0.18730922
221	0xbd16c28d	-0.03680663
222	0xbe2d55a4	-0.169272
223	0xbdcae15c	-0.09906265
224	0x3bc44f6d	0.0059909136
225	0xbdb2f9de	-0.08739065
226	0xbd947ccf	-0.07250368
227	0x3e333eb6	0.17504391
228	0xbda26118	-0.079286754
229	0xbd34bae0	-0.04412353
230	0x3e194e38	0.14971244
231	0x3d871d81	0.06597424
232	0xbdcac60f	-0.09901058
233	0xbe2223fb	-0.15834038
234	0x3dbd4aa9	0.09242756
235	0xbe352417	-0.17689548
236	0x3e29b138	0.1657151
237	0x3ca74ba8	0.020421818
238	0xbdc982fb	-0.09839436
239	0x3d56f590	0.05248028
240	0xbd27fea9	-0.041014347
241	0xbd101e41	-0.035185102
242	0x3e169f4a	0.14709201
243	0x3da03872	0.07823266
244	0xbb34f00a	-0.0027608895
245	0x3d098777	0.033576455
246	0xbe4eb4f4	-0.20186216
247	0x3dcfd842	0.1014867
248	0xbbcf3162	-0.0063230256
249	0xbdc9f22a	-0.09860642
250	0x3dbb93c2	0.09159042
251	0x3a056435	0.00050884794
252	0x3ca3ad18	0.019979998
253	0xbe2501c4	-0.16113955
254	0xbbe666fe	-0.0070313206
255	0x3e14643e	0.14491364

multihead_self_attention.multihead_attn.out_proj.bias f4 [32]
0	0x3ca92cd3	0.020651257
1	0xbbec7ebb	-0.007217256
2	0xbba7163b	-0.0050990856
3	0xbc70782a	-0.014677087
4	0x3c94c03b	0.018158069
5	0xb9ba751b	-0.00035563935
6	0xbb7bfbee	-0.0038449722
7	0xbc6acfb4	-0.014331747
8	0xba934b87	-0.0011237719
9	0x3bed132d	0.007234952
10	0xbad39b7f	-0.0016144364
11	0x3cc04b13	0.023473298
12	0xbca63f28	-0.020293787
13	0xbb44933b	-0.0029994983
14	0x3c0574b9	0.008145505
15	0xbb9c6fe0	-0.0047740787
16	0xbbba929d	-0.005693747
17	0x3c034a7c	0.008013364
18	0x3a9bc37e	0.0011883823
19	0x3a699f4e	0.0008911983
20	0xbbb056ad	-0.0053814263
21	0x3c1f0065	0.009704684
22	0xbc307f55	-0.010772546
23	0x3cc8bd34	0.024504282
24	0xbc87dc39	-0.016584503
25	0xbc05a5f3	-0.008157241
26	0xba7fd842	-0.0009759703
27	0xbc473676	-0.012158981
28	0x3bd3f172	0.0064679915
29	0x3cbc0fae	0.022956695
30	0xbbe13584	-0.0068728346
31	0x3c3231b7	0.010876111

multihead_self_attention.fc.weight f4 [12, 32]
0	0x3c9b8f32	0.01898918
1	0xbdf30fe8	-0.11868268
2	0xbced9d8f	-0.029005794
3	0x3e164c05	0.14677437
4	0x3c1cc255	0.009567817
5	0x3ccfae46	0.025351655
6	0x3dae0e62	0.08498837
7	0x3d9c6522	0.07636477
8	0x3e21224e	0.15735742
9	0x3e183dd0	0.1486733
10	0x3da70aae	0.08156334
11	0x3d421ec7	0.047392633
12	0x3dcb2ca6	0.099206254
13	0x3deaddb8	0.11468071
14	0xbafa56fa	-0.0019099407
15	0xbdf88305	-0.12134365
16	0xbe084778	-0.13308513
17	0x3d7a1f6c	0.061065122
18	0x3e242245	0.16028698
19	0x3aefb8bb	0.0018289307
20	0x3d91cd81	0.07119275
21	0xbb3adbe7	-0.002851242
22	0x3d9fe90a	0.078081205
23	0x3e18bf84	0.14916807
24	0x3d44acf1	0.048016492
25	0xbe0be654	-0.13662082
26	0x3d13598d	0.035974074
27	0x3e412ed7	0.18865524
28	0xbe2361a3	-0.15955214
29	0xbe3238b2	-0.1740444
30	0x3a4cc17d	0.00078108144
31	0x3d67ac8e	0.056561045
32	0xbd160a51	-0.036630932
33	0x3d84608c	0.06463727
34	0xbe0ec8e0	-0.13943815
35	0x3e2ad042	0.16681007
36	0x3cfd4059	0.030914472
37	0x3dd8261b	0.10554143
38	0xbe3905e7	-0.18068658
39	0xbd86f41f	-0.06589531
40	0xbe0c3fc5	-0.13696201
41	0x3da90167	0.082522206
42	0x3e054061	0.1301284
43	0x3d278c71	0.04090542
44	0x3e39e15a	0.18152371
45	0xbdb5cf0d	-0.088773824
46	0x3d57b6bf	0.052664515
47	0x3da49587	0.080363326
48	0xbd734ba1	-0.059398297
49	0x3c73a818	0.01487162
50	0x3d2c0851	0.04200012
51	0xbddb6766	-0.10713081
52	0xbd1623b0	-0.036655128
53	0xbd2a234a	-0.04153756
54	0x3cd8c3ff	0.026460646
55	0xbe4f79dc	-0.2026133
56	0xbe029e7a	-0.12755767
57	0x3dde8713	0.10865607
58	0x3c889448	0.016672269
59	0x3e14c3b7	0.14527784
60	0x3d0c17f6	0.03420254
61	0xbd0a6a4b	-0.033792775
62	0xbd68080d	-0.056648303
63	0xbe08b81a	-0.13351479
64	0xbe10f894	-0.14157325
65	0x3dfa3e31	0.12218893
66	0x3e172940	0.1476183
67	0x3e1c806c	0.15283364
68	0xbe09bd10	-0.13451028
69	0x3dbb2888	0.0913859
70	0x3e14baa1	0.14524318
71	0x3da4a565	0.08039359
72	0xbd3b8f34	-0.045790866
73	0xbd9d6bb1	-0.07686556
74	0xbdb3bc90	-0.087762
75	0xbcd9b3c3	-0.026574975
76	0x3d6866e2	0.05673874
77	0x3bc34910	0.0059596375
78	0x3b1c79bd	0.0023876273
79	0xbc310669	-0.010804751
80	0x3d86104e	0.065460786
81	0xbe22a725	-0.15884073
82	0x3d1395da	0.03603158
83	0x3d083aee	0.033259325
84	0x3e0d73d7	0.1381372
85	0xbe374a50	-0.17899442
86	0x3c339ccd	0.010962677
87	0xbe4b629a	-0.19861832
88	0x3d74f049	0.059799466
89	0x3e2d3d45	0.16917904
90	0x3db2e711	0.08735479
91	0x3e2446e5	0.16042669
92	0xbdfb0511	-0.12256826
93	0xbe478905	-0.19485863
94	0xbc7e70b9	-0.015529805
95	0xbe1f17b0	-0.1553638
96	0xbd601946	-0.054711603
97	0xbd50acb6	-0.05094596
98	0xbe0733c4	-0.13203341
99	0x3df8e61e	0.12153266
100	0x3d2d464b	0.042303365
101	0x3d908024	0.07055691
102	0xbe248cfe	-0.16069409
103	0x3e3c2c8e	0.18376371
104	0xbdf10ca0	-0.11769986
105	0xbca38f5a	-0.019965816
106	0x3ccdd84b	0.02512755
107	0xbe2d89c3	-0.16947083
108	0x3e050cac	0.12993115
109	0xbe00db5c	-0.12583679
110	0xbdd055d1	-0.10172618
111	0x3e41ede3	0.18938403
112	0xbdd930a1	-0.10604978
113	0xbda02ea8	-0.07821399
114	0xbd37fc49	-0.044918332
115	0xbd9f80b9	-0.07788224
116	0xbd238d7f	-0.039929863
117	0xbcad16bf	-0.02112901
118	0x3d9b493f	0.0758233
119	0xbe0a9c10	-0.13536096
120	0x3e03e9a0	0.1288209
121	0x3e2a0f16	0.16607317
122	0xbe2e4220	-0.17017412
123	0xbd909e16	-0.070614025
124	0xbe0bc532	-0.13649443
125	0xbde51492	-0.11185564
126	0x3e2e520e	0.17023489
127	0x3e0d90aa	0.13824716
128	0x3d87d59e	0.06632541
129	0x3d5ea68f	0.05435806
130	0xbe2106c0	-0.15725231
131	0xbe0afb0c	-0.1357233
132	0xbdc435ce	-0.09580575
133	0x3dbc1c91	0.09185136
134	0xbe11b0fb	-0.14227669
135	0xbdd3f231	-0.10348929
136	0xbddc6330	-0.10761106
137	0xbddda75b	-0.10822936
138	0xbd762800	-0.06009674
139	0x3ce97c62	0.028501693
140	0x3c88af14	0.016685046
141	0xbcf8bc28	-0.030363157
142	0xbdf2fe38	-0.11864895
143	0xbcf67f1f	-0.030089913
144	0xbd49e57f	-0.04929113
145	0xbda9ef7b	-0.082976304
146	0xbda68998	-0.08131713
147	0xbe0ae2cb	-0.13563077
148	0x3c1a4ca4	0.009417687
149	0x3ca0c2da	0.019624162
150	0xbc0d05ee	-0.008607371
151	0x3e04281e	0.12905928
152	0xbe1499a5	-0.14511736
153	0x3dd2de32	0.10296287
154	0x3df65219	0.12027378
155	0x3cd081df	0.025452552
156	0x3e32d84d	0.17465325
157	0x3c88a3c1	0.016679646
158	0xbddd39b7	-0.10802024
159	0xbe175d8d	-0.1478178
160	0x3e077cb5	0.13231166
161	0xbe0295d7	-0.12752472
162	0x3dad5fa4	0.084655076
163	0xbdbd7bb8	-0.09252113
164	0xbe3f66d2	-0.18691567
165	0xbda57c4b	-0.080803476
166	0xbdc492bd	-0.095983006
167	0xbdd70121	-0.10498262
168	0x3da6413a	0.0811791
169	0xbddd0a87	-0.107930236
170	0x3db5d3f8	0.088783205
171	0xbcd2f9e1	-0.025753917
172	0x3d8c349f	0.06845974
173	0x3dbf4bf9	0.093406625
174	0x3e0ede33	0.1395195
175	0x3d13bb8f	0.03606754
176	0x3d70d6b3	0.058798503
177	0x3d9dc7cf	0.07704126
178	0x3dbf9b89	0.09355838
179	0xbd7749fb	-0.060373288
180	0x3de2e031	0.11077917
181	0x3d83b693	0.06431308
182	0xbdbb405a	-0.091431335
183	0xbd91d28a	-0.07120235
184	0xbe36be2e	-0.17845985
185	0x3df5d6c9	0.12003858
186	0x3e1ecdbf	0.15508173
187	0x3d9ff29a	0.078099445
188	0x3de76146	0.1129785
189	0xbc70db10	-0.014700666
190	0xbd85e1ee	-0.06537233
191	0x3dadf0fe	0.08493231
192	0xbe2485e0	-0.16066694
193	0xbe331888	-0.17489827
194	0xbbcc6b2a	-0.006238361
195	0xbd1f0c51	-0.038830105
196	0x3df27591	0.1183883
197	0xbe335373	-0.17512302
198	0xbe0c7e8a	-0.13720146
199	0xbdce133e	-0.10062264
200	0xbd5cddaf	-0.05392235
201	0xbe1cdfad	-0.153197
202	0x3e04c9df	0.12967633
203	0xbc09403f	-0.008377134
204	0xbe1abc61	-0.15110923
205	0x3df5ea7e	0.120076165
206	0x3e2807c9	0.1640922
207	0xbe049615	-0.12947877
208	0x3e2d1ae8	0.16904795
209	0x3d6cc724	0.057807103
210	0x3dd1e488	0.10248667
211	0xbc6c38c0	-0.014417827
212	0x3cfcbb95	0.030851165
213	0xbdf8cb47	-0.12148147
214	0x3d65f5c6	0.05614259
215	0xbb13542d	-0.0022480593
216	0x3dbdf383	0.09274962
217	0x3e1aac08	0.15104687
218	0xbcaeb960	-0.021328628
219	0x3e3dc18c	0.18530864
220	0x3dba3107	0.090913825
221	0x3c284ffd	0.010272977
222	0x3dfa6fab	0.1222833
223	0x3aafdc33	0.0013417065
224	0xbc670874	-0.0141011365
225	0x3e1b3966	0.15158615
226	0xbdbde696	-0.092724964
227	0xbe06e46c	-0.13173074
228	0xbc8a6ea0	-0.016898453
229	0xbd7b8448	-0.06140545
230	0x3df4e011	0.119568
231	0x3dad37dd	0.08457921
232	0xbd0ea1b0	-0.034822166
233	0x3bb299c7	0.0054504606
234	0xbd01f6dc	-0.031729564
235	0xbde52a86	-0.11189751
236	0x3db9427f	0.09045886
237	0x3bae40ff	0.0053178067
238	0x3cb8bef2	0.022551987
239	0x3db84166	0.08996849
240	0xbd3d1565	-0.04616298
241	0xbe01f3e6	-0.12690696
242	0xbe092455	-0.13392766
243	0xbdce0797	-0.100600414
244	0x3e051ab9	0.12998475
245	0xbd4d1ed1	-0.050078217
246	0x3df5b3f7	0.11997216
247	0xbe298a8e	-0.1655676
248	0x3d8f5c2b	0.070000015
249	0x3d3c75e9	0.046010885
250	0x3db07160	0.086153746
251	0x3dca49d6	0.09877364
252	0x3e2af27b	0.16694061
253	0xbdf4c1ea	-0.11951049
254	0xbdacf63f	-0.08445405
255	0x3e02cfcb	0.12774579

multihead_self_attention.fc.bias f4 [12]
0	0x3dcd7054	0.100311905
1	0xbc29f6f0	-0.010373816
2	0x3d099789	0.03359178
3	0x3d553999	0.052056883
4	0xbe27c7e2	-0.16384843
5	0xbddc3a67	-0.10753327
6	0x3d5597aa	0.05214659
7	0x3dcff9ab	0.10155042
8	0x3d473369	0.048633013
9	0x3e1d5748	0.15365326
10	0x3ded3931	0.11583174
11	0xbddfa922	-0.109209314

fc.weight f4 [12, 12]
0	0x3bfab3fa	0.0076508494
1	0x3dcf9df4	0.10137549
2	0xbe5792b8	-0.21052063
3	0x3e23b4fd	0.1598701
4	0xbd00754c	-0.031361863
5	0x3e4eecda	0.20207539
6	0x3e856538	0.26053786
7	0xbe4b70dd	-0.19867273
8	0x3df28c03	0.11843111
9	0xbe54c6af	-0.20778917
10	0xbe929272	-0.28627354
11	0x3e1d5de5	0.15367849
12	0x3d7564af	0.059910472
13	0xbd25b53d	-0.040456045
14	0xbd97295e	-0.07380937
15	0xbd685947	-0.056725767
16	0x3e332e5d	0.17498155
17	0x3cb3255c	0.0218684
18	0xbe12add4	-0.14324123
19	0xbda8ddf3	-0.082454585
20	0xbe476a1a	-0.19474068
21	0x3dc774fb	0.09739109
22	0x3e218ae4	0.15775639
23	0x3e152ab7	0.14567076
24	0x3e16d74a	0.14730564
25	0xbd85ee07	-0.06539541
26	0x3db56690	0.08857453
27	0x3e67e6c5	0.22646625
28	0x3d0f9fef	0.035064634
29	0xbd09b7af	-0.03362244
30	0x3ea07b7d	0.31344214
31	0x3e625332	0.22102049
32	0xbe77d71c	-0.24203151
33	0x3ea5d86d	0.32391682
34	0xbe69ecdd	-0.22844262
35	0x3dc707b9	0.0971827
36	0xbc6a638a	-0.0143059585
37	0xbe7c0007	-0.24609385
38	0x3e52f837	0.20602499
39	0xbe5cc286	-0.2155858
40	0x3d4d76a2	0.050161965
41	0xbd47cff1	-0.048782293
42	0x3e231e5d	0.15929551
43	0xbe9f950e	-0.31168407
44	0x3e11ac7e	0.14225957
45	0xbdb6965f	-0.089154
46	0xbe0e52a0	-0.13898706
47	0x3d8d4b46	0.06899123
48	0x3e35ad3d	0.17741866
49	0xbd9405cc	-0.07227668
50	0xbe8baa4f	-0.27278373
51	0xbe048b01	-0.12943651
52	0xbe30ab21	-0.1725278
53	0x3e7ca214	0.24671203
54	0xbe6c1b2d	-0.23057242
55	0xbde664e5	-0.11249713
56	0x3c7b618f	0.015343084
57	0x3e3a5262	0.18195489
58	0xbddc7ee8	-0.10766393
59	0x3e7e4b5b	0.24833433
60	0x3e775b34	0.24155885
61	0xbe09b6c4	-0.13448626
62	0x3e907af8	0.28218818
63	0x3eb0225b	0.3440121
64	0x3d245e13	0.04012878
65	0xbe07ef8d	-0.13274975
66	0xbe78c29e	-0.2429299
67	0x3e420254	0.189462
68	0x3e399027	0.18121396
69	0x3e5825ca	0.21108165
70	0x3d306f75	0.043075044
71	0xbcc2e00f	-0.02378848
72	0xbe57d5f7	-0.21077715
73	0xbd4a3df2	-0.049375482
74	0x3e13c1da	0.14429417
75	0xbe65971c	-0.22420925
76	0xbe1a5fcc	-0.15075606
77	0xbd55f6ac	-0.052237198
78	0x3ceb1bb2	0.02869973
79	0xbcd1c16d	-0.025604928
80	0x3cc6674e	0.024219181
81	0x3e115e0f	0.14196037
82	0x3e6e2193	0.23254995
83	0x3e8c2822	0.2737437
84	0x3e251820	0.16122484
85	0xbcbe5453	-0.023233568
86	0x3eb1bcb3	0.3471428
87	0x3e0b9614	0.13631469
88	0xbde6bce1	-0.112664945
89	0xbe93e7f3	-0.288879
90	0xbe57c390	-0.21070695
91	0x3d2f0f58	0.042739242
92	0x3e113015	0.14178498
93	0x3e04c423	0.12965445
94	0xbc55424a	-0.013016293
95	0x3e0a948d	0.1353323
96	0xbe91843a	-0.28421193
97	0x3d0f3460	0.034962058
98	0xbda259f9	-0.07927317
99	0x3e23d4e3	0.15999179
100	0x3e8d6509	0.27616146
101	0xbe605208	-0.21906292
102	0xbe668269	-0.22510685
103	0x3e72a52c	0.2369582
104	0x3e75c6c0	0.24001598
105	0xbd785ffa	-0.060638405
106	0xbe95635d	-0.2917737
107	0xbe78e62c	-0.24306554
108	0xbd184ed5	-0.037184555
109	0xbda2f242	-0.07956363
110	0x3d9d5185	0.07681564
111	0x3e8e9e04	0.2785493
112	0xbea71ac6	-0.32637614
113	0x3d920eea	0.07131751
114	0xbd0b4f75	-0.034011323
115	0x3e21eaa2	0.15812162
116	0xbe8980fe	-0.26856226
117	0x3c91abda	0.01778214
118	0x3d7fac8d	0.062420417
119	0x3e0e73cb	0.13911359
120	0x3e894222	0.26808268
121	0xbe400707	-0.1875268
122	0xbded0611	-0.11573423
123	0xbcee6d5e	-0.029104885
124	0x3caa512b	0.020790657
125	0x3ea7082a	0.32623416
126	0x3cd2f134	0.02574978
127	0xbdde04ec	-0.108407825
128	0x3ddc636b	0.1076115
129	0x3d43fbc8	0.04784754
130	0xbd305804	-0.04305269
131	0xbde583c5	-0.11206774
132	0xbdf02dca	-0.117274836
133	0x3e288307	0.16456233
134	0x3eb1f778	0.34759116
135	0xbe37529f	-0.17902611
136	0xbe6a2c92	-0.22868565
137	0x3d9a89e5	0.075458325
138	0x3d505ce6	0.050869845
139	0xbe5f0d8f	-0.21782516
140	0x3e56729a	0.20942155
141	0x3ea065b3	0.3132759
142	0x3ea25e6e	0.3171267
143	0x3e88653b	0.26639733

fc.bias f4 [12]
0	0xbe80dff5	-0.25170866
1	0x3e029c6f	0.12754987
2	0xbca2cd41	-0.019873263
3	0xbe072d4a	-0.1320087
4	0xbe66ac9a	-0.2252678
5	0xbe844d02	-0.25840002
6	0x3e25687b	0.16153137
7	0xbc625853	-0.013815003
8	0xbe83e6a5	-0.25761905
9	0xbdd96ce2	-0.10616471
10	0x3e20f0ba	0.1571683
11	0xbea156db	-0.31511578
