trained_weights/trace/selfattention5.pth (torch, 21775 bytes, 8 tensors)

multihead_self_attention.multihead_attn.in_proj_weight f4 [96, 32]
0	0x3de13b78	0.10997671
1	0x3ca266f0	0.019824475
2	0xb795efb4	-1.7873805e-05
3	0xbdf9e62c	-0.12202105
4	0x3d949d7e	0.07256602
5	0xb7046ffa	-7.893885e-06
6	0x3d3f02c1	0.046633486
7	0xb9f630c7	-0.00046957118
8	0xbd90573f	-0.07047891
9	0xbdfe374d	-0.124128915
10	0x3d092786	0.033484958
11	0xbd29065e	-0.041265838
12	0xbe031fb9	-0.1280507
13	0xb880f79e	-6.149638e-05
14	0x3c5971c0	0.013271749
15	0x3d63a307	0.055575397
16	0xbc4c2eaf	-0.012462302
17	0xbcbb7299	-0.022881793
18	0xbe0982c9	-0.13428797
19	0xbd3eff18	-0.046629995
20	0xbd2db206	-0.042406105
21	0x3cc886de	0.024478372
22	0x3d000441	0.031254057
23	0xbc7486af	-0.014924689
24	0x3dd6200a	0.1045533
25	0xbd925b9f	-0.071463816
26	0x3d7278e8	0.059197336
27	0x3e11ad07	0.14226161
28	0xb8573fc6	-5.1319388e-05
29	0x3dd4c0cc	0.103883356
30	0xbe03bbc7	-0.128646
31	0xbe1678ec	-0.14694566
32	0xbbea02ab	-0.0071414313
33	0xbd218fe4	-0.039443865
34	0xbd8b14c3	-0.06791069
35	0xbd9ed2aa	-0.07755025
36	0x3c209ce7	0.009803033
37	0x3500161d	4.7715895e-07
38	0x3d7018bf	0.05861735
39	0x3d924f15	0.0714399
40	0x3c9b0090	0.018921167
41	0xbdb94ba1	-0.09047628
42	0x3d771537	0.060322966
43	0x3dd26310	0.10272801
44	0x3d2360ca	0.039887227
45	0xb81056b2	-3.4413017e-05
46	0xbbed9225	-0.007250088
47	0x3ceabd79	0.0286548
48	0x3ae8d059	0.0017762288
49	0xbe18f272	-0.14936236
50	0x3d5f9533	0.054585647
51	0x3ce00361	0.027345361
52	0x3d279403	0.04091264
53	0x3c367b50	0.011137798
54	0x3cddfa9d	0.02709704
55	0x3d996bef	0.0749129
56	0xbd7c8e00	-0.06165886
57	0xbd737cc8	-0.059445173
58	0x360f1f4f	2.1326885e-06
59	0x3c263f20	0.010146886
60	0xb74336b1	-1.163564e-05
61	0xbdca5e91	-0.09881318
62	0xbcaea103	-0.02131701
63	0x3e01c67a	0.12673369
64	0xbe0f4762	-0.13992074
65	0x3c999649	0.01874842
66	0xbde866ce	-0.113477334
67	0x3d9c3734	0.07627717
68	0xb66e2cae	-3.549077e-06
69	0xb516d330	-5.618667e-07
70	0x3dd70cbc	0.10500476
71	0xbbdf6fdd	-0.006818755
72	0x3d8b3ee9	0.067991085
73	0xbcd9d9b4	-0.026593067
74	0x3e12a568	0.1432091
75	0xba0ec534	-0.00054462557
76	0x3d64cc91	0.055859152
77	0xbdd7f76d	-0.105452396
78	0x3daa7846	0.083237216
79	0xb69b37a1	-4.625836e-06
80	0xbcecce05	-0.028906832
81	0xbdf6034f	-0.1201235
82	0x3d4275f5	0.047475774
83	0xbdd12eef	-0.1021403
84	0x3d5b47bf	0.05353522
85	0x3c2ef72e	0.010679049
86	0xbc1a432a	-0.009415427
87	0xbd5801ea	-0.0527362
88	0xbca129e8	-0.019673303
89	0xbd8f7803	-0.07005312
90	0x35b4829c	1.3449057e-06
91	0xbdc4d3e8	-0.096107304
92	0x3a03a908	0.0005022441
93	0x3769779f	1.3915734e-05
94	0x3d897dc3	0.0671344
95	0xbc683cf2	-0.014174687
96	0x3d8e728e	0.06955443
97	0x3deb8af1	0.1150111
98	0x3e056182	0.13025478
99	0xbcf8a05f	-0.030349908
100	0x3c9e1d68	0.019301131
101	0xb6733bde	-3.624467e-06
102	0x3e01a13f	0.12659167
103	0x3720c9af	9.583701e-06
104	0xbb034a91	-0.0020033459
105	0xbc68e5d8	-0.014214955
106	0xbdc89406	-0.09793858
107	0xbd075cff	-0.033047672
108	0xbaa797e0	-0.0012786351
109	0x3d830f99	0.063994594
110	0x3799f925	1.8355038e-05
111	0x3b987f82	0.004653872
112	0x3caed9fa	0.021344174
113	0x38b60410	8.679193e-05
114	0xbd4357ce	-0.04769116
115	0xbd942ce9	-0.072351284
116	0xbd59f52d	-0.053212333
117	0xbdc49bb9	-0.09600014
118	0xbc3e2c34	-0.0116072185
119	0x3dcb9897	0.099412136
120	0x3e012b0a	0.12614074
121	0xbe117b68	-0.14207232
122	0xbbecd109	-0.0072270674
123	0x3e0929d4	0.13394862
124	0xb7a3c89a	-1.9524527e-05
125	0x3e0baf0e	0.13640997
126	0x3d82021b	0.06348058
127	0xb7905e7f	-1.721014e-05
128	0x3d31bd83	0.043393623
129	0x3e0ec285	0.13941391
130	0xbcbbd6b0	-0.02292952
131	0x35832759	9.771712e-07
132	0x3c32a83d	0.010904369
133	0x3df41456	0.11917941
134	0x3d95f3a9	0.07321865
135	0xb81ad069	-3.691056e-05
136	0x3e181c38	0.14854515
137	0xbd38061f	-0.044927713
138	0x3e121bb6	0.14268383
139	0x3dc5db77	0.09661
140	0x3d97dbc2	0.07414962
141	0x3deb32b9	0.11484284
142	0xbe17962d	-0.14803381
143	0x37b2f00d	2.1331036e-05
144	0x38166cf8	3.5864272e-05
145	0xbdbb85ff	-0.09156417
146	0xbd842d61	-0.06453968
147	0x3ddd6900	0.10811043
148	0xbc0143bc	-0.007889684
149	0xbe13ae5b	-0.1442198
150	0xbe1539cb	-0.14572828
151	0xbdfe255d	-0.1240947
152	0xbd11aca3	-0.03556503
153	0xbcc9658d	-0.024584556
154	0xb77d0808	-1.5081845e-05
155	0x3d6f0033	0.0583498
156	0x3dcb97b3	0.09941044
157	0xbd1ef618	-0.038808912
158	0xb2f37e8c	-2.834647e-08
159	0x3da6c0b2	0.081422225
160	0xbc3e2499	-0.011605405
161	0x3b88f480	0.0041795373
162	0x3640595d	2.8662246e-06
163	0x3de37d1d	0.11107848
164	0xb80ee8fc	-3.4072422e-05
165	0xbc38be9c	-0.011275914
166	0xb72c4e75	-1.0270266e-05
167	0x3d06c66e	0.03290408
168	0xbda0f12b	-0.07858499
169	0x3dabf490	0.08396256
170	0x3dabc9df	0.08388113
171	0xbd1ff884	-0.039055362
172	0xbcbe7d23	-0.02325303
173	0x3c7624f1	0.015023456
174	0xbe166889	-0.14688314
175	0x3d666fd8	0.056259006
176	0x3558bbc7	8.073952e-07
177	0x37764f50	1.4681209e-05
178	0xbd62ac6e	-0.055340223
179	0xbe000e95	-0.12505563
180	0x3dc1ddba	0.09466119
181	0xbdaada4d	-0.08342419
182	0xbe13b7ff	-0.14425658
183	0xbd630731	-0.05542678
184	0x3d9a26f4	0.07526961
185	0x3e1250dc	0.14288658
186	0xbd5f8d4b	-0.054578107
187	0x3e03be5b	0.12865584
188	0x3d625470	0.055256307
189	0x3da8aa23	0.08235576
190	0xbd4c1cbe	-0.0498321
191	0x3df2ddf1	0.11858738
192	0x3bda1764	0.0066556204
193	0x3db1864c	0.08668193
194	0x3aba9278	0.0014234325
195	0xbd1b9da8	-0.03799215
196	0xb9c63558	-0.00037805247
197	0xbe004e5e	-0.12529895
198	0x3e0d2939	0.13785256
199	0x3cca4fcb	0.024696251
200	0x3cf5b2d1	0.029992493
201	0xbd993f41	-0.07482768
202	0xbc2a5372	-0.0103958715
203	0xbdfcddce	-0.123469934
204	0xbdd0d222	-0.1019633
205	0x3417758c	1.4105734e-07
206	0xbde02e2a	-0.10946305
207	0x3d2d12f4	0.042254403
208	0xbda9f974	-0.082995325
209	0x3b31d5cc	0.002713549
210	0x3dea3182	0.11435224
211	0x3deeda5e	0.11662744
212	0x3db3bf5d	0.08776734
213	0x3bd36833	0.0064516305
214	0x3c97cb2d	0.018529499
215	0x3d561be0	0.052272677
216	0xb6079483	-2.0203013e-06
217	0xbd22d84e	-0.039757065
218	0xbca532f4	-0.020165898
219	0xb6304076	-2.6263565e-06
220	0x3d4e888d	0.050423194
221	0xb7b1f68d	-2.1214853e-05
222	0x35bc2ba0	1.4019788e-06
223	0x3e05d93b	0.13071148
224	0xbe07d7b9	-0.13265885
225	0x349a7b4d	2.8774448e-07
226	0xbe067d9e	-0.13133857
227	0xb7832f4c	-1.5638441e-05
228	0x3c24625b	0.010033215
229	0x3d5f0436	0.054447375
230	0x3da037a8	0.078231156
231	0x3d4df455	0.05028184
232	0x3ccfe399	0.025377082
233	0xbd6c0585	-0.05762245
234	0x3dee93e1	0.116492994
235	0x3db1853c	0.086679906
236	0x3da3f3b2	0.080054656
237	0x3e152416	0.14564547
238	0xbdec2cff	-0.1153202
239	0xbd9aa9ac	-0.075518936
240	0xbd6dc066	-0.058044814
241	0xbc8c7e0f	-0.017149953
242	0xbdfa294a	-0.122149065
243	0xb7482f6c	-1.193197e-05
244	0x3c100ed5	0.008792599
245	0x36e9883a	6.9598e-06
246	0x3cfb50d0	0.030678183
247	0x3e187b32	0.14890745
248	0xbdcc181f	-0.09965538
249	0x36e604a5	6.855075e-06
250	0x3dfd479f	0.12367176
251	0xb60c2be0	-2.0887164e-06
252	0xbe0efb84	-0.13963133
253	0x3d381107	0.044938114
254	0xbd59e376	-0.05319544
255	0x3d5e54f3	0.054280233

multihead_self_attention.multihead_attn.in_proj_bias f4 [96]
0	0x00000000	0.0
1	0x00000000	0.0
2	0x00000000	0.0
3	0x00000000	0.0
4	0x00000000	0.0
5	0x00000000	0.0
6	0x00000000	0.0
7	0x00000000	0.0
8	0x00000000	0.0
9	0x00000000	0.0
10	0x00000000	0.0
11	0x00000000	0.0
12	0x00000000	0.0
13	0x00000000	0.0
14	0x00000000	0.0
15	0x00000000	0.0
16	0x00000000	0.0
17	0x00000000	0.0
18	0x00000000	0.0
19	0x00000000	0.0
20	0x00000000	0.0
21	0x00000000	0.0
22	0x00000000	0.0
23	0x00000000	0.0
24	0x00000000	0.0
25	0x00000000	0.0
26	0x00000000	0.0
27	0x00000000	0.0
28	0x00000000	0.0
29	0x00000000	0.0
30	0x00000000	0.0
31	0x00000000	0.0
32	0x00000000	0.0
33	0x00000000	0.0
34	0x00000000	0.0
35	0x00000000	0.0
36	0x00000000	0.0
37	0x00000000	0.0
38	0x00000000	0.0
39	0x00000000	0.0
40	0x00000000	0.0
41	0x00000000	0.0
42	0x00000000	0.0
43	0x00000000	0.0
44	0x00000000	0.0
45	0x00000000	0.0
46	0x00000000	0.0
47	0x00000000	0.0
48	0x00000000	0.0
49	0x00000000	0.0
50	0x00000000	0.0
51	0x00000000	0.0
52	0x00000000	0.0
53	0x00000000	0.0
54	0x00000000	0.0
55	0x00000000	0.0
56	0x00000000	0.0
57	0x00000000	0.0
58	0x00000000	0.0
59	0x00000000	0.0
60	0x00000000	0.0
61	0x00000000	0.0
62	0x00000000	0.0
63	0x00000000	0.0
64	0xbb9e2ad2	-0.004826882
65	0x3c4eabe8	0.012614228
66	0x3be09bbd	0.006854503
67	0xbc4548ac	-0.012041252
68	0xbc464d64	-0.012103412
69	0xbc04e8c9	-0.008112141
70	0xbbe58316	-0.007004152
71	0xbc9edac4	-0.019391425
72	0xbba153f4	-0.004923338
73	0xbb0e934c	-0.0021755276
74	0x3b5f2d2f	0.003405403
75	0xb929eeba	-0.00016206029
76	0xbb8e6a0f	-0.0043461393
77	0x3c920ffc	0.017829888
78	0xbc42d526	-0.011891639
79	0x3bf1d2fe	0.0073798886
80	0x3c87fd44	0.016600259
81	0x3b0ea333	0.0021764755
82	0xbbfd5bca	-0.0077318894
83	0xbcbd5ba1	-0.023114981
84	0x3ba0d861	0.004908607
85	0xbc1fb05c	-0.009746637
86	0xba7e6393	-0.0009704169
87	0xbb50f3a2	-0.0031883498
88	0x3c823a21	0.015896859
89	0xbbb2268e	-0.005436725
90	0xbc066c71	-0.008204565
91	0x3c89f4e9	0.016840415
92	0x3a836cf8	0.0010026982
93	0x3bc5d69e	0.0060375473
94	0xbbe9d611	-0.0071361144
95	0xbbae8e07	-0.0053269896

multihead_self_attention.multihead_attn.out_proj.weight f4 [32, 32]
0	0xbe0bffb9	-0.13671769
1	0x3db91e46	0.09038977
2	0x3e3782fc	0.1792106
3	0xbe068dbe	-0.13140008
4	0xbc85b6f5	-0.016322592
5	0x3cd45c36	0.025922876
6	0xbda19143	-0.078890346
7	0xbe2b0939	-0.16702737
8	0x3d4de017	0.050262537
9	0x3e0b8302	0.13624194
10	0x3db8e447	0.090279154
11	0xbd590db8	-0.0529916
12	0xbd219ef1	-0.03945822
13	0x3e49a020	0.19689989
14	0xba87f0f8	-0.0010371497
15	0x3d10dd9c	0.035367593
16	0x3e0b8aa7	0.1362711
17	0x3e21ce76	0.15801415
18	0x3c195842	0.009359421
19	0x3e03807c	0.12841982
20	0xbdf08219	-0.11743564
21	0xbe172a42	-0.14762214
22	0xbdd1a841	-0.1023717
23	0x3e35575b	0.17709105
24	0x3e465732	0.193692
25	0xbd7398ba	-0.059471823
26	0xbe349d3d	-0.17638107
27	0x3e0db5af	0.13838838
28	0xbd8c08a3	-0.06837585
29	0x3e02cab0	0.12772632
30	0xbd39cf52	-0.04536373
31	0x3e1897df	0.14901684
32	0x3ddf6f6d	0.10909925
33	0xbd79f4b1	-0.06102437
34	0xbdd6a26e	-0.104802
35	0xbddb306e	-0.107025966
36	0x3e266084	0.16247755
37	0x3c8c92b0	0.01715979
38	0xbc462709	-0.012094268
39	0xbdbc99bd	-0.09209011
40	0xbdf63296	-0.12021367
41	0x3d71371d	0.05889045
42	0x3e321f7d	0.17394824
43	0x3e1fde93	0.15612249
44	0xbdb5e006	-0.0888062
45	0xbd74a3fd	-0.059726704
46	0xbc9ff7ba	-0.019527305
47	0x3d172876	0.03690382
48	0xbe127730	-0.14303279
49	0x3d0742d5	0.03302272
50	0x3d231dd2	0.03982336
51	0xbdc570b3	-0.09640636
52	0x3b9534f1	0.0045534302
53	0x3c319d3c	0.01084071
54	0xbe047109	-0.12933744
55	0xbd32af4a	-0.0436242
56	0x3c2ab9ff	0.0104203215
57	0xbd9e96b6	-0.077435896
58	0xbc9997be	-0.018749114
59	0x3d908bec	0.07057938
60	0x3debd26a	0.11514743
61	0x3e17ab92	0.14811543
62	0xbc9758fd	-0.01847505
63	0xbdcc9bd8	-0.09990662
64	0x3d907b45	0.07054762
65	0xbd8d5364	-0.06900671
66	0x3e042549	0.12904848
67	0xbd985dac	-0.074397415
68	0x3b8c7c37	0.0042872685
69	0x3e03495e	0.12820956
70	0x3e00da0d	0.1258318
71	0x3ad3569e	0.0016123836
72	0xbe1ff67a	-0.15621367
73	0x3e274293	0.1633399
74	0xbdaef351	-0.08542503
75	0x3d64ccf9	0.05585954
76	0xbdea893f	-0.11451959
77	0xbd855dec	-0.06512055
78	0x3d0b857f	0.03406286
79	0x3d98dade	0.074636206
80	0xbe15c807	-0.14627086
81	0x3d630936	0.055428706
82	0x3e3f7ffc	0.18701166
83	0x3e3e5a9a	0.18589249
84	0x3d00c44a	0.031437196
85	0xbd973fb5	-0.07385198
86	0x3d77e3c9	0.060519967
87	0x3e0c3eaf	0.13695787
88	0x3d960525	0.073252
89	0xbd919e7c	-0.071103066
90	0xbdda50f0	-0.10659969
91	0xbdd4d16e	-0.10391508
92	0x3cca220b	0.024674436
93	0xbddd02ba	-0.10791536
94	0x3e3068cf	0.17227481
95	0x3e2c110d	0.1680338
96	0xbe399e23	-0.1812673
97	0xbe077563	-0.13228373
98	0xbdeddd73	-0.11614504
99	0x3cd75fc7	0.026290787
100	0xbbaaea8a	-0.0052159475
101	0x3e012fd4	0.12615901
102	0xbe08c6d4	-0.13357097
103	0x3c4961a8	0.0122913495
104	0x3d6aa16b	0.057282846
105	0xbd85be87	-0.06530481
106	0xbe0fe0a9	-0.14050545
107	0x3d7e4235	0.06207486
108	0x3dd9b11e	0.106294855
109	0xbdeb43fd	-0.11487577
110	0x3bade275	0.005306537
111	0xbddd3f9e	-0.1080315
112	0x3b9d4eea	0.004800667
113	0x3e107107	0.14105617
114	0xbe02bad1	-0.12766577
115	0x3e05d6f4	0.1307028
116	0xbe065f2e	-0.13122246
117	0x3da7359e	0.081645235
118	0x3da7def9	0.081968255
119	0xbda9fda4	-0.08300331
120	0x3dcf514f	0.1012293
121	0xbcf51176	-0.029915553
122	0x3d3db459	0.04631457
123	0x3c9487f2	0.01813123
124	0x3de903f4	0.11377707
125	0xbc1e3539	-0.009656244
126	0x3de35459	0.111000724
127	0x3e0dcfd3	0.1384881
128	0x3d31856b	0.043340128
129	0x3e279209	0.16364302
130	0x3d09f07e	0.033676617
131	0x3e1569eb	0.14591186
132	0xbda76ffd	-0.08175657
133	0x39bc8f4c	0.0003596492
134	0x3d04ad0c	0.032391593
135	0xbca27f69	-0.019836145
136	0xbdcf1a9b	-0.101124965
137	0x3d88a810	0.066726804
138	0x3d15f374	0.036609128
139	0xbd165f25	-0.03671183
140	0x3dee2111	0.11627401
141	0xbd84668d	-0.064648725
142	0x3dd00912	0.1015798
143	0x3ccb193f	0.024792312
144	0xbdaa2bef	-0.08309161
145	0xbe247d09	-0.16063322
146	0xbd99a5f7	-0.075023584
147	0xbd4335d4	-0.047658756
148	0x3e2af547	0.16695128
149	0x3d854ee0	0.06509185
150	0xbb89458d	-0.0041891993
151	0x3ccbf38c	0.024896406
152	0xbd2f5fe1	-0.042816047
153	0xbdf76d85	-0.12081436
154	0xbdf8bdea	-0.12145598
155	0x3d325b13	0.043543886
156	0xbd806ffe	-0.06271361
157	0xbd07a33d	-0.03311466
158	0xbd631cd8	-0.05544743
159	0xbc6c8de3	-0.014438125
160	0x3dcda2fc	0.100408524
161	0x3e1cda24	0.15317589
162	0x3e1c4090	0.15259004
163	0xbd39f514	-0.04539974
164	0x3be1b03d	0.0068874643
165	0x3d3476cc	0.044058606
166	0xbe2abbf6	-0.16673264
167	0x3e0c0e94	0.13677436
168	0x3e134740	0.14382648
169	0x3bba452a	0.0056845145
170	0x3e14aa92	0.14518192
171	0x3d88d158	0.06680554
172	0x3e0ccef6	0.13750824
173	0x3e2e26ce	0.1700699
174	0x3e134c8d	0.1438467
175	0x3e0cfe1b	0.13768809
176	0x3e2183e2	0.15772966
177	0x3d80e92d	0.06294475
178	0x3d8fd08a	0.070221975
179	0x3dcf2b48	0.10115677
180	0xbd0b9db6	-0.03408595
181	0x3e07e90c	0.13272494
182	0x3d6c9705	0.05776121
183	0xbd934650	-0.071911454
184	0xbe0d5695	-0.1380256
185	0xbda236d2	-0.079206124
186	0xbe0711ee	-0.13190433
187	0x3dc31107	0.09524732
188	0x3d9c8ebe	0.076444134
189	0x3cbb426c	0.02285882
190	0x3e25ad4a	0.16179386
191	0xbe33e460	-0.17567587
192	0x3db899de	0.09013723
193	0x3e19fcca	0.15037838
194	0x3d325c50	0.043545067
195	0xbe0a50a7	-0.13507329
196	0x3e161bc9	0.14659037
197	0x3dd1ccae	0.10244118
198	0xbd94a4e5	-0.07258014
199	0x3db8f3f1	0.09030903
200	0x3e120929	0.14261307
201	0xbdcc6b68	-0.099814236
202	0x3df03c43	0.11730244
203	0xbbc74075	-0.006080682
204	0xbe158a8b	-0.14603631
205	0xbe076413	-0.13221769
206	0xbdc688bc	-0.09694049
207	0xbd236018	-0.039886564
208	0xbdad6d03	-0.08468058
209	0xbe1e2ab0	-0.15445971
210	0x3d929b26	0.071584985
211	0x3def167f	0.11674213
212	0xbdab68b1	-0.08369578
213	0xbe00124a	-0.12506977
214	0x3df7058d	0.120616056
215	0xbc21b500	-0.009869814
216	0x3e0f6b0a	0.14005676
217	0xbe2e05c0	-0.16994381
218	0xbde48be2	-0.11159493
219	0x3e0a982e	0.13534614
220	0xbe3c2774	-0.18374425
221	0xbd11241e	-0.035434835
222	0xbe2b8c40	-0.1675272
223	0xbdd255fa	-0.10270305
224	0x3b268bbd	0.002541288
225	0xbdbb018b	-0.09131154
226	0xbd97aa73	-0.074055575
227	0x3e3393c9	0.17536844
228	0xbd959642	-0.0730405
229	0xbd33a193	-0.04385526
230	0x3e180616	0.14846072
231	0x3d8a00e5	0.06738452
232	0xbdd0bf24	-0.10192707
233	0xbe201ac4	-0.1563521
234	0x3db83a6b	0.08995517
235	0xbe33dbed	-0.17564364
236	0x3e259263	0.16169123
237	0x3c924149	0.017853396
238	0xbdc82501	-0.09772683
239	0x3d49b7ed	0.04924767
240	0xbd26531a	-0.040606596
241	0xbd0122f1	-0.031527463
242	0x3e1dfb86	0.1542798
243	0x3da559f6	0.08073799
244	0xbba65a1c	-0.00507666
245	0x3d121853	0.03566773
246	0xbe4a361a	-0.197472
247	0x3dce35d4	0.10068861
248	0xbbf07ba7	-0.0073389593
249	0xbdc65330	-0.096838355
250	0x3db9e7d1	0.090774186
251	0x3a1b8b15	0.00059335056
252	0x3c959f4d	0.018264437
253	0xbe27b5fd	-0.16378017
254	0xbb7d6711	-0.0038666169
255	0x3e1a6c07	0.15080272

multihead_self_attention.multihead_attn.out_proj.bias f4 [32]
0	0x3c9e2a8f	0.019307403
1	0x3ae146ee	0.0017187276
2	0xbc100d8f	-0.008792295
3	0xbcc25058	-0.023719952
4	0x3b6e01d2	0.0036317003
5	0x3bbaa78f	0.005696244
6	0xbb27f70c	-0.002562943
7	0xbc837407	-0.016046537
8	0xbb7cc5a7	-0.0038569958
9	0x3bcc9560	0.006243393
10	0xbb9ff542	-0.004881532
11	0x3cf7b69d	0.030238444
12	0x3c3ea9b7	0.011637143
13	0xbc084a2e	-0.008318467
14	0xbc3544c1	-0.0110637555
15	0x3bb808f8	0.0056163035
16	0xbc5e40eb	-0.013565282
17	0xba9a2cab	-0.001176258
18	0xbc08778e	-0.008329285
19	0xbb876af5	-0.0041326233
20	0xbc46742c	-0.0121126585
21	0x3c1a48bb	0.009416754
22	0xbc1c8ffc	-0.009555813
23	0x3ce7259e	0.02821618
24	0xbcdfdb7a	-0.027326334
25	0xbb28cf44	-0.0025758306
26	0xbb7c7c79	-0.003852634
27	0xbc3e3630	-0.011609599
28	0x3c22128d	0.009892118
29	0x3c9e7836	0.01934443
30	0xbc420476	-0.011841884
31	0x3ad45abb	0.0016201356

multihead_self_attention.fc.weight f4 [12, 32]
0	0x3c4d222d	0.012520355
1	0xbdfd40f3	-0.12365904
2	0xbcfdf2ab	-0.030999502
3	0x3e16bf88	0.14721501
4	0x3d3e7205	0.046495456
5	0x3cd00203	0.025391584
6	0x3d97ee9c	0.07418558
7	0x3dacd60e	0.08439265
8	0x3e2124f7	0.15736757
9	0x3e17828e	0.14795896
10	0x3da90191	0.08252252
11	0x3d28bd5c	0.041196212
12	0x3ddc0a87	0.107441954
13	0x3dd9cbdb	0.106345855
14	0x3c7c2a31	0.015390919
15	0xbdd61d2a	-0.10454781
16	0xbe079ca4	-0.13243347
17	0x3d488dd8	0.048963398
18	0x3e2e1b4e	0.17002603
19	0x3caaa6a0	0.020831406
20	0x3dd86c3d	0.1056752
21	0xbc6af415	-0.01434042
22	0x3dab00f9	0.08349795
23	0x3e0b36f8	0.13595188
24	0x3d5f42ad	0.054506946
25	0xbe0d6fc5	-0.13812168
26	0x3cd8d690	0.026469499
27	0x3e38f1e2	0.18061021
28	0xbe22f2ba	-0.15912905
29	0xbe34aa78	-0.17643154
30	0xba137182	-0.0005624519
31	0x3d8d34e7	0.06894856
32	0xbca11db4	-0.019667484
33	0x3d8eb4f4	0.06968108
34	0xbe0a1ec1	-0.13488294
35	0x3e28fd19	0.16502799
36	0xbc3469ec	-0.011011582
37	0x3dca5b44	0.09880689
38	0xbe24e9dd	-0.16104837
39	0xbdb0fde6	-0.08642177
40	0xbe10df45	-0.1414767
41	0x3db0741b	0.08615895
42	0x3e022ce4	0.12712437
43	0x3d6ad03c	0.057327494
44	0x3e25c051	0.16186644
45	0xbd836211	-0.06415189
46	0x3d16dc89	0.036831412
47	0x3d5a438a	0.053287067
48	0xbd5555e7	-0.052083876
49	0x3d38368e	0.044973902
50	0x3cc757a9	0.024333792
51	0xbe006cba	-0.12541476
52	0xbd9f955c	-0.0779216
53	0xbc62448c	-0.013810288
54	0x3bf23799	0.0073918817
55	0xbe2f4cab	-0.1711909
56	0xbe143650	-0.14473844
57	0x3ddb4b0d	0.10707674
58	0x3cbf3894	0.023342408
59	0x3e23a73f	0.15981768
60	0x3d06b43d	0.032886732
61	0xbce9869a	-0.028506566
62	0xbd8463b9	-0.06464333
63	0xbe16e782	-0.1473675
64	0xbe0d2c7d	-0.13786502
65	0x3dff9fc9	0.124816485
66	0x3e144714	0.14480239
67	0x3e1867a2	0.14883283
68	0xbe11275d	-0.14175172
69	0x3dcb8fae	0.09939514
70	0x3e173805	0.14767464
71	0x3da0037f	0.07813167
72	0xbd29669c	-0.04135762
73	0xbd96e3f9	-0.07367701
74	0xbdb78925	-0.08961705
75	0xbcc5191b	-0.024059823
76	0x3d4a7312	0.049426146
77	0x3c3d8287	0.011566765
78	0xbbd373c4	-0.0064530093
79	0xbc89e02f	-0.016830532
80	0x3d6d417f	0.05792379
81	0xbe1e97eb	-0.1548764
82	0x3d0d8e0e	0.034559302
83	0x3ca3adbd	0.019980306
84	0x3e09d468	0.13459933
85	0xbe353aec	-0.17698258
86	0x3c95087f	0.018192528
87	0xbe48e0b7	-0.19616972
88	0x3d69d6a9	0.05708948
89	0x3e278c65	0.1636215
90	0x3dbda1d6	0.092593834
91	0x3e21bbbc	0.15794271
92	0xbdf48c7b	-0.11940857
93	0xbe4166fc	-0.18886942
94	0xbc778d9b	-0.015109445
95	0xbe24031c	-0.16016811
96	0xbd4232b6	-0.047411643
97	0xbd50b6bf	-0.05095553
98	0xbe070519	-0.13185538
99	0x3dee405f	0.116333716
100	0x3d19393b	0.037408095
101	0x3da2fe23	0.07958629
102	0xbe13b5ee	-0.1442487
103	0x3e34c539	0.1765336
104	0xbded5d6c	-0.115900844
105	0xbc67ccce	-0.01414795
106	0x3cb82430	0.022478193
107	0xbe2858fa	-0.16440192
108	0x3de4167b	0.111371
109	0xbde656cc	-0.11247024
110	0xbde1dd35	-0.1102852
111	0x3e3515db	0.17684118
112	0xbddcfea6	-0.10790758
113	0xbd84b789	-0.06480319
114	0xbd3b0f41	-0.045668844
115	0xbda9896e	-0.08278166
116	0xbd2a8312	-0.041628905
117	0xbc632536	-0.013863852
118	0x3daca0e8	0.08429128
119	0xbe028867	-0.12747346
120	0x3dfc446c	0.12317738
121	0x3e229c14	0.15879852
122	0xbe314d1d	-0.17314573
123	0xbd9a7303	-0.07541468
124	0xbe07d76d	-0.13265772
125	0xbdd605e5	-0.10450343
126	0x3e2a0c10	0.16606164
127	0x3e0fc063	0.14038233
128	0x3d9d2c26	0.07674436
129	0x3d67dccd	0.056607056
130	0xbe268111	-0.16260172
131	0xbe145986	-0.14487275
132	0xbdd1574a	-0.10221727
133	0x3dd65613	0.10465636
134	0xbe043668	-0.1291138
135	0xbde995f5	-0.11405555
136	0xbddc4452	-0.107552186
137	0xbdcb150a	-0.09916122
138	0xbd87b30a	-0.06625946
139	0x3d184bc3	0.037181627
140	0xbb88c1ce	-0.004173494
141	0xbc64f1d2	-0.01397367
142	0xbe02fb7a	-0.12791243
143	0xbd3b9111	-0.045792643
144	0xbd63504f	-0.05549651
145	0xbd8ad335	-0.06778566
146	0xbdaafbab	-0.08348783
147	0xbe13d8a5	-0.14438112
148	0x3c13ca37	0.00902038
149	0x3cf3fdad	0.029784048
150	0xbb85be47	-0.0040815207
151	0x3e0f4378	0.13990581
152	0xbe1dd5fe	-0.15413663
153	0x3db9918d	0.09060965
154	0x3df4610b	0.11932572
155	0x3c904562	0.01761121
156	0x3e3a3da6	0.1818758
157	0x3ce81f3c	0.028335206
158	0xbdebef29	-0.115202256
159	0xbe1b858d	-0.15187664
160	0x3dfc8653	0.12330308
161	0xbe07421b	-0.13208811
162	0x3daf36c1	0.08555365
163	0xbdb780e3	-0.0896013
164	0xbe1eca3c	-0.15506834
165	0xbdac25bf	-0.08405637
166	0xbde2654a	-0.110544756
167	0xbdc1ef77	-0.094695024
168	0x3da7b890	0.081894994
169	0xbde46209	-0.11151511
170	0x3dbbadcb	0.09164008
171	0xbd0c4842	-0.034248598
172	0x3dac6d05	0.08419231
173	0x3da2363e	0.07920502
174	0x3e1f7c13	0.15574674
175	0x3d6110f6	0.054947816
176	0x3d779033	0.060440253
177	0x3d77cd72	0.060498662
178	0x3dd160fd	0.10223577
179	0xbd2f8ada	-0.04285703
180	0x3e0f2cb9	0.13981904
181	0x3d4ed129	0.05049244
182	0xbdb1a6d8	-0.08674401
183	0xbdb1aab8	-0.0867514
184	0xbe2dac6e	-0.16960308
185	0x3dfbe04c	0.122986406
186	0x3e174940	0.14774036
187	0x3d975c48	0.07390648
188	0x3de3cd8b	0.111231886
189	0xbca89a28	-0.02058132
190	0xbd81ca2a	-0.06337388
191	0x3dc4dad8	0.09612054
192	0xbe357396	-0.17719874
193	0xbe3b7288	-0.18305409
194	0x3b97454d	0.0046164156
195	0xbcdf6831	-0.027271362
196	0x3e0584cd	0.1303894
197	0xbe35125d	-0.17682786
198	0xbe10adc1	-0.14128782
199	0xbda2a445	-0.07941488
200	0xbd054c38	-0.03254339
201	0xbe28b15d	-0.16473909
202	0x3e12bb9e	0.14329383
203	0xbce04674	-0.027377345
204	0xbe0eea3e	-0.13956544
205	0x3ddb2764	0.107008725
206	0x3e24ec8c	0.1610586
207	0xbde70d8b	-0.1128188
208	0x3e2c6c79	0.16838254
209	0x3d2cdb0b	0.042201083
210	0x3def7f33	0.11694183
211	0xbc0756fa	-0.008260483
212	0x3d4a18e4	0.049340144
213	0xbe13d81f	-0.14437912
214	0x3da8fa3f	0.08250856
215	0xbccc39fa	-0.02492999
216	0x3de3d9a5	0.11125497
217	0x3e254735	0.16140445
218	0xbc94a618	-0.018145606
219	0x3e418661	0.18898918
220	0x3da53f8e	0.08068763
221	0xbaa91f31	-0.0012902973
222	0x3e0e1b4e	0.13877603
223	0x3c8ba565	0.01704664
224	0xbbc8b9ec	-0.0061256792
225	0x3e1e920e	0.15485403
226	0xbdc0567d	-0.09391496
227	0xbe0bed7b	-0.1366481
228	0xbd036b39	-0.032084677
229	0xbd5fa6d7	-0.05460247
230	0x3e0e07ce	0.13870165
231	0x3d98c08e	0.07458602
232	0xbd139fa4	-0.036040917
233	0x3c3521d2	0.011055427
234	0xbd12616c	-0.03573744
235	0xbdd6d409	-0.10489661
236	0x3d8e9295	0.06961552
237	0x3c8b2668	0.016986087
238	0x3c5627d9	0.013071024
239	0x3d94aee8	0.07259923
240	0xbd47d90c	-0.048790976
241	0xbde88036	-0.11352579
242	0xbe0e9728	-0.13924849
243	0xbddef433	-0.10886421
244	0x3dee0498	0.1162197
245	0xbd234ff0	-0.039871156
246	0x3df158d3	0.1178452
247	0xbe1ed278	-0.15509975
248	0x3d80a72c	0.062818855
249	0x3d267aec	0.04064457
250	0x3db072b5	0.08615629
251	0x3dc5a934	0.096514136
252	0x3e2f0512	0.17091778
253	0xbde696e5	-0.112592496
254	0xbdb5244e	-0.08844815
255	0x3df6ec6e	0.12056814

multihead_self_attention.fc.bias f4 [12]
0	0x3dc78f17	0.09744089
1	0xbadaf88d	-0.0016706154
2	0x3d14ccdb	0.036328178
3	0x3d6fcf6d	0.058547426
4	0xbe1e4785	-0.1545697
5	0xbde759f5	-0.11296455
6	0x3d2a76ff	0.04161739
7	0x3dde2296	0.108464405
8	0x3d30b808	0.043144256
9	0x3e1d596b	0.15366141
10	0x3df7bc2e	0.12096439
11	0xbde9ee68	-0.114224255

fc.weight f4 [12, 12]
0	0x3d2275ab	0.039663
1	0x3dbf6770	0.09345901
2	0xbe427644	-0.18990427
3	0x3e37921a	0.17926827
4	0xbd4fd386	-0.050738834
5	0x3e570248	0.20996964
6	0x3e8f31ad	0.27967587
7	0xbe3e8364	-0.18604809
8	0x3e0082e5	0.12549932
9	0xbe3c3335	-0.18378909
10	0xbe86e8ad	-0.26349393
11	0x3e2c3dd0	0.16820455
12	0x3d6edb61	0.058314685
13	0xbd5d97e4	-0.054099932
14	0xbdb8912b	-0.090120636
15	0xbd9238c5	-0.07139734
16	0x3e3c6cb4	0.18400842
17	0x3d31c636	0.04340192
18	0xbe1b2fbf	-0.15154932
19	0xbdc6a413	-0.096992634
20	0xbe41aa0b	-0.18912522
21	0x3dad21e0	0.08453727
22	0x3e11af0f	0.14226936
23	0x3e0a19b7	0.13486372
24	0x3e15723c	0.14594358
25	0xbd9d2096	-0.07672231
26	0x3d62f4dc	0.055409297
27	0x3e446f12	0.19182995
28	0x3d389a86	0.04506924
29	0xbc1821ee	-0.009285433
30	0x3e9c8796	0.30572194
31	0x3e4e14eb	0.20125167
32	0xbe5f3608	-0.21797955
33	0x3e9d2452	0.30691773
34	0xbe7895a3	-0.24275832
35	0x3db6ac38	0.08919567
36	0x3aa18457	0.0012322766
37	0xbe6fbc21	-0.23411609
38	0x3e708ca2	0.23491147
39	0xbe408807	-0.1880189
40	0x3cee213f	0.029068587
41	0xbd98e98b	-0.0746642
42	0x3e395295	0.18097909
43	0xbe931eb5	-0.28734365
44	0x3e0c3b51	0.13694502
45	0xbd7633ba	-0.060107924
46	0xbddfc62e	-0.10926472
47	0x3dc8045b	0.09766456
48	0x3e384820	0.17996264
49	0xbd89e79f	-0.06733631
50	0xbe87fa0b	-0.26557955
51	0xbdfbd838	-0.122971
52	0xbe34c505	-0.17653282
53	0x3e7b6df0	0.24553657
54	0xbe66cdcb	-0.22539441
55	0xbddaf966	-0.106921
56	0x3c7c9168	0.015415527
57	0x3e3a9c57	0.18223701
58	0xbdcec832	-0.10096778
59	0x3e7d3fc3	0.24731354
60	0x3e7680c4	0.24072558
61	0xbe0f8475	-0.14015372
62	0x3e87883f	0.26471135
63	0x3ea636b2	0.32463604
64	0x3d38470b	0.044989627
65	0xbdf8ba98	-0.12144965
66	0xbe7ccea5	-0.24688204
67	0x3e39b8cb	0.18136899
68	0x3e473a85	0.19455917
69	0x3e4f08d1	0.20218207
70	0x3d1518e3	0.036400687
71	0xbce45b92	-0.027875695
72	0xbe559ec7	-0.2086135
73	0xbc42a6b1	-0.011880563
74	0x3e40d4c3	0.18831162
75	0xbe3d5304	-0.18488699
76	0xbe23e833	-0.16006546
77	0xbdbad034	-0.09121743
78	0x3d32ad20	0.043622136
79	0x3c2f5fc7	0.010703987
80	0xbd2764c7	-0.040867593
81	0x3e356350	0.17713666
82	0x3e8e1f44	0.2775823
83	0x3e99d55a	0.30045587
84	0x3e23b1d5	0.15985806
85	0xbd013834	-0.03154774
86	0x3ea552dc	0.3228978
87	0x3de2dcf6	0.11077301
88	0xbdd871c2	-0.105685726
89	0xbe8b30a0	-0.27185535
90	0xbe5daecf	-0.21648715
91	0x3ce8bbe8	0.028409913
92	0x3e2561a3	0.16150527
93	0x3def383a	0.11680646
94	0xbcbfe3c7	-0.023424042
95	0x3e046b9e	0.12931678
96	0xbe92e4b1	-0.28690103
97	0x3d1bac66	0.03800621
98	0xbdab5859	-0.0836646
99	0x3e1e002b	0.15429752
100	0x3e8fe761	0.28106216
101	0xbe583c12	-0.21116665
102	0xbe6af568	-0.22945178
103	0x3e687e17	0.2270435
104	0x3e645fa5	0.2230211
105	0xbd829d92	-0.063777104
106	0xbe95842f	-0.2920241
107	0xbe7ba9ae	-0.24576446
108	0xbd1e0dc8	-0.03858736
109	0xbda8b244	-0.082371265
110	0x3d7d6815	0.06186684
111	0x3e86550c	0.2623676
112	0xbea4384c	-0.320742
113	0x3da54f95	0.0807182
114	0xbd1d4a6d	-0.038401056
115	0x3e187a8a	0.14890495
116	0xbe88907f	-0.26672742
117	0x3c3ab3c4	0.0113953985
118	0x3d6d0625	0.057867188
119	0x3e0bac2d	0.13639899
120	0x3e8680b1	0.2627006
121	0xbe55d59f	-0.20882271
122	0xbdce106b	-0.10061725
123	0xbc2a5979	-0.0103973085
124	0xba8d8658	-0.0010797484
125	0x3e95ffa7	0.2929661
126	0x3d280d81	0.041028503
127	0xbdb05397	-0.086096935
128	0x3e098232	0.13428572
129	0x3d95a42c	0.07306704
130	0xbd289a8e	-0.04116302
131	0xbdab3107	-0.083589606
132	0xbdf94935	-0.12172166
133	0x3e198e33	0.14995651
134	0x3e9bab98	0.30404353
135	0xbe62473a	-0.22097483
136	0xbe562a65	-0.2091461
137	0x3dec0920	0.11525178
138	0x3d0e66b2	0.034765907
139	0xbe83cdcc	-0.25742948
140	0x3e6dbe38	0.23217094
141	0x3e934671	0.2876468
142	0x3e9549eb	0.29157957
143	0x3e811c54	0.25216925

fc.bias f4 [12]
0	0xbe8b9100	-0.27259064
1	0x3e102281	0.14075662
2	0xbc604021	-0.0136871645
3	0xbe240c5d	-0.16020341
4	0xbe6e3be2	-0.23265031
5	0xbe82b6ff	-0.2553024
6	0x3e12dc5f	0.14341877
7	0xbc132244	-0.0089803375
8	0xbe821d58	-0.25413013
9	0xbdd5505b	-0.10415717
10	0x3e198098	0.14990461
11	0xbe9c6e1d	-0.3055276
