trained_weights/trace/selfattention17.pth (torch, 21775 bytes, 8 tensors)

multihead_self_attention.multihead_attn.in_proj_weight f4 [96, 32]
0.092818856 0.011044163 1.4061143e-06 -0.104465574 0.05719486 -9.590983e-08 0.033437584 -5.32459e-06
-0.055243842 -0.106509894 0.022015003 -0.028702602 -0.11031772 1.893006e-06 0.006363048 0.041490834
-0.005825307 -0.013384477 -0.11638444 -0.033434473 -0.029701155 0.014637458 0.0201454 -0.007492307
0.087596335 -0.05616389 0.044800278 0.12415711 4.136319e-06 0.08695227 -0.11089622 -0.12873112
-0.0026086606 -0.027116051 -0.05285055 -0.061874088 0.004140656 -8.757454e-07 0.044268716 0.05614155
0.010369335 -0.07411978 0.045833554 0.08584214 0.027501067 4.051496e-06 -0.002667572 0.01799966
0.00027742493 -0.13109322 0.040590834 0.01693338 0.028394157 0.0049694837 0.016732361 0.059394773
-0.04706257 -0.045027588 4.7274355e-07 0.0043507023 8.7802783e-07 -0.082086146 -0.012176348 0.109038405
-0.12187337 0.0102412235 -0.0961974 0.06067633 3.1020562e-07 -9.0895713e-07 0.08803047 -0.0024357573
0.05292534 -0.0163256 0.12508185 -1.4135725e-05 0.041749235 -0.08846106 0.06724378 -8.932214e-07
-0.018206066 -0.102626644 0.034188032 -0.0852777 0.039637785 0.0046805996 -0.0039069382 -0.038914405
-0.010930661 -0.05484648 3.155907e-07 -0.079495475 9.015173e-06 -2.464749e-06 0.05212883 -0.006974973
0.054381374 0.09767945 0.11246011 -0.019394824 0.0106522 1.1774873e-05 0.10890047 -1.2423724e-06
-0.00034364464 -0.007002547 -0.08124829 -0.021646641 -0.00014904769 0.049218267 -2.897859e-06 0.0013654383
0.0121971425 -1.5915355e-05 -0.03438023 -0.0569939 -0.03934532 -0.07939298 -0.005269208 0.082660206
0.10846261 -0.12397239 -0.0026550638 0.11605405 1.8608663e-06 0.11845123 0.04874315 1.5263363e-06
0.030569267 0.12137914 -0.013421637 -8.055429e-08 0.0048219827 0.10171226 0.057805996 -6.745695e-06
0.13029428 -0.031923693 0.124569185 0.079976425 0.05867861 0.09751681 -0.12979454 -2.0607017e-06
-4.116314e-06 -0.075156644 -0.04972254 0.091020025 -0.003021092 -0.12606858 -0.12754184 -0.10647669
-0.023779044 -0.014721483 9.447389e-07 0.044023734 0.0826586 -0.026565872 1.0078307e-08 0.06552674
-0.005268043 0.0011552182 -2.5940824e-07 0.09388158 4.0351565e-06 -0.0050572483 2.2460236e-07 0.02152588
-0.06284881 0.06793082 0.06785365 -0.026779259 -0.013674057 0.007561018 -0.12867004 0.04211361
2.0087022e-07 9.901326e-06 -0.041276827 -0.10740917 0.078112885 -0.067420855 -0.12610455 -0.04135557
0.059729654 0.12476704 -0.04058398 0.11090575 0.041200474 0.066409536 -0.03629704 0.10113904
0.0023495401 0.07051047 0.00018382963 -0.025860356 3.726009e-06 -0.107645355 0.11985696 0.014809941
0.01909932 -0.059314765 -0.0045043407 -0.105870605 -0.08510777 -5.3008353e-08 -0.09232357 0.029568063
-0.06701479 0.0005764422 0.09704267 0.099242374 0.07154181 0.002242897 0.010079316 0.03849537
-9.423297e-07 -0.027387973 -0.011301319 9.6785456e-08 0.03682819 2.0814898e-06 -8.224919e-07 0.112904236
-0.114798665 -1.5149503e-07 -0.11351412 1.2968206e-06 0.004280991 0.040465243 0.06251536 0.036701098
0.015351102 -0.04335833 0.09911234 0.070508555 0.064235 0.12746094 -0.09797826 -0.05996382
-0.04374459 -0.009071022 -0.10458967 5.129838e-07 0.0035385047 -4.55686e-08 0.019666841 0.13064846
-0.082893424 -1.6939896e-06 0.10606639 3.9052864e-07 -0.121591136 0.031932905 -0.039330006 0.04031349
00000000: d017 be3d 94f2 343c b8b9 bc35 0cf2 d5bd
00000010: 2845 6a3d fdf6 cdb3 d9f5 083d e1a9 b2b6
00000020: 5e47 62bd dc21 dabd cf58 b43c b821 ebbc
00000030: 42ee e1bd 3113 fe35 1e81 d03b 4bf2 293d
00000040: 38e2 bebb 914a 5bbc f75a eebd 96f2 08bd
00000050: d64f f3bc f3d1 6f3c f707 a53c 0782 f5bb
00000060: b565 b33d 1b0c 66bd 7f80 373d 1546 fe3d
00000070: b6ca 8a36 0814 b23d 8f1d e3bd 17d2 03be
00000080: 10f6 2abb 7b22 debc d179 58bd af6f 7dbd
00000090: 57ae 873b c414 6bb5 1d53 353d aff4 653d
000000a0: 25e4 293c 1ccc 97bd f7bb 3b3d 01ce af3d
000000b0: eb49 e13c 16f2 8736 6ed2 2ebb 0674 933c
000000c0: 5873 9139 4d3d 06be 9342 263d dfb7 8a3c
000000d0: dd9a e83c 0dd7 a23b 4e12 893c ef47 733d
000000e0: aec4 40bd d96e 38bd 61cd fd34 5690 8e3b
000000f0: 9db1 6b35 c81c a8bd 4e7f 47bc 874f df3d
00000100: bf98 f9bd ceca 273c 2403 c5bd be87 783d
00000110: 568a a634 0fff 73b5 5249 b43d 3aa1 1fbb
00000120: 3ec8 583d 44bd 85bc 7515 003e 7a28 6db7
00000130: 3f01 2b3d 122b b5bd 1bb7 893d b5c5 6fb5
00000140: e324 95bc eb2d d2bd c008 0c3d 13a6 aebd
00000150: 3b5b 223d b75f 993b c605 80bb b664 1fbd
00000160: 8416 33bc b4a6 60bd 756e a934 86ce a2bd
00000170: e03f 1737 1168 25b6 0a85 553d 508e e4bb
00000180: 01bf 5e3d 2a0c c83d 7c51 e63d e5e1 9ebc
00000190: 9186 2e3c b28c 4537 3607 df3d 97bf a6b5
000001a0: 342b b4b9 9f75 e5bb 8165 a6bd 4c54 b1bc
000001b0: af49 1cb9 1899 493d d778 42b6 82f8 b23a
000001c0: 86d6 473c f781 85b7 49d2 0cbd 7072 69bd
000001d0: 8f28 21bd c998 a2bd 52a9 acbb c149 a93d
000001e0: a521 de3d 3de5 fdbd 9400 2ebb bfad ed3d
000001f0: e1c2 f935 8f96 f23d e6a6 473d 84dc cc35
00000200: 666c fa3c a095 f83d 6de6 5bbc 30fd acb3
00000210: b901 9e3b 844e d03d fbc5 6c3d 1459 e2b6
00000220: dd6b 053e 6bc2 02bd 211e ff3d aeca a33d
00000230: fb58 703d e5b6 c73d dce8 04be 964a 0ab6
00000240: de1e 8ab6 baeb 99bd dda9 4bbd b568 ba3d
00000250: 83fd 45bb 1f18 01be 549a 02be 7310 dabd
00000260: 45cc c2bc 6032 71bc f699 7d35 3b52 343d
00000270: e948 a93d aca0 d9bc dd24 2d32 e232 863d
00000280: 8c9f acbb b16a 973a cc44 8bb4 fc44 c03d
00000290: bb65 8736 46b7 a5bb 3a2a 7134 0b57 b03c
000002a0: e0b6 80bd 501f 8b3d dbf6 8a3d 2d60 dbbc
000002b0: 2709 60bc 6bc2 f73b 14c2 03be 527f 2c3d
000002c0: c9ae 5734 df1d 2637 e411 29bd 57f9 dbbd
000002d0: a6f9 9f3d f213 8abd 8d21 01be 7564 29bd
000002e0: 15a7 743d dd85 ff3d 633b 26bd 8e22 e33d
000002f0: d4c1 283d b901 883d 34ac 14bd fc21 cf3d
00000300: befa 193b cb67 903d 64c2 4039 19d9 d3bc
00000310: 590c 7a36 2b75 dcbd 9177 f53d 65a5 723c
00000320: 2d76 9c3c 0af4 72bd 2699 93bb b0d2 d8bd
00000330: fc4c aebd 4dab 63b3 2414 bdbd b938 f23c
00000340: 0d3f 89bd 621c 173a 4fbe c63d 963f cb3d
00000350: 8384 923d 91fd 123b b723 253c 52ad 1d3d
00000360: 67f4 7cb5 be5c e0bc 2b29 39bc 5ed8 cf33
00000370: 28d9 163d b9af 0b36 37c9 5cb5 563a e73d
00000380: 901b ebbd a3aa 22b4 177a e8bd 6b0e ae35
00000390: 8e47 8c3b e2be 253d 0e08 803d e453 163d
000003a0: 3083 7b3c 8198 31bd 69fb ca3d ca66 903d
000003b0: a48d 833d 1f85 023e d3a8 c8bd 9f9c 75bd
000003c0: 872d 33bd a09e 14bc 1c33 d6bd fab3 0935
000003d0: 42e6 673b 35b7 43b3 5b1c a13c b6c8 053e
000003e0: 07c4 a9bd 0a5d e3b5 5639 d93d d9a9 d134
000003f0: c604 f9bd 14cc 023d 8018 21bd c21f 253d

multihead_self_attention.multihead_attn.in_proj_bias f4 [96]
0.0 0.0 0.0 0.0 0.0 0.0 0.0 0.0
0.0 0.0 0.0 0.0 0.0 0.0 0.0 0.0
0.0 0.0 0.0 0.0 0.0 0.0 0.0 0.0
0.0 0.0 0.0 0.0 0.0 0.0 0.0 0.0
0.0 0.0 0.0 0.0 0.0 0.0 0.0 0.0
0.0 0.0 0.0 0.0 0.0 0.0 0.0 0.0
0.0 0.0 0.0 0.0 0.0 0.0 0.0 0.0
0.0 0.0 0.0 0.0 0.0 0.0 0.0 0.0
-0.00663176 0.01909499 0.0067287646 -0.00037456685 -0.020667398 -0.0022742907 -0.0005369574 -0.013433642
0.0031323365 -0.0005960693 -0.0006581514 -0.005876874 -0.00017489426 0.023782868 -0.001884777 4.861804e-05
0.0072717317 -0.004630436 -0.013929401 -0.018159548 -0.0024508932 -0.0091631245 0.0029976452 0.0056552105
0.018446982 -0.003834817 -0.02732863 0.011372981 -0.0044143866 0.0014448866 -0.0036932712 -0.0032914316
00000000: 0000 0000 0000 0000 0000 0000 0000 0000
00000010: 0000 0000 0000 0000 0000 0000 0000 0000
00000020: 0000 0000 0000 0000 0000 0000 0000 0000
00000030: 0000 0000 0000 0000 0000 0000 0000 0000
00000040: 0000 0000 0000 0000 0000 0000 0000 0000
00000050: 0000 0000 0000 0000 0000 0000 0000 0000
00000060: 0000 0000 0000 0000 0000 0000 0000 0000
00000070: 0000 0000 0000 0000 0000 0000 0000 0000
00000080: 0000 0000 0000 0000 0000 0000 0000 0000
00000090: 0000 0000 0000 0000 0000 0000 0000 0000
000000a0: 0000 0000 0000 0000 0000 0000 0000 0000
000000b0: 0000 0000 0000 0000 0000 0000 0000 0000
000000c0: 0000 0000 0000 0000 0000 0000 0000 0000
000000d0: 0000 0000 0000 0000 0000 0000 0000 0000
000000e0: 0000 0000 0000 0000 0000 0000 0000 0000
000000f0: 0000 0000 0000 0000 0000 0000 0000 0000
00000100: 3c4f d9bb 196d 9c3c f87c dc3b 8361 c4b9
00000110: ad4e a9bc 440c 15bb 9ac2 0cba c718 5cbc
00000120: e347 4d3b 8941 1cba cb87 2cba cb92 c0bb
00000130: d263 37b9 4ad4 c23c 9f0a f7ba 39eb 4b38
00000140: b547 ee3b eaba 97bb 2438 64bc 55c3 94bc
00000150: 2a9f 20bb ee20 16bc 2474 443b 584f b93b
00000160: 201e 973c 8e51 7bbb 4be0 dfbc bd55 3a3c
00000170: 8fa6 90bb 5962 bd3a cf0a 72bb 0fb5 57bb

multihead_self_attention.multihead_attn.out_proj.weight f4 [32, 32]
-0.13853751 0.09187226 0.1834567 -0.1322546 -0.014778038 0.02470061 -0.073620155 -0.16844787
0.05337664 0.13412665 0.09281373 -0.04899846 -0.04439827 0.19985124 -0.0025846069 0.032596108
0.13964431 0.1633615 0.008222188 0.12772688 -0.1156685 -0.1477457 -0.098469794 0.17973915
0.19646439 -0.060229618 -0.177754 0.14423047 -0.070717804 0.12885246 -0.043678153 0.14724334
0.10399444 -0.06839792 -0.114199296 -0.09852525 0.16828059 0.025888938 -0.013515996 -0.08350552
-0.13539363 0.04641447 0.16681293 0.14545111 -0.0749383 -0.0694742 -0.010939851 0.0456828
-0.15468188 0.019619223 0.047371857 -0.08753818 -0.0037786982 0.019413905 -0.1454121 -0.052580714
-0.0024123578 -0.06948888 -0.0068105734 0.05885932 0.11462898 0.14166555 -0.011676556 -0.09384977
0.072562866 -0.066390544 0.13330926 -0.07813452 0.0023057438 0.12458951 0.12518784 -0.0018011287
-0.15222833 0.16773427 -0.08244877 0.06052718 -0.11983284 -0.06156044 0.030667119 0.072320774
-0.14175163 0.06146536 0.18522589 0.18235578 0.03459567 -0.076960936 0.06714519 0.1405891
0.07747639 -0.07409104 -0.11141587 -0.09914524 0.025741974 -0.105290785 0.17013891 0.16663837
-0.17520176 -0.12098845 -0.10391945 0.015929742 -0.017168744 0.11850759 -0.13272163 0.0022730483
0.070965245 -0.061182205 -0.1323081 0.07090811 0.101443075 -0.10238232 -0.0041724164 -0.11247422
0.015801053 0.14935026 -0.14501017 0.117515154 -0.119499415 0.06845541 0.0912468 -0.07339729
0.11468461 -0.038728956 0.032712277 0.031129282 0.11350595 -0.0020503316 0.09905967 0.13064127
0.051366404 0.17732379 0.046873607 0.14032899 -0.09152371 -0.0036616533 0.045484733 -0.02747801
-0.09014645 0.06416673 0.044813752 -0.03194413 0.11121368 -0.053357165 0.09639349 0.019200448
-0.077116154 -0.15610611 -0.0927723 -0.056793816 0.17438987 0.054883976 0.0024901195 0.035811678
-0.03413649 -0.12943329 -0.13044128 0.052985586 -0.0700145 -0.026086094 -0.06355348 -0.034303714
0.097114414 0.14833489 0.14616273 -0.03935496 0.011115856 0.050212074 -0.16788834 0.14262679
0.13340479 -0.0022521834 0.14014712 0.05926824 0.14655478 0.1634552 0.14985895 0.1425391
0.14957999 0.0533958 0.07511455 0.10726418 -0.039802328 0.13863783 0.046298444 -0.07787577
-0.1465997 -0.07376235 -0.12341856 0.08697977 0.075492814 0.018354913 0.16657491 -0.17201246
0.0914099 0.15204194 0.04474448 -0.1333831 0.14478269 0.10464678 -0.06373475 0.09155953
0.14450227 -0.10848588 0.11669105 -0.009157184 -0.14345123 -0.13166039 -0.09496267 -0.03871657
-0.08740415 -0.15758829 0.06765978 0.11771962 -0.08531469 -0.12633778 0.11963064 -0.009286348
0.13868618 -0.16968837 -0.11255495 0.1347526 -0.186465 -0.036221117 -0.16871375 -0.105913594
0.004451592 -0.08764486 -0.071383044 0.17544506 -0.07648887 -0.043421287 0.15550682 0.06653935
-0.09753044 -0.16058652 0.09132522 -0.17651618 0.16218822 0.020651292 -0.09781008 0.04862067
-0.040669262 -0.032885868 0.14753275 0.079393156 -0.004175048 0.032940567 -0.19742101 0.102757595
-0.0057109226 -0.09837154 0.08887934 0.0023018597 0.01585578 -0.1626632 -0.0065852646 0.1446516
00000000: c7dc 0dbe 8627 bc3d 13dc 3b3e c06d 07be
00000010: 951f 72bc ef58 ca3c 2ac6 96bd 997d 2cbe
00000020: 77a1 5a3d 7f58 093e 2015 be3d 9cb2 48bd
00000030: f6da 35bd cea5 4c3e 8262 29bb 7f83 053d
00000040: ebfe 0e3e 3d48 273e 5bb6 063c d6ca 023e
00000050: 9be3 ecbd a64a 17be 88aa c9bd 8a0d 383e
00000060: f62d 493e 55b3 76bd 2505 36be 27b1 133e
00000070: 7fd4 90bd e6f1 033e dde7 32bd f5c6 163e
00000080: 09fb d43d 3514 8cbd 52e1 e9bd 9bc7 c9bd
00000090: bf51 2c3e 0a15 d43c 3272 5dbc f104 abbd
000000a0: a1a4 0abe 191d 3e3d 02d1 2a3e 23f1 143e
000000b0: 4079 99bd 7d48 8ebd 103d 33bc e31d 3b3d
000000c0: ed64 1ebe 7eb8 a03c fe08 423d 3847 b3bd
000000d0: 09a4 77bb e909 9f3c e9e6 14be e05e 57bd
000000e0: a618 1ebb 3050 8ebd 3b2b dfbb 7816 713d
000000f0: 99c2 ea3d c610 113e 074f 3fbc 4f34 c0bd
00000100: d79b 943d c4f7 87bd 3982 083e fe04 a0bd
00000110: f61b 173b c928 ff3d 3e31 003e da13 ecba
00000120: bee1 1bbe 88c2 2b3e e7da a8bd 59eb 773d
00000130: ec6a f5bd cd26 7cbd 9c39 fb3c ea1c 943d
00000140: 5727 11be 1ac3 7b3d dbab 3d3e 79bb 3a3e
00000150: 30b4 0d3d b29d 9dbd 6b83 893d 97f6 0f3e
00000160: f1ab 9e3d 0bbd 97bd 012e e4bd a90c cbbd
00000170: d5e0 d23c b2a2 d7bd e538 2e3e 40a3 2a3e
00000180: 1768 33be cbc8 f7bd b8d3 d4bd 177f 823c
00000190: 77a5 8cbc 1bb4 f23d 2ee8 07be 6cf7 143b
000001a0: 3a56 913d 319a 7abd c67b 07be 4538 913d
000001b0: 63c1 cf3d d2ad d1bd c4b8 88bb e258 e6bd
000001c0: 3671 813c 46ef 183e 8c7d 14be c9ab f03d
000001d0: 1cbc f4bd 5a32 8c3d 9adf ba3d 5251 96bd
000001e0: c4df ea3d 41a2 1ebd 4ffd 053d d602 ff3c
000001f0: cf75 e83d db5e 06bb ccdf ca3d d3c6 053e
00000200: 9465 523d 5e94 353e 8afe 3f3d 67b2 0f3e
00000210: c870 bbbd 59f8 6fbb 334e 3a3d 9019 e1bc
00000220: b49e b8bd d969 833d a08e 373d d9d7 02bd
00000230: ffc3 e33d 0b8d 5abd f369 c53d 424a 9d3c
00000240: 13ef 9dbd 48da 1fbe 67ff bdbd a2a0 68bd
00000250: 4293 323e 05ce 603d 4631 233b 44af 123d
00000260: b4d2 0bbd 298a 04be 6692 05be 6a07 593d
00000270: c363 8fbd 81b2 d5bc 5428 82bd 0d82 0cbd
00000280: ece3 c63d 1ae5 173e afab 153e ab32 21bd
00000290: 471f 363c 2dab 4d3d ecea 2bbe c20c 123e
000002a0: 449b 083e 5e99 13bb ba82 0f3e 41c3 723d
000002b0: 7512 163e cd60 273e a074 193e c5f5 113e
000002c0: 7f2b 193e 8eb5 5a3d a8d5 993d 53ad db3d
000002d0: c407 23bd 13f7 0d3e 70a3 3d3d 557d 9fbd
000002e0: 3b1e 16be b710 97bd dfc2 fcbd 7322 b23d
000002f0: fa9b 9a3d 0b5d 963c 9d92 2a3e 0924 30be
00000300: 1d35 bb3d e2b0 1b3e fd45 373d 9495 08be
00000310: ea41 143e 0d51 d63d 5d87 82bd 9083 bb3d
00000320: 67f8 133e d82d debd b8fb ee3d 0308 16bc
00000330: e1e4 12be fbd1 06be ca7b c2bd 4495 1ebd
00000340: f200 b3bd d35e 21be 3691 8a3d fc16 f13d
00000350: 78b9 aebd b15e 01be e900 f53d c425 18bc
00000360: c003 0e3e cac2 2dbe 3683 e6bd 96fc 093e
00000370: aef0 3ebe 985c 14bd 4cc3 2cbe 3ae9 d8bd
00000380: a9de 913b 267f b3bd 4631 92bd dfa7 333e
00000390: 32a6 9cbd 85da 31bd 2e3d 1f3e c845 883d
000003a0: 0abe c7bd cb70 24be b808 bb3d a8c0 34be
000003b0: ab14 263e e62c a93c a750 c8bd 7826 473d
000003c0: d094 26bd 55b3 06bd d312 173e e198 a23d
000003d0: d7ce 88bb b0ec 063d bc28 4abe 9372 d23d
000003e0: b122 bbbb 0577 c9bd 5f06 b63d ccda 163b
000003f0: fbe3 813c 2f91 26be 34c9 d7bb 8d1f 143e

multihead_self_attention.multihead_attn.out_proj.bias f4 [32]
0.021582851 -0.007426644 -0.0054230816 -0.014825071 0.0141290175 -0.00032512954 -0.0026393442 -0.013943417
-0.00045256727 0.007551167 -0.0016079434 0.025013769 -0.010091417 -0.0021353867 0.0068345857 -0.0023970294
-0.0055485377 0.007466363 0.0011039847 0.0020313424 -0.0047710817 0.009930946 -0.011186803 0.03159922
-0.018449288 -0.007658868 -0.0012617884 -0.01072208 0.0071315872 0.01981178 -0.00818074 0.013177301
00000000: 85ce b03c 355b f3bb 1bb4 b1bb dbe4 72bc
00000010: 657d 673c 2676 aab9 d9f8 2cbb ee72 64bc
00000020: 8d46 edb9 c86f f73b a1c1 d2ba ade9 cc3c
00000030: 7856 25bc d8f1 0bbb a9f4 df3b 7b17 1dbb
00000040: 82d0 b5bb 64a8 f43b 94b3 903a 4520 053b
00000050: bc56 9cbb 68b5 223c da48 37bc 2f6e 013d
00000060: f622 97bc 3ef7 fabb 9862 a5ba aaab 2fbc
00000070: 17b0 e93b 504c a23c 8308 06bc 9be5 573c

multihead_self_attention.fc.weight f4 [12, 32]
0.019122345 -0.118562385 -0.03441912 0.14241849 0.02851736 0.029876245 0.07626894 0.076430954
0.15398732 0.15204993 0.07810968 0.04804417 0.098052934 0.11335554 0.007584043 -0.11755089
-0.13694449 0.057597116 0.16264239 0.010542082 0.08762468 -0.0056225825 0.07608291 0.14576723
0.047924887 -0.14244267 0.028602794 0.17974062 -0.15536046 -0.17073388 -0.00425584 0.058278468
-0.034407437 0.06367729 -0.12454441 0.17700806 0.0010882032 0.09021727 -0.17215756 -0.07048944
-0.13222465 0.074351415 0.13737176 0.04253827 0.18255211 -0.08406721 0.039834347 0.07027313
-0.0450404 0.024193699 0.033439305 -0.11720169 -0.063987814 -0.031179724 0.020166952 -0.18971804
-0.12994371 0.12061966 0.028856855 0.16726251 0.023481319 -0.041706737 -0.050296016 -0.13738205
-0.1418029 0.12145926 0.14529242 0.15142198 -0.13193381 0.09543355 0.14725663 0.08275088
-0.042363442 -0.075243756 -0.08767317 -0.027744552 0.05495488 0.0067041083 0.00030606147 -0.009232863
0.061223358 -0.1592708 0.03929636 0.03044521 0.14105879 -0.18164892 0.0195503 -0.20201641
0.060511775 0.16702281 0.08729786 0.15690704 -0.12113617 -0.19280888 -0.015051375 -0.15284783
-0.053199854 -0.05340773 -0.12947203 0.12110943 0.04289935 0.07340006 -0.1511377 0.18258022
-0.11437161 -0.018861396 0.026066456 -0.16948627 0.12254619 -0.12060823 -0.10601289 0.1851082
-0.10446553 -0.072979204 -0.04219398 -0.078032814 -0.036874246 -0.019987565 0.08467441 -0.13466425
0.12829477 0.16383755 -0.17047176 -0.07168419 -0.13653244 -0.110210106 0.17010857 0.14244147
0.06741408 0.05257804 -0.1578162 -0.13725372 -0.092250966 0.09621448 -0.13625604 -0.1037438
-0.10520368 -0.10610126 -0.060124643 0.028477713 0.011637444 -0.027247699 -0.12061782 -0.031403363
-0.050039176 -0.08067708 -0.07784465 -0.1361325 0.013808625 0.019407375 0.00033159205 0.12785631
-0.14559735 0.0998865 0.119032145 0.021645034 0.17601165 0.019207422 -0.10885412 -0.1441544
0.13136925 -0.12678853 0.08113066 -0.095500916 -0.17356768 -0.078429155 -0.10678585 -0.10424106
0.07837113 -0.10624201 0.08630718 -0.026034111 0.07108775 0.089336246 0.14654431 0.039414052
0.055364933 0.0719352 0.0945676 -0.053785313 0.122446336 0.060878176 -0.09485127 -0.07498606
-0.17751682 0.11673097 0.1502128 0.072389424 0.11577789 -0.013331165 -0.06818626 0.08438053
-0.16279323 -0.17519192 -0.0073343595 -0.04095801 0.122674145 -0.17063466 -0.1385488 -0.09550083
-0.04634508 -0.15256257 0.13028271 -0.011996429 -0.15098773 0.119025 0.16066447 -0.12616612
0.15797062 0.055306643 0.106138855 -0.016604502 0.03633129 -0.1280105 0.06551102 -0.008592514
0.09621931 0.14869134 -0.02128262 0.18162094 0.09235263 0.011422235 0.12395248 0.0038993293
-0.013313456 0.15044445 -0.09052262 -0.13103808 -0.020207426 -0.06061547 0.13182674 0.08294152
-0.03308784 0.0056113107 -0.030807126 -0.1118053 0.08291641 0.008556733 0.019320108 0.08550469
-0.044196464 -0.12316516 -0.13305248 -0.10128777 0.12753415 -0.048401073 0.12333713 -0.16470838
0.069528565 0.046125308 0.08704057 0.09946823 0.16637218 -0.11926821 -0.083901666 0.12822305
00000000: 77a6 9c3c d6d0 f2bd 10fb 0cbd 27d6 113e
00000010: 3d9d e93c 07bf f43c e432 9c3d d587 9c3d
00000020: daae 1d3e fab2 1b3e f8f7 9f3d f7c9 443d
00000030: facf c83d f326 e83d 9083 f83b 85be f0bd
00000040: 2d3b 0cbe f4ea 6b3d ba8b 263e b2b8 2c3c
00000050: 9174 b33d a43d b8bb 5bd1 9b3d 0144 153e
00000060: e34c 443d 7edc 11be 6850 ea3c ed0d 383e
00000070: d016 1fbe ddd4 2ebe 9374 8bbb 67b5 6e3d
00000080: d0ee 0cbd 3d69 823d 2411 ffbd 9a41 353e
00000090: 0aa2 8e3a d5c3 b83d 124a 30be c45c 90bd
000000a0: e665 07be 8e45 983d 2fab 0c3e 9c3c 2e3d
000000b0: f1ee 3a3e 6e2b acbd 5729 233d 5ceb 8f3d
000000c0: 487c 38bd dd31 c63c a7f7 083d 7107 f0bd
000000d0: 0b0c 83bd 9f6c ffbc 2a35 a53c 7245 42be
000000e0: f70f 05be 7107 f73d 3665 ec3c dd46 2b3e
000000f0: e55b c03c afd4 2abd 3203 4ebd e1ad 0cbe
00000100: c834 11be a2bf f83d 89c7 143e 5d0e 1b3e
00000110: a819 07be aa72 c33d 71ca 163e 4b79 a93d
00000120: 4a85 2dbd 6619 9abd fe8d b3bd 8b48 e3bc
00000130: 5e18 613d 23ae db3b e076 a039 6f45 17bc
00000140: 58c5 7a3d e217 23be 38f5 203d 3c68 f93c
00000150: b771 103e 2d02 3abe f327 a03c 64dd 4ebe
00000160: 32db 773d 0708 2b3e 38c9 b23d 3dac 203e
00000170: 3e16 f8bd b16f 45be 0b9a 76bc 2484 1cbe
00000180: 17e8 59bd 10c2 5abd 5194 04be 3908 f83d
00000190: 3bb7 2f3d c552 963d d7c3 1abe 4ff6 3a3e
000001a0: aa3b eabd 3783 9abc 5289 d53c cf8d 2dbe
000001b0: 7ff9 fa3d 7301 f7bd 491d d9bd 018d 3d3e
000001c0: 06f2 d5bd 1f76 95bd 98d3 2cbd abcf 9fbd
000001d0: 7309 17bd f6bc a3bc c769 ad3d 6de5 09be
000001e0: b45f 033e 08c5 273e 2690 2ebe 29cf 92bd
000001f0: 29cf 0bbe d6b5 e1bd f130 2e3e 2ddc 113e
00000200: 6510 8a3d 125c 573d 929a 21be 3d8c 0cbe
00000210: 13ee bcbd 190c c53d b486 0bbe a177 d4bd
00000220: 0775 d7bd 9e4b d9bd 4245 76bd 184a e93c
00000230: faaa 3e3c 9136 dfbc 7a06 f7bd d0a0 00bd
00000240: e1f5 4cbd 063a a5bd 046d 9fbd 5166 0bbe
00000250: 923d 623c 37fc 9e3c 88d9 ad39 c4ec 023e
00000260: 7917 15be 4b91 cc3d 20c7 f33d ed50 b13c
00000270: 663c 343e e258 9d3c e9ee debd 369d 13be
00000280: a985 063e dad4 01be d527 a63d fc95 c3bd
00000290: babb 31be 779f a0bd 8ab2 dabd 567c d5bd
000002a0: 0b81 a03d 6995 d9bd d2c1 b03d 7d45 d5bc
000002b0: 7496 913d ecf5 b63d b60f 163e a170 213d
000002c0: 57c6 623d c352 933d a8ac c13d fd4d 5cbd
000002d0: 25c5 fa3d 655b 793d 6241 c2bd 4b92 99bd
000002e0: f8c6 35be a610 ef3d 62d1 193e e840 943d
000002f0: f51c ed3d f56a 5abc 3da5 8bbd b3cf ac3d
00000300: 45b3 26be 8365 33be 1155 f0bb 96c3 27bd
00000310: 953c fb3d daba 2ebe bddf 0dbe f095 c3bd
00000320: 57d4 3dbd 5d39 1cbe d568 053e ac8c 44bc
00000330: 879c 1abe 61c3 f33d 3a85 243e b131 01be
00000340: 0dc3 213e 3889 623d 545f d93d 2a06 88bc
00000350: 1ed0 143d 2f15 03be a42a 863d 9ec7 0cbc
00000360: a10e c53d 8b42 183e e458 aebc d7fa 393e
00000370: 6023 bd3d 5324 3b3c ccda fd3d e48b 7f3b
00000380: af20 5abc 1c0e 1a3e ec63 b9bd d92e 06be
00000390: 0b8a a5bc ed47 78bd 97fd 063e 3edd a93d
000003a0: 1d87 07bd 16df b73b 3a5f fcbc 2dfa e4bd
000003b0: 14d0 a93d 8a31 0c3c 3445 9e3c 151d af3d
000003c0: 5a07 35bd 043e fcbd e93e 08be f66f cfbd
000003d0: 5098 023e 3440 46bd 2d98 fc3d 50a9 28be
000003e0: fe64 8e3d e4ed 3c3d 5442 b23d 00b6 cb3d
000003f0: 785d 2a3e e442 f4bd a3d4 abbd e74c 033e

multihead_self_attention.fc.bias f4 [12]
0.10256387 -0.013850249 0.033686638 0.05363594 -0.1623443 -0.10641808 0.051189337 0.1025002
0.04828956 0.15463243 0.116971195 -0.11131285
00000000: 020d d23d 28ec 62bc 00fb 093d 5cb1 5b3d
00000010: 963d 26be b9f1 d9bd e9ab 513d a0eb d13d
00000020: 46cb 453d f757 1e3e 988e ef3d fef7 e3bd

fc.weight f4 [12, 12]
0.028219912 0.1011265 -0.20400934 0.16243835 -0.03438597 0.22230883 0.26615423 -0.20472126
0.099921994 -0.19723696 -0.26879463 0.16047728 0.059867144 -0.0445306 -0.076579615 -0.059114788
0.17583013 0.02574828 -0.1441595 -0.08502476 -0.1915254 0.09501185 0.1541268 0.1433166
0.14725028 -0.07362351 0.072747305 0.21066259 0.037355937 -0.02231246 0.31112462 0.21180569
-0.22087358 0.31586844 -0.23708484 0.09321614 -0.011087059 -0.24495806 0.2066357 -0.21409819
0.05015974 -0.049063515 0.15787716 -0.3105796 0.1413798 -0.087543964 -0.13821627 0.07023545
0.17784779 -0.06925536 -0.27219665 -0.13000967 -0.17110538 0.25213176 -0.23028997 -0.11464799
0.010893994 0.17867595 -0.10485806 0.24451026 0.2415309 -0.13898818 0.27313688 0.33435664
0.041272793 -0.12696543 -0.24421223 0.18532535 0.1929765 0.20667955 0.038881384 -0.025878925
-0.20652598 -0.021640476 0.17608894 -0.19354366 -0.15918505 -0.07973838 0.040560458 0.0029987139
-0.014599377 0.16951191 0.2644916 0.29427913 0.16108635 -0.029881239 0.33445096 0.12347904
-0.11103293 -0.2801189 -0.21259134 0.035361227 0.1597835 0.12315414 -0.019709803 0.13218968
-0.28274146 0.033547513 -0.07921276 0.15936853 0.2758406 -0.2144026 -0.22480752 0.2335893
0.23586445 -0.05938251 -0.2899586 -0.24209107 -0.03722627 -0.08142504 0.07260451 0.27453128
-0.32624915 0.07362224 -0.0346682 0.15555637 -0.26461193 0.016362302 0.060531825 0.13849048
0.24382181 -0.19171591 -0.11698758 -0.026296722 0.01668967 0.30991727 0.023936529 -0.099573724
0.12394395 0.051520426 -0.055582274 -0.104701184 -0.117650114 0.15357524 0.32977754 -0.19496734
-0.22558384 0.09148436 0.047150675 -0.23294047 0.238265 0.3028572 0.30195814 0.2600274
00000000: 722d e73c 691b cf3d d3e7 50be 3d56 263e
00000010: 4ed8 0cbd eda4 633e 5e45 883e 73a2 51be
00000020: e7a3 cc3d 7cf8 49be 739f 89be 2854 243e
00000030: 4037 753d b865 36bd c6d5 9cbd 5922 72bd
00000040: d00c 343e 0fee d23c 8c9e 13be 7621 aebd
00000050: 3c1f 44be 9395 c23d 6ad3 1d3e 96c1 123e
00000060: c7c8 163e ecc7 96bd 8afc 943d efb7 573e
00000070: 8a02 193d 9fc8 b6bc ba4b 9f3e 97e3 583e
00000080: af2c 62be 82b9 a13e 5ec6 72be 1be8 be3d
00000090: 7fa6 35bc 49d6 7abe 4f98 533e 8e3c 5bbe
000000a0: 4d74 4d3d d3f6 48bd 8daa 213e 4a04 9fbe
000000b0: dec5 103e 404a b3bd 9188 0dbe 9bd7 8f3d
000000c0: bb1d 363e c1d5 8dbd 5c5d 8bbe 4121 05be
000000d0: 4036 2fbe 6a17 813e 22d1 6bbe 91cc eabd
000000e0: b97c 323c d4f6 363e d3bf d6bd e660 7a3e
000000f0: e053 773e eb52 0ebe 99d8 8b3e cb30 ab3e
00000100: a90d 293d 3a03 02be c512 7abe eec5 3d3e
00000110: a29b 453e cea3 533e 1642 1f3d 0a00 d4bc
00000120: 8c7b 53be 5e47 b1bc a950 343e 4f30 46be
00000130: 6801 23be e04d a3bd b922 263d 1286 443b
00000140: 3a32 6fbc 8894 2d3e 716b 873e c1ab 963e
00000150: d2f3 243e 80c9 f4bc 283d ab3e 94e2 fc3d
00000160: 3c65 e3bd bf6b 8fbe 8bb1 59be efd6 103d
00000170: 499e 233e 3d38 fc3d 7476 a1bc bb5c 073e
00000180: 7dc3 90be 1e69 093d 4d3a a2bd 8131 233e
00000190: fb3a 8d3e 5b8c 5bbe f133 66be 0932 6f3e
000001a0: 7386 713e 133b 73bd 7475 94be b9e6 77be
000001b0: 937a 18bd 2cc2 a6bd acb1 943d 5d8f 8c3e
000001c0: 210a a7be 42c7 963d 3e00 0ebd 2b4a 1f3e
000001d0: 377b 87be 3c0a 863c 38f0 773d 73d0 0d3e
000001e0: 6dac 793e 2d51 44be 2f97 efbd 396c d7bc
000001f0: c6b8 883c 7aad 9e3e 8a16 c43c 4fed cbbd
00000200: 53d6 fd3d 1507 533d 3daa 63bd 936d d6bd
00000210: 8bf2 f0bd d442 1d3e 9ad8 a83e 85a5 47be
00000220: 73ff 66be 275c bb3d 1121 413d f287 6ebe
00000230: bdfb 733e 1910 9b3e 429a 9a3e 5022 853e

fc.bias f4 [12]
-0.26078483 0.12943028 -0.016897984 -0.13626748 -0.22660908 -0.25683418 0.1470461 -0.011310904
-0.25766015 -0.10570333 0.16297582 -0.31121835
00000000: 9785 85be 5f89 043e a46d 8abc b489 0bbe
00000010: 360c 68be c57f 83be 4193 163e 5f51 39bc
00000020: 08ec 83be fd7a d8bd 22e3 263e 0358 9fbe
