trained_weights/trace/selfattention12.pth (torch, 21775 bytes, 8 tensors)

multihead_self_attention.multihead_attn.in_proj_weight f4 [96, 32]
000000 5b 6a c9 3d d2 0f 5e 3c c8 ac 6c 36 aa 91 e1 bd
       0.09834739 0.013553577 3.5267312e-06 -0.11014111
000010 61 37 7e 3d 8f 0c 5b 36 74 a6 19 3d d6 11 62 b8
       0.062064532 3.2640853e-06 0.037512258 -5.389921e-05
000020 24 05 76 bd cd cd e5 bd 84 a2 d0 3c 5c 51 05 bd
       -0.060063496 -0.11220894 0.025468118 -0.032548293
000030 4c b0 ed bd 21 5e d0 b6 98 05 07 3c 21 f6 3b 3d
       -0.116058916 -6.209841e-06 0.00824108 0.045889024
000040 fd 7d f9 bb e2 3b 84 bc 13 3e fa bd 0e a3 19 bd
       -0.007613896 -0.016141836 -0.12218871 -0.037509017
000050 18 9e 09 bd e4 7a 8f 3c ae 43 c0 3c 40 60 1c bc
       -0.033598036 0.017514654 0.023469772 -0.009544432
000060 54 91 be 3d e0 e2 79 bd 19 fc 49 3d 17 28 05 3e
       0.09305063 -0.06100738 0.049312685 0.13003574
000070 7b b2 ef 35 a4 3a bd 3d dc e2 ee bd d0 e1 09 be
       1.7858832e-06 0.092397004 -0.11664364 -0.13465047
000080 75 5f 74 bb 74 f1 fc bc 3b f4 6b bd c8 eb 88 bd
       -0.0037288342 -0.030876853 -0.057605963 -0.06685597
000090 c7 f4 b7 3b 2c c7 ad b4 25 bc 47 3d da ca 79 3d
       0.0056138965 -3.2368678e-07 0.048763413 0.06098447
0000a0 b3 b8 51 3c 80 83 a2 bd ff 5a 4e 3d db eb ba 3d
       0.012800383 -0.07935238 0.05037975 0.09127017
0000b0 7d 22 00 3d 03 f0 ca 36 4d 3b 79 bb 76 5e ad 3c
       0.03128289 6.04801e-06 -0.003802973 0.021163207
0000c0 41 18 10 3a 50 52 0c be 0e 24 38 3d 46 ee a3 3c
       0.0005496778 -0.13703275 0.04495626 0.020011079
0000d0 ff fc 03 3d 53 71 d8 3b c0 25 a2 3c 6b b9 83 3d
       0.032223698 0.006605306 0.019793391 0.0643185
0000e0 bd 8c 53 bd 53 f2 4a bd a1 b7 66 b5 66 3d c0 3b
       -0.05164789 -0.049547505 -8.594889e-07 0.0058666943
0000f0 59 c6 04 36 e1 1b b3 bd a5 a5 72 bc 42 0a eb 3d
       1.9784986e-06 -0.08745552 -0.014810001 0.11476566
000100 e1 cb 02 be 52 5f 4f 3c 57 6d d0 bd 46 69 86 3d
       -0.12773086 0.0126570035 -0.10177105 0.06563048
000110 23 ea 3b b5 2b 08 03 36 4c 78 bf 3d b3 0c 66 bb
       -7.000364e-07 1.9525276e-06 0.09349117 -0.0035102784
000120 d0 44 6c 3d f1 88 9e bc b6 1c 06 3e ab da 9c b8
       0.057682812 -0.019352408 0.1309689 -7.47939e-05
000130 ca 0e 3d 3d 59 5d c0 bd 50 28 94 3d 64 85 84 35
       0.046156682 -0.09392805 0.072342515 9.873588e-07
000140 2a 31 af bc 2a c2 dd bd 52 dc 1c 3d 6c bf b9 bd
       -0.021385748 -0.108280495 0.03829605 -0.09069714
000150 78 17 34 3d c2 2d cd 3b aa b1 ae bb 06 04 31 bd
       0.043967694 0.0062615583 -0.005331238 -0.043216728
000160 78 fd 5b bc 87 59 74 bd 57 c8 5a 35 51 b7 ad bd
       -0.013427131 -0.059655692 8.150286e-07 -0.084822305
000170 05 be 83 38 4c 7c f4 b6 75 ea 68 3d d9 a0 12 bc
       6.281961e-05 -7.2862367e-06 0.05686422 -0.008949482
000180 e5 64 72 3d 63 80 d3 3d 7d 1f f2 3d 30 ab b9 bc
       0.05917825 0.10327222 0.11822412 -0.022664636
000190 a5 e6 56 3c 54 73 d1 37 26 c1 ea 3d 4b f8 88 b5
       0.013116513 2.4968445e-05 0.114626214 -1.0205052e-06
0001a0 8b ca 2b ba 37 26 13 bc 7b 5d b1 bd 69 6a cd bc
       -0.00065533136 -0.008981279 -0.08660408 -0.025075154
0001b0 bf 73 af b9 55 a6 5c 3d f5 cc f4 b6 6a af 0a 3b
       -0.0003346484 0.053869564 -7.295627e-06 0.0021161684
0001c0 1c 06 73 3c 2b 3c b6 b7 ae ae 1d bd 5a 5f 7d bd
       0.014833 -2.1724109e-05 -0.038496666 -0.061858512
0001d0 29 d9 32 bd ad 80 ad bd aa 11 e4 bb ab 4d b4 3d
       -0.04366413 -0.084718086 -0.0069601135 0.088038765
0001e0 0c d9 e9 3d 39 f7 04 be 6c 33 78 bb 20 8f f9 3d
       0.114183515 -0.12984933 -0.0037872447 0.12185502
0001f0 1e ea 47 b5 65 84 fe 3d 2e a5 5a 3d 94 9e 05 b6
       -7.447396e-07 0.12427596 0.053380184 -1.991085e-06
000200 a5 59 0d 3d 1a 49 02 3e 85 91 84 bc 00 8f a8 b3
       0.03450932 0.12723199 -0.01618267 -7.849121e-08
000210 e6 b2 d2 3b 02 dd db 3d 1a 64 80 3d 1b 4f b0 b7
       0.0064300178 0.10735513 0.06269093 -2.1017671e-05
000220 1c 7f 0b 3e 11 2a 13 bd 19 95 05 3e ad b7 ae 3d
       0.13622707 -0.03592879 0.13045157 0.08531127
000230 db 38 82 3d 08 2a d3 3d fd fa 0a be 34 48 fb b5
       0.063585006 0.10310751 -0.13572307 -1.8721971e-06
000240 39 78 c3 b6 fd ac a4 bd ca c6 5e bd 2e ae c5 3d
       -5.8254486e-06 -0.080408074 -0.0543888 0.09652363
000250 de 16 8b bb b3 21 07 be 51 a7 08 be 32 bc e5 bd
       -0.0042446693 -0.13196449 -0.13345076 -0.11217536
000260 09 03 e0 bc 5a 3b 90 bc 07 ae 7a 36 99 b2 46 3d
       -0.027345197 -0.017606426 3.73542e-06 0.048510168
000270 cf 4c b4 3d a0 2f f8 bc 18 fb 0e 32 2c 91 90 3d
       0.088037126 -0.030296147 8.32258e-09 0.07058939
000280 21 06 e4 bb 8d f6 ef 3a ac 7a 24 35 17 9f cb 3d
       -0.0069587384 0.0018307731 6.127327e-07 0.09942453
000290 52 97 cc 36 6d da db bb ac ea 6c 36 14 5c cc 3c
       6.0972898e-06 -0.006709388 3.5303337e-06 0.02494625
0002a0 66 f6 8a bd ea 97 95 3d a1 6e 95 3d 19 08 fa bc
       -0.06785278 0.07304366 0.072964914 -0.03052144
0002b0 c8 d6 86 bc a0 aa 1d 3c a9 d1 09 be 73 9a 3e 3d
       -0.016459838 0.0096232 -0.13458885 0.046534013
0002c0 c2 7d de b4 29 09 c9 37 a0 0d 3b bd 9a aa e7 bd
       -4.1442223e-07 2.3965333e-05 -0.04566729 -0.113118365
0002d0 26 d6 aa 3d 0f 87 94 bd 36 2b 07 be 2e 63 3b bd
       0.08341627 -0.07252323 -0.13200077 -0.045748882
0002e0 33 6d 84 3d 70 c9 05 3e 9b 1c 38 bd e9 e7 ee 3d
       0.064661406 0.13065124 -0.044949155 0.11665327
0002f0 aa ba 3a 3d cd 69 92 3d 07 de 25 bd d6 ac da 3d
       0.045588173 0.07149086 -0.040494945 0.10677497
000300 ce de 5e 3b 67 fb 9a 3d 0e e7 ce 39 24 14 f2 bc
       0.0034007314 0.075674824 0.0003946353 -0.02955062
000310 3c e0 ff b7 d0 27 e8 bd 45 b6 00 3e ea 05 91 3c
       -3.0502786e-05 -0.11335719 0.1256953 0.017703015
000320 66 11 b7 3c 77 8e 83 bd ae 46 c6 bb d0 7a e4 bd
       0.022347163 -0.064236574 -0.006050906 -0.11156237
000330 f5 64 b9 bd 57 a6 4c b2 1f 63 c8 bd 7b 0b 09 3d
       -0.09052459 -1.1912184e-08 -0.09784531 0.033458214
000340 c1 ad 93 bd e1 62 84 3a 41 2e d2 3d 29 be d6 3d
       -0.07210875 0.0010100269 0.102627285 0.10485489
000350 93 22 9d 3d 34 f4 55 3b 7c 66 4c 3c a0 3b 2f 3d
       0.0767261 0.0032646777 0.012475606 0.042781472
000360 7b 30 aa 34 e8 4a ff bc fa bf 62 bc 7a 03 d4 b4
       3.1700242e-07 -0.031163648 -0.013839716 -3.9490607e-07
000370 d9 21 28 3d 56 04 6f 35 fb 30 15 b5 c7 0a f3 3d
       0.041047905 8.904075e-07 -5.55781e-07 0.1186729
000380 46 f6 f6 bd db 14 c8 b3 de 4d f4 bd ca 91 31 b6
       -0.12058692 -9.317019e-08 -0.119289145 -2.6459916e-06
000390 a2 7e bd 3b 85 9b 37 3d a5 43 8a 3d 25 97 27 3d
       0.005782918 0.04482605 0.067511834 0.040915627
0003a0 66 db 95 3c 20 e1 43 bd 23 79 d6 3d 60 fa 9a 3d
       0.018293094 -0.047822118 0.10472324 0.075672865
0003b0 46 dd 8d 3d ee 91 08 3e 0a 1f d4 bd e4 ea 84 bd
       0.0692697 0.13336918 -0.10357483 -0.06490114
0003c0 fe 83 45 bd 5b cf 39 bc 7d d3 e1 bd 31 82 1c 36
       -0.04822158 -0.011340941 -0.11026666 2.3321593e-06
0003d0 01 fd 9f 3b 20 5c e6 b5 8b 0f bc 3c bf dc 0b 3e
       0.0048824553 -1.7163147e-06 0.02295663 0.13658427
0003e0 e1 c9 b4 bd 77 a9 e9 b6 a2 e2 e4 3d 77 ff 67 b5
       -0.08827568 -6.9636694e-06 0.11176039 -8.6425956e-07
0003f0 32 81 02 be 2f 34 13 3d 80 c8 32 bd 80 f6 36 3d
       -0.12744597 0.035938438 -0.043648243 0.044668674

multihead_self_attention.multihead_attn.in_proj_bias f4 [96]
000000 00 00 00 00 00 00 00 00 00 00 00 00 00 00 00 00
       0.0 0.0 0.0 0.0
000010 00 00 00 00 00 00 00 00 00 00 00 00 00 00 00 00
       0.0 0.0 0.0 0.0
000020 00 00 00 00 00 00 00 00 00 00 00 00 00 00 00 00
       0.0 0.0 0.0 0.0
000030 00 00 00 00 00 00 00 00 00 00 00 00 00 00 00 00
       0.0 0.0 0.0 0.0
000040 00 00 00 00 00 00 00 00 00 00 00 00 00 00 00 00
       0.0 0.0 0.0 0.0
000050 00 00 00 00 00 00 00 00 00 00 00 00 00 00 00 00
       0.0 0.0 0.0 0.0
000060 00 00 00 00 00 00 00 00 00 00 00 00 00 00 00 00
       0.0 0.0 0.0 0.0
000070 00 00 00 00 00 00 00 00 00 00 00 00 00 00 00 00
       0.0 0.0 0.0 0.0
000080 00 00 00 00 00 00 00 00 00 00 00 00 00 00 00 00
       0.0 0.0 0.0 0.0
000090 00 00 00 00 00 00 00 00 00 00 00 00 00 00 00 00
       0.0 0.0 0.0 0.0
0000a0 00 00 00 00 00 00 00 00 00 00 00 00 00 00 00 00
       0.0 0.0 0.0 0.0
0000b0 00 00 00 00 00 00 00 00 00 00 00 00 00 00 00 00
       0.0 0.0 0.0 0.0
0000c0 00 00 00 00 00 00 00 00 00 00 00 00 00 00 00 00
       0.0 0.0 0.0 0.0
0000d0 00 00 00 00 00 00 00 00 00 00 00 00 00 00 00 00
       0.0 0.0 0.0 0.0
0000e0 00 00 00 00 00 00 00 00 00 00 00 00 00 00 00 00
       0.0 0.0 0.0 0.0
0000f0 00 00 00 00 00 00 00 00 00 00 00 00 00 00 00 00
       0.0 0.0 0.0 0.0
000100 91 51 f4 bb 50 6b 8a 3c a7 be e7 3b ed dc 09 bb
       -0.0074560125 0.016896874 0.007072288 -0.0021036223
000110 30 11 92 bc fd 6e 51 bb 04 fc 83 ba 30 2d 61 bc
       -0.017830461 -0.0031957023 -0.0010069613 -0.013743684
000120 87 7d 49 3a 23 91 9f b9 87 6a f4 b9 24 95 b2 bb
       0.00076862465 -0.00030434979 -0.00046618676 -0.005449908
000130 f6 6b 18 36 5a 93 c4 3c 6b ed 74 bb 10 f6 81 3a
       2.2712607e-06 0.023996044 -0.0037372957 0.0009915251
000140 be e8 1a 3c 96 31 f8 ba e7 b1 37 bc b4 0b 8e bc
       0.009454904 -0.0018935676 -0.011211849 -0.017339565
000150 d3 84 1a bb a4 89 0c bc 74 20 4b 3b ef c7 b5 3b
       -0.0023577705 -0.008577738 0.0030994685 0.0055475156
000160 72 09 94 3c 10 5e 5f bb 78 1e c0 bc 1f 5a 4d 3c
       0.01807091 -0.0034083165 -0.023452029 0.012533694
000170 ff fe 93 bb 55 70 e9 3a dd 6b b9 bb 41 b5 10 bb
       -0.004516482 0.0017809967 -0.0056586103 -0.0022080692

multihead_self_attention.multihead_attn.out_proj.weight f4 [32, 32]
000000 1c 6a 0b be 5f bc c0 3d 3c 50 3d 3e e9 ae 08 be
       -0.13614696 0.09410929 0.18487638 -0.13347973
000010 19 86 91 bc 4a 7d c5 3c a7 f6 96 bd 5e c8 2d be
       -0.017764138 0.024107594 -0.07371264 -0.16970965
000020 8c 63 61 3d 31 ef 07 3e e1 a2 bf 3d a9 6a 49 bd
       0.055026576 0.13274838 0.093572386 -0.049173985
000030 63 2f 31 bd 3d 34 4e 3e 45 59 57 bb f6 1d 06 3d
       -0.043258082 0.20137115 -0.0032859605 0.032743417
000040 30 4a 0f 3e 8d b4 26 3e 61 10 b2 3b bd ac 00 3e
       0.13993144 0.16279812 0.0054340814 0.12565894
000050 a7 ae ea bd 3e a9 19 be 3d 49 c8 bd 6f 97 39 3e
       -0.114590935 -0.15005967 -0.09779594 0.18124174
000060 b7 78 4a 3e 32 e9 7d bd 96 0c 38 be 8e ff 13 3e
       0.19772612 -0.06198997 -0.17973551 0.14452955
000070 d0 1e 90 bd 6e e4 04 3e 5b 09 3e bd 5a 06 15 3e
       -0.07037127 0.12977764 -0.04639564 0.14553204
000080 1a e8 d3 3d ad 70 8c bd 3d 20 ea bd 5b 4f cb bd
       0.10347004 -0.06857429 -0.1143193 -0.09927245
000090 1a 79 2c 3e 6c e5 cd 3c 69 ce 5d bc c9 e2 ab bd
       0.16843072 0.025133811 -0.013537982 -0.08392865
0000a0 c8 8d 09 be f1 62 45 3d 6b 0a 2b 3e c2 e0 15 3e
       -0.13432992 0.04819006 0.16703193 0.1463652
0000b0 07 77 9c bd a5 cb 8d bd e7 6d 3f bc 7b 75 39 3d
       -0.0763989 -0.06923608 -0.011683918 0.045278054
0000c0 21 45 1d be 99 ee ab 3c ab e4 42 3d 3e e1 b3 bd
       -0.15358402 0.020987796 0.047581356 -0.08783196
0000d0 ae 5b 5c bb 67 5c 9c 3c a8 ff 12 be a6 0d 57 bd
       -0.0033623981 0.01908703 -0.14355338 -0.05250325
0000e0 64 1c d4 ba 02 0e 8f bd 4c eb fc bb ec 04 74 3d
       -0.0016182777 -0.06985094 -0.0077184793 0.059575006
0000f0 a2 12 ea 3d c6 67 11 3e c4 97 43 bc 83 a0 bf bd
       0.11429335 0.14199743 -0.011938039 -0.09356787
000100 e1 44 95 3d 57 1c 88 bd 3d 32 08 3e 4c f3 9f bd
       0.07288528 -0.066460304 0.13300414 -0.07810077
000110 86 ab 08 3b d6 d4 fe 3d 4b fa fc 3d 79 4c fe ba
       0.002085419 0.12442939 0.12352427 -0.0019401453
000120 09 fb 1b be d4 51 2d 3e a6 b8 a8 bd a2 2b 78 3d
       -0.15232481 0.16925746 -0.08238344 0.060588486
000130 0a 97 f4 bd d5 39 7c bd 75 12 fa 3c aa 8d 93 3d
       -0.11942871 -0.06157859 0.03052638 0.07204755
000140 54 15 11 be 35 51 7a 3d d4 bb 3d 3e 75 8c 3a 3e
       -0.14168292 0.0611126 0.18528682 0.18217643
000150 8c e2 0e 3d ff 4d 9d bd be 9b 87 3d b4 cc 0f 3e
       0.03488402 -0.07680892 0.06621502 0.14042932
000160 97 19 9f 3d 8a c7 97 bd 24 27 e3 bd 55 ae cb bd
       0.07768553 -0.07411106 -0.1109145 -0.099453606
000170 42 33 d9 3c c9 6d d7 bd 5e 28 2e 3e ef e3 2a 3e
       0.0265137 -0.10518987 0.17007586 0.16688512
000180 4b 4e 35 be e3 91 fd bd 16 cc d9 bd 11 79 95 3c
       -0.17705648 -0.12381341 -0.106346294 0.018246206
000190 d7 8d 67 bc df d9 f5 3d 2e 11 08 be 1a 43 90 3b
       -0.014132938 0.12004446 -0.13287804 0.0044025304
0001a0 14 36 8b 3d f2 44 7a bd be f7 08 be c3 36 8e 3d
       0.06797424 -0.061100908 -0.13375756 0.06944039
0001b0 ea c9 d0 3d 95 f1 d6 bd 5d 38 19 bb b0 42 e4 bd
       0.10194762 -0.10495297 -0.0023379542 -0.11145532
0001c0 d7 24 61 3c ee 86 17 3e 1c cc 10 be 6c dd f6 3d
       0.013741693 0.14797565 -0.14140362 0.120539516
0001d0 df 6c f9 bd 44 c7 92 3d be 49 b6 3d 90 de 9a bd
       -0.12178969 0.07166913 0.08900784 -0.07561982
0001e0 14 2b e5 3d 8d c8 15 bd 32 73 13 3d e1 ad ee 3c
       0.11189857 -0.036568213 0.03599853 0.029135646
0001f0 a2 05 e9 3d 1e 12 66 bb 80 22 d1 3d 09 cc 07 3e
       0.113780275 -0.0035106014 0.102116585 0.13261427
000200 87 41 46 3d c9 9b 31 3e 0b ff 2f 3d 9e 67 11 3e
       0.048402335 0.17344584 0.042967837 0.14199683
000210 d0 98 b6 bd d3 13 1b bb 3d b1 36 3d 9d 1a ce bc
       -0.089158654 -0.002366294 0.04460262 -0.025159175
000220 89 a6 be bd 8c 87 83 3d 33 3a 2f 3d a3 a0 09 bd
       -0.09309108 0.06422338 0.042780112 -0.03360046
000230 d9 21 e7 3d d8 68 67 bd c6 4c c8 3d 59 5c b3 3c
       0.11285753 -0.05649647 0.09780268 0.02189462
000240 d4 b9 a1 bd d5 88 21 be a0 9c b5 bd fe 04 5d bd
       -0.07896772 -0.15774854 -0.088677645 -0.05395984
000250 b9 62 30 3e 4b 52 6c 3d e8 70 54 39 d1 dd 04 3d
       0.1722516 0.05769567 0.00020259956 0.032438103
000260 47 d8 16 bd dd f7 01 be e1 d3 02 be f7 c6 4e 3d
       -0.036827352 -0.12692209 -0.12776138 0.050482716
000270 7d f2 8c bd cb 12 e3 bc 9e 0f 7c bd 31 76 f4 bc
       -0.068821885 -0.027718922 -0.06153833 -0.029841514
000280 f3 2f c6 3d 11 e3 17 3e fd a9 15 3e 56 33 23 bd
       0.09677114 0.14832713 0.14615627 -0.03984388
000290 c0 6c 34 3c 0d d2 4b 3d 0b c7 2a be f3 d6 11 3e
       0.011012256 0.049760867 -0.16677491 0.14242153
0002a0 2e ac 09 3e 1a 22 1a bb 3b b2 0f 3e a1 d0 74 3d
       0.13444588 -0.0023518861 0.14032833 0.059769277
0002b0 c0 3a 15 3e fc 99 27 3e 7a fd 18 3e a1 1d 12 3e
       0.14573193 0.16367334 0.14940444 0.14269115
0002c0 e8 d6 19 3e f2 52 5e 3d e6 9e 99 3d 1d 68 db 3d
       0.15023386 0.05427832 0.075010106 0.107132174
0002d0 1c 54 22 bd 1c 8a 0d 3e e3 f5 43 3d 60 4d 9f bd
       -0.039630994 0.13822216 0.047841918 -0.0777843
0002e0 46 b8 15 be a9 b3 97 bd 45 99 fe bd c1 52 b3 3d
       -0.14621076 -0.07407314 -0.124315776 0.087560184
0002f0 cf d6 99 3d 21 23 98 3c 36 2a 2a 3e d5 26 30 be
       0.075116746 0.018571438 0.16617665 -0.17202313
000300 2a 3c b7 3d 14 48 19 3e 16 25 2d 3d 3a 09 08 be
       0.08947022 0.14968902 0.042271696 -0.1328477
000310 4e 56 16 3e 4f f6 d6 3d bf 16 8b bd 6a 2e bd 3d
       0.1468136 0.104961984 -0.06791448 0.092373684
000320 6e 9d 10 3e a2 f3 d7 bd 38 45 ed 3d 7c 78 19 bc
       0.14122555 -0.10544516 0.11585468 -0.009367105
000330 ec 56 12 be d3 d4 08 be bc cd c1 bd 3a 62 1a bd
       -0.1429097 -0.13362436 -0.09463069 -0.037691332
000340 dc d0 b3 bd e7 e4 21 be 8a 2d 91 3d 1a 63 f3 3d
       -0.08780071 -0.15809976 0.07088764 0.118841365
000350 2b d3 af bd db 32 fe bd bb d3 f0 3d 94 ce 37 bc
       -0.08585199 -0.12412044 0.117591344 -0.011218686
000360 53 ac 0c 3e 23 7b 2c be 95 2a e1 bd 1c 5d 08 3e
       0.13737611 -0.16843848 -0.1099445 0.13316768
000370 cc 0e 3e be 39 90 16 bd b1 e8 2a be 4e da d3 bd
       -0.18560332 -0.036758635 -0.16690327 -0.10344373
000380 23 4c 3d 3b 59 d5 b6 bd 97 30 95 bd 67 5e 34 3e
       0.0028884492 -0.089274116 -0.072846584 0.17614137
000390 4b 3b 99 bd 36 c0 2e bd ab 3a 1e 3e 30 60 8a 3d
       -0.07482012 -0.042663775 0.15452068 0.067566276
0003a0 cc 16 cc bd b1 aa 24 be a4 1a b9 3d f5 7c 35 be
       -0.09965286 -0.16080739 0.090382844 -0.17723449
0003b0 83 ba 26 3e c2 a4 9c 3c fc b9 c6 bd 6f 03 4c 3d
       0.16282086 0.019121531 -0.097034425 0.049807962
0003c0 0d 28 2a bd fe 16 09 bd 04 42 19 3e 6c 24 a5 3d
       -0.0415421 -0.033469193 0.14966589 0.080635875
0003d0 dd 64 aa bb fe f5 0c 3d 15 13 4b be cb cf cf 3d
       -0.005200012 0.034414284 -0.19831498 0.10147055
0003e0 c7 13 ea bb b2 2a c7 bd af e6 b8 3d ef d7 95 3a
       -0.007143471 -0.0972494 0.090283744 0.0011432151
0003f0 20 e2 80 3c 18 5f 27 be ee 32 a9 bb 58 b5 15 3e
       0.015732825 -0.16344869 -0.005163542 0.14619958

multihead_self_attention.multihead_attn.out_proj.bias f4 [32]
000000 00 09 ba 3c 41 ff e2 bb 0f 08 b5 bb 5b 40 89 bc
       0.02270937 -0.0069274013 -0.0055246423 -0.01675432
000010 96 57 3a 3c bc 22 a1 37 80 f2 82 bb 8d 1c 77 bc
       0.011373421 1.920887e-05 -0.0039961934 -0.015082491
000020 86 a1 b5 b8 96 6f 05 3c 5c cd 7e ba 44 44 cc 3c
       -8.660839e-05 0.00814428 -0.0009719932 0.024934895
000030 b3 13 9a bb df 15 2e bb 19 7d 5c 3b a9 04 aa ba
       -0.0047020554 -0.002656333 0.00336439 -0.001297136
000040 5e 42 0a bc a9 85 e6 3b 25 15 c7 38 46 7b dc 38
       -0.008438675 0.0070349765 9.492998e-05 0.00010513379
000050 f5 5f bc bb 57 93 37 3c 19 1a 2f bc d8 c6 fb 3c
       -0.0057487437 0.011204562 -0.0106873745 0.030734465
000060 a3 12 ac bc ff 94 f9 bb b6 b1 98 ba bf c9 27 bc
       -0.02100498 -0.0076166387 -0.0011649642 -0.010240971
000070 50 62 df 3b eb 5f 9d 3c 00 27 00 bc 2c 29 4f 3c
       0.0068171397 0.019210776 -0.007821798 0.0126440935

multihead_self_attention.fc.weight f4 [12, 32]
000000 f7 27 9f 3c d1 cf f3 bd 87 f4 0e bd 6a 2e 11 3e
       0.019428236 -0.11904872 -0.03490117 0.14177862
000010 f1 95 07 3d 2b ea f9 3c 78 e5 9c 3d 32 8f 9c 3d
       0.03310198 0.030507168 0.07660955 0.076445
000020 0a af 1d 3e 0f 7d 1c 3e 5b e7 9e 3d da 47 45 3d
       0.15398803 0.15282081 0.07758971 0.048164226
000030 66 18 c5 3d db 45 ea 3d af 86 1c 3c de 8e f0 bd
       0.09623794 0.11439105 0.009553595 -0.11746
000040 92 72 0c be ac 14 6f 3d c7 63 27 3e e7 d9 50 3c
       -0.1371558 0.058369324 0.16346656 0.0127472645
000050 b3 28 be 3d 2d 3a c1 bb 6e 8c 9c 3d d4 28 15 3e
       0.092851065 -0.0058968277 0.07643972 0.14566356
000060 40 1f 44 3d 0f 20 13 be 58 14 dc 3c d7 a8 36 3e
       0.047881365 -0.14367698 0.02686517 0.17837845
000070 84 8b 1e be ca 07 2e be 9c 39 a5 bb 8c 2d 75 3d
       -0.15482908 -0.16995159 -0.005042268 0.05985789
000080 61 e7 ff bc ce 92 80 3d df b1 02 be 16 83 32 3e
       -0.03123826 0.06278001 -0.12763165 0.17432818
000090 72 de 8e 3b 1c 92 bc 3d 09 95 29 be ee 71 96 bd
       0.0043600136 0.09207556 -0.16560759 -0.07345949
0000a0 72 ef 09 be 3d bc 9e 3d bf ca 0a 3e 2d a1 3a 3d
       -0.13470247 0.07750747 0.13553904 0.045563865
0000b0 ca c2 35 3e c9 e5 9f bd 3a 05 33 3d 3f 16 8f 3d
       0.17750087 -0.078075 0.043706156 0.06986665
0000c0 08 e0 38 bd 3f 68 f1 3c 28 79 0c 3d 06 62 eb bd
       -0.045135528 0.029468654 0.03429523 -0.11493306
0000d0 26 ae 7c bd a5 36 e2 bc df c5 a4 3c af c4 3e be
       -0.06168952 -0.027613947 0.020113884 -0.18629716
0000e0 c7 87 08 be 2b 8f ef 3d 54 fe c7 3c 65 9e 27 3e
       -0.13333045 0.11697229 0.024413265 0.16369016
0000f0 6f b1 d2 3c 07 90 1f bd 5c 92 62 bd 7b af 09 be
       0.025719373 -0.038955715 -0.05531536 -0.13445847
000100 7a d7 12 be dd 0e fb 3d 18 36 17 3e 49 30 1d 3e
       -0.1434001 0.12258694 0.14766729 0.1535045
000110 8d 31 0c be ea 69 c1 3d 0e f0 14 3e 9e fc ab 3d
       -0.13690777 0.0944403 0.14544699 0.08397792
000120 12 c6 25 bd 14 19 9f bd a9 21 b0 bd 51 b7 ef bc
       -0.040472098 -0.07768455 -0.0860017 -0.029262217
000130 cd 31 69 3d b9 f0 8e 3b 49 70 50 bb 50 d8 22 bc
       0.05693226 0.0043621925 -0.0031805208 -0.009939268
000140 e1 dd 7b 3d ef 2f 25 be 0b 17 1a 3d 33 5b d3 3c
       0.061490897 -0.16131566 0.03761963 0.025800323
000150 b6 d2 0b 3e d5 3c 3b be 9d 94 a0 3c 45 ee 4f be
       0.13654599 -0.18284924 0.019602114 -0.20305736
000160 95 83 7e 3d ea 85 2d 3e 46 56 bb 3d 39 2a 24 3e
       0.062137205 0.16945615 0.09147315 0.16031732
000170 00 f0 fb bd 29 41 47 be 61 99 3d bc 21 aa 1f be
       -0.12301636 -0.1945845 -0.011572213 -0.15592243
000180 84 15 56 bd 99 a3 5d bd 4a ae 04 be 62 95 f6 3d
       -0.052266613 -0.054111097 -0.12957111 0.12040211
000190 dc c8 35 3d 85 89 99 3d a9 fc 15 be 77 36 3a 3e
       0.044381008 0.07496933 -0.14647163 0.18184839
0001a0 bc 3e e9 bd 45 77 92 bc 1e 54 d4 3c fe 0e 2d be
       -0.11388919 -0.017879138 0.025919016 -0.1690025
0001b0 96 02 f4 3d f0 2d f1 bd de 29 d9 bd 01 16 3d 3e
       0.11914556 -0.1177634 -0.10603689 0.18465425
0001c0 01 a8 d5 bd 8c 17 91 bd 3f 3b 29 bd a2 bf 9e bd
       -0.10432435 -0.07084569 -0.041316267 -0.07751395
0001d0 2f fe 0d bd fe a2 9d bc 43 db b2 3d 54 15 09 be
       -0.034666236 -0.01924276 0.08733227 -0.13387042
0001e0 65 a7 02 3e 66 9c 26 3e ae 2a 30 be b1 97 95 bd
       0.12759168 0.16270599 -0.17203781 -0.073043235
0001f0 be 3e 0b be 8b b5 df bd 67 2c 2d 3e 95 55 14 3e
       -0.13598153 -0.109232984 0.1691147 0.14485772
000200 02 61 8b 3d 30 d3 57 3d 74 3b 21 be 7f c2 0c be
       0.06805612 0.05269164 -0.15745336 -0.1374607
000210 8f ea c1 bd 4e 00 c7 3d c6 9e 09 be 19 1a d6 bd
       -0.094685666 0.09716855 -0.13439474 -0.104541965
000220 9f 01 d6 bd 75 d7 d8 bd 60 36 76 bd b1 b5 ec 3c
       -0.10449528 -0.1058797 -0.06011045 0.028895231
000230 bf f4 25 3c 43 5b d6 bc 18 55 fb bd e0 9f 07 bd
       0.010129153 -0.026166564 -0.1227209 -0.033111453
000240 14 4c 4d bd 7a 23 a3 bd 6e 16 a0 bd 60 32 0d be
       -0.050121382 -0.07965751 -0.07816778 -0.13788748
000250 29 62 4b 3c 08 c9 a5 3c 08 da c8 3a 97 dc 03 3e
       0.01241354 0.02023746 0.0015323767 0.12877117
000260 cd 9a 15 be 98 ff cb 3d 9e af f5 3d f2 a4 b3 3c
       -0.14609833 0.0996086 0.11996387 0.021929238
000270 e1 53 34 3e c1 86 a1 3c cd 72 de bd 30 15 14 be
       0.17610122 0.019717576 -0.1086174 -0.14461207
000280 9d a0 06 3e 93 69 02 be de 59 a5 3d a8 b4 c4 bd
       0.13147207 -0.12735586 0.080737814 -0.0960477
000290 26 b4 2c be 25 c6 9f bd 9a b0 da bd da f3 d4 bd
       -0.16865596 -0.07801465 -0.10678215 -0.103980735
0002a0 8a 66 a0 3d dc 34 d8 bd 1b e7 af 3d 26 e1 d5 bc
       0.07832058 -0.10556957 0.08589002 -0.026108336
0002b0 31 77 8f 3d e9 42 b8 3d 60 9a 18 3e a8 a4 24 3d
       0.07005156 0.08997137 0.1490264 0.04019609
0002c0 05 53 62 3d a4 17 94 3d 99 a4 c3 3d cd c3 51 bd
       0.055254955 0.072310716 0.09552879 -0.05121212
0002d0 23 f1 02 3e a4 1b 77 3d 81 4c c1 bd 01 73 9a bd
       0.12787299 0.060329095 -0.0943842 -0.075414665
0002e0 28 a4 35 be 05 fd ec 3d 4b b6 17 3e b9 64 91 3d
       -0.17738402 0.11571697 0.14815633 0.070992894
0002f0 9e 11 ee 3d 68 41 51 bc 39 3b 8d bd 50 d0 b0 3d
       0.11624454 -0.012771942 -0.068960615 0.086334825
000300 0d 05 29 be 02 78 33 be de 2b 85 bb 6a f3 1d bd
       -0.16505833 -0.17526248 -0.0040640673 -0.038562216
000310 dd a0 f7 3d 1c b5 2f be 73 98 0f be c0 68 be bd
       0.12091229 -0.17158931 -0.14022999 -0.09297323
000320 40 c5 2d bd 9d ee 1e be 77 fb 07 3e fa 3c 6f bc
       -0.04242444 -0.15520711 0.1327952 -0.01460194
000330 6b ce 18 be 15 b1 ef 3d cf 20 22 3e 31 3b 00 be
       -0.14922492 0.117036976 0.15832828 -0.1252258
000340 af cd 22 3e 1a 2b 5a 3d 5b 7e d9 3d 07 77 98 bc
       0.15898775 0.05326376 0.106198035 -0.018611444
000350 bd a6 10 3d 3b b9 05 be a9 12 8b 3d ce 93 2f bc
       0.035315264 -0.13058941 0.067906685 -0.010716392
000360 5c 8a ca 3d 71 76 1a 3e 1b d5 97 bc 3f cf 3c 3e
       0.09889671 0.15084244 -0.018534234 0.18438433
000370 03 25 b8 3d 6b 99 1a 3c 05 8c 02 3e dc ea 72 3b
       0.089914344 0.009435992 0.12748726 0.0037066257
000380 8b e4 50 bc c0 f6 19 3e 48 49 b9 bd 4e 78 06 be
       -0.012749801 0.15035534 -0.090471804 -0.1313183
000390 22 c6 aa bc 09 1f 75 bd a0 42 0b 3e 27 5f a8 3d
       -0.02084643 -0.05984405 0.13599634 0.08221274
0003a0 e7 bc 06 bd a3 92 c8 3b 70 f4 fc bc 5a 39 e4 bd
       -0.032894995 0.006120996 -0.030878276 -0.111437514
0003b0 aa c6 a4 3d 78 8d 23 3c 2b 42 99 3c 3d 56 ad 3d
       0.08045705 0.009982459 0.01870831 0.08463714
0003c0 d6 bc 34 bd e8 fb f9 bd ae 2c 08 be d3 4a d0 bd
       -0.0441254 -0.122062504 -0.13298294 -0.101705216
0003d0 69 09 02 3e fc 53 43 bd 9d 6f fe 3d 2c 0d 28 be
       0.12698902 -0.047687516 0.12423632 -0.16411275
0003e0 9b 5a 8d 3d a0 f5 3b 3d 82 47 b1 3d 3d b9 ca 3d
       0.06902047 0.045888543 0.08656217 0.09898613
0003f0 72 9d 2a 3e 79 71 f3 bd b0 8c ac bd 8d c0 03 3e
       0.16661623 -0.118868776 -0.084252715 0.12866421

multihead_self_attention.fc.bias f4 [12]
000000 bd a6 d2 3d 39 e9 32 bc 14 5d 04 3d f3 50 5f 3d
       0.10285709 -0.010919862 0.03231533 0.05452056
000010 19 b3 25 be 4f b0 d9 bd f0 9b 49 3d d3 0d d3 3d
       -0.16181602 -0.10629331 0.04922098 0.10305371
000020 3d b2 3d 3d fb 43 1f 3e 88 fd f1 3d 0a 21 e3 bd
       0.04631256 0.15553276 0.118159354 -0.11090286

fc.weight f4 [12, 12]
000000 db b1 f6 3c 19 3e c4 3d 40 0d 54 be a3 ab 24 3e
       0.030114105 0.09582157 -0.2070818 0.16081099
000010 5b dc 0f bd 3d 25 69 3e 12 36 88 3e 97 08 53 be
       -0.035122257 0.22768112 0.26603752 -0.20608746
000020 10 bc df 3d c5 2f 4c be 93 38 8c be a4 f1 20 3e
       0.10924542 -0.19940098 -0.27386913 0.15717179
000030 28 1f 74 3d 2f 2e 42 bd 24 df a3 bd 3f c7 7e bd
       0.059600025 -0.047407325 -0.08001545 -0.062201735
000040 12 ee 35 3e 81 09 f7 3c d8 69 15 be 96 16 b5 bd
       0.17766598 0.030155899 -0.14591157 -0.088421986
000050 42 50 43 be 88 1d bd 3d 9f 79 1a 3e 6a 7b 10 3e
       -0.19073585 0.09234148 0.15085457 0.14109579
000060 30 ea 16 3e 50 c4 9b bd a5 6f 86 3d fb ae 50 3e
       0.14737773 -0.07605803 0.06564263 0.2037925
000070 1f 76 20 3d 74 96 88 bc b9 7f 9e 3e 7e b2 54 3e
       0.03917515 -0.016673304 0.3095682 0.20771214
000080 9d 54 5c be ff fd 9f 3e 31 f1 75 be cf 83 bb 3d
       -0.21516652 0.3124847 -0.24017788 0.09156
000090 6b c5 35 bc 36 ce 70 be b6 e3 5c 3e d2 27 53 be
       -0.011094431 -0.23516163 0.2157124 -0.20620659
0000a0 4d 0e 3c 3d aa 0f 6c bd 75 fd 27 3e 15 29 9b be
       0.045912076 -0.057632126 0.1640528 -0.3030478
0000b0 1a 3d 07 3e 9b a6 a1 bd 48 5c 02 be 44 4b a3 3d
       0.13206902 -0.078931056 -0.12730515 0.0797334
0000c0 51 aa 35 3e 7a d7 8c bd ee 80 8b be 68 2c 05 be
       0.17740752 -0.068770364 -0.27246803 -0.13005221
0000d0 d9 3e 2f be 9a 52 81 3e 88 d6 6b be bd 64 ea bd
       -0.17113818 0.25258332 -0.23031056 -0.114449956
0000e0 1b 2d 4f 3c 49 ab 35 3e 6c a2 d8 bd f0 3c 79 3e
       0.012645031 0.17741121 -0.105778545 0.24339652
0000f0 8a 63 77 3e 1f 7a 0f be e7 1f 8a 3e 04 69 a9 3e
       0.24159065 -0.14011429 0.26977465 0.33087933
000100 28 30 2c 3d ab f3 fe bd 25 c5 7a be c1 2e 3c 3e
       0.042038113 -0.1244882 -0.24489267 0.1837721
000110 31 45 48 3e 68 0e 52 3e 4e 11 1a 3d 73 ff d9 bc
       0.19557644 0.20513308 0.03761416 -0.026611065
000120 32 3f 54 be 1c 40 67 bc f7 14 40 3e a8 f1 3b be
       -0.20727232 -0.014114406 0.18757997 -0.18353903
000130 d1 fd 25 be 69 3e ba bd a5 1b 36 3d 30 b7 52 3c
       -0.16210105 -0.09093935 0.044459958 0.012861058
000140 19 6d eb bc 70 93 35 3e 31 9d 8c 3e 4c 86 99 3e
       -0.028738545 0.17732024 0.27463678 0.29985273
000150 da 02 25 3e 5b cc 00 bd 7b ed a8 3e 3c d6 f3 3d
       0.16114369 -0.03144489 0.32993683 0.11906096
000160 3b 27 e1 bd 5e 98 8d be a3 b4 5a be 7e 2a 06 3d
       -0.10993811 -0.2765531 -0.2135797 0.032755367
000170 9f 7d 27 3e fe c6 f7 3d b2 24 b1 bc 04 47 06 3e
       0.16356514 0.120985016 -0.021623943 0.13113028
000180 f3 c6 90 be 87 14 0c 3d 1b 50 a1 bd 88 8c 23 3e
       -0.28276786 0.034199264 -0.07876607 0.15971577
000190 d7 38 8d 3e e0 4c 5c be aa 2a 66 be 9c b5 6f 3e
       0.27582428 -0.215137 -0.22477213 0.23409122
0001a0 de 8e 6f 3e 67 89 71 bd 7c 1f 94 be 53 a7 77 be
       0.23394343 -0.058968928 -0.2893027 -0.24184923
0001b0 10 84 18 bd 61 4f a8 bd a8 85 8e 3d 48 00 8b 3e
       -0.03723532 -0.08218265 0.06959087 0.27148652
0001c0 fe 9e a6 be e6 46 9b 3d b6 da 10 bd ef 65 1d 3e
       -0.32543176 0.07581882 -0.03536483 0.15370916
0001d0 49 db 86 be 4a d5 78 3c 90 c3 73 3d b2 45 0d 3e
       -0.26339176 0.015187571 0.059512675 0.13796118
0001e0 bb 04 7d 3e 13 04 47 be 0d c0 eb bd bd e5 c7 bc
       0.24708836 -0.19435148 -0.1151124 -0.02440154
0001f0 ca 3e 67 3c 47 30 9d 3e 5d 2b d6 3c 4f a3 c8 bd
       0.014114091 0.30700895 0.026143724 -0.09796774
000200 86 13 fe 3d 82 f6 64 3d 5d f4 5c bd ff 42 cd bd
       0.124060676 0.05589915 -0.05394398 -0.10022544
000210 b3 29 f1 bd d2 ab 1a 3e 0b 2f a5 3e f9 1f 4e be
       -0.117755316 0.15104607 0.32262453 -0.20129384
000220 4a 1a 64 be cd 65 c9 3d a6 ae 36 3d b1 c8 74 be
       -0.22275653 0.0983387 0.04460015 -0.23904683
000230 94 3a 79 3e d0 0b 99 3e 18 4a 98 3e 0f f3 83 3e
       0.24338752 0.29891825 0.2974403 0.25771376

fc.bias f4 [12]
000000 86 c6 84 be 23 46 07 3e f1 09 80 bc 13 d8 13 be
       -0.2593271 0.13210349 -0.01562974 -0.14437895
000010 cc 13 68 be dd 34 83 be 59 f1 12 3e 2b 56 2b bc
       -0.22663802 -0.2562627 0.1434988 -0.010457556
000020 df 02 84 be 5b a9 d7 bd c3 4c 25 3e c8 8a 9e be
       -0.2578344 -0.10530349 0.16142564 -0.30965257
