trained_weights/trace/selfattention10.pth (torch, 21775 bytes, 8 tensors)

multihead_self_attention.multihead_attn.in_proj_weight f4 [96, 32]
00000000: 59d5 ce3d 9181 733c 6ff0 4336 071e e7bd
00000010: bff0 833d dd70 a436 dbe3 213d d8a3 d2b8
00000020: 6c98 7fbd 805f ebbd b4db de3c d124 0dbd
00000030: 8f4b f3bd 1027 73b7 3da1 173c 74c8 443d
00000040: d7a7 0cbc 15e3 8fbc a7e7 ffbd 63e0 21bd
00000050: 4589 11bd 7a94 9b3c 2604 ce3c 4255 2ebc
00000060: 76eb c33d 86c0 81bd d102 533d 5005 083e
00000070: 2d0a 5db6 9a92 c23d 877f f4bd a6c3 0cbe
00000080: 8347 8fbb c824 06bd 2d6a 75bd 6fda 8dbd
00000090: d4c8 d23b a622 de35 bfba 503d 61b4 813d
000000a0: ca92 663c 3dab a7bd 3671 573d 0640 c03d
000000b0: 4fd8 073d 1de2 9036 bff5 91bb 8387 ba3c
000000c0: e48f 413a 7236 0fbe 56e7 403d 34c6 b03c
000000d0: f7c8 0b3d 8ddb f53b e8ed ae3c cf9a 883d
000000e0: e1b4 5cbd 7efc 53bd 70e6 a7b5 53c0 db3b
000000f0: 7b34 3c35 b662 b8bd 6883 84bc 5aa2 f03d
00000100: b4a6 05be cc1b 643c 93e2 d5bd 9b51 8b3d
00000110: a1db 5f34 6081 9336 e2d3 c43d b95c 87bb
00000120: b1bb 753d ad30 abbc e3fa 083e 6132 08b9
00000130: 5ee5 453d 5dba c5bd 9531 993d 3328 4236
00000140: 7169 bcbc 9b49 e3bd 1c29 253d a211 bfbd
00000150: 6eca 3c3d 64b9 e93b cfbc c8bb 4daa 39bd
00000160: 3156 71bc 0ee8 7dbd cb3e 3bb5 7bf4 b2bd
00000170: 6b29 ed38 c251 12b7 3e57 723d 4cfc 23bc
00000180: c8ed 7b3d f7f9 d83d eebf f73d 5e38 c7bc
00000190: 2d01 6c3c 6f1c fe37 e758 f03d 3d0a 9135
000001a0: 7c53 63ba 0c8a 24bc 3aa1 b6bd 8f8c dbbc
000001b0: 6ef5 f6b9 aaec 653d fb2a 08b7 b068 283b
000001c0: c2b5 843c d510 9bb7 59ff 25bd 9683 83bd
000001d0: 0487 3bbd 72bd b2bd 422d 01bc 9796 b93d
000001e0: b46f ef3d 41d4 07be 3664 91bb f337 ff3d
000001f0: e472 92b6 4e19 023e fde4 633d b849 c4b6
00000200: d258 153d 6623 053e 3b3c 90bc e4a8 57b3
00000210: 7cac ef3b f561 e13d a53c 853d 13ad f9b7
00000220: 7a62 0e3e 5547 1bbd c072 083e aaf6 b33d
00000230: 4b16 873d 24a3 d83d dedd 0dbe 423d 1c35
00000240: 34d0 80b6 00d9 a9bd f713 68bd 8313 cb3d
00000250: 7be1 a1bb e200 0abe fb87 0bbe cf4d ebbd
00000260: e0a5 eebc 515c 9cbc f531 8436 6bad 4f3d
00000270: b995 b93d aeb5 03bd b257 c6b1 3892 953d
00000280: 1127 01bc 8f17 133b 6bd2 e533 5b0d d13d
00000290: 9088 9436 ad86 f9bb 6c17 a036 9876 da3c
000002a0: 15ea 8fbd 66a4 9a3d c27a 9a3d 74a7 04bd
000002b0: 2699 92bc 7cb3 2f3c 70b3 0cbe fa76 473d
000002c0: 85c6 fa34 12da 0138 66dc 43bd 993e edbd
000002d0: f90d b03d 2891 99bd 6e0a 0abe 4433 44bd
000002e0: 6b50 893d 4ba7 083e c6df 40bd 9b84 f43d
000002f0: 2d88 433d 1c6f 973d 4154 2ebd 3630 e03d
00000300: 9562 833b 9e13 a03d a541 0f3a 5495 00bd
00000310: c3a5 8bb8 69bc edbd ec8e 033e 9f2e 9d3c
00000320: e789 c43c 6a6f 88bd 5746 e2bb db0a eabd
00000330: 94b6 bebd e473 a3b3 92cc cdbd 8cf3 103d
00000340: f2b5 98bd d847 a93a fba5 d73d 3a3c dc3d
00000350: 523f a23d bedf 7c3b 25fd 603c 73da 373d
00000360: a013 1e36 6b58 07bd ae69 78bc 6957 26b5
00000370: 1ea2 303d 7df4 0eb6 a170 b535 46ac f83d
00000380: 369c fcbd fbaf 9ab4 cef0 f9bd c525 dcb6
00000390: 17c8 d83b ac5c 403d 9f35 8f3d 0515 303d
000003a0: a532 a23c 8fd1 4cbd d3f6 db3d 9312 a03d
000003b0: f6d7 923d 8272 0b3e 7c99 d9bd 62cf 89bd
000003c0: 797a 4ebd f76f 4dbc 2e60 e7bd 21f3 e935
000003d0: 97bc b83b a251 97b5 80af c93c 73c0 0e3e
000003e0: a513 babd d4cb 1bb7 2f73 ea3d 5198 0ab5
000003f0: b85b 05be a551 1b3d 1776 3bbd 13b5 3f3d
0.100992866 0.014862434 2.9197215e-06 -0.11285024 0.06442403 4.90072e-06 0.03952394 -0.000100440986
-0.06240122 -0.114928246 0.027204372 -0.03445894 -0.11879646 -1.4493024e-05 0.009254751 0.04804273
-0.008584938 -0.017564336 -0.12495356 -0.039520632 -0.0355313 0.018991698 0.025148463 -0.010640444
0.09566395 -0.06335549 0.051516358 0.13283277 -3.293749e-06 0.09500618 -0.119383864 -0.13746509
-0.0043725385 -0.03274992 -0.05991571 -0.069264285 0.006432632 1.6550373e-06 0.050959345 0.06333233
0.014073083 -0.08186958 0.0525982 0.093872115 0.033165272 4.3178575e-06 -0.004454344 0.022769695
0.0007383807 -0.13985613 0.04709562 0.021578886 0.034127202 0.007502979 0.021353677 0.066701524
-0.053883437 -0.051754467 -1.2509536e-06 0.0067062764 7.0111827e-07 -0.090032026 -0.01617594 0.11749716
-0.13051873 0.013922643 -0.10443606 0.068026744 2.0848394e-07 4.3960026e-06 0.09610726 -0.0041309264
0.05999345 -0.020897234 0.13376956 -0.00012988738 0.048314445 -0.096546866 0.0748016 2.8931652e-06
-0.022999497 -0.110980235 0.040322408 -0.09329535 0.04609149 0.007132696 -0.0061260234 -0.045328427
-0.014730022 -0.061988883 -6.9754304e-07 -0.08738037 0.00011308755 -8.721314e-06 0.059165232 -0.010008883
0.061506063 0.10594552 0.120971546 -0.02431887 0.014404577 3.02924e-05 0.11735707 1.0806322e-06
-0.0008671803 -0.010042679 -0.0891747 -0.026800422 -0.00047103636 0.056133904 -8.116239e-06 0.0025697164
0.01619995 -1.8485278e-05 -0.04052672 -0.064215824 -0.045783058 -0.0872754 -0.007884325 0.09061926
0.116912276 -0.13264562 -0.004436995 0.12461843 -4.364514e-06 0.12704965 0.055638302 -5.849837e-06
0.03646166 0.13001785 -0.017606845 -5.0212194e-08 0.007314263 0.11005012 0.06505708 -2.9763707e-05
0.13904753 -0.037909824 0.13325024 0.08787282 0.06596049 0.105779916 -0.13854167 5.820367e-07
-3.8389353e-06 -0.082933426 -0.056659665 0.09915831 -0.0049402094 -0.134769 -0.13626091 -0.1148945
-0.02913183 -0.019086989 3.9397223e-06 0.050702494 0.090617605 -0.032155685 -5.7725282e-09 0.0730328
-0.007882849 0.0022444462 1.0701918e-07 0.102076255 4.4266417e-06 -0.0076149316 4.7710982e-06 0.026667878
-0.070270695 0.07550888 0.075429454 -0.03238626 -0.017895292 0.010723945 -0.13740325 0.04869745
4.671057e-07 3.095909e-05 -0.04781761 -0.11584205 0.08596415 -0.074983895 -0.13480541 -0.047900453
0.06704792 0.13345067 -0.047088407 0.11939355 0.04773729 0.07394239 -0.04256082 0.109466955
0.0040095546 0.07816242 0.0005464799 -0.03139241 -6.658912e-05 -0.11608202 0.12847489 0.01918727
0.023991538 -0.066618755 -0.006905358 -0.11427852 -0.09312168 -7.6113594e-08 -0.10048784 0.035388514
-0.07456578 0.0012915088 0.10529705 0.10753675 0.07922234 0.003858551 0.013732229 0.044886064
2.3555258e-06 -0.033043306 -0.015161915 -6.196702e-07 0.043123357 -2.130196e-06 1.351833e-06 0.121422336
-0.12334482 -2.8812778e-07 -0.12204133 -6.560908e-06 0.0066156494 0.04696338 0.06992649 0.042988796
0.01979954 -0.05000454 0.10740437 0.07816043 0.071700975 0.136179 -0.10624978 -0.06729008
-0.050409768 -0.0125389015 -0.11297642 1.7430613e-06 0.005637716 -1.1274135e-06 0.024619818 0.13940601
-0.09085778 -9.286177e-06 0.11447751 -5.1630656e-07 -0.13023269 0.03791966 -0.045766916 0.046803545

multihead_self_attention.multihead_attn.in_proj_bias f4 [96]
00000000: 0000 0000 0000 0000 0000 0000 0000 0000
00000010: 0000 0000 0000 0000 0000 0000 0000 0000
00000020: 0000 0000 0000 0000 0000 0000 0000 0000
00000030: 0000 0000 0000 0000 0000 0000 0000 0000
00000040: 0000 0000 0000 0000 0000 0000 0000 0000
00000050: 0000 0000 0000 0000 0000 0000 0000 0000
00000060: 0000 0000 0000 0000 0000 0000 0000 0000
00000070: 0000 0000 0000 0000 0000 0000 0000 0000
00000080: 0000 0000 0000 0000 0000 0000 0000 0000
00000090: 0000 0000 0000 0000 0000 0000 0000 0000
000000a0: 0000 0000 0000 0000 0000 0000 0000 0000
000000b0: 0000 0000 0000 0000 0000 0000 0000 0000
000000c0: 0000 0000 0000 0000 0000 0000 0000 0000
000000d0: 0000 0000 0000 0000 0000 0000 0000 0000
000000e0: 0000 0000 0000 0000 0000 0000 0000 0000
000000f0: 0000 0000 0000 0000 0000 0000 0000 0000
00000100: 68b7 f6bb 2bf0 6e3c 8588 cd3b 7e6f 7abb
00000110: 91a1 7ebc 1366 7bbb 7b29 e7ba 6e67 5fbc
00000120: 718d 01ba 5205 de38 4f55 0eba 49e2 5bbb
00000130: 081a 18bb 96f2 ba3c 8464 9ebb 9274 bb3a
00000140: 0d31 433c 08d8 cf39 7309 12bc 3ca0 8ebc
00000150: e3d0 daba 4edc febb 96e4 663b 56d6 8c3b
00000160: a638 963c 16b6 35bb 221e a2bc d59f 593c
00000170: b0d4 87bb fbda f53a 3a22 a7bb e993 f1ba
0.0 0.0 0.0 0.0 0.0 0.0 0.0 0.0
0.0 0.0 0.0 0.0 0.0 0.0 0.0 0.0
0.0 0.0 0.0 0.0 0.0 0.0 0.0 0.0
0.0 0.0 0.0 0.0 0.0 0.0 0.0 0.0
0.0 0.0 0.0 0.0 0.0 0.0 0.0 0.0
0.0 0.0 0.0 0.0 0.0 0.0 0.0 0.0
0.0 0.0 0.0 0.0 0.0 0.0 0.0 0.0
0.0 0.0 0.0 0.0 0.0 0.0 0.0 0.0
-0.007529188 0.014583628 0.006272378 -0.0038213427 -0.01554145 -0.0038360402 -0.0017636264 -0.013635499
-0.0004942036 0.00010586776 -0.0005429582 -0.0033551625 -0.0023208875 0.022820752 -0.0048337597 0.0014301708
0.01191355 0.00039643073 -0.008913386 -0.01741039 -0.0016694333 -0.007777727 0.0035231463 0.004298012
0.018337559 -0.002772694 -0.01978976 0.013282736 -0.0041452274 0.0018757278 -0.0051005157 -0.0018430921

multihead_self_attention.multihead_attn.out_proj.weight f4 [32, 32]
00000000: fd2c 0bbe cdc7 bf3d ea57 3c3e c99f 08be
00000010: 7719 94bc 211b c63c 8232 9abd ca8d 2dbe
00000020: 0e71 5e3d 380a 093e ebbd be3d a310 4cbd
00000030: 8af8 2cbd 428b 4d3e 20d6 4fbb 27a8 093d
00000040: 8fbe 0e3e 1baf 253e 4b51 bc3b 9ec6 003e
00000050: 1518 ebbd 9f79 19be e040 cabd 03e6 383e
00000060: 2ef2 493e 0e05 7dbd 4e97 37be b6d4 123e
00000070: 7825 8ebd 79ce 043e 000e 3fbd 999e 153e
00000080: a4f9 d43d 1d96 8abd 85c1 e7bd bf4c cdbd
00000090: bfe2 2b3e 75d4 c53c 0b55 50bc c6db adbd
000000a0: e35e 07be dd21 4a3d 3fce 2b3e 4528 173e
000000b0: fa57 a0bd 135d 8bbd c524 4fbc 8c95 333d
000000c0: 9dd1 1bbe 41e4 b93c b10a 3f3d 27e1 b5bd
000000d0: 75c3 21bb b777 933c 17a2 10be 2a7d 52bd
000000e0: 4578 11b8 f7fc 90bd ca4c 19bc 3d08 7a3d
000000f0: 9957 e93d 0b14 123e 77b9 50bc 5240 c1bd
00000100: 0db5 953d e6c2 87bd 794f 083e 68e3 9fbd
00000110: fb19 fc3a a0ca fe3d 024d fd3d dfdc 03bb
00000120: e98a 1bbe 9d66 2d3e b2a4 a8bd c11b 783d
00000130: 769f f4bd ea81 7bbd 85d5 f93c 9ead 923d
00000140: c907 11be e4f5 793d 276a 3d3e e671 3a3e
00000150: d741 0f3d 7ea7 9dbd 748e 873d bff4 0f3e
00000160: 4f96 9f3d a7fd 97bd e863 e3bd 178e cbbd
00000170: a102 d93c b66a d7bd e1f3 2d3e 11ac 2a3e
00000180: 6e72 36be 8187 00be af6d ddbd a14e a43c
00000190: 48a8 49bc b9cf f83d 8031 08be 4342 c83b
000001a0: 4f29 863d 1a35 80bd ec37 0abe fbcb 8a3d
000001b0: 900e d33d ab08 dbbd 2a71 2bba 108f e1bd
000001c0: 4430 3f3c fcbe 153e 785d 0ebe ce43 fb3d
000001d0: a85d fdbd e354 973d 885e b23d b424 9ebd
000001e0: 0225 e03d c1a7 0fbd 6095 1d3d edf3 dd3c
000001f0: f579 e93d abf8 98bb df53 d53d aade 083e
00000200: 81d5 3b3d 4115 2e3e 79ad 203d c060 133e
00000210: 3bbc b1bd ef04 29ba 2748 283d 60cf babc
00000220: e528 c6bd 30a0 823d 8f4d 263d fc1d 12bd
00000230: 1a51 ec3d 29c4 74bd b40b cc3d b86b cb3c
00000240: 1a85 a6bd a2ec 23be 7372 adbd f140 52bd
00000250: 8a2a 2e3e d0e4 783d d8e8 3dbb 62d0 ee3c
00000260: 41eb 22bd 8da5 febd faef febd 0c4a 423d
00000270: d0f5 88bd 7f65 f1bc 791e 72bd 3ccb d2bc
00000280: 2978 c63d 853d 183e 3f25 163e be5d 25bd
00000290: 02dd 2f3c 2ca5 493d d161 2abe 545e 113e
000002a0: 9db7 0a3e 1809 e6ba 4616 103e 8587 773d
000002b0: 384c 143e 9323 283e d876 183e 9da7 113e
000002c0: 4d9a 1a3e be19 623d e8e9 983d 457a da3d
000002d0: c58a 20bd 1e0a 0d3e 6a02 493d 3d61 9ebd
000002e0: 8efb 14be 0d9e 98bd 0120 00be 31d6 b43d
000002f0: 58a3 993d 8f04 9b3c 86c7 293e 686c 30be
00000300: 4deb b53d c691 183e 28a5 293d 4ad8 07be
00000310: 25f7 163e b343 d73d c26b 8ebd 9ecc bd3d
00000320: 1b45 0f3e a8ac d6bd 86af ec3d 18f8 1bbc
00000330: 92cd 11be 5491 09be 4b7e c1bd 7c88 17bd
00000340: d654 b4bd cf40 22be 1a55 933d a921 f43d
00000350: 543c b0bd fcaa fcbd 6708 ef3d 8610 43bc
00000360: 7f0e 0c3e 1d10 2cbe f636 dfbd e2b0 073e
00000370: e897 3dbe fd49 17bd 714d 2abe 6348 d2bd
00000380: f195 f53a 6c85 b9bd a30c 98bd 4213 353e
00000390: 5113 97bd 28e3 2bbd 9ab4 1c3e 413a 8c3d
000003a0: 3f79 d0bd 4cf6 24be 5683 b73d 5751 36be
000003b0: 68f6 273e 9a32 913c e139 c5bd e9fe 513d
000003c0: 8c44 2ebd 6e17 0dbd c70e 1b3e 5034 a73d
000003d0: 6ffc c5bb 7258 123d e795 4cbe d645 cd3d
000003e0: 7aab 0cbc 342f c5bd 6000 bc3d 049b 5db9
000003f0: dd94 843c 8200 28be 1d05 85bb fb20 173e
-0.1359138 0.09364281 0.18392912 -0.13342203 -0.018078549 0.024182858 -0.07529165 -0.1694862
0.054307036 0.13382804 0.09313568 -0.049820554 -0.042229213 0.20072654 -0.0031713322 0.03360763
0.1393988 0.16180079 0.0057469956 0.12575766 -0.11479203 -0.14987801 -0.09875655 0.18056493
0.1972129 -0.0617724 -0.17928812 0.14338955 -0.0694074 0.12969388 -0.04664421 0.14611281
0.10399178 -0.06766913 -0.11316208 -0.10024404 0.16785716 0.024149159 -0.012715588 -0.08489184
-0.1321979 0.0493487 0.16777895 0.14761455 -0.0782928 -0.06804862 -0.012643044 0.04384379
-0.1521668 0.022691848 0.046641055 -0.08880835 -0.0024683152 0.01800142 -0.14124332 -0.051388897
-3.4682704e-05 -0.07079499 -0.009356687 0.061043013 0.11393661 0.14265458 -0.012739531 -0.09436096
0.07309923 -0.06628971 0.13311566 -0.07807046 0.0019233817 0.124409914 0.12368204 -0.0020120663
-0.15189709 0.16933675 -0.08234538 0.060573343 -0.11944477 -0.061403193 0.030497322 0.07162021
-0.14163126 0.061025515 0.18497525 0.18207511 0.0349749 -0.07697962 0.06618968 0.14058207
0.07792341 -0.07421427 -0.1110304 -0.09939211 0.026490511 -0.105184 0.16987564 0.166672
-0.17817089 -0.1255169 -0.10811936 0.020057024 -0.012308188 0.12148995 -0.13300133 0.0061114146
0.06550848 -0.06260128 -0.13497895 0.067771874 0.10305512 -0.10695013 -0.0006539995 -0.11013615
0.011669222 0.14623636 -0.13902843 0.12268792 -0.12371379 0.07389238 0.08709437 -0.07721844
0.10944559 -0.035072092 0.038472533 0.027093852 0.114002146 -0.0046683154 0.10416388 0.1336619
0.04585791 0.17000295 0.039227936 0.14392376 -0.0867848 -0.00064475735 0.041084435 -0.022803962
-0.09675769 0.063782096 0.04060131 -0.035673127 0.115389064 -0.059757385 0.0996317 0.024831638
-0.08130856 -0.16008237 -0.08469095 -0.051331464 0.17008415 0.060765088 -0.0028977897 0.029152099
-0.039775137 -0.1243392 -0.12448116 0.047433898 -0.0668751 -0.029467342 -0.059111092 -0.025731675
0.096908875 0.14867218 0.14662646 -0.040372603 0.010733845 0.049229786 -0.16638876 0.1419614
0.13546605 -0.0017550318 0.14070997 0.060431976 0.144822 0.1641982 0.14889085 0.14224096
0.15097924 0.05520033 0.07466489 0.10667852 -0.03919484 0.1377339 0.049074568 -0.077333905
-0.14549085 -0.07452021 -0.12512209 0.08829916 0.075018585 0.018923072 0.16580018 -0.17228854
0.08882771 0.14899358 0.04141727 -0.13266101 0.14742716 0.105109595 -0.06954147 0.09267543
0.13991205 -0.1048215 0.11556916 -0.009519599 -0.14238575 -0.13434345 -0.094479166 -0.036995396
-0.08805244 -0.15845035 0.07193966 0.11920483 -0.08605257 -0.123373 0.116715245 -0.011905795
0.13677405 -0.16803022 -0.10899155 0.13251069 -0.18514979 -0.036935795 -0.16631104 -0.10267713
0.0018736703 -0.09058651 -0.07424285 0.17683128 -0.07376731 -0.04196468 0.15303269 0.068470486
-0.10179376 -0.1610958 0.08960597 -0.17804466 0.1640259 0.017724324 -0.0963018 0.051268492
-0.04254584 -0.034446172 0.15142356 0.08164275 -0.0060420553 0.03572888 -0.19979058 0.10023086
-0.008585805 -0.09628144 0.09179759 -0.0002113395 0.016184265 -0.16406444 -0.0040594474 0.14758675

multihead_self_attention.multihead_attn.out_proj.bias f4 [32]
00000000: a9bf b53c d830 bebb 711f b2bb 1e62 95bc
00000010: 5944 093c b0af 093a 2de4 93bb 38ff 84bc
00000020: ca01 9fb8 0a28 e23b bcd9 70ba 325e d53c
00000030: 5fa7 b6ba b582 4dbb 4b54 78b9 203c 21ba
00000040: 6049 12bc d57d bf3b ee22 95ba 028b 80b9
00000050: 2160 dfbb e0a9 3b3c 5951 31bc 2e48 fe3c
00000060: 4fa2 babc ffa8 e3bb b7d4 7bba c391 1abc
00000070: 34af db3b 707c 963c 4ec4 fcbb f578 283c
0.022186117 -0.0058041625 -0.005435877 -0.018235262 0.008378112 0.0005252315 -0.0045132847 -0.016234979
-7.582044e-05 0.0069017457 -0.00091877184 0.026045892 -0.0013935379 -0.0031358425 -0.00023682525 -0.0006150622
-0.008928627 0.005843858 -0.0011378208 -0.0002451763 -0.0068168794 0.011454076 -0.010822617 0.031040277
-0.022782473 -0.006947636 -0.0009606587 -0.009434166 0.0067042354 0.018369883 -0.007713831 0.010282745

multihead_self_attention.fc.weight f4 [12, 32]
00000000: 64e7 9b3c ee9c f4bd 6765 0ebd 3f61 113e
00000010: ce51 103d 08f1 f73c 4e3a 9c3d 73b5 9d3d
00000020: 9cdf 1d3e 9e5a 1c3e 1646 9f3d 8379 433d
00000030: 57e2 c53d 6889 e93d 2733 2b3c abad eebd
00000040: 1e39 0cbe c029 6d3d 1c02 283e bcad 623c
00000050: bfca c23d 6cd3 d6bb 7f84 9d3d 2074 143e
00000060: 51f1 453d 630d 13be 1a07 d83c 107b 363e
00000070: dbb0 1ebe 8749 2ebe f7b8 a1bb 6e21 793d
00000080: d397 f3bc 8bb3 813d 4bc2 03be 6860 313e
00000090: ac1e 3c3b 1494 bd3d d6fd 27be 76e4 99bd
000000a0: 0009 0bbe 8e0a a13d 68d3 093e be00 413d
000000b0: 4704 343e ed99 9bbd 3c27 323d 7d15 8c3d
000000c0: 8bd9 3abd a782 013d 6780 083d 9735 edbd
000000d0: b361 82bd 127d d2bc 54bc 973c a4ca 3cbe
000000e0: 5f2b 0abe 500f ed3d 881a c43c e31c 273e
000000f0: 5558 d93c 80d9 1abd dd1b 69bd 1dba 0abe
00000100: 5434 12be 9357 fb3d 4d3b 173e 84d7 1c3e
00000110: d5a3 0dbe a41a c33d 12ab 153e 3ba0 aa3d
00000120: 61c9 23bd 468a 9ebd 1a8c b0bd 4d8c ebbc
00000130: e1ca 643d e26f ab3b 37e8 89bb 36ac 36bc
00000140: eac9 7a3d 4560 24be 13cc 183d 8418 c83c
00000150: 3a59 0b3e fd87 3abe 929e a53c 9015 4fbe
00000160: ed74 7c3d e1ee 2c3e 8401 bd3d 9646 243e
00000170: 3976 fbbd d890 46be 083b 3dbc 8d32 20be
00000180: 6594 54bd 75bc 5dbd b5a7 04be c901 f63d
00000190: e417 353d 63d4 9a3d 9494 14be f5da 393e
000001a0: 64fa e8bd 02ee 8fbc c18d d33c 94d3 2cbe
000001b0: abd0 f13d 6180 efbd 6a16 dabd 24b8 3c3e
000001c0: 83de d5bd 85cd 8fbd a238 29bd 6544 9fbd
000001d0: 0761 0dbd 48f8 9abc 364f b43d 70ad 08be
000001e0: 735d 023e 964a 263e 657f 30be c644 96bd
000001f0: 7d04 0bbe c0ff debd ccf1 2c3e 23d0 143e
00000200: 582d 8e3d 6bbb 583d d4b1 21be 99bd 0dbe
00000210: 6227 c5bd baa6 c93d 3843 07be 6f25 d9bd
00000220: 26fa d5bd d7db d6bd b61e 79bd 3666 f63c
00000230: db4a f43b a1c1 c3bc 31be fdbd 1ccb 10bd
00000240: 2730 4fbd d6ba 9ebd 2f11 a1bd 8a41 0ebe
00000250: 7a9d 473c ce69 b23c 9115 cf3a 46a6 053e
00000260: a9d4 16be 843b c93d f9fe f53d 8bd6 af3c
00000270: 450b 353e 604a ac3c 172d e0bd 76ad 14be
00000280: f0ca 053e b2d5 02be a80b a63d 8abb c3bd
00000290: d840 2abe 54f4 a0bd e7e8 dcbd 63e5 d2bd
000002a0: a5cf a03d 331f d9bd 2abf b03d 3b87 dcbc
000002b0: 6598 923d feb4 b53d 02d3 193e 97a5 2b3d
000002c0: 01b3 633d 9d6c 913d 8c0c c53d 4e98 4cbd
000002d0: f322 053e 1c70 723d 5c26 c0bd ebff 9cbd
000002e0: 16d0 34be 9023 ee3d 072a 173e 665c 913d
000002f0: 665e ed3d f064 5cbc f367 8cbd 6c26 b33d
00000300: e35a 2abe 297f 34be e3a3 2cbb 63f3 18bd
00000310: 3b8d f93d a2ce 2fbe 57bb 0fbe 562c bbbd
00000320: 5fb8 25bd 6a24 20be a070 093e 1a7c 84bc
00000330: c128 18be 242e ee3d c104 223e 9411 febd
00000340: b7ce 233e 08f7 553d 4856 dc3d 6378 92bc
00000350: 9f30 173d 7a65 07be be7a 903d 9d23 47bc
00000360: d1aa cd3d 1e6b 1b3e 63e7 95bc 464b 3d3e
00000370: 56ec b53d a901 0a3c be1a 043e 6887 b13b
00000380: 013c 49bc 2938 1a3e 7081 b9bd 83ca 06be
00000390: f85d b3bc ea3d 73bd 9e64 0c3e c924 a73d
000003a0: 2e23 07bd 84a0 d33b 11f4 febc ff5d e3bd
000003b0: e299 a23d 744e 2d3c f561 943c df7f ab3d
000003c0: 019e 35bd 7fb0 f8bd 798d 08be 657e d1bd
000003d0: f405 013e bde5 40bd f424 fe3d 2669 27be
000003e0: d075 8c3d 25f4 3a3d 5f3a b13d 5e66 ca3d
000003f0: 76e0 2a3e b9ad f2bd c307 adbd 2551 033e
0.019031234 -0.119439945 -0.034764674 0.14197253 0.035234265 0.0302663 0.07628308 0.07700624
0.15417331 0.15268943 0.0777704 0.047723304 0.096623115 0.11403161 0.010449207 -0.11654218
-0.13693663 0.057901144 0.16407055 0.013835367 0.09511327 -0.006555965 0.07691287 0.14497423
0.04832584 -0.14360575 0.026370574 0.17820382 -0.15497153 -0.17020236 -0.0049353796 0.060822897
-0.029735481 0.06333073 -0.12867086 0.17321932 0.0028704805 0.09256759 -0.16405424 -0.075142786
-0.13577652 0.07863341 0.13459551 0.04711985 0.17579757 -0.075977184 0.043494448 0.06840036
-0.04561762 0.03161874 0.03332558 -0.11582487 -0.06366291 -0.025694404 0.018522419 -0.18436676
-0.13493107 0.11575186 0.023938432 0.16319613 0.026531378 -0.03780508 -0.056911338 -0.13547559
-0.14277774 0.12272563 0.14768715 0.15316588 -0.13832028 0.09526566 0.1461604 0.08331343
-0.03998697 -0.07741217 -0.08620472 -0.028753424 0.055857543 0.0052318433 -0.0042085904 -0.011149457
0.061227717 -0.16052349 0.037303995 0.024425752 0.13608256 -0.18215938 0.020217214 -0.20223069
0.061634947 0.16888 0.09228805 0.16042551 -0.122784086 -0.19391191 -0.011549719 -0.15644284
-0.051899333 -0.054134805 -0.129546 0.12012059 0.044212237 0.07560041 -0.14509803 0.18149932
-0.11375883 -0.017569546 0.02582443 -0.16877586 0.118073784 -0.11694408 -0.106488064 0.18429619
-0.10442831 -0.070216216 -0.041313775 -0.07776717 -0.03451636 -0.018917218 0.08804171 -0.13347411
0.1273096 0.1623939 -0.17236097 -0.07337336 -0.13575931 -0.10888624 0.16889113 0.14532523
0.069422424 0.05291311 -0.15790492 -0.13841857 -0.09626652 0.09846254 -0.13209236 -0.10602843
-0.10448103 -0.1049115 -0.060820304 0.030078035 0.0074552125 -0.02389604 -0.12389792 -0.03534995
-0.05058303 -0.0775048 -0.07864606 -0.13892189 0.012183541 0.021778967 0.0015799274 0.1305171
-0.14729561 0.09825805 0.12011523 0.021464607 0.1768008 0.021031559 -0.109461 -0.14519295
0.13065696 -0.12776831 0.08107692 -0.095572546 -0.16626298 -0.07859102 -0.1078661 -0.10297658
0.07852105 -0.10601654 0.08630212 -0.026919952 0.07157973 0.08872412 0.150219 0.041905966
0.055590633 0.071007945 0.09621534 -0.049949937 0.13001613 0.059188947 -0.093823165 -0.07666
-0.17657503 0.11627877 0.14762126 0.07097702 0.11590271 -0.0134518 -0.06855764 0.08747563
-0.16636233 -0.17626633 -0.0026342801 -0.037341487 0.12185141 -0.17168668 -0.14036308 -0.09139316
-0.040459033 -0.15638891 0.1342187 -0.016172457 -0.14859296 0.116298944 0.15822126 -0.124056965
0.15996824 0.05223754 0.10758644 -0.01787967 0.036911603 -0.13222304 0.07054661 -0.012154487
0.10042346 0.1517758 -0.01829881 0.18485746 0.08882968 0.008423247 0.12900826 0.005417753
-0.012282372 0.15060486 -0.09057891 -0.1316319 -0.021895394 -0.059385218 0.13710257 0.08161313
-0.032992534 0.006458344 -0.03112224 -0.11101913 0.07939507 0.010577787 0.018113116 0.08373999
-0.044340137 -0.12143039 -0.13335218 -0.10229186 0.12599927 -0.047094095 0.12409392 -0.16348705
0.068584085 0.04564299 0.086537115 0.09882806 0.16687188 -0.11849541 -0.08448746 0.12823923

multihead_self_attention.fc.bias f4 [12]
00000000: 5f0d d23d 2f3a 1fbc 295c 063d e2c4 603d
00000010: 7285 24be ae09 dbbd e9ab 453d fbe7 d33d
00000020: 30c2 363d 6c88 1f3e f349 f53d f34e e3bd
0.102564566 -0.009718462 0.032802735 0.054875262 -0.1606653 -0.10695206 0.04825965 0.10346981
0.044618785 0.15579385 0.11976995 -0.11099043

fc.weight f4 [12, 12]
00000000: 6ebd 003d d903 c43d 28c9 51be fa5b 273e
00000010: ec25 19bd c0f7 663e c82b 893e 23ef 4fbe
00000020: d847 e63d 3b06 4abe 0ab3 8bbe 3926 223e
00000030: ba80 723d f2cb 4bbd 07f1 aabd 6a2c 86bd
00000040: 392a 383e 8c46 0e3d 3767 17be e9b8 bcbd
00000050: a8e2 43be 729c b73d 70ca 173e bc5c 0e3e
00000060: a3df 163e ae75 9dbd f67f 7e3d 57c7 4c3e
00000070: 4d34 263d 8cc5 5fbc 3900 9e3e 7e4d 523e
00000080: e7a5 5bbe 5126 9f3e 190a 77be 9e0a ba3d
00000090: 36b8 24bc 3e5c 6dbe 621b 613e 4c40 4fbe
000000a0: 89f5 2f3d 3e0a 7dbd b757 2b3e 9843 99be
000000b0: be1e 063e 857a 99bd f2aa fbbd 0fc8 ab3d
000000c0: 82a1 353e d47f 8abd 67eb 8abe 0cec 03be
000000d0: 7e01 30be 07a0 803e a924 6bbe 6c48 e7bd
000000e0: e962 553c bf21 363e 6a43 d7bd b296 793e
000000f0: a55c 773e 0fcf 0fbe ff5d 893e 8585 a83e
00000100: 6c7d 2e3d 708a fcbd 0a2d 7bbe b25d 3b3e
00000110: ab92 483e 8a59 513e 1972 183d 406b dcbc
00000120: 4380 54be 4f73 50bc e8f2 423e 42ae 39be
00000130: 29a6 26be c143 c0bd 465d 393d a3b6 763c
00000140: 7c45 05bd d619 373e 2bb2 8d3e 370e 9a3e
00000150: 96f4 243e 88b3 02bd 67dc a73e 441a ef3d
00000160: b16e dfbd 62ae 8cbe 5652 5bbe 2e6c 003d
00000170: e4db 273e ebb4 f53d a62f b6bc 10d3 053e
00000180: b3e3 90be 4f2a 0e3d ff19 a1bd 0c9f 233e
00000190: 714c 8d3e 7ef3 5cbe fb4c 66be 23f9 6f3e
000001a0: 316e 6e3e c572 71bd f507 94be 5caf 77be
000001b0: 9bd4 18bd db0f a9bd 952a 8a3d 08c9 893e
000001c0: 812a a6be 3fa3 9e3d a054 13bd 02ef 1b3e
000001d0: f3e0 86be 39af 6a3c 6a90 713d 8fe7 0c3e
000001e0: 5cae 7f3e fdc9 49be d155 e9bd e810 bdbc
000001f0: 8b13 483c fe6b 9c3e 4915 e43c 7731 c6bd
00000200: db07 013e 0bd7 6e3d 7ce0 5abd af85 c8bd
00000210: 43ce f1bd 5770 193e 5597 a23e e831 53be
00000220: 272a 61be 3df5 d33d 3ca6 2d3d 67cf 79be
00000230: 590d 793e f497 973e 7427 973e b330 833e
0.031430654 0.095710464 -0.20486891 0.1634368 -0.03738968 0.22555447 0.26791215 -0.20306067
0.11244172 -0.19728939 -0.27285033 0.15834893 0.059204794 -0.049755044 -0.083467536 -0.0655144
0.17984857 0.034735247 -0.14785467 -0.09214956 -0.19129431 0.089653865 0.14823318 0.13902563
0.14733748 -0.07688461 0.06213375 0.19997917 0.04057722 -0.013657939 0.30859545 0.20537373
-0.21450005 0.3108392 -0.24124946 0.09084056 -0.010053685 -0.23179719 0.21983102 -0.20239371
0.04295877 -0.061777346 0.1673268 -0.29934382 0.13097665 -0.07494072 -0.122884646 0.083877675
0.17737392 -0.067626625 -0.27132723 -0.12883013 -0.17188069 0.2512209 -0.22963203 -0.1129311
0.01302407 0.1778631 -0.10510905 0.24373892 0.24156435 -0.1404383 0.26829526 0.32914367
0.04260008 -0.12331092 -0.245289 0.1829746 0.195872 0.20444313 0.037218187 -0.02690661
-0.20752053 -0.012722804 0.19037974 -0.1813288 -0.16274323 -0.09387923 0.045254968 0.015058192
-0.03253697 0.1788095 0.27674994 0.3008897 0.16108927 -0.031909496 0.3278534 0.11674932
-0.109097846 -0.27476794 -0.21418127 0.03135317 0.16392475 0.11997398 -0.022239517 0.13068795
-0.2829872 0.034708317 -0.078662865 0.1597864 0.27597383 -0.2157726 -0.22490303 0.23434882
0.23284222 -0.058947343 -0.2891232 -0.24187988 -0.03731213 -0.08254977 0.06746403 0.26911187
-0.32454303 0.077459805 -0.035969377 0.15227893 -0.26343498 0.014324003 0.058975615 0.13760208
0.24968857 -0.19705959 -0.11393321 -0.02307935 0.012211691 0.30551142 0.02784218 -0.096774034
0.12600653 0.05831055 -0.05343674 -0.09791123 -0.118069194 0.1498426 0.31756082 -0.20624506
-0.21988736 0.1034951 0.04239486 -0.24395524 0.24321498 0.2960812 0.29522288 0.25623092

fc.bias f4 [12]
00000000: c1c7 85be a724 0a3e 8455 75bc bead 17be
00000010: a42d 69be 4e11 83be 4c42 123e 796e 24bc
00000020: ed03 84be de07 d7bd 4762 243e 92ef 9dbe
-0.26128963 0.13490544 -0.014974002 -0.14812371 -0.22771317 -0.2559914 0.14283103 -0.010036104
-0.25784245 -0.104995474 0.16053115 -0.3084684
