trained_weights/trace/selfattention11.pth (torch, 21775 bytes, 8 tensors)

multihead_self_attention.multihead_attn.in_proj_weight f4 [96, 32]
0	0x3dcbba1d	0.09947608
1	0x3c671227	0.014103449
2	0x366a5d23	3.492293e-06
3	0xbde3efed	-0.111297466
4	0x3d812a4d	0.06306896
5	0x3687fd2b	4.052786e-06
6	0x3d1d256d	0.03836577
7	0xb895b7c7	-7.139105e-05
8	0xbd7a1873	-0.061058473
9	0xbde82e61	-0.11336971
10	0x3cd6a65b	0.026202371
11	0xbd08a26e	-0.03335803
12	0xbdf01508	-0.117227614
13	0xb71ccf21	-9.3465505e-06
14	0x3c0df4b4	0.008664299
15	0x3d3fb5af	0.046804126
16	0xbc0361a5	-0.008018886
17	0xbc8923a8	-0.016740635
18	0xbdfca909	-0.123369284
19	0xbd1d21ff	-0.0383625
20	0xbd0cf96f	-0.034417566
21	0x3c9493f8	0.018136963
22	0x3cc61354	0.024179138
23	0xbc23e33f	-0.01000291
24	0x3dc0d9c2	0.09416534
25	0xbd7dfaea	-0.06200687
26	0x3d4dd263	0.05024947
27	0x3e06613c	0.1312303
28	0x3318ea92	3.56036e-08
29	0x3dbf8221	0.09350992
30	0xbdf14835	-0.117813505
31	0xbe0b1cf6	-0.13585266
32	0xbb82e465	-0.003994512
33	0xbd01b8bb	-0.031670313
34	0xbd6ffacd	-0.05858879
35	0xbd8b0583	-0.06788161
36	0x3bc318fd	0.0059539066
37	0x34d57df8	3.9765996e-07
38	0x3d4b8eea	0.04969684
39	0x3d7de2c7	0.06198385
40	0x3c5a79d0	0.013334706
41	0xbda4b607	-0.080425315
42	0x3d523803	0.05132295
43	0x3dbd31b1	0.092379935
44	0x3d0366b8	0.032080382
45	0x36bd721c	5.645923e-06
46	0xbb856d8e	-0.004071898
47	0x3cb2ecb1	0.021841379
48	0x3a23cec0	0.00062487647
49	0xbe0d8e76	-0.13823876
50	0x3d3bdd15	0.045865137
51	0x3ca9597a	0.020672549
52	0x3d074ad2	0.03303034
53	0x3be4afc9	0.006978963
54	0x3ca78a24	0.020451613
55	0x3d85cd63	0.06533315
56	0xbd577189	-0.05259851
57	0xbd4eca1d	-0.05048572
58	0xb5a13390	-1.2010441e-06
59	0x3bcbac18	0.0062155835
60	0x35dd2eff	1.6479461e-06
61	0xbdb55bec	-0.08855423
62	0xbc7c0f02	-0.0153844375
63	0x3ded6d9e	0.115931734
64	0xbe0403fb	-0.12892143
65	0x3c5813b4	0.013188291
66	0xbdd2c18c	-0.102908224
67	0x3d888042	0.06665088
68	0xb5059780	-4.976682e-07
69	0x36475fd2	2.9709086e-06
70	0x3dc1c15b	0.09460708
71	0xbb76d24c	-0.0037661968
72	0x3d704bca	0.058666028
73	0xbca3df57	-0.020003958
74	0x3e075645	0.13216503
75	0xb8c8ad82	-9.5690615e-05
76	0x3d40d031	0.047073547
77	0xbdc2a708	-0.09504515
78	0x3d964d9b	0.07339021
79	0x35f0cb8a	1.7940631e-06
80	0xbcb4c5f8	-0.022067055
81	0xbde01e49	-0.109432764
82	0x3d2061f7	0.039155927
83	0xbdbc0468	-0.09180528
84	0x3d37c96b	0.04486982
85	0x3bd90d47	0.0066238972
86	0xbbb9805c	-0.0056610536
87	0xbd34b079	-0.04411361
88	0xbc64f50a	-0.0139744375
89	0xbd786ac6	-0.060648702
90	0x34af0a62	3.2603845e-07
91	0xbdaff328	-0.085913
92	0x38ab8869	8.179324e-05
93	0xb7078f47	-8.079986e-06
94	0x3d6ced0e	0.05784326
95	0xbc19e210	-0.009392276
96	0x3d7673b1	0.060168926
97	0x3dd5d67b	0.104412995
98	0x3df4867a	0.11939712
99	0xbcbf64ac	-0.023363434
100	0x3c5fc378	0.013657443
101	0x37e6b707	2.7503365e-05
102	0x3ded245c	0.115792006
103	0xb4a82ad7	-3.132361e-07
104	0xba4200e9	-0.00074006483
105	0xbc1a6b04	-0.009424929
106	0xbdb39c2e	-0.08770023
107	0xbcd3644a	-0.025804657
108	0xb9cba31f	-0.00038840712
109	0x3d60983b	0.05483268
110	0xb703f3d1	-7.864976e-06
111	0x3b16d6ed	0.002301629
112	0x3c7c714d	0.015407872
113	0xb7b11b37	-2.1112717e-05
114	0xbd213602	-0.039358146
115	0xbd80bdca	-0.062861994
116	0xbd3688e5	-0.044564147
117	0xbdafbc58	-0.085808456
118	0xbbf0af26	-0.007345098
119	0x3db68e9e	0.08913921
120	0x3dec3bc8	0.1153484
121	0xbe063049	-0.13104357
122	0xbb84e3db	-0.004055483
123	0x3dfbf9c2	0.12303497
124	0xb60c0839	-2.0866412e-06
125	0x3e0078af	0.12546037
126	0x3d5e943f	0.054340597
127	0xb6690946	-3.4725103e-06
128	0x3d10bda7	0.035337117
129	0x3e0380fa	0.1284217
130	0xbc897ace	-0.01678219
131	0xb494003f	-2.7567327e-07
132	0x3bdec14f	0.0067979465
133	0x3dde380b	0.10850533
134	0x3d82743b	0.063698255
135	0xb7cf296a	-2.4695608e-05
136	0x3e0cbaec	0.1374318
137	0xbd169b1c	-0.036769018
138	0x3e06ce6e	0.13164684
139	0x3db0f44f	0.08640348
140	0x3d844b1c	0.064596385
141	0x3dd57fec	0.1042479
142	0xbe0c3698	-0.13692701
143	0xb590403c	-1.0747531e-06
144	0xb6b29b75	-5.322911e-06
145	0xbda6e160	-0.081484556
146	0xbd62bba9	-0.055354748
147	0x3dc7fb7a	0.09764762
148	0xbb9483d6	-0.0045323176
149	0xbe085bb2	-0.13316229
150	0xbe09e1f5	-0.13465102
151	0xbde81cbd	-0.113336064
152	0xbce63494	-0.028101243
153	0xbc95579d	-0.018230254
154	0x3686ac7c	4.013591e-06
155	0x3d4a83b9	0.049442027
156	0x3db68dc1	0.08913756
157	0xbcfea358	-0.031083748
158	0xb2986273	-1.7739898e-08
159	0x3d92b2e4	0.07163027
160	0xbbf0a340	-0.0073436797
161	0x3b030a17	0.0019995028
162	0x3524cc57	6.1392115e-07
163	0x3dcdf045	0.100555934
164	0x36bfe122	5.7184525e-06
165	0xbbe83510	-0.0070864037
166	0x368c6d09	4.1850185e-06
167	0x3cd252a8	0.02567418
168	0xbd8d1251	-0.06888259
169	0x3d97be9a	0.07409401
170	0x3d97952a	0.07401498
171	0xbd00404e	-0.031311326
172	0xbc8bca43	-0.01706422
173	0x3c253621	0.010083706
174	0xbe0b0cc9	-0.13579096
175	0x3d425e6e	0.047453336
176	0xb426ef82	-1.5547087e-07
177	0x37e32884	2.7079375e-05
178	0xbd3ecba4	-0.046580926
179	0xbdea0c2e	-0.11428104
180	0x3dad0fab	0.08450254
181	0xbd96acb6	-0.07357161
182	0xbe08653a	-0.13319865
183	0xbd3f21c4	-0.04666306
184	0x3d8681f7	0.065677576
185	0x3e0702dc	0.13184685
186	0xbd3bd596	-0.04585799
187	0x3df14d45	0.11782316
188	0x3d3e7822	0.046501286
189	0x3d948d5f	0.07253527
190	0xbd2975a3	-0.041371953
191	0x3ddd0730	0.107923865
192	0x3b6f507c	0.0036516478
193	0x3d9d2730	0.0767349
194	0x39ee6638	0.00045471056
195	0xbcf877bf	-0.030330537
196	0xb837ef86	-4.3853674e-05
197	0xbdea89a7	-0.11452036
198	0x3e01ed6d	0.12688227
199	0x3c962583	0.018328434
200	0x3cbcc1f3	0.023041701
201	0xbd85a23e	-0.06525086
202	0xbbd1ea87	-0.0064061317
203	0xbde6daac	-0.11272177
204	0xbdbba9b0	-0.09163225
205	0x3416bf17	1.4039357e-07
206	0xbdcab235	-0.098972715
207	0x3d0c6579	0.03427646
208	0xbd95d294	-0.07315555
209	0x3a934554	0.0011235871
210	0x3dd4838b	0.10376652
211	0x3dd91635	0.10599939
212	0x3d9f5054	0.07778993
213	0x3b65fbd5	0.003509273
214	0x3c550a9d	0.013003019
215	0x3d32e4d7	0.04367527
216	0x359610fe	1.1180816e-06
217	0xbd02e873	-0.031959962
218	0xbc6bda62	-0.014395328
219	0xb53886d6	-6.8741554e-07
220	0x3d2bbdd0	0.041929066
221	0xb42c06f9	-1.6021285e-07
222	0x33fb0b64	1.169017e-07
223	0x3df57239	0.11984677
224	0xbdf95fa6	-0.121764466
225	0xb4c640d7	-3.692755e-07
226	0xbdf6b5f1	-0.12046421
227	0xb68c12aa	-4.174498e-06
228	0x3bc8d4d8	0.0061288886
229	0x3d3b53a0	0.045734048
230	0x3d8c5ed1	0.06854022
231	0x3d2b3212	0.041795798
232	0x3c9b0f12	0.018928085
233	0xbd47adbf	-0.04874968
234	0x3dd8d105	0.10586742
235	0x3d9d2627	0.076732926
236	0x3d8ffc3b	0.07030531
237	0x3e09cc88	0.13456929
238	0xbdd67584	-0.10471633
239	0xbd870036	-0.06591837
240	0xbd49533d	-0.049151648
241	0xbc4209c9	-0.011843153
242	0xbde431e4	-0.111423284
243	0x36199737	2.2886795e-06
244	0x3baa3eb2	0.005195462
245	0xb5e04714	-1.6709987e-06
246	0x3cc1d124	0.023659296
247	0x3e0d18b5	0.13778956
248	0xbdb70b32	-0.08937682
249	0xb707691a	-8.071098e-06
250	0x3de742b7	0.11292022
251	0xb57a1a34	-9.317039e-07
252	0xbe03b92b	-0.12863605
253	0x3d16a550	0.036778748
254	0xbd36781f	-0.04454815
255	0x3d3aad7d	0.045575608

multihead_self_attention.multihead_attn.in_proj_bias f4 [96]
0	0x00000000	0.0
1	0x00000000	0.0
2	0x00000000	0.0
3	0x00000000	0.0
4	0x00000000	0.0
5	0x00000000	0.0
6	0x00000000	0.0
7	0x00000000	0.0
8	0x00000000	0.0
9	0x00000000	0.0
10	0x00000000	0.0
11	0x00000000	0.0
12	0x00000000	0.0
13	0x00000000	0.0
14	0x00000000	0.0
15	0x00000000	0.0
16	0x00000000	0.0
17	0x00000000	0.0
18	0x00000000	0.0
19	0x00000000	0.0
20	0x00000000	0.0
21	0x00000000	0.0
22	0x00000000	0.0
23	0x00000000	0.0
24	0x00000000	0.0
25	0x00000000	0.0
26	0x00000000	0.0
27	0x00000000	0.0
28	0x00000000	0.0
29	0x00000000	0.0
30	0x00000000	0.0
31	0x00000000	0.0
32	0x00000000	0.0
33	0x00000000	0.0
34	0x00000000	0.0
35	0x00000000	0.0
36	0x00000000	0.0
37	0x00000000	0.0
38	0x00000000	0.0
39	0x00000000	0.0
40	0x00000000	0.0
41	0x00000000	0.0
42	0x00000000	0.0
43	0x00000000	0.0
44	0x00000000	0.0
45	0x00000000	0.0
46	0x00000000	0.0
47	0x00000000	0.0
48	0x00000000	0.0
49	0x00000000	0.0
50	0x00000000	0.0
51	0x00000000	0.0
52	0x00000000	0.0
53	0x00000000	0.0
54	0x00000000	0.0
55	0x00000000	0.0
56	0x00000000	0.0
57	0x00000000	0.0
58	0x00000000	0.0
59	0x00000000	0.0
60	0x00000000	0.0
61	0x00000000	0.0
62	0x00000000	0.0
63	0x00000000	0.0
64	0xbbf7794d	-0.007552302
65	0x3c835498	0.016031548
66	0x3be0cb97	0.0068602073
67	0xbb342c05	-0.0027492058
68	0xbc8a9964	-0.016918845
69	0xbb6034d5	-0.0034211178
70	0xbaa37de7	-0.0012473435
71	0xbc614c5b	-0.013751115
72	0x397b274b	0.00023951863
73	0xb90cc463	-0.000134246
74	0xba009717	-0.00049053266
75	0xbb9c8f9e	-0.0047778627
76	0xba435502	-0.0007451327
77	0x3cc21bcb	0.023694893
78	0xbb897fe1	-0.0041961526
79	0x3a9941d1	0.0011692588
80	0x3c299c5b	0.010352219
81	0xba7f7e6b	-0.0009746316
82	0xbc2847ee	-0.010271056
83	0xbc8d9004	-0.017280586
84	0xbb0e428e	-0.002170715
85	0xbc081f8e	-0.0083083045
86	0x3b55a292	0.003259812
87	0x3baa6655	0.005200187
88	0x3c9501d7	0.018189354
89	0xbb4fe2e7	-0.0031720938
90	0xbcb4fce1	-0.022093238
91	0x3c52d70c	0.012868654
92	0xbb915ae4	-0.004435884
93	0x3aed7928	0.0018117772
94	0xbbb922c3	-0.005649896
95	0xbb036a81	-0.0020052495

multihead_self_attention.multihead_attn.out_proj.weight f4 [32, 32]
0	0xbe0b27e4	-0.13589436
1	0x3dc0e215	0.09418122
2	0x3e3d32ff	0.18476485
3	0xbe08c49c	-0.1335625
4	0xbc943b4e	-0.018094685
5	0x3cc534c7	0.024073018
6	0xbd97c318	-0.07410258
7	0xbe2dd352	-0.16975144
8	0x3d6149a9	0.05500189
9	0x3e080f23	0.13287024
10	0x3dbf8736	0.09351961
11	0xbd4a281a	-0.04935465
12	0xbd2fc108	-0.0429087
13	0x3e4e2bfa	0.20133963
14	0xbb599cd2	-0.0033205044
15	0x3d07108a	0.032974757
16	0x3e0f2e62	0.13982537
17	0x3e2667a0	0.16250467
18	0x3babc504	0.005241992
19	0x3e0088c3	0.1255217
20	0xbdea9fd8	-0.11456269
21	0xbe19d424	-0.15022331
22	0xbdc8a7bc	-0.09797618
23	0x3e398dc9	0.18120493
24	0x3e4a7321	0.1977048
25	0xbd7e49d3	-0.062082123
26	0xbe381f26	-0.17980632
27	0x3e13bab6	0.14426693
28	0xbd8f94b1	-0.070107825
29	0x3e04f147	0.12982665
30	0xbd3f5897	-0.046715345
31	0x3e150636	0.1455315
32	0x3dd42855	0.10359255
33	0xbd8be44d	-0.06830654
34	0xbde96f39	-0.11398167
35	0xbdcbfdf0	-0.09960544
36	0x3e2c4d75	0.16826423
37	0x3ccb2867	0.024799539
38	0xbc59f64d	-0.013303352
39	0xbdac85f5	-0.08423988
40	0xbe08d949	-0.13364138
41	0x3d471cbb	0.048611384
42	0x3e2b4896	0.16726908
43	0x3e164f33	0.1467865
44	0xbd9dc2d1	-0.07703174
45	0xbd8d0b8d	-0.06886969
46	0xbc44c802	-0.012010576
47	0x3d37b22c	0.044847652
48	0xbe1cc715	-0.15310319
49	0x3cb0aa3c	0.02156555
50	0x3d41c612	0.047308035
51	0xbdb483d8	-0.0881421
52	0xbb493a25	-0.0030704823
53	0x3c999229	0.018746452
54	0xbe1231bd	-0.14276786
55	0xbd55af88	-0.052169353
56	0xba9130ef	-0.0011077205
57	0xbd8face5	-0.07015399
58	0xbc07327b	-0.008251782
59	0x3d75f79e	0.0600506
60	0x3de9d480	0.11417484
61	0x3e11a0cc	0.14221495
62	0xbc47b226	-0.01218847
63	0xbdc01817	-0.09379595
64	0x3d957ccb	0.07299193
65	0xbd87ee14	-0.06637207
66	0x3e0842ed	0.1330678
67	0xbd9ff212	-0.07809843
68	0x3b031f2f	0.00200076
69	0x3dfeca75	0.12440959
70	0x3dfd0a03	0.12355425
71	0xbb020348	-0.0019838382
72	0xbe1bcbc7	-0.15214454
73	0x3e2d5bc4	0.16929537
74	0xbda8a916	-0.082353756
75	0x3d78322e	0.06059473
76	0xbdf49608	-0.11942679
77	0xbd7bdf19	-0.06149206
78	0x3cf9e24a	0.03050341
79	0x3d93329b	0.071873866
80	0xbe110d40	-0.1416521
81	0x3d7a2fe5	0.061080832
82	0x3e3d9695	0.18514474
83	0x3e3a7ccc	0.18211669
84	0x3d0f1a1d	0.034937013
85	0xbd9d7841	-0.07688952
86	0x3d879383	0.066199325
87	0x3e0fe101	0.14050676
88	0x3d9f531a	0.07779522
89	0xbd97e4f6	-0.07416718
90	0xbde342c7	-0.11096721
91	0xbdcb9cde	-0.099420294
92	0x3cd951bc	0.026528232
93	0xbdd7665c	-0.105175704
94	0x3e2e0f9e	0.16998145
95	0x3e2ac9c8	0.16678536
96	0xbe35cd08	-0.17753994
97	0xbdff25e0	-0.12458396
98	0xbddb61c2	-0.10712005
99	0x3c9b4bfa	0.018957127
100	0xbc5a6da7	-0.013331807
101	0x3df6f540	0.120584965
102	0xbe0836ba	-0.13302127
103	0x3ba668da	0.0050784172
104	0x3d8928bf	0.06697225
105	0xbd7b93a4	-0.061420098
106	0xbe0978fd	-0.1342506
107	0x3d8cf88d	0.06883345
108	0x3dd190fb	0.10232731
109	0xbdd8a419	-0.10578174
110	0xbadf0007	-0.0017013558
111	0xbde3455b	-0.11097213
112	0x3c5472fe	0.012966869
113	0x3e16e0c5	0.1473418
114	0xbe0fb7d3	-0.14034967
115	0x3df8a9cd	0.12141762
116	0xbdfaf2d5	-0.12253348
117	0x3d94b89d	0.07261775
118	0x3db4b62c	0.08823809
119	0xbd9c47af	-0.0763086
120	0x3de33689	0.11094386
121	0xbd133363	-0.035937678
122	0x3d17a6d2	0.037024327
123	0x3ce81be7	0.028333617
124	0x3de94c37	0.1139149
125	0xbb820108	-0.003967408
126	0x3dd2efd9	0.102996536
127	0x3e0852bc	0.1331281
128	0x3d421634	0.047384456
129	0x3e30304d	0.17205925
130	0x3d29edf9	0.041486714
131	0x3e122210	0.14270806
132	0xbdb4a939	-0.08821339
133	0xbae5a551	-0.0017520582
134	0x3d31316d	0.043260027
135	0xbcc6d2a7	-0.024270369
136	0xbdc17e09	-0.094478674
137	0x3d83835d	0.0642154
138	0x3d2bd56c	0.04195158
139	0xbd0cadcd	-0.034345437
140	0x3de8f6da	0.11375208
141	0xbd6c92b3	-0.05775709
142	0x3dc9a5d1	0.0984608
143	0x3cbc4d28	0.02298601
144	0xbda37612	-0.079815045
145	0xbe22647f	-0.15858649
146	0xbdb25818	-0.08708209
147	0xbd58dd14	-0.05294521
148	0x3e2f8f5a	0.17144528
149	0x3d713c8d	0.058895636
150	0xba7af646	-0.0009573441
151	0x3cff1fdd	0.031143123
152	0xbd1b5ca7	-0.037930157
153	0xbe00f0aa	-0.12591806
154	0xbe018a7d	-0.12650485
155	0x3d4a162d	0.049337555
156	0xbd8b65d2	-0.0680653
157	0xbce8675f	-0.028369604
158	0xbd7828f8	-0.060585946
159	0xbce6c733	-0.028171157
160	0x3dc632a3	0.09677627
161	0x3e17f8b0	0.1484096
162	0x3e15c749	0.14626803
163	0xbd23f0cf	-0.040024575
164	0x3c332a0c	0.010935318
165	0x3d4b154e	0.049580865
166	0xbe2aa603	-0.16664891
167	0x3e11b207	0.14228068
168	0x3e0a0049	0.13476671
169	0xbb0c65a2	-0.0021422883
170	0x3e0fd106	0.1404458
171	0x3d75b731	0.059989158
172	0x3e14ec57	0.14543281
173	0x3e27c0b3	0.16382103
174	0x3e18cfb2	0.1492298
175	0x3e120461	0.14259483
176	0x3e1a188a	0.15048423
177	0x3d5f9989	0.054589782
178	0x3d99747c	0.07492921
179	0x3ddb226d	0.106999256
180	0xbd21c5c9	-0.039495263
181	0x3e0d6418	0.13807714
182	0x3d45aea4	0.048262253
183	0xbd9f116c	-0.07766995
184	0xbe157f76	-0.14599404
185	0xbd97fbc1	-0.07421065
186	0xbdff2055	-0.12457339
187	0x3db3ccd2	0.08779301
188	0x3d99c568	0.075083554
189	0x3c9914b9	0.01868664
190	0x3e2a0c1c	0.16606182
191	0xbe303560	-0.17207861
192	0x3db698b5	0.08915845
193	0x3e18ecb0	0.14934039
194	0x3d2b7151	0.041856114
195	0xbe07f0b6	-0.13275418
196	0x3e16a684	0.14711958
197	0x3dd71b5c	0.10503265
198	0xbd8c9e67	-0.0686615
199	0x3dbd7b06	0.092519805
200	0x3e0ffe48	0.14061844
201	0xbdd73b1f	-0.10509323
202	0x3decfabc	0.11571261
203	0xbc1a96be	-0.009435354
204	0xbe122015	-0.14270051
205	0xbe092eef	-0.1339681
206	0xbdc1a757	-0.09455746
207	0xbd1934ef	-0.037403997
208	0xbdb40bbf	-0.08791303
209	0xbe220cd9	-0.15825213
210	0x3d923ae4	0.07140139
211	0x3df3c247	0.1190229
212	0xbdb00685	-0.085949935
213	0xbdfd742b	-0.12375673
214	0x3df000a8	0.11718875
215	0xbc3d41eb	-0.011551361
216	0x3e0c6467	0.13710175
217	0xbe2c45cd	-0.16823502
218	0xbde03d4b	-0.10949191
219	0x3e080cf7	0.13286196
220	0xbe3ddb57	-0.18540703
221	0xbd16ede5	-0.036847968
222	0xbe2a9bcd	-0.16660996
223	0xbdd31240	-0.10306215
224	0x3b217325	0.0024635282
225	0xbdb7f083	-0.08981421
226	0xbd965614	-0.07340637
227	0x3e34a2f8	0.17640293
228	0xbd98520e	-0.07437526
229	0xbd2dac29	-0.042400513
230	0x3e1da1c6	0.15393743
231	0x3d8b1814	0.06791702
232	0xbdcdc813	-0.10047927
233	0xbe24b662	-0.16085199
234	0x3db8792f	0.09007489
235	0xbe35caae	-0.17753097
236	0x3e272837	0.16323934
237	0x3c982050	0.018570095
238	0xbdc62913	-0.09675803
239	0x3d4e35f8	0.050344437
240	0xbd2bab47	-0.04191139
241	0xbd0a8313	-0.03381641
242	0x3e19fe93	0.15038519
243	0x3da5f5ef	0.08103549
244	0xbbb5116f	-0.00552576
245	0x3d0f1ec6	0.034941457
246	0xbe4ba1ac	-0.19885892
247	0x3dceccfb	0.10097691
248	0xbbfc077a	-0.007691321
249	0xbdc65fdd	-0.09686253
250	0x3dba1b3c	0.09087226
251	0x3a251de4	0.00062987045
252	0x3c8229bf	0.015889047
253	0xbe279e61	-0.1636901
254	0xbb9a5600	-0.004709959
255	0x3e164ae4	0.14677006

multihead_self_attention.multihead_attn.out_proj.bias f4 [32]
0	0x3cb9aca7	0.022665335
1	0xbbd72208	-0.006565336
2	0xbbb38ac4	-0.0054791886
3	0xbc8e394a	-0.017361302
4	0x3c27a6e5	0.010232662
5	0x3936a054	0.000174166
6	0xbb8af81e	-0.0042410037
7	0xbc7e6654	-0.015527327
8	0xb7f9866a	-2.9745705e-05
9	0x3c0042e8	0.007828452
10	0xba6a6e4a	-0.0008942826
11	0x3ccece74	0.025244929
12	0xbb5b6963	-0.0033479563
13	0xbb387c8d	-0.002815041
14	0x3b044d24	0.002018758
15	0xba86e4a7	-0.0010291532
16	0xbc101a0a	-0.008795271
17	0x3bda7fb2	0.0066680545
18	0xb9aedff9	-0.0003335474
19	0xb9065ea8	-0.00012814498
20	0xbbc8a316	-0.006122957
21	0x3c3ada9b	0.011404659
22	0xbc2f9095	-0.010715623
23	0x3cfc4685	0.030795345
24	0xbcb2080b	-0.02173235
25	0xbbf3e597	-0.0074431407
26	0xba8c2ddb	-0.0010694818
27	0xbc232c1c	-0.009959247
28	0x3bdd11d7	0.0067465114
29	0x3c9af22a	0.018914301
30	0xbbfe2175	-0.007755453
31	0x3c433a90	0.011915818

multihead_self_attention.fc.weight f4 [12, 32]
0	0x3c9e9828	0.019359663
1	0xbdf4225b	-0.11920615
2	0xbd0ef230	-0.034898937
3	0x3e112eb7	0.14177977
4	0x3d0b66bc	0.034033522
5	0x3cf9cd77	0.030493481
6	0x3d9d0360	0.07666659
7	0x3d9cd95e	0.07658647
8	0x3e1dbe1e	0.15404555
9	0x3e1c85de	0.15285441
10	0x3d9eed85	0.07760147
11	0x3d44de19	0.04806337
12	0x3dc4da23	0.09611919
13	0x3dea6093	0.11444201
14	0x3c22d63e	0.009938775
15	0xbdf01386	-0.11722474
16	0xbe0c64cc	-0.13710326
17	0x3d6f0e5a	0.058363296
18	0x3e27a205	0.163704
19	0x3c5862d8	0.01320716
20	0x3dc04c89	0.09389598
21	0xbbc71196	-0.0060750945
22	0x3d9cead7	0.0766198
23	0x3e14fbb6	0.14549145
24	0x3d448c98	0.047985643
25	0xbe13377a	-0.14376631
26	0x3cd9d5a3	0.026591128
27	0x3e368176	0.17822823
28	0xbe1e8b28	-0.15482771
29	0xbe2e0757	-0.16994987
30	0xbba6a245	-0.005085262
31	0x3d76dfc0	0.06027198
32	0xbcfaabcf	-0.030599503
33	0x3d80d6a5	0.0629094
34	0xbe033689	-0.12813772
35	0x3e31ffc3	0.17382722
36	0x3b876efc	0.0041331034
37	0x3dbd1958	0.092333496
38	0xbe28ae9f	-0.16472863
39	0xbd97d61a	-0.074138835
40	0xbe0a6b6c	-0.1351754
41	0x3d9fd400	0.07804108
42	0x3e0a62b9	0.13514222
43	0x3d3d46a5	0.04620995
44	0x3e34efee	0.17669651
45	0xbd9ddbd0	-0.077079415
46	0x3d33b314	0.043871954
47	0x3d8e261a	0.06940861
48	0xbd3997dd	-0.045310844
49	0x3cf935db	0.030421188
50	0x3d0b6efb	0.034041386
51	0xbdebb4a3	-0.11509063
52	0xbd7e6033	-0.06210346
53	0xbcdbcd33	-0.026831245
54	0x3ca0a3f3	0.019609427
55	0xbe3df923	-0.1855207
56	0xbe093a92	-0.13401249
57	0x3dee5a1b	0.1163828
58	0x3cc47e5e	0.023986038
59	0x3e273bad	0.16331358
60	0x3cd5d02a	0.026100237
61	0xbd1d7b29	-0.038447533
62	0xbd65c985	-0.056100387
63	0xbe09d147	-0.13458739
64	0xbe12cef8	-0.14336765
65	0x3dfb4dce	0.122706994
66	0x3e1765f0	0.1478498
67	0x3e1d4388	0.15357792
68	0xbe0d0318	-0.13770711
69	0x3dc1b8cf	0.094590776
70	0x3e14f58a	0.1454679
71	0x3dabd1df	0.08389639
72	0xbd24b599	-0.040212248
73	0xbd9f5e14	-0.07781616
74	0xbdaffe6e	-0.085934505
75	0xbcef93eb	-0.029245337
76	0x3d68ca6b	0.056833666
77	0x3b8f026e	0.0043643033
78	0xbb72c067	-0.003704095
79	0xbc28e875	-0.010309328
80	0x3d7bae3e	0.061445467
81	0xbe252b6c	-0.16129845
82	0x3d193f4b	0.037413877
83	0x3ccd784c	0.025081776
84	0x3e0b3a19	0.13596381
85	0xbe3b2789	-0.182768
86	0x3ca1fdda	0.019774366
87	0xbe4fcbf9	-0.20292653
88	0x3d7e80ca	0.06213454
89	0x3e2d9432	0.16951063
90	0x3dbc7ec9	0.0920387
91	0x3e247c0f	0.1606295
92	0xbdfc1801	-0.12309266
93	0xbe4737f0	-0.19454932
94	0xbc38bd29	-0.011275568
95	0xbe2014d3	-0.15632944
96	0xbd55822e	-0.052126102
97	0xbd5dc546	-0.054143213
98	0xbe04a702	-0.12954333
99	0x3df65ff2	0.12030019
100	0x3d358ade	0.044321887
101	0x3d9a0dce	0.07522164
102	0xbe155af5	-0.14585479
103	0x3e3a141e	0.18171737
104	0xbde91814	-0.11381546
105	0xbc917e6c	-0.017760478
106	0x3cd42974	0.025898673
107	0xbe2cfaaa	-0.16892496
108	0x3df317f7	0.11869805
109	0xbdf076ec	-0.117414325
110	0xbdd98bdf	-0.106223814
111	0x3e3cf451	0.18452574
112	0xbdd5b2b0	-0.104344726
113	0xbd908e4c	-0.07058391
114	0xbd291dec	-0.0412883
115	0xbd9eede0	-0.07760215
116	0xbd0da320	-0.034579396
117	0xbc9ca160	-0.019119918
118	0x3db38e37	0.0876736
119	0xbe08eec0	-0.13372326
120	0x3e028bdb	0.12748663
121	0x3e267dd9	0.16258945
122	0xbe304ed3	-0.17217569
123	0xbd95dc23	-0.07317378
124	0xbe0b2a45	-0.13590343
125	0xbddf7238	-0.109104574
126	0x3e2d1659	0.16903056
127	0x3e149331	0.14509274
128	0x3d8c4090	0.06848252
129	0x3d5826e3	0.05277146
130	0xbe2155b4	-0.1575535
131	0xbe0d0c7c	-0.13774294
132	0xbdc3425f	-0.09534144
133	0x3dc7e079	0.09759612
134	0xbe08de5c	-0.13366073
135	0xbdd71459	-0.10501928
136	0xbdd5e8c4	-0.10444787
137	0xbdd844a1	-0.10559965
138	0xbd7708e3	-0.06031121
139	0x3cefb00f	0.029258756
140	0x3c1869ba	0.009302551
141	0xbcd0bf16	-0.025481742
142	0xbdfc558c	-0.12321004
143	0xbd0ab9a9	-0.033868466
144	0xbd4ddce2	-0.05025948
145	0xbda1cb58	-0.07900113
146	0xbda07024	-0.07833889
147	0xbe0da1ce	-0.13831255
148	0x3c47d50f	0.012196793
149	0x3ca9d10d	0.020729566
150	0x3ad2a685	0.0016071355
151	0x3e046ec5	0.1293288
152	0xbe15fc16	-0.14646944
153	0x3dcb3347	0.0992189
154	0x3df5f1af	0.12008988
155	0x3cb2d744	0.021831162
156	0x3e3488fe	0.17630383
157	0x3ca4ce2f	0.020117847
158	0xbddee2b7	-0.10883086
159	0xbe144f98	-0.14483488
160	0x3e066a2f	0.13126443
161	0xbe02955e	-0.12752292
162	0x3da57e8c	0.080807775
163	0xbdc4840c	-0.095954984
164	0xbe2ba7cf	-0.16763233
165	0xbda00a9f	-0.07814526
166	0xbddb228c	-0.10699949
167	0xbdd45bbc	-0.103690594
168	0x3da08581	0.07837964
169	0xbdd858cd	-0.105638124
170	0x3db01566	0.085978314
171	0xbcd7b839	-0.026332961
172	0x3d900cfd	0.07033727
173	0x3db7c214	0.08972564
174	0x3e191de3	0.14952807
175	0x3d26c350	0.04071361
176	0x3d62b538	0.055348605
177	0x3d93822e	0.07202564
178	0x3dc43120	0.09579682
179	0xbd4f973b	-0.050681334
180	0x3e03fd07	0.12889491
181	0x3d75b743	0.059989225
182	0xbdc0dea2	-0.09417464
183	0xbd9b2fa2	-0.075774446
184	0xbe35691c	-0.17715877
185	0x3ded23b8	0.115790784
186	0x3e17671e	0.1478543
187	0x3d912fba	0.07089181
188	0x3dedf01f	0.11618065
189	0xbc539742	-0.012914481
190	0xbd8d2185	-0.06891159
191	0x3db1ce4b	0.086819254
192	0xbe299f3d	-0.16564651
193	0xbe33be6d	-0.1755311
194	0xbb5c03b6	-0.0033571548
195	0xbd1b8ba5	-0.037974972
196	0x3df7b99e	0.120959505
197	0xbe2fdf31	-0.17174985
198	0xbe0fd998	-0.14047849
199	0xbdbd0b3f	-0.09230661
200	0xbd2a4d2c	-0.041577503
201	0xbe1f8c48	-0.15580857
202	0x3e08a07a	0.13342467
203	0xbc7a56eb	-0.015279512
204	0xbe186a7d	-0.14884372
205	0x3deeccd8	0.116601646
206	0x3e21e634	0.15810472
207	0xbdff9913	-0.124803685
208	0x3e233467	0.15937959
209	0x3d581a3b	0.05275939
210	0x3dda3fd9	0.10656709
211	0xbc986937	-0.018604858
212	0x3d117e22	0.03552068
213	0xbe066dcc	-0.13127822
214	0x3d8ce7ad	0.06880126
215	0xbc396ea7	-0.0113178855
216	0x3dcbec96	0.099572346
217	0x3e1afa13	0.15134458
218	0xbc94bf17	-0.018157525
219	0x3e3d4a1b	0.184853
220	0x3db70722	0.08936907
221	0x3c1278d0	0.008939937
222	0x3e0358df	0.1282687
223	0x3b864700	0.0040978193
224	0xbc4e2919	-0.012583041
225	0x3e1a09ed	0.15042849
226	0xbdb95690	-0.090497136
227	0xbe0693ff	-0.13142394
228	0xbcadcdd7	-0.021216316
229	0xbd7465b1	-0.059667293
230	0x3e0bd1f7	0.13654314
231	0x3da7ecea	0.08199485
232	0xbd06d07a	-0.032913662
233	0x3bcca045	0.0062446916
234	0xbcfd8f52	-0.03095213
235	0xbde3eeaa	-0.11129506
236	0x3da3e494	0.08002582
237	0x3c277f8f	0.010223283
238	0x3c977565	0.018488595
239	0x3dacb2d7	0.084325485
240	0xbd34fb9a	-0.04418526
241	0xbdf98029	-0.12182648
242	0xbe0849d1	-0.13309409
243	0xbdd0b6da	-0.10191126
244	0x3e01adb5	0.1266392
245	0xbd427351	-0.047473256
246	0x3dfe711e	0.12423919
247	0xbe27d434	-0.16389543
248	0x3d8d08fb	0.068864785
249	0x3d3ba52d	0.04581182
250	0x3db13970	0.086535335
251	0x3dca962e	0.09891926
252	0x3e2ab450	0.16670346
253	0xbdf32efd	-0.11874197
254	0xbdacb883	-0.0843363
255	0x3e03a3b3	0.12855415

multihead_self_attention.fc.bias f4 [12]
0	0x3dd28f44	0.10281232
1	0xbc2a37dd	-0.010389295
2	0x3d047874	0.032341436
3	0x3d5fe094	0.054657534
4	0xbe255476	-0.161455
5	0xbdda074e	-0.106459245
6	0x3d47be1e	0.048765294
7	0x3dd35dc2	0.10320617
8	0x3d3af92a	0.045647778
9	0x3e1f7370	0.1557138
10	0x3df3342d	0.11875186
11	0xbde316c8	-0.110883296

fc.weight f4 [12, 12]
0	0x3cfaa55a	0.030596424
1	0x3dc3ef5b	0.09567138
2	0xbe536abb	-0.20646183
3	0x3e257f99	0.16161956
4	0xbd12ea68	-0.03586808
5	0x3e68adfd	0.22722621
6	0x3e888448	0.26663423
7	0xbe520dc0	-0.20513058
8	0x3de25d68	0.11052972
9	0xbe4b8c36	-0.19877705
10	0xbe8c1fbd	-0.27367964
11	0x3e2138fa	0.15744391
12	0x3d73984b	0.05947141
13	0xbd45fbfc	-0.048336014
14	0xbda6814b	-0.081301294
15	0xbd81dea5	-0.06341294
16	0x3e36ba08	0.17844403
17	0x3d027576	0.0318503
18	0xbe1622e5	-0.14661749
19	0xbdb7de22	-0.08977915
20	0xbe436560	-0.1908164
21	0x3dbb146a	0.09134753
22	0x3e196998	0.14981687
23	0x3e0fae65	0.1403137
24	0x3e16ea51	0.14737822
25	0xbd9c929c	-0.07645151
26	0x3d8351be	0.064120755
27	0x3e4f0c27	0.2021948
28	0x3d22b887	0.03972676
29	0xbc7bea2d	-0.015375656
30	0x3e9e4b1d	0.30916682
31	0x3e53b2a1	0.2067361
32	0xbe5bcfad	-0.21465941
33	0x3e9fa193	0.3117796
34	0xbe76766b	-0.2406861
35	0x3dbadc64	0.091240674
36	0xbc3209ec	-0.010866623
37	0xbe6ee678	-0.23330104
38	0x3e5ee762	0.21767953
39	0xbe51591d	-0.2044415
40	0x3d36fd2b	0.044675034
41	0xbd74179d	-0.059592832
42	0x3e297f1a	0.16552392
43	0xbe9a47e6	-0.3013298
44	0x3e0607ff	0.13088988
45	0xbd9dda99	-0.0770771
46	0xbe001194	-0.12506706
47	0x3da757e2	0.08171059
48	0x3e35a12b	0.17737262
49	0xbd8c289b	-0.068436824
50	0xbe8b5c7e	-0.27219003
51	0xbe04d68e	-0.12972471
52	0xbe2f7663	-0.17135005
53	0x3e81297f	0.25226972
54	0xbe6ba64a	-0.23012653
55	0xbde98667	-0.11402588
56	0x3c540a18	0.01294186
57	0x3e35b354	0.1774419
58	0xbdd8743d	-0.10569046
59	0x3e793fe8	0.24340785
60	0x3e7762e0	0.24158812
61	0xbe0fa426	-0.14027461
62	0x3e89ca27	0.26912042
63	0x3ea90805	0.3301393
64	0x3d2d18fa	0.042260148
65	0xbdfde388	-0.12396914
66	0xbe7af044	-0.24505717
67	0x3e3bd5df	0.18343304
68	0x3e487dca	0.19579235
69	0x3e51c02e	0.20483467
70	0x3d19498a	0.037423648
71	0xbcdb140f	-0.026742963
72	0xbe54618f	-0.2074034
73	0xbc59e13c	-0.013298329
74	0x3e41bbb4	0.1891926
75	0xbe3a9999	-0.18222655
76	0xbe266649	-0.16249956
77	0xbdbdb2d9	-0.09262628
78	0x3d38185f	0.044945117
79	0x3c6844d4	0.014176566
80	0xbcfc2d37	-0.030783279
81	0x3e367be2	0.17820695
82	0x3e8d3d44	0.27585804
83	0x3e99d670	0.30046415
84	0x3e250021	0.1611333
85	0xbd01b945	-0.031670827
86	0x3ea876db	0.3290318
87	0x3df1da30	0.11809194
88	0xbde07b5d	-0.1096103
89	0xbe8d3336	-0.27578133
90	0xbe5af530	-0.21382594
91	0x3d03c43d	0.03216957
92	0x3e27c9c9	0.16385569
93	0x3df6e557	0.12055462
94	0xbcb38907	-0.021915926
95	0x3e0613fc	0.13093561
96	0xbe90d061	-0.2828398
97	0x3d0cfb3b	0.03441928
98	0xbda1217e	-0.07867716
99	0x3e239f18	0.15978658
100	0x3e8d3d73	0.27585945
101	0xbe5c9f8e	-0.2154524
102	0xbe6631ac	-0.22479886
103	0x3e6fe005	0.234253
104	0x3e6f0e9d	0.23345418
105	0xbd715720	-0.05892098
106	0xbe940fe0	-0.28918362
107	0xbe77a259	-0.24183024
108	0xbd189a5b	-0.03725658
109	0xbda8a4c9	-0.08234555
110	0x3d8cc459	0.06873388
111	0x3e8a864f	0.27055594
112	0xbea6741c	-0.3251046
113	0x3d9c9f99	0.07647628
114	0xbd11ce7e	-0.035597317
115	0x3e1cd2d0	0.15314794
116	0xbe86d1e6	-0.26332015
117	0x3c733da5	0.01484624
118	0x3d72cea0	0.059279084
119	0x3e0d1f83	0.13781552
120	0x3e7e10fa	0.24811164
121	0xbe47ffe8	-0.19531214
122	0xbdeac87f	-0.11464023
123	0xbcc3c961	-0.023899736
124	0x3c5b60fc	0.013389822
125	0x3e9ce100	0.3064041
126	0x3cdb85da	0.026797224
127	0xbdc7c15f	-0.097536795
128	0x3dff1d4b	0.12456759
129	0x3d690ddd	0.056897987
130	0xbd5ba6f4	-0.053626016
131	0xbdcb3eea	-0.09924109
132	0xbdf15a2e	-0.117847785
133	0x3e1a22c4	0.15052325
134	0x3ea428fd	0.32062522
135	0xbe50137b	-0.20319931
136	0xbe6305b7	-0.22170149
137	0x3dcd8a6c	0.100361675
138	0x3d334002	0.043762214
139	0xbe76b5ad	-0.24092741
140	0x3e797d0f	0.24364112
141	0x3e987af0	0.29781294
142	0x3e97ccc0	0.296484
143	0x3e83a4f5	0.2571179

fc.bias f4 [12]
0	0xbe851579	-0.25992945
1	0x3e085490	0.13313508
2	0xbc7b7cb1	-0.015349553
3	0xbe15a458	-0.14613473
4	0xbe6861a0	-0.22693491
5	0xbe83257b	-0.25614533
6	0x3e12883f	0.14309786
7	0xbc2865b7	-0.010278157
8	0xbe840702	-0.25786597
9	0xbdd76994	-0.10518184
10	0x3e24efa5	0.16107042
11	0xbe9e4e5c	-0.30919158
