trained_weights/trace/selfattention23.pth (torch, 21775 bytes, 8 tensors)

multihead_self_attention.multihead_attn.in_proj_weight f4 [96, 32]
0	0x3db10690	0.0864383
1	0x3c0baf42	0.008525671
2	0xb4daf4ac	-4.0783686e-07
3	0xbdc87a5b	-0.097889625
4	0x3d53b4c2	0.051686056
5	0xb526dc9a	-6.2160836e-07
6	0x3ced4985	0.02896572
7	0x37012720	7.698109e-06
8	0xbd4bfbfe	-0.049800865
9	0xbdcc99c6	-0.099902675
10	0x3c9635a4	0.018336125
11	0xbcc8e8b9	-0.024525033
12	0xbdd448c7	-0.10365444
13	0x361b0f10	2.3105567e-06
14	0x3b961a88	0.0045807995
15	0x3d15e96d	0.036599565
16	0xbb87cb06	-0.0041440753
17	0xbc2d2222	-0.01056722
18	0xbde08976	-0.109637186
19	0xbced4365	-0.0289628
20	0xbcd08d4d	-0.025458002
21	0x3c3f44cf	0.01167412
22	0x3c8837fe	0.016628262
23	0xbbb49521	-0.0055109416
24	0x3da68828	0.081314385
25	0xbd4f9fd7	-0.050689545
26	0x3d22db6a	0.03976003
27	0x3df040ae	0.11731087
28	0x35e1cc7c	1.6823319e-06
29	0x3da53d23	0.080683015
30	0xbdd573c0	-0.10422468
31	0xbdf98259	-0.12183065
32	0xbad83d41	-0.0016497747
33	0xbcbccd02	-0.023046974
34	0xbd4286f3	-0.04749198
35	0xbd664443	-0.056217443
36	0x3b38050a	0.0028079175
37	0x348bd23e	2.604374e-07
38	0x3d20c64b	0.039251607
39	0x3d4f8933	0.050667953
40	0x3c02287c	0.007944223
41	0xbd8b88ab	-0.06813177
42	0x3d26e892	0.04074914
43	0x3da302bc	0.07959506
44	0x3cbfbc2b	0.023405155
45	0x3523afba	6.097795e-07
46	0xbadde69e	-0.0016929691
47	0x3c7091b9	0.0146831805
48	0x38e4e70b	0.00010914922
49	0xbdfe4aa9	-0.12416584
50	0x3d12666a	0.0357422
51	0x3c60d7e8	0.013723351
52	0x3cc68d36	0.024237256
53	0x3b62aa23	0.0034586273
54	0x3c5de339	0.013542944
55	0x3d5c6ce3	0.05381478
56	0xbd2bbba3	-0.04192699
57	0xbd23bf7c	-0.039977536
58	0xb4467e70	-1.8486185e-07
59	0x3b42bcdf	0.0029714627
60	0xb4d22d01	-3.9148293e-07
61	0xbd9b7a56	-0.07591693
62	0xbc1bcaa4	-0.0095087625
63	0x3dd1b3c4	0.10239366
64	0xbdeba219	-0.11505527
65	0x3c005b38	0.007834248
66	0xbdb7d278	-0.089756906
67	0x3d6182ac	0.05505626
68	0xb40e1f44	-1.3236155e-07
69	0xb4e45464	-4.2529712e-07
70	0x3da76750	0.08174002
71	0xbac7b8ae	-0.0015237534
72	0x3d42d28e	0.04756408
73	0xbc57ea69	-0.013178446
74	0x3df21fa2	0.1182244
75	0x36bcbcb0	5.6248027e-06
76	0x3d16ebb9	0.036845896
77	0xbda844b0	-0.08216226
78	0x3d7ba10c	0.061432883
79	0x3257d66e	1.2563403e-08
80	0xbc739f46	-0.014869517
81	0xbdc4c559	-0.096079536
82	0x3cf31514	0.029673137
83	0xbda1e0c8	-0.07904202
84	0x3d0eaf87	0.034835365
85	0x3b53b256	0.0032302341
86	0xbb2c2bdc	-0.002627126
87	0xbd0bde97	-0.034147825
88	0xbc0a1408	-0.008427627
89	0xbd4a69b7	-0.049417224
90	0xb47a5bab	-2.3316413e-07
91	0xbd9649a3	-0.07338264
92	0xb6e6e66f	-6.88136e-06
93	0x34f8ff6e	4.637945e-07
94	0x3d3fadc1	0.046796564
95	0xbba68d6a	-0.005082776
96	0x3d489302	0.048968323
97	0x3dbace29	0.09121353
98	0x3dd89c12	0.10576643
99	0xbc82a10e	-0.015945937
100	0x3c0624ea	0.008187512
101	0x3610514f	2.1505e-06
102	0x3dd16c82	0.10225774
103	0x3453a560	1.971107e-07
104	0xb916ea34	-0.00014392362
105	0xbba74c25	-0.0051055127
106	0xbd99cc7a	-0.07509704
107	0xbc937217	-0.017998738
108	0xb8432fb0	-4.6536035e-05
109	0x3d34357a	0.04399631
110	0x348c9425	2.6184821e-07
111	0x3a4b013a	0.0007744018
112	0x3c1c16b6	0.009526899
113	0xb6c7c2a2	-5.9533204e-06
114	0xbcf49157	-0.02985446
115	0xbd52e906	-0.05149176
116	0xbd0d8bf8	-0.034557313
117	0xbd961519	-0.07328243
118	0xbb724d72	-0.003697243
119	0x3d9ca0e6	0.076478764
120	0x3dd08a4f	0.1018263
121	0xbdefe103	-0.117128395
122	0xbadcb28b	-0.0016837878
123	0x3ddfde8e	0.10931121
124	0x3536e7b7	6.8137473e-07
125	0x3de4b6c8	0.11167675
126	0x3d3256dc	0.043539867
127	0x3566e596	8.601577e-07
128	0x3cd735a9	0.026270704
129	0x3deaa237	0.11456721
130	0xbc2dab47	-0.010599918
131	0xb017c067	-5.52069e-10
132	0x3b5b024a	0.0033418112
133	0x3dc2ed9b	0.09517976
134	0x3d562085	0.052277107
135	0x34c1a851	3.6071518e-07
136	0x3dfcac82	0.12337591
137	0xbce19eb4	-0.027541496
138	0x3df1161b	0.117717944
139	0x3d974039	0.073852964
140	0x3d5995e1	0.05312145
141	0x3dba7a58	0.091053665
142	0xbdfba97d	-0.12288187
143	0xb410c5a6	-1.3482949e-07
144	0xb53b22c7	-6.9713536e-07
145	0xbd8d9b35	-0.06914369
146	0xbd3631ad	-0.04448097
147	0x3dad68d3	0.08467259
148	0xbb001aa6	-0.0019547134
149	0xbdf41ec7	-0.11919933
150	0xbdf71a13	-0.1206552
151	0xbdcc88a1	-0.099869974
152	0xbca37db1	-0.019957395
153	0xbc407d70	-0.011748657
154	0xb514194e	-5.517112e-07
155	0x3d1fd0b5	0.039017398
156	0x3d9ca013	0.07647719
157	0xbcb89cd4	-0.022535719
158	0x31a7ffb8	4.8894115e-09
159	0x3d74ca90	0.05976349
160	0xbb723dd3	-0.003696312
161	0x3a268f64	0.00063537643
162	0x321a18c2	8.969609e-09
163	0x3db329b1	0.087481864
164	0x351e3a61	5.894454e-07
165	0xbb673b89	-0.0035283288
166	0xb529f7a2	-6.331776e-07
167	0x3c928a56	0.01788823
168	0xbd6a23c0	-0.057163
169	0x3d7e5dde	0.062101237
170	0x3d7e0f25	0.06202616
171	0xbcba3c82	-0.02273393
172	0xbc314fd0	-0.010822251
173	0x3bb67438	0.0055680536
174	0xbdf962b2	-0.12177028
175	0x3d185816	0.03719338
176	0x334a5490	4.71087e-08
177	0x35911e66	1.0812189e-06
178	0xbd151392	-0.036395617
179	0xbdce6a31	-0.10078848
180	0x3d93850c	0.07203111
181	0xbd7c55a6	-0.06160512
182	0xbdf43169	-0.11923487
183	0xbd15623e	-0.036470644
184	0x3d5dc0f6	0.0541391
185	0x3df17c92	0.11791338
186	0xbd125f93	-0.035735678
187	0x3dd578ad	0.10423408
188	0x3d14c749	0.036322866
189	0x3d784e61	0.060621623
190	0xbd01b417	-0.031665888
191	0x3dc1c5ea	0.09461577
192	0x3abf8ad1	0.0014613514
193	0x3d8453b6	0.06461279
194	0x38838985	6.272182e-05
195	0xbcb3401f	-0.021881161
196	0x371b36ca	9.2514765e-06
197	0xbdcee42b	-0.10102113
198	0x3de78e4a	0.11306436
199	0x3c41c6bb	0.011827166
200	0x3c806edb	0.01567786
201	0xbd5c1ba7	-0.05373731
202	0xbb4a9e0f	-0.0030916964
203	0xbdcb4faf	-0.09927308
204	0xbda18983	-0.078875564
205	0x328ae505	1.616946e-08
206	0xbdb007a3	-0.085952066
207	0x3ccf8845	0.025333533
208	0xbd7ab780	-0.061210155
209	0x39901609	0.00027482238
210	0x3db98602	0.09058763
211	0x3dbdf3d7	0.092750244
212	0x3d866298	0.06561774
213	0x3ab57b28	0.0013845908
214	0x3bfc2a2a	0.007695456
215	0x3d0a3d49	0.033749852
216	0x34254f27	1.5395618e-07
217	0xbcbedf74	-0.02329991
218	0xbc0f546d	-0.008748156
219	0x33a5c31e	7.718903e-08
220	0x3d03c36e	0.0321688
221	0x34c631b1	3.691653e-07
222	0x349bf0ae	2.9046117e-07
223	0x3dd981ae	0.106204376
224	0xbddd553f	-0.10807275
225	0xb361ea33	-5.2599898e-08
226	0xbddabd02	-0.10680582
227	0x357a63de	9.3277583e-07
228	0x3b3f2c6d	0.0029170767
229	0x3d11e90c	0.03562264
230	0x3d68d084	0.05683948
231	0x3d034534	0.03204842
232	0x3c49a8ea	0.012308339
233	0xbd1d35f8	-0.038381547
234	0x3dbdb0cb	0.09262236
235	0x3d8452bb	0.06461092
236	0x3d6fa6c4	0.05850865
237	0x3df6f028	0.12057525
238	0xbdbb682b	-0.09150728
239	0xbd5eaecb	-0.054365914
240	0xbd1eb8f0	-0.03875059
241	0xbbe0028a	-0.00683624
242	0xbdc8ba68	-0.09801179
243	0xb4edd1d0	-4.429735e-07
244	0x3b19ac0e	0.00234485
245	0x348e2af3	2.648081e-07
246	0x3c84a728	0.016192988
247	0x3dfd641c	0.1237261
248	0xbd9d1897	-0.07670706
249	0x35462b94	7.382416e-07
250	0x3dcbb4c6	0.09946589
251	0xb427c0e4	-1.562326e-07
252	0xbdeb0ffc	-0.11477658
253	0x3ce1b0db	0.027550152
254	0xbd0d7cb3	-0.03454275
255	0x3d115198	0.035478204

multihead_self_attention.multihead_attn.in_proj_bias f4 [96]
0	0x00000000	0.0
1	0x00000000	0.0
2	0x00000000	0.0
3	0x00000000	0.0
4	0x00000000	0.0
5	0x00000000	0.0
6	0x00000000	0.0
7	0x00000000	0.0
8	0x00000000	0.0
9	0x00000000	0.0
10	0x00000000	0.0
11	0x00000000	0.0
12	0x00000000	0.0
13	0x00000000	0.0
14	0x00000000	0.0
15	0x00000000	0.0
16	0x00000000	0.0
17	0x00000000	0.0
18	0x00000000	0.0
19	0x00000000	0.0
20	0x00000000	0.0
21	0x00000000	0.0
22	0x00000000	0.0
23	0x00000000	0.0
24	0x00000000	0.0
25	0x00000000	0.0
26	0x00000000	0.0
27	0x00000000	0.0
28	0x00000000	0.0
29	0x00000000	0.0
30	0x00000000	0.0
31	0x00000000	0.0
32	0x00000000	0.0
33	0x00000000	0.0
34	0x00000000	0.0
35	0x00000000	0.0
36	0x00000000	0.0
37	0x00000000	0.0
38	0x00000000	0.0
39	0x00000000	0.0
40	0x00000000	0.0
41	0x00000000	0.0
42	0x00000000	0.0
43	0x00000000	0.0
44	0x00000000	0.0
45	0x00000000	0.0
46	0x00000000	0.0
47	0x00000000	0.0
48	0x00000000	0.0
49	0x00000000	0.0
50	0x00000000	0.0
51	0x00000000	0.0
52	0x00000000	0.0
53	0x00000000	0.0
54	0x00000000	0.0
55	0x00000000	0.0
56	0x00000000	0.0
57	0x00000000	0.0
58	0x00000000	0.0
59	0x00000000	0.0
60	0x00000000	0.0
61	0x00000000	0.0
62	0x00000000	0.0
63	0x00000000	0.0
64	0xbbccf86a	-0.006255199
65	0x3c9fc732	0.019504163
66	0x3be0caaf	0.0068600993
67	0xb9f79a70	-0.00047226576
68	0xbcae86b3	-0.021304464
69	0xbaf1ce07	-0.0018448242
70	0xb9c9f6f8	-0.00038521714
71	0xbc655894	-0.013998169
72	0x3b125a5b	0.0022331688
73	0xba7d5859	-0.0009664349
74	0xb9e191e0	-0.0004302403
75	0xbbd66d06	-0.0065437583
76	0xb8a5b90a	-7.902279e-05
77	0x3cc2b98f	0.023770122
78	0xbb03b69c	-0.0020097857
79	0x39c854a9	0.0003821005
80	0x3bbc70f0	0.005750768
81	0xbbb3c8b7	-0.0054865736
82	0xbc675967	-0.014120436
83	0xbc9624e9	-0.018328147
84	0xbb10f5c9	-0.0022119156
85	0xbc25a425	-0.010109936
86	0x3b0888f6	0.0020833588
87	0x3bc1e42b	0.0059170923
88	0x3c922055	0.017837683
89	0xbb8a6df8	-0.004224535
90	0xbce386b5	-0.027774194
91	0x3c342057	0.010994039
92	0xbb881967	-0.004153419
93	0x3ad5da3e	0.0016315652
94	0xbb72a199	-0.003702259
95	0xbb8014de	-0.0039087376

multihead_self_attention.multihead_attn.out_proj.weight f4 [32, 32]
0	0xbe0f4798	-0.13992155
1	0x3dbba9ee	0.09163271
2	0x3e3c5469	0.18391575
3	0xbe0674b6	-0.13130459
4	0xbc59f7ff	-0.013303756
5	0x3ccff9e9	0.025387721
6	0xbd91b87b	-0.07115265
7	0xbe2bd53c	-0.16780561
8	0x3d5c4a87	0.053782012
9	0x3e080ada	0.1328539
10	0x3dbe37e6	0.092880055
11	0xbd47a263	-0.04873885
12	0xbd3cc6b7	-0.046087947
13	0x3e4cca78	0.1999911
14	0xbafe9944	-0.0019424339
15	0x3d0108c0	0.031502485
16	0x3e0f05bd	0.13967033
17	0x3e28791d	0.16452451
18	0x3c0c810c	0.008575689
19	0x3e03f717	0.12887226
20	0xbdeeb3dc	-0.11655399
21	0xbe17002f	-0.14746164
22	0xbdc7a1e0	-0.09747672
23	0x3e3872a7	0.18012486
24	0x3e48fd14	0.19627792
25	0xbd753b88	-0.059871227
26	0xbe361bfa	-0.1778411
27	0x3e14f576	0.14546761
28	0xbd94b37d	-0.07260797
29	0x3e03255c	0.1280722
30	0xbd307676	-0.043081723
31	0x3e167d94	0.14696342
32	0x3dd7961d	0.10526679
33	0xbd885ca2	-0.06658293
34	0xbde72413	-0.112861775
35	0xbdc94df9	-0.09829325
36	0x3e2b0485	0.16700943
37	0x3cd7c2dd	0.026338035
38	0xbc5d920d	-0.013523591
39	0xbdab97c9	-0.0837856
40	0xbe0afc40	-0.13572788
41	0x3d312367	0.043246653
42	0x3e2b7a42	0.16745856
43	0x3e1456c1	0.14486219
44	0xbd95ce2d	-0.073147155
45	0xbd8cbdd0	-0.06872141
46	0xbc2d6f48	-0.010585614
47	0x3d3fde01	0.04684258
48	0xbe1f2ca4	-0.15544373
49	0x3c952fdf	0.018211303
50	0x3d3ac9ad	0.04560249
51	0xbdb4c727	-0.08827048
52	0xbb59550e	-0.0033162269
53	0x3c9bba10	0.01900962
54	0xbe16e60a	-0.1473619
55	0xbd548659	-0.051885936
56	0xbb2c1888	-0.002625974
57	0xbd8f2ac9	-0.069905825
58	0xbbc86e01	-0.006116629
59	0x3d712feb	0.05888359
60	0x3dec9c18	0.1155321
61	0x3e1178e5	0.14206274
62	0xbc42952f	-0.011876388
63	0xbdc3f06b	-0.095673405
64	0x3d93058e	0.07178794
65	0xbd896efc	-0.06710622
66	0x3e0873c5	0.13325413
67	0xbd9f824f	-0.07788526
68	0x3b6148d0	0.0034375675
69	0x3dffc06f	0.12487876
70	0x3e024bd2	0.12724236
71	0xbab7bec3	-0.0014018643
72	0xbe1bf853	-0.15231447
73	0x3e2bb2cc	0.16767424
74	0xbda9c4c6	-0.08289485
75	0x3d77de6d	0.060514856
76	0xbdf88f23	-0.12136676
77	0xbd7d75f1	-0.061880056
78	0x3cfdafad	0.030967558
79	0x3d920a87	0.07130914
80	0xbe11287e	-0.14175603
81	0x3d7f4b94	0.062327936
82	0x3e3e80a8	0.18603766
83	0x3e3b74e8	0.18306315
84	0x3d0af1c6	0.03392198
85	0xbd9d183e	-0.076706395
86	0x3d8c4a36	0.06850092
87	0x3e0fee70	0.140558
88	0x3d9e5845	0.0773168
89	0xbd96d7fc	-0.073654145
90	0xbde52197	-0.111880474
91	0xbdca5172	-0.09878816
92	0x3cc6f5e4	0.024287172
93	0xbdd8aa09	-0.10579307
94	0x3e2eaf6d	0.17059107
95	0x3e2b3935	0.16721042
96	0xbe33129e	-0.1748757
97	0xbdf97698	-0.12180823
98	0xbdd7aaf8	-0.105306566
99	0x3c74e6ae	0.014947576
100	0xbc8e45e1	-0.017367305
101	0x3df0f1bf	0.117648594
102	0xbe0b3f40	-0.13598347
103	0x3af99260	0.0019040816
104	0x3d8fdea4	0.07024887
105	0xbd6fc772	-0.058539815
106	0xbe07f5a8	-0.13277304
107	0x3d91cb70	0.07118881
108	0x3dd15279	0.102208085
109	0xbdd33f5f	-0.103148215
110	0xbba49040	-0.0050220788
111	0xbde52871	-0.11189354
112	0x3c860668	0.016360477
113	0x3e18ac79	0.14909543
114	0xbe13a3b3	-0.14417915
115	0x3def8455	0.11695162
116	0xbdf36c50	-0.11885893
117	0x3d8cf35b	0.06882354
118	0x3db9b772	0.090681925
119	0xbd983dc5	-0.074336566
120	0x3deb4a4d	0.11488781
121	0xbd1e3a06	-0.038629554
122	0x3d076044	0.03305079
123	0x3cf2618b	0.029587528
124	0x3deb947a	0.11502929
125	0xbad3d770	-0.0016162228
126	0x3dcad703	0.099042915
127	0x3e06f2ce	0.1317856
128	0x3d578fc4	0.05262734
129	0x3e37efa2	0.17962506
130	0x3d44b8a6	0.048027657
131	0x3e0f4e0c	0.13994616
132	0xbdbe0a99	-0.09279365
133	0xbb61a501	-0.0034430625
134	0x3d26a8f1	0.04068846
135	0xbce8382a	-0.028347094
136	0xbdba8d4e	-0.09108983
137	0x3d82cc3f	0.06386613
138	0x3d3b6151	0.045747105
139	0xbd03d0e1	-0.032181624
140	0x3de7561d	0.11295722
141	0xbd57e94e	-0.05271273
142	0x3dc57ad7	0.096425705
143	0x3ca65b83	0.020307308
144	0xbd9e8caa	-0.07741673
145	0xbe211e54	-0.15734226
146	0xbdc180d8	-0.09448403
147	0xbd6f7916	-0.058465086
148	0x3e33fb28	0.17576277
149	0x3d60f6af	0.054922756
150	0x3a4b96ca	0.0007766305
151	0x3d14ce58	0.036329597
152	0xbd0b35b3	-0.03398676
153	0xbe0532b4	-0.13007623
154	0xbe044037	-0.12915121
155	0x3d5770af	0.052597698
156	0xbd8a3638	-0.06748623
157	0xbccc61c5	-0.024948964
158	0xbd80e0e1	-0.06292892
159	0xbd152aa2	-0.03641761
160	0x3dc80ce0	0.09768081
161	0x3e18d4df	0.14924954
162	0x3e161c5b	0.14659254
163	0xbd201f4c	-0.039092347
164	0x3c2d7fbc	0.010589536
165	0x3d4f54e2	0.05061806
166	0xbe2e63f9	-0.17030324
167	0x3e11ed91	0.1425078
168	0x3e06fa03	0.1318131
169	0xbb45959a	-0.0030148984
170	0x3e0fdd3d	0.1404924
171	0x3d708dc9	0.058728967
172	0x3e1802b7	0.14844786
173	0x3e277714	0.16354018
174	0x3e19ca04	0.15018469
175	0x3e135bfc	0.14390558
176	0x3e186b59	0.148847
177	0x3d54b7f7	0.051933255
178	0x3d987fb5	0.07446233
179	0x3ddabdd3	0.10680737
180	0xbd2168aa	-0.039406456
181	0x3e0e610a	0.13904205
182	0x3d32b86d	0.043632913
183	0xbd9f85f7	-0.07789224
184	0xbe169ac4	-0.14707476
185	0xbd9705a0	-0.0737412
186	0xbdf963b1	-0.12177218
187	0x3db103a5	0.08643273
188	0x3d9d1fe8	0.07672101
189	0x3c98c1a0	0.018647015
190	0x3e2b092b	0.16702716
191	0xbe30f126	-0.17279491
192	0x3dbe5b79	0.09294791
193	0x3e1c6d05	0.15275963
194	0x3d3a6167	0.045503046
195	0xbe08df13	-0.13366346
196	0x3e12d808	0.14340222
197	0x3dd5bf11	0.10436834
198	0xbd7cd35d	-0.06172501
199	0x3dbabff7	0.09118646
200	0x3e157ad6	0.1459764
201	0xbdddf6e4	-0.10838106
202	0x3def8cfc	0.116968125
203	0xbc15e0c2	-0.009147825
204	0xbe132571	-0.14369752
205	0xbe060980	-0.13089561
206	0xbdc2de75	-0.095150866
207	0xbd20697c	-0.039163098
208	0xbdb2e29d	-0.08734629
209	0xbe2133f5	-0.15742476
210	0x3d88165b	0.06644889
211	0x3df030f7	0.11728089
212	0xbdae5beb	-0.08513626
213	0xbe0284cc	-0.1274597
214	0x3df654d9	0.12027902
215	0xbc0e3669	-0.008679965
216	0x3e0e8f29	0.13921799
217	0xbe2e38dc	-0.17013878
218	0xbde96d8b	-0.11397847
219	0x3e0a6602	0.13515475
220	0xbe3f1dda	-0.18663731
221	0xbd13329a	-0.03593693
222	0xbe2ddc99	-0.16978683
223	0xbdd98047	-0.1062017
224	0x3bc13860	0.005896613
225	0xbdb0ab23	-0.08626392
226	0xbd90c973	-0.070696734
227	0x3e3334a6	0.17500553
228	0xbda0b2b9	-0.07846589
229	0xbd33a642	-0.043859728
230	0x3e1eb791	0.15499713
231	0x3d86e5cc	0.06586799
232	0xbdc5f61f	-0.096660845
233	0xbe24cc5c	-0.16093582
234	0x3dbcac1a	0.09212513
235	0xbe34a283	-0.17640118
236	0x3e271520	0.16316652
237	0x3cb05751	0.02152601
238	0xbdc93d50	-0.098261476
239	0x3d49ab3e	0.049235575
240	0xbd260861	-0.040535334
241	0xbd0906f9	-0.033453915
242	0x3e154dc5	0.14580448
243	0x3da07615	0.07835022
244	0xbb58c57c	-0.0033076694
245	0x3d0337e5	0.032035727
246	0xbe4ae19e	-0.19812629
247	0x3dd377d7	0.10325592
248	0xbbabbaa0	-0.0052407533
249	0xbdcb197d	-0.09916971
250	0x3db57117	0.08859461
251	0x3b1f4990	0.0024305321
252	0x3c8b879a	0.017032433
253	0xbe25c007	-0.16186534
254	0xbbfaf598	-0.0076586716
255	0x3e12e1c8	0.14343941

multihead_self_attention.multihead_attn.out_proj.bias f4 [32]
0	0x3cb06667	0.021533204
1	0xbbe9404a	-0.0071182596
2	0xbbb66527	-0.0055662575
3	0xbc76bb9e	-0.01505938
4	0x3c71173c	0.014715012
5	0xb9d6f75d	-0.0004100156
6	0xbb0b2c79	-0.0021236225
7	0xbc5b9aaa	-0.013403574
8	0xba32fe6b	-0.00068280724
9	0x3bf8b89f	0.007590368
10	0xbafe8b2f	-0.0019420142
11	0x3cc3d82d	0.023906792
12	0xbc2f4a27	-0.010698832
13	0xbb17fa37	-0.002318991
14	0x3bf8e85c	0.007596059
15	0xbaf854b0	-0.0018946137
16	0xbb9c5288	-0.0047705807
17	0x3bf3023e	0.007416039
18	0x3a842ee4	0.0010084775
19	0x3b11efc2	0.002226815
20	0xbb961b48	-0.004580889
21	0x3c219d4e	0.0098641645
22	0xbc39bf01	-0.011337043
23	0x3cffde54	0.031233944
24	0xbc93cdea	-0.018042523
25	0xbbfa5385	-0.007639351
26	0xbaac2f4f	-0.0013136658
27	0xbc3a7e34	-0.011382628
28	0x3bfaca9f	0.007653549
29	0x3ca775fb	0.020442
30	0xbc0f630e	-0.008751644
31	0x3c60ed36	0.0137284305

multihead_self_attention.fc.weight f4 [12, 32]
0	0x3c9ba7e9	0.019000964
1	0xbdf2e3f5	-0.118598856
2	0xbd0623da	-0.032749034
3	0x3e134e78	0.14385402
4	0x3cb15c14	0.021650352
5	0x3cea1c92	0.028578077
6	0x3da26fb9	0.07931466
7	0x3d9c2ee2	0.0762613
8	0x3e1e9ac8	0.15488732
9	0x3e1a7cdf	0.15086697
10	0x3da26e0b	0.07931145
11	0x3d4405c2	0.047857054
12	0x3dc9401f	0.09826683
13	0x3de8b0e8	0.11361867
14	0x3b892291	0.004185029
15	0xbdf3dde8	-0.1190756
16	0xbe0af494	-0.13569862
17	0x3d6ffc51	0.058590237
18	0x3e25ba56	0.16184363
19	0x3bf197b2	0.00737282
20	0x3da5fa8b	0.08104428
21	0xbb980c15	-0.004640112
22	0x3d9d0e67	0.07668763
23	0x3e16273f	0.14663409
24	0x3d445133	0.047929
25	0xbe0feeb1	-0.14055897
26	0x3d0052a9	0.03132883
27	0x3e3afbdb	0.18260138
28	0xbe207389	-0.15669073
29	0xbe2ff382	-0.17182735
30	0xbb3111cd	-0.0027018667
31	0x3d6a06da	0.05713544
32	0xbd10fae6	-0.035395525
33	0x3d834a80	0.06410694
34	0xbe01bff3	-0.12670879
35	0x3e339d02	0.17540362
36	0x3bebb043	0.007192643
37	0x3dbf17f0	0.093307376
38	0xbe3372c7	-0.17524253
39	0xbd8d0742	-0.0688615
40	0xbe07302d	-0.13201971
41	0x3d9a6e5f	0.07540583
42	0x3e0b4b0b	0.13602845
43	0x3d2a0be8	0.04151526
44	0x3e3b84d9	0.18312396
45	0xbdb0391e	-0.08604644
46	0x3d2c3937	0.04204675
47	0x3d93a716	0.072096035
48	0xbd44cb7b	-0.048045617
49	0x3cac77e7	0.021053268
50	0x3d0f5df6	0.035001718
51	0xbdeb1b77	-0.11479848
52	0xbd697a39	-0.057001326
53	0xbd0c3b26	-0.034236096
54	0x3cb0db69	0.021588998
55	0xbe455411	-0.1927035
56	0xbe03b6be	-0.1286268
57	0x3df33ac8	0.11876446
58	0x3cdde6b3	0.027087545
59	0x3e27322a	0.1632773
60	0x3ccefafd	0.025266165
61	0xbd2595b3	-0.040425967
62	0xbd4e5470	-0.050373495
63	0xbe0beab9	-0.13663758
64	0xbe11650b	-0.14198701
65	0x3df9c6dd	0.12196133
66	0x3e1477d7	0.1449884
67	0x3e1ae55c	0.15126556
68	0xbe06996f	-0.13144468
69	0x3dc15655	0.09440295
70	0x3e154efd	0.14580913
71	0x3da91ea0	0.082577944
72	0xbd344651	-0.04401237
73	0xbd9a0f52	-0.07522453
74	0xbdb4624e	-0.08807813
75	0xbce219fd	-0.027600283
76	0x3d65644a	0.056003846
77	0x3bc30fab	0.0059527955
78	0x3ac180e0	0.0014763139
79	0xbc0abc1d	-0.008467701
80	0x3d7a2c63	0.061077487
81	0xbe239c5e	-0.15977618
82	0x3d1e36db	0.038626533
83	0x3d015c61	0.03158224
84	0x3e105982	0.14096645
85	0xbe3a1228	-0.18170989
86	0x3c899796	0.016795915
87	0xbe4ef6cf	-0.20211338
88	0x3d77c69d	0.060492147
89	0x3e2b58d3	0.16733103
90	0x3db11ad1	0.08647693
91	0x3e20bf84	0.15698057
92	0xbdf7e3da	-0.12104006
93	0xbe45f270	-0.19330764
94	0xbc7e5b0c	-0.015524637
95	0xbe1d27ed	-0.15347262
96	0xbd5aee13	-0.0534497
97	0xbd583235	-0.052782256
98	0xbe05922c	-0.13044041
99	0x3df7eac2	0.121053234
100	0x3d31ba2e	0.043390445
101	0x3d949f4f	0.07256948
102	0xbe1de7d7	-0.15420471
103	0x3e3b1a9e	0.18271872
104	0xbdecaf2f	-0.11556851
105	0xbc9beedd	-0.019034797
106	0x3cd1716a	0.025566775
107	0xbe2d50e9	-0.16925396
108	0x3dfebee1	0.12438751
109	0xbdf9a882	-0.121903434
110	0xbdd58866	-0.104264066
111	0x3e3e34e4	0.18574864
112	0xbdd6c81c	-0.104873866
113	0xbd97a9d0	-0.07405436
114	0xbd2faec7	-0.04289129
115	0xbd9eab3b	-0.07747503
116	0xbd18be88	-0.03729108
117	0xbca4896e	-0.020085063
118	0x3da72eb9	0.081632085
119	0xbe09e4a6	-0.13466129
120	0x3e035c8f	0.12828277
121	0x3e27e57f	0.1639614
122	0xbe2e6bd3	-0.17033319
123	0xbd928dbb	-0.07155939
124	0xbe0ba06b	-0.13635413
125	0xbde206d5	-0.11036459
126	0x3e2ddec2	0.16979507
127	0x3e1057a4	0.14095932
128	0x3d89aa80	0.067219734
129	0x3d58eff0	0.052963197
130	0xbe224209	-0.15845503
131	0xbe0ca70e	-0.13735601
132	0xbdbb2e51	-0.091396935
133	0x3dc3272b	0.09528955
134	0xbe0dbcd3	-0.13841562
135	0xbdd43def	-0.103633754
136	0xbdd9fb52	-0.10643639
137	0xbdd97dfb	-0.10619732
138	0xbd77fa5f	-0.060541507
139	0x3ceabe37	0.028655155
140	0x3c53d9cd	0.012930346
141	0xbce5b4cd	-0.028040314
142	0xbdf37fa1	-0.11889578
143	0xbcfa2b87	-0.030538334
144	0xbd4daabe	-0.05021166
145	0xbda67207	-0.08127218
146	0xbda07ad0	-0.078359246
147	0xbe0a3c02	-0.13499454
148	0x3c641586	0.013921147
149	0x3c9e0d02	0.019293312
150	0xbb1d954d	-0.002404529
151	0x3e02ea0e	0.12784597
152	0xbe151883	-0.14560132
153	0x3dccc0b8	0.09997696
154	0x3df2b828	0.11851531
155	0x3cb1b8ca	0.02169456
156	0x3e34600a	0.17614761
157	0x3c9b4d44	0.018957742
158	0xbddff518	-0.1093542
159	0xbe145590	-0.14485765
160	0x3e06d07e	0.13165471
161	0xbe0217c5	-0.1270438
162	0x3da8a4f2	0.08234586
163	0xbdc16012	-0.09442152
164	0xbe37225f	-0.17884205
165	0xbda1f93c	-0.07908866
166	0xbdd25c43	-0.10271504
167	0xbdd68074	-0.10473719
168	0x3da22f51	0.07919181
169	0xbddb0f8d	-0.106963255
170	0x3db2a82b	0.08723482
171	0xbcd3f698	-0.025874421
172	0x3d8efe02	0.06982042
173	0x3db9c5e5	0.090709485
174	0x3e131f24	0.14367348
175	0x3d1a2631	0.03763408
176	0x3d67bda4	0.05657734
177	0x3d96f248	0.0737043
178	0x3dc0be23	0.09411266
179	0xbd66ecf4	-0.05637832
180	0x3df03f88	0.117308676
181	0x3d7ee7f7	0.062232938
182	0xbdc01ab3	-0.093800925
183	0xbd97068a	-0.07374294
184	0xbe3625a8	-0.17787802
185	0x3df16610	0.11787045
186	0x3e1c08c7	0.15237723
187	0x3d9880b5	0.07446424
188	0x3deb1c07	0.11479955
189	0xbc6296ff	-0.013829946
190	0xbd89c095	-0.06726185
191	0x3dabbc44	0.08385518
192	0xbe26cf0e	-0.16289923
193	0xbe324722	-0.17409948
194	0xbbe3bb5d	-0.0069498257
195	0xbd23978f	-0.03993946
196	0x3df75f26	0.12078695
197	0xbe30c315	-0.17261918
198	0xbe0eb174	-0.1393488
199	0xbdc56510	-0.09638417
200	0xbd471393	-0.04860265
201	0xbe1ccc33	-0.15312271
202	0x3e05a62b	0.1305167
203	0xbc3d18dd	-0.011541572
204	0xbe1993b0	-0.14997745
205	0x3df1fbb5	0.118155874
206	0x3e248908	0.16067898
207	0xbe01c179	-0.1267146
208	0x3e23382a	0.15939394
209	0x3d614ecb	0.055006783
210	0x3dd59f38	0.10430759
211	0xbc8f51a9	-0.017494993
212	0x3d09a321	0.033602837
213	0xbe01f0d1	-0.1268952
214	0x3d7dad47	0.06193283
215	0xbc01ad0b	-0.007914792
216	0x3dc43d6f	0.0958203
217	0x3e19adf3	0.15007763
218	0xbca837e0	-0.020534456
219	0x3e3b8fff	0.18316649
220	0x3dbb42cc	0.091436
221	0x3c29da1c	0.010366943
222	0x3dfe72a5	0.124242105
223	0x3af60790	0.0018770564
224	0xbc517fd5	-0.012786825
225	0x3e19e4e7	0.15028726
226	0xbdbc6cc2	-0.092004314
227	0xbe072652	-0.13198212
228	0xbc7ee662	-0.015557857
229	0xbd76072f	-0.060065445
230	0x3e0683e4	0.1313625
231	0x3da995d3	0.0828053
232	0xbd0b9701	-0.034079555
233	0x3bd0bb0e	0.006369955
234	0xbd01cb39	-0.03168795
235	0xbde3a370	-0.111151576
236	0x3da6d836	0.08146708
237	0x3c290a9c	0.010317471
238	0x3cb72ec9	0.022361176
239	0x3db0cc9f	0.086327784
240	0xbd36c899	-0.0446249
241	0xbdfa19f5	-0.12211982
242	0xbe07d509	-0.1326486
243	0xbdcaf605	-0.09910206
244	0x3e06f893	0.13180761
245	0xbd457612	-0.048208304
246	0x3dfad26f	0.12247168
247	0xbe281c5e	-0.16417071
248	0x3d8d5125	0.06900243
249	0x3d361163	0.044450175
250	0x3daeeb4d	0.08540974
251	0x3dc87167	0.09787255
252	0x3e2b3f37	0.16723333
253	0xbdf22671	-0.11823738
254	0xbdaf477e	-0.08558558
255	0x3e046c68	0.12931979

multihead_self_attention.fc.bias f4 [12]
0	0x3dd10ded	0.10207734
1	0xbc6708bb	-0.014101203
2	0x3d09d771	0.033652727
3	0x3d5ac76e	0.053412847
4	0xbe265eee	-0.1624715
5	0xbdda292f	-0.106523864
6	0x3d511ec7	0.051054742
7	0x3dd2e3fc	0.10297391
8	0x3d48e87c	0.04904984
9	0x3e1e3f2a	0.15453783
10	0x3def03ae	0.11670624
11	0xbde48e72	-0.11159982

fc.weight f4 [12, 12]
0	0x3cc92f77	0.024558766
1	0x3dd927c3	0.10603287
2	0xbe4d95e7	-0.20076714
3	0x3e29b271	0.16571976
4	0xbd0e0564	-0.03467311
5	0x3e5a3acf	0.21311496
6	0x3e886ba9	0.26644638
7	0xbe4c997c	-0.19980425
8	0x3dc85bd9	0.097831436
9	0xbe479f32	-0.19494322
10	0xbe88dfcf	-0.26733252
11	0x3e276989	0.16348852
12	0x3d75773f	0.059928175
13	0xbd2ed23b	-0.04268096
14	0xbd99ccea	-0.075097874
15	0xbd6cee81	-0.057844643
16	0x3e3379a8	0.17526877
17	0x3cc3aad4	0.023885168
18	0xbe130538	-0.1435746
19	0xbdab57d4	-0.08366361
20	0xbe45870c	-0.19289798
21	0x3dc5257f	0.096262924
22	0x3e1fbca3	0.15599303
23	0x3e13ee38	0.14446342
24	0x3e16b192	0.14716175
25	0xbd8fcc4e	-0.0702139
26	0x3da355db	0.0797536
27	0x3e5ec5da	0.21755162
28	0x3d143115	0.03617962
29	0xbcdff283	-0.027337318
30	0x3e9fe18d	0.3122677
31	0x3e5d04cb	0.2158386
32	0xbe6b46da	-0.22976246
33	0x3ea39bdc	0.3195485
34	0xbe6eef55	-0.23333485
35	0x3dc2a9bb	0.0950503
36	0xbc610449	-0.013733932
37	0xbe794f31	-0.24346615
38	0x3e54a108	0.20764554
39	0xbe59c31b	-0.21265833
40	0x3d4a65f8	0.04941365
41	0xbd50fa3e	-0.0510199
42	0x3e21d54b	0.15804021
43	0xbe9de968	-0.30842137
44	0x3e0ffc68	0.14061129
45	0xbdafd6e5	-0.0858591
46	0xbe0d2601	-0.13784029
47	0x3d91c319	0.0711729
48	0x3e36a0ca	0.17834774
49	0xbd905cbd	-0.070489384
50	0xbe8b5b50	-0.27218103
51	0xbe04f599	-0.12984313
52	0xbe2fa42f	-0.17152475
53	0x3e809533	0.2511383
54	0xbe6bbdc0	-0.23021603
55	0xbdea28c6	-0.11433558
56	0x3c3cc7ee	0.011522276
57	0x3e3859f7	0.18003069
58	0xbdd731bc	-0.10507533
59	0x3e7b9031	0.24566723
60	0x3e77470b	0.24148194
61	0xbe0c8176	-0.1372126
62	0x3e8dc592	0.27689797
63	0x3ead3857	0.33832046
64	0x3d26ced8	0.040724605
65	0xbe048578	-0.1294154
66	0xbe797c62	-0.24363855
67	0x3e3f894b	0.18704717
68	0x3e40eed2	0.18841103
69	0x3e55911f	0.2085614
70	0x3d2647c6	0.040595792
71	0xbccca3e2	-0.02498049
72	0xbe53bda4	-0.20677811
73	0xbd04c51a	-0.032414533
74	0x3e276ad1	0.16349341
75	0xbe52601a	-0.20544472
76	0xbe1fb5da	-0.15596715
77	0xbd8d017e	-0.0688505
78	0x3d13b7a5	0.03606381
79	0xbc063afb	-0.008192773
80	0x3aaa66f2	0.0013000651
81	0x3e22e9c7	0.15909491
82	0x3e80f8dd	0.25189868
83	0x3e92b789	0.2865565
84	0x3e24e911	0.16104533
85	0xbcdf79f2	-0.027279828
86	0x3eadeb62	0.33968645
87	0x3e03c767	0.12869035
88	0xbde50329	-0.111822434
89	0xbe914ca6	-0.2837879
90	0xbe58d2e7	-0.21174203
91	0x3d1d2455	0.038364727
92	0x3e1c6d0b	0.15275972
93	0x3e00ed26	0.12590465
94	0xbc8b2db2	-0.016989563
95	0x3e08c193	0.13355093
96	0xbe910422	-0.28323466
97	0x3d070efa	0.032973267
98	0xbda3ccac	-0.079980224
99	0x3e22b23e	0.15888306
100	0x3e8d56e8	0.27605367
101	0xbe5bae35	-0.21453173
102	0xbe667710	-0.22506356
103	0x3e6f41f2	0.23365
104	0x3e754d46	0.23955259
105	0xbd774d64	-0.06037654
106	0xbe953f49	-0.29149845
107	0xbe78b875	-0.24289115
108	0xbd189da6	-0.03725972
109	0xbda5030e	-0.08057223
110	0x3d992c82	0.07479192
111	0x3e8dadc6	0.2767164
112	0xbea72ad0	-0.3264985
113	0x3d93c12b	0.07214578
114	0xbd0c8b55	-0.034312565
115	0x3e20b40b	0.15693681
116	0xbe886bf9	-0.26644877
117	0x3c8d2651	0.017230185
118	0x3d7bac7c	0.06144379
119	0x3e0e383d	0.1388864
120	0x3e7d46eb	0.24734084
121	0xbe432eb1	-0.1906078
122	0xbdf23077	-0.1182565
123	0xbcea55f0	-0.028605431
124	0x3c9ac186	0.018891107
125	0x3ea18093	0.31543407
126	0x3cbe694a	0.023243565
127	0xbdd3ac7c	-0.10335633
128	0x3df81566	0.121134564
129	0x3d445a0a	0.04793743
130	0xbd5d9453	-0.05409653
131	0xbdddc1a1	-0.108279474
132	0xbdf0e8c5	-0.11763147
133	0x3e211cb1	0.15733601
134	0x3eac441d	0.33645716
135	0xbe41b060	-0.18914938
136	0xbe68810b	-0.22705476
137	0x3daf7f8a	0.08569248
138	0x3d47e23d	0.048799742
139	0xbe68f553	-0.22749834
140	0x3e696b7d	0.2279491
141	0x3e9d1b2a	0.30684787
142	0x3e9d7edb	0.30760846
143	0x3e866971	0.2625232

fc.bias f4 [12]
0	0xbe865abb	-0.26241097
1	0x3e036bab	0.12834041
2	0xbc950744	-0.018191941
3	0xbe0ba4ff	-0.1363716
4	0xbe67f63a	-0.22652522
5	0xbe83d4bb	-0.25748238
6	0x3e1baa69	0.15201725
7	0xbc49ef6f	-0.012325152
8	0xbe83b5a3	-0.25724515
9	0xbdd9074e	-0.105970964
10	0x3e27a7c7	0.16372596
11	0xbea01587	-0.31266424
