trained_weights/trace/selfattention43.pth (torch, 21775 bytes, 8 tensors)

multihead_self_attention.multihead_attn.in_proj_weight f4 [96, 32]
0.074195415 0.004784694 6.313964e-08 -0.08518132 0.041497007 8.5740645e-08 0.021144362 2.115287e-06
-0.039764933 -0.087119736 0.012243623 -0.01735492 -0.09073767 -1.0433408e-07 0.0021870711 0.02783298
-0.0019243235 -0.006244642 -0.09651974 -0.021141842 -0.018143687 0.007060715 0.010877476 -0.002766093
0.06930581 -0.040580686 0.030653354 0.10395666 -2.553949e-07 0.068704545 -0.091288105 -0.10834672
-0.0005786631 -0.016114224 -0.03765195 -0.045683317 0.0011648124 -4.3003396e-08 0.030197898 0.040560856
0.0043811887 -0.056819003 0.03154125 0.06766921 0.016413838 -2.0468325e-07 -0.0005989211 0.009350559
7.785138e-06 -0.110617444 0.027072545 0.008609838 0.017112482 0.0015255414 0.008471634 0.043459747
-0.032601602 -0.030848408 -2.599107e-08 0.0012536577 6.708719e-08 -0.06417563 -0.0054798275 0.089521125
-0.10176844 0.0043055494 -0.077371374 0.04460765 6.9272144e-09 3.643718e-08 0.06971126 -0.00052041764
0.037717786 -0.008193437 0.10484343 2.5610182e-06 0.028051844 -0.070113644 0.050537106 -5.2114483e-08
-0.009495378 -0.08343996 0.021755675 -0.06714323 0.026270581 0.0013967828 -0.001068144 -0.025664194
-0.004716238 -0.039413173 -3.4482433e-08 -0.06177489 -2.3182224e-06 4.2807542e-08 0.037017435 -0.0024964723
0.03900192 0.07876749 0.09277706 -0.01033812 0.0045492942 -6.5847854e-07 0.08939003 -6.2076296e-08
-1.4228101e-05 -0.0025106631 -0.06339834 -0.011971999 1.0918033e-06 0.034472063 8.136154e-08 0.00020646754
0.0054927925 4.951705e-07 -0.021912673 -0.041318223 -0.026025172 -0.061680082 -0.0016623443 0.064708576
0.08897394 -0.1037796 -0.00059460284 0.09620433 -1.1515336e-07 0.098494224 0.03405867 -1.3514462e-07
0.018834127 0.10129517 -0.0062685194 3.5077465e-09 0.0014594105 0.082575 0.042041272 4.7311056e-07
0.10984912 -0.019919662 0.104351796 0.06222 0.042819723 0.078614205 -0.10936868 3.066984e-08
2.1347036e-07 -0.057772033 -0.034911457 0.072508454 -0.0007246767 -0.10579011 -0.10720434 -0.08708823
-0.0135599645 -0.0071162204 8.59312e-08 0.02998829 0.064707085 -0.015687745 6.372288e-10 0.04897966
-0.0016618059 0.00015618831 -7.8722175e-09 0.075193405 -2.0254207e-07 -0.0015652683 9.257651e-08 0.011883213
-0.04656063 0.051161584 0.05109141 -0.015852917 -0.006431256 0.0028024311 -0.10828801 0.028360853
-1.2258642e-08 -6.1138024e-07 -0.027651897 -0.08797335 0.060496833 -0.050697967 -0.10582462 -0.027718501
0.04375941 0.10454148 -0.027066773 0.09129719 0.027587332 0.049779806 -0.023487758 0.08203306
0.00049207197 0.053512916 7.7072315e-07 -0.015143852 1.4882827e-06 -0.088197604 0.09983849 0.0071747606
0.0101272855 -0.043388203 -0.0013197819 -0.08651326 -0.06698499 -3.0067453e-09 -0.07373066 0.018038217
-0.050329108 4.447211e-05 0.07816745 0.08024168 0.05445573 0.00045767802 0.0042104153 0.025313865
-5.315702e-08 -0.016325729 -0.004940634 -8.395899e-09 0.023927115 -6.9355686e-08 -3.664385e-08 0.09320022
-0.09500635 -7.965361e-09 -0.09378147 -1.4022976e-07 0.0012239699 0.026966693 0.046260323 0.023821868
0.007535121 -0.02941998 0.08011895 0.05351117 0.047811266 0.107126676 -0.07904918 -0.043969076
-0.029749708 -0.003629857 -0.08529885 5.239171e-08 0.00092069467 2.8725145e-08 0.010532961 0.110189706
-0.06492519 -1.8266421e-08 0.08669902 -9.74248e-09 -0.101498194 0.019927086 -0.026012333 0.026838832
00000000: c4f3 973d ecc8 9c3b 6297 8733 8b73 aebd
00000010: c4f8 293d 6b20 b833 f136 ad3c 5bf4 0d36
00000020: 8ee0 22bd d56b b2bd 7a99 483c e82b 8ebc
00000030: acd4 b9bd 440e e0b3 f754 0f3b fd01 e43c
00000040: 9539 fcba db9f ccbb 24ac c5bd a831 adbc
00000050: 12a2 94bc 925d e73b 7137 323c 5747 35bb
00000060: 34f0 8d3d ef37 26bd be1c fb3c 3be7 d43d
00000070: 351d 89b4 f8b4 8c3d 42f5 babd e3e4 ddbd
00000080: 6cb1 17ba fa01 84bc ee38 1abd 6e1e 3bbd
00000090: 9eac 983a bcb2 38b3 9561 f73c 2423 263d
000000a0: 1390 8f3b 0bbb 68bd 6631 013d 2896 8a3d
000000b0: 5076 863c e7c6 5bb4 ea00 1dba 1633 193c
000000c0: ea9c 0237 668b e2bd 3ec7 dd3c 4710 0d3c
000000d0: 7a2f 8c3c adf4 c73a 9ccc 0a3c d902 323d
000000e0: 4289 05bd cdb5 fcbc f842 dfb2 c651 a43a
000000f0: 9311 9033 836e 83bd 2090 b3bb da56 b73d
00000100: f96b d0bd 9115 8d3b e274 9ebd 83b6 363d
00000110: 6c04 ee31 1a7f 1c33 c7c4 8e3d a36c 08ba
00000120: f77d 1a3d c43d 06bc 27b8 d63d f5dd 2b36
00000130: fbcc e53c be97 8fbd ffff 4e3d 7bd4 5fb3
00000140: 8092 1bbc 92e2 aabd f538 b23c 6482 89bd
00000150: 6735 d73c 4114 b73a f700 8cba b73d d2bc
00000160: ac8a 9abb b56f 21bd d619 14b3 ab07 7dbd
00000170: c292 1bb6 64db 3733 989f 173d db9b 23bb
00000180: 7ac0 1f3d da50 a13d e601 be3d 3861 29bc
00000190: 3f12 953b 4dc2 30b5 1f12 b73d ce4e 85b3
000001a0: 3ab5 6eb7 f089 24bb fdd6 81bd 3426 44bc
000001b0: 138a 9235 9432 0d3d fbb8 ae33 357f 5839
000001c0: e2fc b33b dceb 0435 3582 b3bc 4c3d 29bd
000001d0: be32 d5bc 41a4 7cbd 05e3 d9ba ee85 843d
000001e0: f837 b63d 668a d4bd 1fdf 1bba c706 c53d
000001f0: 3b4a f7b3 57b7 c93d 1b81 0b3d 451c 11b4
00000200: 074a 9a3c d873 cf3d 2768 cdbb ee0c 7131
00000210: b149 bf3a 151d a93d 7833 2c3d d2ff fd34
00000220: 93f8 e03d 8f2e a3bc 65b6 d53d 66da 7e3d
00000230: bc63 2f3d 7c00 a13d b0fc dfbd d8b9 0333
00000240: 4936 6534 5ea2 6cbd 51ff 0ebd 507f 943d
00000250: 3bf8 3dba 7ca8 d8bd f38d dbbd 505b b2bd
00000260: 9d2a 5ebc 2f2f e9bb 2d89 b833 01aa f53c
00000270: 2685 843d 9683 80bc fe28 2f30 e59e 483d
00000280: f4d0 d9ba 7bc6 2339 613e 07b2 00ff 993d
00000290: 577a 59b4 b029 cdba 79ce c633 cfb1 423c
000002a0: 5cb6 3ebd cf8e 513d 3a45 513d fadd 81bc
000002b0: 49bd d2bb fea8 373b 1bc6 ddbd 0555 e83c
000002c0: 149a 52b2 bb1d 24b5 3b86 e2bc 5f2b b4bd
000002d0: 87cb 773d aca8 4fbd 94ba d8bd e911 e3bc
000002e0: 113d 333d d819 d63d 23bb ddbc 05fa ba3d
000002f0: d4fe e13c e9e5 4b3d 6669 c0bc f300 a83d
00000300: 64fe 003a 5c30 5b3d b1e3 4e35 eb1d 78bc
00000310: 01c1 c735 f2a0 b4bd 1f78 cc3d 411a eb3b
00000320: eaec 253c d4b7 31bd 88fc acba dd2d b1bd
00000330: 6d2f 89bd 399f 4eb1 1a00 97bd e2c4 933c
00000340: e525 4ebd 9187 3a38 4216 a03d c055 a43d
00000350: f90c 5f3d 81f4 ef39 86f7 893b 065f cf3c
00000360: c34e 64b3 89bd 85bc 0be5 a1bb 8e3d 10b2
00000370: cc02 c43c b1f0 94b3 5762 1db3 c2df be3d
00000380: b092 c2bd 07d8 08b2 8010 c0bd 1092 16b4
00000390: 9d6d a03a 41e9 dc3c 777b 3d3d 1426 c33c
000003a0: 2de9 f63b 2b02 f1bc 6715 a43d 872e 5b3d
000003b0: bfd5 433d 3b65 db3d 89e4 a1bd eb18 34bd
000003c0: a9b5 f3bc e5e2 6dbb 2ab1 aebd 4b05 6133
000003d0: c65a 713a 43bf f632 7192 2c3c 24ab e13d
000003e0: 7ff7 84bd 49e8 9cb2 418f b13d e15f 27b2
000003f0: 49de cfbd 213e a33c d117 d5bc 1cdd db3c

multihead_self_attention.multihead_attn.in_proj_bias f4 [96]
0.0 0.0 0.0 0.0 0.0 0.0 0.0 0.0
0.0 0.0 0.0 0.0 0.0 0.0 0.0 0.0
0.0 0.0 0.0 0.0 0.0 0.0 0.0 0.0
0.0 0.0 0.0 0.0 0.0 0.0 0.0 0.0
0.0 0.0 0.0 0.0 0.0 0.0 0.0 0.0
0.0 0.0 0.0 0.0 0.0 0.0 0.0 0.0
0.0 0.0 0.0 0.0 0.0 0.0 0.0 0.0
0.0 0.0 0.0 0.0 0.0 0.0 0.0 0.0
-0.0074669747 0.026443789 0.0061687394 0.0033083097 -0.018845487 -0.00048498745 7.831567e-05 -0.018985193
-0.0045938683 -0.00025292748 -0.0025152 -0.003026036 0.0021375578 0.021572772 0.0021844644 -0.0029401584
0.007975045 -0.007700976 -0.019487008 -0.019491343 0.00042059008 -0.0054165446 0.0040514637 0.002415926
0.015198512 -0.0047710394 -0.02708042 0.0102096945 -0.0031410442 0.00013596278 -0.00057678105 -0.00437736
00000000: 0000 0000 0000 0000 0000 0000 0000 0000
00000010: 0000 0000 0000 0000 0000 0000 0000 0000
00000020: 0000 0000 0000 0000 0000 0000 0000 0000
00000030: 0000 0000 0000 0000 0000 0000 0000 0000
00000040: 0000 0000 0000 0000 0000 0000 0000 0000
00000050: 0000 0000 0000 0000 0000 0000 0000 0000
00000060: 0000 0000 0000 0000 0000 0000 0000 0000
00000070: 0000 0000 0000 0000 0000 0000 0000 0000
00000080: 0000 0000 0000 0000 0000 0000 0000 0000
00000090: 0000 0000 0000 0000 0000 0000 0000 0000
000000a0: 0000 0000 0000 0000 0000 0000 0000 0000
000000b0: 0000 0000 0000 0000 0000 0000 0000 0000
000000c0: 0000 0000 0000 0000 0000 0000 0000 0000
000000d0: 0000 0000 0000 0000 0000 0000 0000 0000
000000e0: 0000 0000 0000 0000 0000 0000 0000 0000
000000f0: 0000 0000 0000 0000 0000 0000 0000 0000
00000100: 86ad f4bb a5a0 d83c 2323 ca3b 3ad0 583b
00000110: da61 9abc ea45 feb9 683d a438 d686 9bbc
00000120: 2988 96bb 5a9b 84b9 0ed6 24bb 7650 46bb
00000130: 4516 0c3b 62b9 b03c 3b29 0f3b acaf 40bb
00000140: c3a9 023c 7858 fcbb 38a3 9fbc 4fac 9fbc
00000150: a582 dc39 457d b1bb 24c2 843b 8354 1e3b
00000160: 2e03 793c 6156 9cbb c2d7 ddbc 9046 273c
00000170: fad9 4dbb 3b91 0e39 1f33 17ba f56f 8fbb

multihead_self_attention.multihead_attn.out_proj.weight f4 [32, 32]
-0.14644475 0.08899614 0.18291979 -0.1267252 -0.00811709 0.02846107 -0.069583446 -0.16445564
0.050073925 0.13171828 0.09404531 -0.05168866 -0.046258062 0.19800702 0.0005037584 0.036006846
0.1368051 0.1629495 0.010989108 0.13324134 -0.11948315 -0.14393197 -0.10085945 0.17884111
0.19237761 -0.057212163 -0.1729641 0.14579837 -0.07370937 0.12698592 -0.03981219 0.14749411
0.105886474 -0.06377152 -0.11173631 -0.09753791 0.1664334 0.027517289 -0.016483404 -0.083802424
-0.1394402 0.04138461 0.16811696 0.14376484 -0.0701084 -0.06863202 -0.009560999 0.05037841
-0.15689562 0.015463994 0.044671956 -0.08895486 -0.0023951903 0.020516576 -0.15237996 -0.05262084
-0.003951822 -0.06952736 -0.0018841854 0.05816445 0.1178174 0.14244843 -0.010138438 -0.09680241
0.07145644 -0.067607336 0.13438813 -0.0773537 0.0050886194 0.12535642 0.13396156 -0.0010160245
-0.15006389 0.16716138 -0.083564356 0.060868558 -0.12645228 -0.061416835 0.031405892 0.06638956
-0.14145266 0.06485066 0.18635635 0.18413094 0.03267867 -0.0776185 0.07269267 0.1417179
0.0782563 -0.0733474 -0.11495426 -0.09683657 0.020295953 -0.10687605 0.17042808 0.16752003
-0.1704118 -0.1207652 -0.10561816 0.01048647 -0.02185171 0.11444216 -0.13842568 -0.0006573764
0.07416225 -0.056178126 -0.13435493 0.07411338 0.10222338 -0.101960436 -0.007859888 -0.11561198
0.019461844 0.15111059 -0.14566964 0.11340884 -0.11684664 0.0653236 0.09446299 -0.07358296
0.118381284 -0.04068927 0.02757222 0.028535329 0.11585796 -0.00077813014 0.09552743 0.13211207
0.058585733 0.19294545 0.05508835 0.13772987 -0.10044444 -0.0012289619 0.038200337 -0.03194316
-0.09103181 0.054718602 0.049034066 -0.032957528 0.1198511 -0.047764637 0.097646534 0.024019733
-0.07881779 -0.16194744 -0.1048928 -0.06575054 0.1816455 0.051672105 -0.0005679656 0.039696697
-0.033242688 -0.13477783 -0.12840173 0.05390473 -0.061884552 -0.021583572 -0.062964305 -0.046741873
0.09806648 0.1530537 0.14779024 -0.038633473 0.009909703 0.051888075 -0.1755556 0.14229763
0.12710951 -0.0062631397 0.14119916 0.05753551 0.1532076 0.16362207 0.15117876 0.14868349
0.14725827 0.04837432 0.07279347 0.105614215 -0.03803054 0.14068815 0.03790171 -0.07876281
-0.14861841 -0.073590025 -0.11674382 0.08533303 0.07962682 0.019280067 0.16903761 -0.17468901
0.09395601 0.14436692 0.040582586 -0.133215 0.145291 0.10312546 -0.06417769 0.092204586
0.14617483 -0.0917942 0.11474584 -0.008497281 -0.14953236 -0.1338065 -0.095477454 -0.044075985
-0.086601116 -0.15459849 0.07427449 0.11994815 -0.087220296 -0.1259607 0.12111529 -0.011410941
0.13949327 -0.1676327 -0.11555721 0.13303295 -0.1878643 -0.037153546 -0.16921088 -0.097011365
0.0059084645 -0.08769711 -0.072772674 0.17509252 -0.07931941 -0.04412952 0.14877218 0.06604406
-0.099538974 -0.15786107 0.09247709 -0.17701659 0.16607171 0.020192621 -0.09836823 0.053191707
-0.041116647 -0.035463955 0.1474899 0.0782641 -0.0027208072 0.033926003 -0.2025744 0.10118252
-0.0065694153 -0.0984561 0.092217326 0.0001524819 0.020437256 -0.16105162 -0.00684524 0.14517674
00000000: 9df5 15be 9c43 b63d 534f 3b3e 40c4 01be
00000010: 8bfd 04bc 3127 e93c c481 8ebd 0f67 28be
00000020: 511a 4d3d 28e1 063e d49a c03d 7db7 53bd
00000030: 1879 3dbd 5ac2 4a3e a70e 043a ea7b 133d
00000040: a316 0c3e 3cdc 263e a90b 343c 6b70 083e
00000050: 95b3 f4bd e762 13be 668f cebd 2022 373e
00000060: a3fe 443e 4d57 6abd 801d 31be 2b4c 153e
00000070: f0f4 96bd 9908 023e 1b12 23bd b208 173e
00000080: 02db d83d a59a 82bd 02d6 e4bd f5c1 c7bd
00000090: 846d 2a3e f06b e13c 3408 87bc 9ba0 abbd
000000a0: 69c9 0ebe e982 293d da26 2c3e 1737 133e
000000b0: fe94 8fbd f28e 8cbd bda5 1cbc 9759 4e3d
000000c0: 3fa9 20be b15c 7d3c f1f9 363d f72d b6bd
000000d0: a0f8 1cbb 6112 a83c 7e09 1cbe f388 57bd
000000e0: 497e 81bb 5c64 8ebd c5f6 f6ba d93d 6e3d
000000f0: 404a f13d 00de 113e b11b 26bc 5840 c6bd
00000100: c157 923d b775 8abd 0b9d 093e 9e6b 9ebd
00000110: 6fbe a63b 6f5d 003e 382d 093e 202c 85ba
00000120: 59aa 19be 5a2c 2b3e ca23 abbd 4f51 793d
00000130: b57c 01be 3890 7bbd 77a3 003d 40f7 873d
00000140: f7d8 10be 6cd0 843d 33d4 3e3e d28c 3c3e
00000150: 12da 053d 73f6 9ebd e5df 943d 7f1e 113e
00000160: d744 a03d 2937 96bd 246d ebbd 4052 c6bd
00000170: b343 a63c d5e1 dabd b384 2e3e 5f8a 2b3e
00000180: 6e80 2ebe bf53 f7bd 554e d8bd 71cf 2b3c
00000190: 5b02 b3bc a760 ea3d 76bf 0dbe c953 2cba
000001a0: 61e2 973d 091b 66bd 5794 09be c1c8 973d
000001b0: 7e5a d13d a2d0 d0bd c2c6 00bc f9c5 ecbd
000001c0: 726e 9f3c bcbc 1a3e 6c2a 15be e542 e83d
000001d0: 4b4d efbd 61c8 853d d075 c13d aab2 96bd
000001e0: e371 f23d cba9 26bd 23df e13c ecc2 e93c
000001f0: f046 ed3d 6efb 4bba e3a3 c33d 6348 073e
00000200: 98f7 6f3d 7e93 453e 52a4 613d 0f09 0d3e
00000210: d1b5 cdbd 1e15 a1ba f577 1c3d d5d6 02bd
00000220: e36e babd 9d20 603d f2d7 483d 79fe 06bd
00000230: 7e74 f53d daa4 43bd e8fa c73d 08c5 c43c
00000240: 396b a1bd 8dd5 25be 09d2 d6bd 38a8 86bd
00000250: 4701 3a3e 21a6 533d 87e3 14ba 0199 223d
00000260: 7c29 08bd 3303 0abe be7b 03be 35cb 5c3d
00000270: a87a 7dbd 08d0 b0bc 6ef3 80bd 6874 3fbd
00000280: 14d7 c83d 1cba 1c3e 5356 173e 223e 1ebd
00000290: 4f5c 223c 9788 543d d9c4 33be 78b6 113e
000002a0: ff28 023e 063b cdbb 8396 103e 5baa 6b3d
000002b0: 74e2 1c3e 8b8c 273e 9bce 1a3e 7c40 183e
000002c0: dfca 163e 2724 463d be14 953d 444c d83d
000002d0: e9c5 1bbd 8e10 103e d33e 1b3d 654e a1bd
000002e0: 6d2f 18be 5eb6 96bd 6217 efbd 15c3 ae3d
000002f0: 6313 a33d 3bf1 9d3c 3218 2d3e ade1 32be
00000300: 026c c03d ecd4 133e ed39 263d 8369 08be
00000310: 2ac7 143e 7133 d33d 986f 83bd c2d5 bc3d
00000320: dbae 153e 99fe bbbd deff ea3d 2e38 0bbc
00000330: 031f 19be 9204 09be af89 c3bd 0589 34bd
00000340: ed5b b1bd 114f 1ebe 391d 983d 60a7 f53d
00000350: 8ea0 b2bd d7fb 00be 4b0b f83d f5f4 3abc
00000360: 53d7 0e3e e8a7 2bbe 42a9 ecbd ca39 083e
00000370: 805f 40be 512e 18bd 9e45 2dbe e5ad c6bd
00000380: cb9b c13b 8b9a b3bd d709 95bd 744b 333e
00000390: 3772 a2bd 28c1 34bd bc57 183e 1c42 873d
000003a0: 17db cbbd 55a6 21be a164 bd3d d643 35be
000003b0: b40e 2a3e ff6a a53c 4875 c9bd 8cdf 593d
000003c0: ee69 28bd a742 11bd 9807 173e ee48 a03d
000003d0: 924f 32bb fef5 0a3d aa6f 4fbe c838 cf3d
000003e0: 4044 d7bb 5aa3 c9bd 70dc bc3d 8ce3 1f39
000003f0: 086c a73c b7ea 24be 094e e0bb 36a9 143e

multihead_self_attention.multihead_attn.out_proj.bias f4 [32]
0.019073512 -0.006913093 -0.0051673003 -0.013566283 0.020006087 -2.6385027e-05 -0.0042543304 -0.014524736
-0.0019032324 0.00589197 -0.0020399063 0.024699088 -0.024189759 -0.0033486718 0.008925278 -0.0060245297
-0.0046827826 0.007481978 0.0010832566 0.00167191 -0.0057998993 0.00856382 -0.0111025935 0.022969237
-0.0153420605 -0.007481115 -0.0013076047 -0.011906103 0.0062969346 0.023257552 -0.0063914107 0.008590605
00000000: 0e40 9c3c 3a87 e2bb 7552 a9bb 1d45 5ebc
00000010: cee3 a33c 6a55 ddb7 e967 8bbb 29f9 6dbc
00000020: e275 f9ba 6d11 c13b f3af 05bb be55 ca3c
00000030: 9a29 c6bc 6475 5bbb 543b 123c 6b69 c5bb
00000040: 0772 99bb 612b f53b 0ffc 8d3a fe23 db3a
00000050: 150d bebb 444f 0c3c a7e7 35bc fb29 bc3c
00000060: 445d 7bbc 2424 f5bb ef63 abba d111 43bc
00000070: 8456 ce3b 9f86 be3c 0a6f d1bb 9cbf 0c3c

multihead_self_attention.fc.weight f4 [12, 32]
0.01833572 -0.11822131 -0.027693873 0.14794904 0.0053877113 0.023636766 0.08428896 0.07707741
0.15800777 0.14741792 0.08236702 0.04677137 0.10220865 0.11333357 -0.0039376314 -0.120282784
-0.13267608 0.05990344 0.15932006 3.6535337e-05 0.06799529 -0.003123295 0.0777167 0.14964046
0.048569933 -0.13439994 0.037761796 0.1912002 -0.16066639 -0.17567523 0.0023583048 0.056207415
-0.03734295 0.06532992 -0.1425366 0.16504982 0.035377618 0.10784743 -0.1827832 -0.06465292
-0.13844307 0.084054746 0.1290157 0.04044614 0.18227056 -0.09029603 0.054495756 0.08341978
-0.06258667 0.012794895 0.043082412 -0.10686715 -0.033459123 -0.043584444 0.027212445 -0.2054647
-0.12703863 0.10704087 0.014384394 0.14154191 0.03603508 -0.032802507 -0.057637632 -0.1332485
-0.14012134 0.12088629 0.14738587 0.15207936 -0.13313088 0.092295185 0.1467575 0.07835844
-0.046216242 -0.07592638 -0.08856083 -0.025092145 0.054530453 0.007662841 0.003750367 -0.013720985
0.067648984 -0.15678728 0.036904458 0.03519574 0.13920745 -0.17695004 0.0108689545 -0.19704261
0.058432285 0.1676151 0.086503334 0.15950587 -0.12182363 -0.19332148 -0.016899439 -0.15517169
-0.054913912 -0.050624847 -0.13254781 0.12145887 0.042699676 0.07051336 -0.1618861 0.18400218
-0.11809061 -0.019925363 0.02497008 -0.16950841 0.13068575 -0.12654507 -0.10103204 0.19023596
-0.106427215 -0.07904312 -0.04513908 -0.0779277 -0.039998077 -0.021439835 0.07501358 -0.13575289
0.1289006 0.16624992 -0.17050608 -0.07089761 -0.13635664 -0.1119097 0.17023246 0.13792618
0.06670999 0.05413291 -0.1571961 -0.13579206 -0.09561292 0.0919194 -0.1419088 -0.10406849
-0.10773245 -0.108109385 -0.060268708 0.028901817 0.015912332 -0.029798158 -0.11807657 -0.031177312
-0.048713185 -0.082260534 -0.08134441 -0.13500534 0.009517264 0.02027168 -0.009199531 0.12965298
-0.14546283 0.102639504 0.12011095 0.025429167 0.17472507 0.017061269 -0.108324535 -0.14801456
0.1316356 -0.1270141 0.08562212 -0.09151995 -0.1903597 -0.082249 -0.096788175 -0.104164
0.08168543 -0.10899512 0.08948328 -0.026377015 0.07112967 0.09206983 0.1377711 0.037504967
0.05895148 0.075751126 0.09272453 -0.06206898 0.10809982 0.063864395 -0.09170716 -0.071031116
-0.17791402 0.122004405 0.15650079 0.08015182 0.11204783 -0.016167238 -0.06398353 0.08474136
-0.15909943 -0.17636171 -0.007468652 -0.03987878 0.12021259 -0.17392285 -0.13573521 -0.102766424
-0.05562255 -0.15187447 0.12839016 -0.006601791 -0.15324876 0.12167365 0.16617696 -0.1319974
0.1719971 0.059707697 0.103666574 -0.01226733 0.032038238 -0.119421296 0.055862136 -0.00085732137
0.09109814 0.1493259 -0.022708392 0.18384236 0.092152305 0.012058052 0.1206105 0.0016075997
-0.014642147 0.15205093 -0.09255938 -0.13144895 -0.018768026 -0.06201617 0.11636725 0.08529432
-0.0347659 0.004971281 -0.031544637 -0.112330176 0.09396571 0.0034522782 0.02188911 0.091401994
-0.046632256 -0.12874311 -0.13447091 -0.101569265 0.12858269 -0.050780777 0.119531885 -0.16600347
0.07045718 0.047070377 0.08668678 0.09954382 0.16665122 -0.12027119 -0.0836982 0.12747258
00000000: cb34 963c 041e f2bd 43de e2bc f47f 173e
00000010: 668b b03b e4a1 c13c b19f ac3d c3da 9d3d
00000020: cacc 213e b9f4 163e 0ab0 a83d 5693 3f3d
00000030: c552 d13d 6e1b e83d 3f07 81bb d256 f6bd
00000040: 3ddc 07be 4f5d 753d cc24 233e 853d 1938
00000050: 1d41 8b3d 32b0 4cbb ef29 9f3d 593b 193e
00000060: 44f1 463d 23a0 09be 1dac 1a3d fcc9 433e
00000070: bb85 24be 35e4 33be ca8d 1a3b bf39 663d
00000080: ecf4 18bd b1cb 853d 1df5 11be d202 293e
00000090: 1fe8 103d 1ddf dc3d 852b 3bbe c068 84bd
000000a0: 05c4 0dbe e524 ac3d b11c 043e daaa 253d
000000b0: 22a5 3a3e 20ed b8bd f136 5f3d fdd7 aa3d
000000c0: 712d 80bd aea1 513c 2f77 303d 2add dabd
000000d0: 6f0c 09bd 9a85 32bd a2ec de3c 5765 52be
000000e0: 6a16 02be 3e38 db3d 85ac 6b3c 5df0 103e
000000f0: 8599 133d ec5b 06bd 7015 6cbd 4b72 08be
00000100: f87b 0fbe 3b93 f73d 52ec 163e b1ba 1b3e
00000110: 7653 08be 4205 bd3d 9947 163e 647a a03d
00000120: 3e4d 3dbd 4a7f 9bbd 615f b5bd 0b8e cdbc
00000130: 535b 5f3d 9218 fb3b b8c8 753b fbcd 60bc
00000140: 8d8b 8a3d d88c 20be 2129 173d 6929 103d
00000150: 668c 0e3e 6432 35be b313 323c 8ac5 49be
00000160: b156 6f3d 4ba3 2b3e a928 b13d 8255 233e
00000170: ab7e f9bd 11f6 45be b170 8abc 54e5 1ebe
00000180: 69ed 60bd 005c 4fbd 9dba 07be 6ebf f83d
00000190: dbe5 2e3d 4f69 903d 78c5 25be 116b 3c3e
000001a0: 7dd9 f1bd 843a a3bc 0e8e cc3c 9d93 2dbe
000001b0: 7cd2 053e 0895 01be e3e9 cebd 37cd 423e
000001c0: 83f6 d9bd 5ce1 a1bd c2e3 38bd 8f98 9fbd
000001d0: 06d5 23bd 98a2 afbc b8a0 993d ce02 0bbe
000001e0: 85fe 033e 6b3d 2a3e 2599 2ebe c432 91bd
000001f0: 13a1 0bbe ea30 e5bd 6b51 2e3e 853c 0d3e
00000200: 3f9f 883d 78ba 5d3d 04f8 20be 130d 0bbe
00000210: b5d0 c3bd 3d40 bc3d 8a50 11be dc21 d5bd
00000220: d5a2 dcbd 7468 ddbd 52dc 76bd 81c3 ec3c
00000230: 945a 823c 441b f4bc 21d2 f1bd 9067 ffbc
00000240: 7a87 47bd 3678 a8bd e697 a6bd d73e 0abe
00000250: 4cee 1b3c cb10 a63c a1b9 16bc c0c3 043e
00000260: 35f4 14be a934 d23d bbfc f53d d450 d03c
00000270: 21eb 323e 13c4 8b3c 41d9 ddbd 2191 17be
00000280: 7ccb 063e fc0f 02be a65a af3d d06e bbbd
00000290: a7ed 42be 2a72 a8bd e138 c6bd ef53 d5bd
000002a0: b14a a73d d538 dfbd 0343 b73d 9c14 d8bc
000002b0: 6fac 913d 1b8f bc3d de13 0d3e cf9e 193d
000002c0: 1b77 713d 6823 9b3d 5ce6 bd3d 0b3c 7ebd
000002d0: 7063 dd3d 56cb 823d f7d0 bbbd c378 91bd
000002e0: 182f 36be 72dd f93d be41 203e a326 a43d
000002f0: 5579 e53d 2871 84bc cc09 83bd e18c ad3d
00000300: f6ea 22be 2a98 34be 98bb f4bb ee57 23bd
00000310: 0532 f63d d518 32be 2cfe 0abe 3477 d2bd
00000320: 79d4 63bd fb84 1bbe b678 033e d653 d8bb
00000330: 3eed 1cbe 0930 f93d 4b2a 2a3e 542a 07be
00000340: 0220 303e 0f90 743d 244f d43d e9fc 48bc
00000350: 873a 033d 2793 f4bd b2cf 643d ddbd 60ba
00000360: a991 ba3d e4e8 183e f306 babc 2c41 3c3e
00000370: 59ba bc3d 238f 453c a302 f73d 18b6 d23a
00000380: 9ee5 6fbc 3db3 1b3e c68f bdbd 8e9a 06be
00000390: 67bf 99bc ab04 7ebd f451 ee3d caae ae3d
000003a0: b066 0ebd 21e6 a23b f334 01bd 5d0d e6bd
000003b0: 1871 c03d 9e3f 623b ca50 b33c f830 bb3d
000003c0: 7701 3fbd 3cd5 03be beb2 09be 8c03 d0bd
000003d0: 2eab 033e 81ff 4fbd 22cd f43d d0fc 29be
000003e0: db4b 903d decc 403d d788 b13d a1dd cb3d
000003f0: 9ea6 2a3e be50 f6bd f669 abbd 2c88 023e

multihead_self_attention.fc.bias f4 [12]
0.099207796 -0.00995343 0.034932043 0.05185465 -0.16358018 -0.10861246 0.05365088 0.100930996
0.048867013 0.15238868 0.11553617 -0.10897611
00000000: 752d cb3d b613 23bc e714 0f3d 8b65 543d
00000010: 9081 27be 3670 debd 06c1 5b3d e9b4 ce3d
00000020: c728 483d c70b 1c3e 3a9e ec3d de2e dfbd

fc.weight f4 [12, 12]
0.0017522773 0.10040758 -0.21412279 0.15743762 -0.030374048 0.19793892 0.25851113 -0.20008206
0.12376978 -0.2120413 -0.29160717 0.15211193 0.05985427 -0.040442877 -0.073818274 -0.05671538
0.17496729 0.021631848 -0.143242 -0.08245704 -0.19464797 0.09742908 0.15768068 0.14581023
0.14740464 -0.06476193 0.08979025 0.22773731 0.034948353 -0.034232777 0.31354725 0.22187127
-0.24376328 0.3245048 -0.22774652 0.09732885 -0.016515793 -0.24928157 0.2028933 -0.21921353
0.05144605 -0.046225507 0.1588289 -0.3158972 0.14544842 -0.09304767 -0.14200404 0.06748789
0.1775566 -0.07146275 -0.271963 -0.1283194 -0.17283186 0.24530645 -0.23055243 -0.11078236
0.014805705 0.18315019 -0.10712695 0.24899234 0.24162075 -0.13412914 0.2829547 0.34485158
0.04006112 -0.13304646 -0.24284913 0.18987432 0.18011065 0.21145228 0.04344895 -0.023689998
-0.2136974 -0.053522557 0.13908459 -0.22941147 -0.14956525 -0.049692556 0.026949273 -0.031308237
0.030077076 0.13711673 0.22723559 0.27193502 0.16137818 -0.022579996 0.3485007 0.13773774
-0.11277883 -0.2894214 -0.21057117 0.043694947 0.13971433 0.1303589 -0.012262457 0.13548939
-0.28441885 0.035116043 -0.07929935 0.16003895 0.27619162 -0.21972232 -0.22513781 0.23722158
0.24037276 -0.060723 -0.29197532 -0.2430617 -0.037219945 -0.07955706 0.076628275 0.27830842
-0.32626736 0.07149531 -0.0340101 0.15802442 -0.26812953 0.017592909 0.062314317 0.1390585
0.27330795 -0.18726201 -0.11478674 -0.028927956 0.020827066 0.32837078 0.026816677 -0.10912783
0.10465819 0.048453048 -0.040346082 -0.112721436 -0.11689473 0.16620812 0.35026878 -0.1764589
-0.22899526 0.07354421 0.05118604 -0.21499741 0.2051556 0.31493506 0.31943384 0.26690984
00000000: abac e53a 7da2 cd3d 0143 5bbe 5437 213e
00000010: ffd2 f8bc 80b0 4a3e 925b 843e 50e2 4cbe
00000020: 037b fd3d 5b21 59be 894d 95be 3bc3 1b3e
00000030: c029 753d 6ea7 25bd 092e 97bd 634e 68bd
00000040: a02a 333e 4635 b13c 08ae 12be 3ddf a8bd
00000050: cc51 47be e688 c73d 0b77 213e 474f 153e
00000060: 3ef1 163e e7a1 84bd f3e3 b73d f833 693e
00000070: 0126 0f3d ab37 0cbd 4489 a03e 3932 633e
00000080: 159d 79be 7e25 a63e 6236 69be 5954 c73d
00000090: 214c 87bc ab43 7fbe 43c3 4f3e 8379 60be
000000a0: 18b9 523d f556 3dbd 0ba4 223e 47bd a1be
000000b0: 6ef0 143e c78f bebd 8269 11be 1737 8a3d
000000c0: 66d1 353e 105b 92bd bc3e 8bbe 2966 03be
000000d0: d6fa 30be 9d31 7b3e f015 6cbe dde1 e2bd
000000e0: a193 723c b98b 3b3e 6065 dbbd d9f7 7e3e
000000f0: 6e6b 773e 2659 09be 70df 903e 6390 b03e
00000100: 2117 243d 553d 08be 71ad 78be 6a6e 423e
00000110: ed6e 383e f286 583e 87f7 313d 8711 c2bc
00000120: 7ed3 5abe 783a 5bbd 316c 0e3e d7ea 6abe
00000130: a227 19be 6c8a 4bbd b9c4 dc3c 113d 00bd
00000140: 3364 f63c 5468 0c3e 72b0 683e 113b 8b3e
00000150: 5240 253e aff9 b8bc af6e b23e 1f0b 0d3e
00000160: 96f8 e6bd 0b2f 94be f89f 57be 79f9 323d
00000170: 4611 0f3e ce7c 053e 79e8 48bc bbbd 0a3e
00000180: 599f 91be d7d5 0f3d b367 a2bd 40e1 233e
00000190: fd68 8d3e e3fe 60be 878a 66be 37ea 723e
000001a0: 4724 763e aeb8 78bd ca7d 95be 2be5 78be
000001b0: f173 18bd d0ee a2bd 49ef 9c3d 717e 8e3e
000001c0: 840c a7be 226c 923d 2d4e 0bbd 27d1 213e
000001d0: 4648 89be 011f 903c 4c3d 7f3d 5a65 0e3e
000001e0: 05ef 8b3e 9dc1 3fbe 4f15 ebbd 52fa ecbc
000001f0: 869d aa3c 3720 a83e a6ae db3c 697e dfbd
00000200: 0857 d63d b476 463d ef41 25bd 7fda e6bd
00000210: 8166 efbd 7632 2a3e 6e56 b33e a4b1 34be
00000220: bc7d 6abe 599e 963d 74a8 513d 4828 5cbe
00000230: 4f14 523e 2b3f a13e d58c a33e 68a8 883e

fc.bias f4 [12]
-0.2481884 0.12759748 -0.020112963 -0.12846987 -0.22587444 -0.25853246 0.16457686 -0.0140957795
-0.25757807 -0.10611346 0.15536247 -0.31574115
00000000: 1a25 7ebe eaa8 023e f1c3 a4bc 9b8d 03be
00000010: a14b 67be 5e5e 84be d686 283e fcf1 66bc
00000020: 46e1 83be 0452 d9bd 5717 1f3e d3a8 a1be
