trained_weights/trace/selfattention48.pth (torch, 21775 bytes, 8 tensors)

multihead_self_attention.multihead_attn.in_proj_weight f4 [96, 32]
0	0x3d94bf97	0.07263105
1	0x3b9052be	0.004404395
2	0x3398b3e7	7.1107756e-08
3	0xbdab1b0a	-0.08354767
4	0x3d24cdda	0.040235378
5	0x3352705f	4.8996636e-08
6	0x3ca5a8e4	0.020222135
7	0x35c50892	1.4680138e-06
8	0xbd1dcd08	-0.03852561
9	0xbdaf0d80	-0.08547497
10	0x3c3d63a3	0.0115594
11	0xbc875c4e	-0.016523506
12	0xbdb66bdf	-0.089072935
13	0xb423389b	-1.5201151e-07
14	0x3b00d71a	0.001965946
15	0x3cdb5b0f	0.026776819
16	0xbae1caba	-0.0017226555
17	0xbbbdc940	-0.005791813
18	0xbdc233a1	-0.09482504
19	0xbca5a3b9	-0.02021967
20	0xbc8da88a	-0.01729228
21	0x3bd750b4	0.0065709
22	0x3c27c18e	0.010239018
23	0xbb242878	-0.0025048535
24	0x3d8ace48	0.06777626
25	0xbd211947	-0.039330747
26	0x3cf20f9d	0.02954846
27	0x3dd15c2a	0.10222657
28	0xb4618a01	-2.1004963e-07
29	0x3d899564	0.06717947
30	0xbdb78ae7	-0.089620404
31	0xbdda4fa5	-0.10659722
32	0xba022b3d	-0.00049655495
33	0xbc7aee30	-0.015315577
34	0xbd154346	-0.03644111
35	0xbd35bea0	-0.044371247
36	0x3a8664bd	0.0010253411
37	0xb26c40fd	-1.3751785e-08
38	0x3cee6466	0.029100608
39	0x3d2104c0	0.03931117
40	0x3b83d094	0.004022667
41	0xbd62e332	-0.05539245
42	0x3cf93724	0.0304218
43	0x3d877aac	0.06615195
44	0x3c7fb506	0.015607124
45	0xb4044d80	-1.2321652e-07
46	0xba06e74d	-0.0005146161
47	0x3c0fa551	0.008767442
48	0x3697c681	4.5232596e-06
49	0xbddef119	-0.108858295
50	0x3cd53d56	0.026030224
51	0x3c03fad4	0.008055408
52	0x3c856d09	0.016287344
53	0x3ab1a314	0.0013552629
54	0x3c01ce3a	0.007922703
55	0x3d2cbe86	0.042173885
56	0xbd00e1b0	-0.031465232
57	0xbcf3a1e7	-0.029740287
58	0xb2052de2	-7.7520514e-09
59	0x3a9102e6	0.0011063486
60	0x332b80d6	3.9931216e-08
61	0xbd80615e	-0.06268571
62	0xbba5eecc	-0.005063867
63	0x3db3f184	0.087863
64	0xbdcce630	-0.10004842
65	0x3b817920	0.003951207
66	0xbd9b3597	-0.07578581
67	0x3d3163d6	0.0433081
68	0x32810239	1.5018587e-08
69	0xb12222c4	-2.3593865e-09
70	0x3d8ba149	0.06817872
71	0xb9e92c6a	-0.00044474314
72	0x3d15875b	0.03650604
73	0xbbfadce5	-0.007655727
74	0x3dd32afe	0.103109345
75	0x35fbfea3	1.8775066e-06
76	0x3cdd1dd0	0.026991755
77	0xbd8c72b5	-0.06857816
78	0x3d49688f	0.04917198
79	0xb3318b6a	-4.133782e-08
80	0xbc11edd5	-0.008906801
81	0xbda78f72	-0.08181657
82	0x3caa8e93	0.020819938
83	0xbd866902	-0.065629974
84	0x3ccecad8	0.025243208
85	0x3aa229a5	0.001237203
86	0xba75bcb2	-0.0009374126
87	0xbcc9eb5f	-0.024648366
88	0xbb8e32fe	-0.004339575
89	0xbd1c610e	-0.038178496
90	0xb2ecbcc1	-2.7559851e-08
91	0xbd77021e	-0.060304753
92	0xb5dd9cb6	-1.6511392e-06
93	0xb2a38b8f	-1.9039161e-08
94	0x3d12b336	0.03581544
95	0xbb13af20	-0.0022534803
96	0x3d1ab790	0.037772715
97	0x3d9e0cd6	0.07717292
98	0x3dba936c	0.0911015
99	0xbc1f3b0e	-0.00971867
100	0x3b8905c7	0.004181597
101	0xb50aafaf	-5.166466e-07
102	0x3db3ad29	0.08773262
103	0xb36ec688	-5.5594256e-08
104	0xb71db5cc	-9.400257e-06
105	0xbb148ccc	-0.002266693
106	0xbd7d9a4f	-0.06191474
107	0xbc391576	-0.011296621
108	0x35eece7e	1.7792479e-06
109	0x3d086ce6	0.03330698
110	0x3239cb79	1.0814682e-08
111	0x3931df22	0.00016963159
112	0x3ba65627	0.005076188
113	0x350a1bbb	5.144936e-07
114	0xbcabd0a6	-0.020973515
115	0xbd2414c1	-0.040058855
116	0xbcccd1ee	-0.025002446
117	0xbd769f88	-0.060210735
118	0xbac21eb6	-0.0014810178
119	0x3d81768b	0.063214384
120	0x3db2d436	0.08731882
121	0xbdd0ffc2	-0.10205032
122	0xba05e4d3	-0.0005107645
123	0x3dc18f19	0.09451122
124	0xb3871f6f	-6.292145e-08
125	0x3dc639bb	0.0967898
126	0x3d06c1f4	0.032899812
127	0xb3c0b91e	-8.974369e-08
128	0x3c932cd4	0.017965712
129	0x3dcbef38	0.09957737
130	0xbbbe8831	-0.005814575
131	0xb1a3b831	-4.7648645e-09
132	0x3aa9af30	0.0012945887
133	0x3da5ccad	0.080956794
134	0x3d270166	0.040772818
135	0x34a16f73	3.0069677e-07
136	0x3ddd5ffa	0.10809322
137	0xbc9bdb25	-0.019025395
138	0x3dd22a65	0.10261992
139	0x3d78d0ee	0.060746126
140	0x3d2a2793	0.041541647
141	0x3d9dbcfc	0.077020615
142	0xbddc6528	-0.107614815
143	0xb2727721	-1.4113341e-08
144	0x340ea2d5	1.3284019e-07
145	0xbd66c168	-0.05633679
146	0xbd0a32c6	-0.033739828
147	0x3d915148	0.07095581
148	0xba246768	-0.0006271512
149	0xbdd5191a	-0.10405178
150	0xbdd7fb4f	-0.1054598
151	0xbdaefd13	-0.08544364
152	0xbc5247dd	-0.012834516
153	0xbbd90de4	-0.0066239703
154	0x33a31607	7.594286e-08
155	0x3cecb43c	0.028894536
156	0x3d8175c4	0.0632129
157	0xbc74224f	-0.014900758
158	0xaea4c5fb	-7.493025e-11
159	0x3d4318b4	0.04763098
160	0xbac20e14	-0.0014805221
161	0x3904c012	0.00012660053
162	0x320ff541	8.37946e-09
163	0x3d96c747	0.07362228
164	0xb401d876	-1.2092809e-07
165	0xbab66b58	-0.0013917489
166	0x3384f67a	6.191563e-08
167	0x3c37ad4d	0.011210752
168	0xbd394c15	-0.045238573
169	0x3d4bf09a	0.049790002
170	0x3d4ba7c8	0.049720556
171	0xbc76c40c	-0.01506139
172	0xbbc39e0a	-0.0059697675
173	0x3b2661be	0.0025387849
174	0xbdda30ff	-0.106538765
175	0x3cdf9a53	0.027295267
176	0xaf3692b4	-1.6604923e-10
177	0xb4f034e4	-4.4741967e-07
178	0xbcd9e626	-0.026599001
179	0xbdb0ca86	-0.08632378
180	0x3d71d15f	0.059037562
181	0xbd4a0f7b	-0.04933117
182	0xbdd52b1e	-0.104086146
183	0xbcda6f4f	-0.026664404
184	0x3d2df4f5	0.042469937
185	0x3dd28d64	0.10280874
186	0xbcd53174	-0.026024558
187	0x3db78fa5	0.08962945
188	0x3cd96133	0.026535606
189	0x3d4656ca	0.048422612
190	0xbcb871e9	-0.022515254
191	0x3da4b244	0.08041814
192	0x39dbfd36	0.00041959592
193	0x3d55796e	0.052117757
194	0xb5107d43	-5.382646e-07
195	0xbc6b78bb	-0.014372046
196	0x357959e3	9.289053e-07
197	0xbdb13f70	-0.08654678
198	0x3dc8f71d	0.09812758
199	0x3bdae37f	0.0066799517
200	0x3c1be690	0.00951542
201	0xbd2c746a	-0.04210321
202	0xba98edb0	-0.0011667516
203	0xbdadd156	-0.08487193
204	0xbd8616af	-0.06547295
205	0x310e4654	2.0703697e-09
206	0xbd93cd9b	-0.072169505
207	0x3c8cd0e1	0.017189445
208	0xbd4890ba	-0.048966147
209	0x380be411	3.3352586e-05
210	0x3d9cd441	0.07657672
211	0x3da10cdb	0.0786378
212	0x3d594c72	0.05305142
213	0x39cc067c	0.00038914743
214	0x3b7d0f1a	0.0038613738
215	0x3cc71ae2	0.02430481
216	0xb3027fd4	-3.0384243e-08
217	0xbc7e4d62	-0.015521379
218	0xbb952a1e	-0.00455214
219	0xb246a147	-1.1561787e-08
220	0x3cbbf874	0.02294562
221	0xb296f255	-1.7572498e-08
222	0xb1e117be	-6.551061e-09
223	0x3dbb701e	0.09152244
224	0xbdbf1e2c	-0.09331927
225	0xb0e4c162	-1.6644146e-09
226	0xbdbc9f47	-0.09210067
227	0xb3d80912	-1.0059934e-07
228	0x3a8d75f5	0.00107926
229	0x3cd46372	0.025926325
230	0x3d3814bf	0.04494166
231	0x3cbb203a	0.022842515
232	0x3be6303c	0.007024793
233	0xbce820b6	-0.02833591
234	0x3da0cce9	0.078515835
235	0x3d55779e	0.05211603
236	0x3d3e5cdb	0.046475273
237	0x3dd7d2c4	0.10538247
238	0xbd9e9f95	-0.077452816
239	0xbd2ece2e	-0.042677097
240	0xbceac861	-0.028660001
241	0xbb59357a	-0.0033143447
242	0xbdab584f	-0.08366453
243	0x329f82a8	1.8569452e-08
244	0x3a52b400	0.00080376863
245	0x3315ce56	3.4879427e-08
246	0x3c224f34	0.009906579
247	0x3dde11ca	0.10843237
248	0xbd81e734	-0.063429266
249	0xb3850148	-6.193528e-08
250	0x3dae322e	0.08505665
251	0x322459fa	9.566515e-09
252	0xbdcc592a	-0.09977944
253	0x3c9bea58	0.019032642
254	0xbcccb783	-0.024989849
255	0x3cd35c44	0.025800832

multihead_self_attention.multihead_attn.in_proj_bias f4 [96]
0	0x00000000	0.0
1	0x00000000	0.0
2	0x00000000	0.0
3	0x00000000	0.0
4	0x00000000	0.0
5	0x00000000	0.0
6	0x00000000	0.0
7	0x00000000	0.0
8	0x00000000	0.0
9	0x00000000	0.0
10	0x00000000	0.0
11	0x00000000	0.0
12	0x00000000	0.0
13	0x00000000	0.0
14	0x00000000	0.0
15	0x00000000	0.0
16	0x00000000	0.0
17	0x00000000	0.0
18	0x00000000	0.0
19	0x00000000	0.0
20	0x00000000	0.0
21	0x00000000	0.0
22	0x00000000	0.0
23	0x00000000	0.0
24	0x00000000	0.0
25	0x00000000	0.0
26	0x00000000	0.0
27	0x00000000	0.0
28	0x00000000	0.0
29	0x00000000	0.0
30	0x00000000	0.0
31	0x00000000	0.0
32	0x00000000	0.0
33	0x00000000	0.0
34	0x00000000	0.0
35	0x00000000	0.0
36	0x00000000	0.0
37	0x00000000	0.0
38	0x00000000	0.0
39	0x00000000	0.0
40	0x00000000	0.0
41	0x00000000	0.0
42	0x00000000	0.0
43	0x00000000	0.0
44	0x00000000	0.0
45	0x00000000	0.0
46	0x00000000	0.0
47	0x00000000	0.0
48	0x00000000	0.0
49	0x00000000	0.0
50	0x00000000	0.0
51	0x00000000	0.0
52	0x00000000	0.0
53	0x00000000	0.0
54	0x00000000	0.0
55	0x00000000	0.0
56	0x00000000	0.0
57	0x00000000	0.0
58	0x00000000	0.0
59	0x00000000	0.0
60	0x00000000	0.0
61	0x00000000	0.0
62	0x00000000	0.0
63	0x00000000	0.0
64	0xbbe26d5c	-0.0069100093
65	0x3cddd5b2	0.027079437
66	0x3ba512d9	0.005037647
67	0x3b806186	0.0039178757
68	0xbc9f4897	-0.019443793
69	0xba6b0f4d	-0.00089668186
70	0xb934a500	-0.00017227605
71	0xbc9b6231	-0.01896772
72	0xbb9b0c48	-0.0047316886
73	0xb9a6e442	-0.00031832053
74	0xbb4faa9e	-0.003168739
75	0xbac9ec34	-0.0015405477
76	0x3af93e61	0.0019015783
77	0x3ca697a8	0.020335987
78	0x3b526d4f	0.003210861
79	0xbb752010	-0.0037403144
80	0x3c0c512e	0.008564277
81	0xbc0be407	-0.008538253
82	0xbcad4b6c	-0.021154128
83	0xbca7f58b	-0.020502826
84	0x3a9c718a	0.0011935693
85	0xbb8a64ec	-0.0042234566
86	0x3b94c055	0.0045395293
87	0x3aae31a5	0.0013289942
88	0x3c691c6a	0.014227966
89	0xbb93c083	-0.004509033
90	0xbce360bd	-0.02775609
91	0x3c157951	0.009123162
92	0xbb2cb219	-0.0026351272
93	0xb85c9f88	-5.2600662e-05
94	0x3a717807	0.0009211306
95	0xbb9c1b0d	-0.004763967

multihead_self_attention.multihead_attn.out_proj.weight f4 [32, 32]
0	0xbe1761e4	-0.14783436
1	0x3db148e9	0.08656485
2	0x3e39bbb7	0.18138014
3	0xbe012239	-0.12610711
4	0xbbe94c04	-0.0071196575
5	0x3ce523c6	0.02797116
6	0xbd90eb4b	-0.070761286
7	0xbe272d91	-0.16325976
8	0x3d4955a4	0.04915394
9	0x3e0888f1	0.13333489
10	0x3dbfeff2	0.09371938
11	0xbd56bbc8	-0.052425176
12	0xbd3d8de3	-0.04627789
13	0x3e495351	0.19660689
14	0x38656a2c	5.4696735e-05
15	0x3d1b3139	0.03788874
16	0x3e0bc1ac	0.13648099
17	0x3e269a93	0.16269903
18	0x3c510b21	0.012759001
19	0x3e09fd18	0.13475454
20	0xbdf79dd2	-0.12090649
21	0xbe12568b	-0.14290826
22	0xbdd14606	-0.10218434
23	0x3e35e339	0.1776246
24	0x3e43e036	0.19128498
25	0xbd659a9f	-0.05605566
26	0xbe301b66	-0.17197952
27	0x3e140f67	0.14459
28	0xbd96576f	-0.073408954
29	0x3e01f9b4	0.1269291
30	0xbd215e73	-0.039396714
31	0x3e187856	0.14889655
32	0x3dd8f686	0.105938956
33	0xbd8142a2	-0.06311537
34	0xbde403fc	-0.111335725
35	0xbdc77f39	-0.09741063
36	0x3e2a6af0	0.16642356
37	0x3ce338bc	0.027737014
38	0xbc872031	-0.016494842
39	0xbdaba9d4	-0.083820015
40	0xbe0f52fe	-0.13996503
41	0x3d2777f2	0.040885873
42	0x3e2c4556	0.16823325
43	0x3e1313cf	0.14363025
44	0xbd8f12cb	-0.06986006
45	0xbd8c530f	-0.0685178
46	0xbc197e3c	-0.0093684755
47	0x3d501c6f	0.050808366
48	0xbe20d85e	-0.15707538
49	0x3c7877a0	0.01516524
50	0x3d3638d0	0.044487774
51	0xbdb668f5	-0.08906738
52	0xbb12920b	-0.002236488
53	0x3ca99c07	0.020704282
54	0xbe1c9a18	-0.15293157
55	0xbd57963d	-0.052633513
56	0xbb863658	-0.0040958337
57	0xbd8e56d6	-0.069501564
58	0xbaa4aea9	-0.001256426
59	0x3d6e713a	0.05821345
60	0x3df1b06a	0.118012264
61	0x3e11e012	0.14245632
62	0xbc2197ae	-0.009862823
63	0xbdc6ccbe	-0.0970702
64	0x3d9232ab	0.071385704
65	0xbd8ba92c	-0.06819376
66	0x3e095d3a	0.1341447
67	0xbd9e428b	-0.07727536
68	0x3bade618	0.0053069703
69	0x3e00547c	0.12532228
70	0x3e099c48	0.13438523
71	0xba6a2db0	-0.00089331996
72	0xbe195695	-0.14974435
73	0x3e2bd9a4	0.16782242
74	0xbdab75e1	-0.08372093
75	0x3d796fd1	0.060897652
76	0xbe02425c	-0.12720627
77	0xbd7c2b72	-0.06156487
78	0x3d008ca2	0.031384118
79	0x3d86f2ca	0.06589277
80	0xbe10cb22	-0.14139989
81	0x3d857bec	0.06517777
82	0x3e3f33ca	0.186721
83	0x3e3cce1d	0.18438001
84	0x3d04dcff	0.03243732
85	0xbd9f1609	-0.07767875
86	0x3d959d2f	0.07305371
87	0x3e10fd27	0.1415907
88	0x3da074fc	0.07834813
89	0xbd95e53c	-0.073191136
90	0xbdec3d88	-0.11535174
91	0xbdc6325c	-0.09677574
92	0x3ca26237	0.019822223
93	0xbddb2cc6	-0.10701899
94	0x3e2e7c4d	0.17039604
95	0x3e2bfb98	0.16795194
96	0xbe2d6cf2	-0.1693609
97	0xbdf3315a	-0.118746474
98	0xbdd5c062	-0.10437085
99	0x3c20b844	0.009809557
100	0xbcbae3b7	-0.022813661
101	0x3dea7ffd	0.11450193
102	0xbe0cc285	-0.13746078
103	0xbacf6d3c	-0.0015825401
104	0x3d9a010f	0.07519733
105	0xbd6b6e39	-0.057478163
106	0xbe09751c	-0.1342358
107	0x3d9934a9	0.07480747
108	0x3dd140fd	0.10217474
109	0xbdce64d2	-0.10077824
110	0xbbff821d	-0.007797493
111	0xbdf00071	-0.11718834
112	0x3ca2f438	0.019891843
113	0x3e1b2043	0.15149026
114	0xbe16cbe8	-0.14726222
115	0x3de5acb0	0.11214578
116	0xbded3065	-0.11581496
117	0x3d839da8	0.06426555
118	0x3dc429e1	0.095783
119	0xbd94870d	-0.072523214
120	0x3df478e2	0.11937119
121	0xbd2a6c3b	-0.041607123
122	0x3cd80755	0.026370684
123	0x3cf20089	0.02954127
124	0x3decaaa9	0.11555988
125	0xba3abd7c	-0.0007123572
126	0x3dc26ebc	0.09493777
127	0x3e061d45	0.13097103
128	0x3d7162a8	0.058931977
129	0x3e48f7c7	0.1962577
130	0x3d68ff97	0.056884374
131	0x3e0cf1ae	0.13764068
132	0xbdcf839c	-0.10132524
133	0xb921e8a3	-0.0001544082
134	0x3d1d6da0	0.038434625
135	0xbd05a599	-0.03262863
136	0xbdbc5e8c	-0.09197721
137	0x3d5555e5	0.05208387
138	0x3d4d0046	0.05004909
139	0xbd08ccb6	-0.033398353
140	0x3df9d197	0.12198179
141	0xbd3f3da0	-0.04668963
142	0x3dc98009	0.09838874
143	0x3ccf3db2	0.025297973
144	0xbda2b5e5	-0.0794485
145	0xbe2741a0	-0.16333628
146	0xbddb98c0	-0.10722494
147	0xbd898085	-0.06713966
148	0x3e3b8c46	0.18315229
149	0x3d53792b	0.051629227
150	0xbaa0eb62	-0.0012277181
151	0x3d2514c1	0.040302996
152	0xbd09511a	-0.03352461
153	0xbe0aed93	-0.1356719
154	0xbe021a3c	-0.1270532
155	0x3d5f407c	0.054504856
156	0xbd77d336	-0.06050416
157	0xbcab534c	-0.020913742
158	0xbd7ed2ca	-0.062212743
159	0xbd49261a	-0.049108602
160	0x3dc895da	0.09794207
161	0x3e1d8eb3	0.15386467
162	0x3e17ac4d	0.14811821
163	0xbd1dc695	-0.03851946
164	0x3c226587	0.009911901
165	0x3d55be54	0.052183464
166	0xbe348285	-0.17627914
167	0x3e11b41e	0.14228866
168	0x3e01105a	0.12603894
169	0xbbe939a0	-0.007117465
170	0x3e10c4ca	0.14137569
171	0x3d6a95f9	0.05727193
172	0x3e1dd3d1	0.15412833
173	0x3e27917a	0.16364089
174	0x3e1b0911	0.15140177
175	0x3e196b8e	0.14982435
176	0x3e167afb	0.14695351
177	0x3d438036	0.047729693
178	0x3d948257	0.07251423
179	0x3dd7f4d2	0.10544743
180	0xbd1ab577	-0.037770715
181	0x3e1073a5	0.14106615
182	0x3d16fb7c	0.036860928
183	0xbda1af72	-0.07894792
184	0xbe188e78	-0.14898098
185	0xbd96a340	-0.07355356
186	0xbdecbc66	-0.11559372
187	0x3dae89a3	0.08522346
188	0x3da3fc47	0.080071025
189	0x3c9ebed0	0.019378096
190	0x3e2d8a11	0.169472
191	0xbe334769	-0.1750771
192	0x3dc09a2a	0.094044045
193	0x3e114ad5	0.14188702
194	0x3d20f13c	0.03929256
195	0xbe0847d2	-0.13308647
196	0x3e153e59	0.14574565
197	0x3dd29396	0.10282056
198	0xbd859417	-0.065223865
199	0x3dbd8c0b	0.09255227
200	0x3e15fad4	0.14646465
201	0xbdb42d64	-0.0879772
202	0x3de9f4a7	0.11423617
203	0xbc0a3c31	-0.008437202
204	0xbe1ac9e8	-0.15116084
205	0xbe09da2c	-0.13462132
206	0xbdc3c7e2	-0.09559609
207	0xbd36f4a0	-0.044666886
208	0xbdb10ad0	-0.086446404
209	0xbe1da68b	-0.15395562
210	0x3d9c706d	0.07638631
211	0x3df70c18	0.120628536
212	0xbdb3d7eb	-0.087814175
213	0xbe00b464	-0.12568814
214	0x3df80b6e	0.12111555
215	0xbc479323	-0.012181076
216	0x3e0ee4c5	0.13954456
217	0xbe2afd44	-0.16698176
218	0xbded8ec6	-0.115994975
219	0x3e07995d	0.13242097
220	0xbe40d23c	-0.18830198
221	0xbd19642e	-0.037449054
222	0xbe2d249c	-0.16908497
223	0xbdc25975	-0.09489719
224	0x3bbe1596	0.005800913
225	0xbdb50bcc	-0.08840141
226	0xbd95e0c4	-0.07318261
227	0x3e3357b2	0.17513922
228	0xbda26cdb	-0.07930919
229	0xbd3502e9	-0.04419223
230	0x3e176004	0.14782721
231	0x3d8780d4	0.06616369
232	0xbdccbef9	-0.09997363
233	0xbe20d8fa	-0.1570777
234	0x3dbd695a	0.0924861
235	0xbe356251	-0.17713286
236	0x3e2a3abc	0.16623968
237	0x3ca2e6b8	0.019885406
238	0xbdc980b7	-0.098390035
239	0x3d5cb7c8	0.053886205
240	0xbd28b23d	-0.041185606
241	0xbd11fb08	-0.035639793
242	0x3e17ae5d	0.14812608
243	0x3da08c97	0.078393154
244	0xbb36908d	-0.0027857155
245	0x3d0c42ea	0.0342435
246	0xbe501b53	-0.20322923
247	0x3dce872a	0.10084374
248	0xbbdeb6d9	-0.0067966995
249	0xbdc93b17	-0.098257236
250	0x3dbde15e	0.09271501
251	0xb9821a78	-0.00024815253
252	0x3caa218a	0.020767946
253	0xbe24daec	-0.16099137
254	0xbbdcc268	-0.006737042
255	0x3e15277f	0.14565848

multihead_self_attention.multihead_attn.out_proj.bias f4 [32]
0	0x3c912588	0.017718092
1	0xbbdde37b	-0.0067715026
2	0xbbabd389	-0.005243723
3	0xbc4e3ae1	-0.01258728
4	0x3cad339a	0.02114277
5	0x3890d080	6.905291e-05
6	0xbb9cb0be	-0.0047818115
7	0xbc724c36	-0.014788678
8	0xbb24ceeb	-0.0025147747
9	0x3b938bc0	0.0045027435
10	0xbb14986a	-0.0022673854
11	0x3cd21b71	0.02564785
12	0xbcd84149	-0.026398318
13	0xbb61c5f3	-0.0034450262
14	0x3c1edc75	0.009696116
15	0xbbdf1525	-0.0068079405
16	0xbb629c16	-0.0034577898
17	0x3be70b7c	0.0070509296
18	0x3a898888	0.001049296
19	0x3b277d3b	0.002555682
20	0xbbc7d650	-0.006098546
21	0x3bf9f163	0.0076276525
22	0xbc3de348	-0.011589833
23	0x3cb747f0	0.02237317
24	0xbc6ed153	-0.014576274
25	0xbbdb4e83	-0.006692709
26	0xbacef04c	-0.0015788167
27	0xbc394bf2	-0.011309611
28	0x3bce7a61	0.00630121
29	0x3cbcfd5a	0.023070026
30	0xbbc5f50a	-0.006041174
31	0x3be44fcf	0.0069675217

multihead_self_attention.fc.weight f4 [12, 32]
0	0x3c94bb35	0.018155674
1	0xbdf1df26	-0.1181014
2	0xbcd91edd	-0.026503975
3	0x3e187854	0.14889652
4	0x3af721b3	0.0018854648
5	0x3cb61453	0.022226488
6	0x3dae7ea9	0.08520252
7	0x3d9e3ac4	0.077260524
8	0x3e22664a	0.15859333
9	0x3e15fdb7	0.14647566
10	0x3da9ea98	0.08296698
11	0x3d3ea61e	0.04654514
12	0x3dd45c96	0.10369222
13	0x3de81ede	0.113340124
14	0xbbab0dac	-0.0052201357
15	0xbdf6129a	-0.12015267
16	0xbe06fd1e	-0.13182494
17	0x3d75c549	0.0600026
18	0x3e22782f	0.15866159
19	0xba68bc24	-0.0008878133
20	0x3d862c9b	0.065514766
21	0xbb370935	-0.0027929072
22	0x3d9e8059	0.07739324
23	0x3e1a5799	0.15072478
24	0x3d478513	0.048710894
25	0xbe07f7d9	-0.1327814
26	0x3d201f21	0.039092187
27	0x3e46006b	0.19336097
28	0xbe256c0e	-0.16154501
29	0xbe3504f9	-0.17677678
30	0x3b5ba35e	0.0033514122
31	0x3d66a7c1	0.056312326
32	0xbd1c2145	-0.038117666
33	0x3d8769e2	0.066119924
34	0xbe147325	-0.14497049
35	0x3e27b278	0.16376674
36	0x3d1e93da	0.03871522
37	0x3de03ac3	0.10948708
38	0xbe3d6009	-0.18493666
39	0xbd81f07b	-0.06344696
40	0xbe0f0fef	-0.13970922
41	0x3dae6613	0.08515563
42	0x3e0353c5	0.12824924
43	0x3d238225	0.039919037
44	0x3e3bbc54	0.1833356
45	0xbdbc4f80	-0.09194851
46	0x3d64472f	0.05573195
47	0x3db083dc	0.086189
48	0xbd85c410	-0.065315366
49	0x3c31146f	0.010808094
50	0x3d3300f7	0.043702092
51	0xbddb64be	-0.107125744
52	0xbd00527d	-0.031328667
53	0xbd39ff73	-0.04540963
54	0x3ce1df07	0.027572168
55	0xbe54f70a	-0.20797363
56	0xbe017dd6	-0.12645659
57	0x3dd92a29	0.106037445
58	0x3c4f32f1	0.012646423
59	0x3e0e10e7	0.13873635
60	0x3d190d14	0.037365988
61	0xbd041fdb	-0.032256942
62	0xbd6e44c3	-0.058171045
63	0xbe087dd1	-0.13329245
64	0xbe0e7db3	-0.13915138
65	0x3df5af10	0.11996281
66	0x3e165c78	0.14683712
67	0x3e1aef48	0.15130341
68	0xbe06b303	-0.13154225
69	0x3dbf1b32	0.09331359
70	0x3e172fe7	0.14764367
71	0x3d9d9f0e	0.07696353
72	0xbd3f258c	-0.046666667
73	0xbd99bf14	-0.075071484
74	0xbdb6de2a	-0.08929093
75	0xbcc53e84	-0.024077661
76	0x3d586708	0.052832633
77	0x3c0f6e43	0.008754316
78	0x3b9cd4d7	0.0047861147
79	0xbc81e1f7	-0.015854819
80	0x3d8cb2c9	0.06870038
81	0xbe1f30fd	-0.15546031
82	0x3d1a86ce	0.037726216
83	0x3d160f68	0.036635786
84	0x3e0fb4ff	0.14033888
85	0xbe33f891	-0.1757529
86	0x3c34a0fd	0.011024711
87	0xbe4922bd	-0.19642158
88	0x3d6bb4e1	0.057545546
89	0x3e2a2f77	0.16619669
90	0x3dafa782	0.085768715
91	0x3e22307b	0.15838806
92	0xbdf7f1d9	-0.12106676
93	0xbe449dcb	-0.19200818
94	0xbc933f39	-0.017974483
95	0xbe1eeea0	-0.15520716
96	0xbd603888	-0.054741412
97	0xbd4f588a	-0.050621547
98	0xbe083537	-0.1330155
99	0x3df85db2	0.12127246
100	0x3d32070f	0.043463763
101	0x3d90e1b3	0.07074299
102	0xbe25f75b	-0.1620764
103	0x3e3c3719	0.18380393
104	0xbdf27edb	-0.11840602
105	0xbca14f2e	-0.019691076
106	0x3cca9bc7	0.024732484
107	0xbe2d5131	-0.16925503
108	0x3e056955	0.13028462
109	0xbe0163f5	-0.12635787
110	0xbdccc2be	-0.099980816
111	0x3e42b6b8	0.19015014
112	0xbdd9c9fb	-0.10634228
113	0xbda196db	-0.078901015
114	0xbd38bdd2	-0.0451029
115	0xbd9e93f4	-0.077430636
116	0xbd2289d6	-0.03968223
117	0xbcae2b6e	-0.021260943
118	0x3d987388	0.07443911
119	0xbe0af099	-0.13568343
120	0x3e03c3d7	0.12867676
121	0x3e29f3e4	0.16596943
122	0xbe2f2c32	-0.17106703
123	0xbd92286f	-0.07136618
124	0xbe0b60d6	-0.13611159
125	0xbde472b6	-0.11154692
126	0x3e2dfa19	0.16989936
127	0x3e0d2eb4	0.13787347
128	0x3d898229	0.06714279
129	0x3d5c7ffd	0.053832997
130	0xbe210ad5	-0.15726788
131	0xbe0b3da5	-0.13597734
132	0xbdc2a905	-0.09504894
133	0x3dbce063	0.09222486
134	0xbe10d0f5	-0.14142211
135	0xbdd65e36	-0.10467188
136	0xbddcd87e	-0.1078348
137	0xbddcea81	-0.107869156
138	0xbd77cf54	-0.060500458
139	0x3cf04528	0.029329851
140	0x3c743be5	0.014906858
141	0xbcee8e8e	-0.02912071
142	0xbdf07a59	-0.11742086
143	0xbd047828	-0.032341152
144	0xbd456646	-0.04819324
145	0xbda6d76d	-0.08146558
146	0xbda64c4d	-0.08120022
147	0xbe097b56	-0.13425955
148	0x3c22a389	0.009926685
149	0x3cab132c	0.020883165
150	0xbc1c05c4	-0.009522859
151	0x3e054503	0.13014607
152	0xbe15563c	-0.14583677
153	0x3dd119d9	0.10210008
154	0x3df5649e	0.11982082
155	0x3ccdf955	0.025143305
156	0x3e331b81	0.1749096
157	0x3c904389	0.017610328
158	0xbddeb105	-0.108736075
159	0xbe17abd5	-0.14811642
160	0x3e06a69d	0.13149495
161	0xbe01f1a3	-0.12689833
162	0x3db126c2	0.086499706
163	0xbdb9d4cd	-0.09073792
164	0xbe45cafa	-0.1931571
165	0xbdaac4c9	-0.08338315
166	0xbdc4d128	-0.09610206
167	0xbdd4f235	-0.1039776
168	0x3da8318e	0.08212577
169	0xbde0be26	-0.10973768
170	0x3db84337	0.08997195
171	0xbcd96ae7	-0.026540233
172	0x3d93f0c5	0.072236575
173	0x3dbc9a88	0.09209162
174	0x3e0c2614	0.136864
175	0x3d1af18f	0.037828024
176	0x3d746b2b	0.059672516
177	0x3d9b4317	0.07581156
178	0x3dbcdb29	0.09221489
179	0xbd80a147	-0.06280761
180	0x3dd94305	0.10608486
181	0x3d83577e	0.06413172
182	0xbdbc6806	-0.091995284
183	0xbd8faf30	-0.07015836
184	0xbe361b08	-0.17783749
185	0x3dfc90b7	0.1233229
186	0x3e213dd5	0.15746243
187	0x3da7a0e7	0.081849866
188	0x3de40a2d	0.111347534
189	0xbc8ba0d1	-0.017044457
190	0xbd8174f6	-0.06321137
191	0x3dadf69e	0.08494304
192	0xbe218dc9	-0.15776743
193	0xbe35f17c	-0.177679
194	0xbc15a550	-0.009133652
195	0xbd2847b2	-0.041084
196	0x3dfaeeae	0.12252556
197	0xbe307fb6	-0.17236218
198	0xbe09d8f7	-0.13461672
199	0xbdd642c3	-0.104619525
200	0xbd6b214a	-0.057404794
201	0xbe1a17b0	-0.15048099
202	0x3e0215bf	0.12703608
203	0xbba53f73	-0.005042964
204	0xbe1f10c7	-0.15533744
205	0x3dfbe303	0.122991584
206	0x3e2c3af8	0.1681937
207	0xbe099090	-0.13434052
208	0x3e3228b0	0.17398334
209	0x3d7b09c0	0.061288595
210	0x3dd70f17	0.10500925
211	0xbc27f458	-0.010251127
212	0x3d0928f2	0.033486314
213	0xbdf166b3	-0.117871664
214	0x3d64c87b	0.055855256
215	0xb95595d0	-0.00020369072
216	0x3db7b6d5	0.08970419
217	0x3e16fb06	0.14744195
218	0xbcc5a04d	-0.024124289
219	0x3e3a5d06	0.18199548
220	0x3dbf98ae	0.09355293
221	0x3c6447a6	0.013933098
222	0x3df3bd72	0.11901368
223	0x3ad87c4f	0.0016516539
224	0xbc72b72a	-0.0148141775
225	0x3e1be684	0.15224653
226	0xbdbcfedf	-0.092283
227	0xbe065fd4	-0.13122493
228	0xbca8865b	-0.020571878
229	0xbd800947	-0.062517695
230	0x3dec087d	0.115250565
231	0x3daf4789	0.08558566
232	0xbd0df648	-0.0346587
233	0x3b97ab19	0.0046285507
234	0xbd00b26c	-0.031420156
235	0xbde65c74	-0.11248103
236	0x3dc3e661	0.09565426
237	0x3b4287f6	0.002968309
238	0x3cb11827	0.021617962
239	0x3dbc643f	0.09198808
240	0xbd3f054b	-0.046635907
241	0xbe046e06	-0.12932596
242	0xbe0a179d	-0.1348557
243	0xbdd0d9e5	-0.1019781
244	0x3e028dba	0.12749377
245	0xbd50af35	-0.05094834
246	0x3df408dd	0.11915753
247	0xbe29d0b0	-0.16583514
248	0x3d909b12	0.07060827
249	0x3d43bed9	0.04778943
250	0x3db23951	0.087023385
251	0x3dcd6ba0	0.100302935
252	0x3e2a6a74	0.16642171
253	0xbdf738f7	-0.12071412
254	0xbdaa8d33	-0.08327713
255	0x3e029de1	0.12755539

multihead_self_attention.fc.bias f4 [12]
0	0x3dc9b40a	0.09848793
1	0xbc215917	-0.009847901
2	0x3d139c84	0.036037937
3	0x3d54bc43	0.051937353
4	0xbe272169	-0.16321339
5	0xbddfc351	-0.109259255
6	0x3d61d8bb	0.05513833
7	0x3dcdef2f	0.10055386
8	0x3d48faf4	0.049067453
9	0x3e1aed24	0.15129524
10	0x3decb6c4	0.11558297
11	0xbddf5f20	-0.109068155

fc.weight f4 [12, 12]
0	0xbb7b3548	-0.0038331319
1	0x3dce155c	0.10062668
2	0xbe5e2d9e	-0.21697089
3	0x3e1f9566	0.15584335
4	0xbcf2fa86	-0.029660475
5	0x3e45616d	0.19275446
6	0x3e838223	0.25685224
7	0xbe4d93ea	-0.20075956
8	0x3e036583	0.12831692
9	0xbe5cc02c	-0.21557683
10	0xbe97a591	-0.29618505
11	0x3e1b74d8	0.15181291
12	0x3d74a0fd	0.059723843
13	0xbd265acd	-0.040613938
14	0xbd977599	-0.07395477
15	0xbd68b8a5	-0.056816716
16	0x3e332b28	0.17496932
17	0x3caf5c66	0.021406364
18	0xbe12b100	-0.14325333
19	0xbda92ff9	-0.08261103
20	0xbe46f1f2	-0.19428232
21	0x3dc75a74	0.097340494
22	0x3e2125be	0.15737054
23	0x3e156e6d	0.14592905
24	0x3e17127e	0.14753148
25	0xbd83d117	-0.06436365
26	0x3db9933b	0.09061285
27	0x3e6a174c	0.2286045
28	0x3d0ed0a3	0.03486694
29	0xbd0d2395	-0.03445776
30	0x3ea0904f	0.313601
31	0x3e63d237	0.2224816
32	0xbe7ae0dc	-0.2449984
33	0x3ea65efd	0.32494345
34	0xbe68b22f	-0.22724222
35	0x3dc7735f	0.09738802
36	0xbca3903c	-0.019966237
37	0xbe801a87	-0.2502024
38	0x3e4e7b45	0.20164211
39	0xbe61ac2e	-0.22038338
40	0x3d540644	0.051763788
41	0xbd3fc5d8	-0.046819538
42	0x3e2215b5	0.15828593
43	0xbea24a6a	-0.31697398
44	0x3e16eb14	0.14738113
45	0xbdc13f54	-0.09435907
46	0xbe1348fc	-0.1438331
47	0x3d8b87d6	0.06813018
48	0x3e363bd6	0.17796263
49	0xbd903f5e	-0.07043336
50	0xbe8abb2b	-0.27095923
51	0xbe02168e	-0.12703916
52	0xbe31492e	-0.17313072
53	0x3e7a04b0	0.2441585
54	0xbe6c1146	-0.23053464
55	0xbddf036e	-0.10889326
56	0x3c6283fa	0.013825411
57	0x3e3cf23b	0.18451779
58	0xbdd99708	-0.1062451
59	0x3e7f8980	0.24954796
60	0x3e7781c7	0.241706
61	0xbe091bec	-0.13389558
62	0x3e91290a	0.28351623
63	0x3eb0e0f4	0.34546626
64	0x3d23e13f	0.040009733
65	0xbe085191	-0.13312365
66	0xbe789fcc	-0.24279708
67	0x3e42c241	0.19019414
68	0x3e378b69	0.17924275
69	0x3e58d7aa	0.2117602
70	0x3d332d8a	0.0437446
71	0xbcc1a428	-0.023637846
72	0xbe5ebd33	-0.21751861
73	0xbd69d3e4	-0.05708684
74	0x3e099549	0.13435854
75	0xbe6fdc5d	-0.23423906
76	0xbe17f540	-0.14839649
77	0xbd48cff0	-0.04902643
78	0x3cd28adc	0.025700979
79	0xbd16e52f	-0.03683966
80	0x3d11669d	0.03549825
81	0x3e076a8d	0.1322424
82	0x3e639580	0.22224998
83	0x3e8aafac	0.27087152
84	0x3e257db5	0.16161235
85	0xbcb51a74	-0.02210734
86	0x3eb30248	0.34962678
87	0x3e0e41d7	0.13892303
88	0xbde72cbd	-0.1128783
89	0xbe943e41	-0.28953746
90	0xbe578858	-0.21048105
91	0x3d36729b	0.04454289
92	0x3e0d2eb9	0.13787355
93	0x3e062e84	0.13103682
94	0xbc3dc55b	-0.011582698
95	0x3e0ad298	0.13556898
96	0xbe91b103	-0.28455362
97	0x3d1076ac	0.035269424
98	0xbda25ab6	-0.07927458
99	0x3e23f8e4	0.16012913
100	0x3e8d6b64	0.27620995
101	0xbe618114	-0.22021896
102	0xbe6690eb	-0.2251622
103	0x3e73409c	0.23755115
104	0x3e76441a	0.24049416
105	0xbd78c041	-0.060730223
106	0xbe958996	-0.29206532
107	0xbe78e21e	-0.24305007
108	0xbd18d960	-0.03731668
109	0xbda30e0d	-0.07961664
110	0x3d9c1e70	0.07622993
111	0x3e8e411a	0.27784044
112	0xbea6fc80	-0.32614517
113	0x3d92bbb2	0.07164706
114	0xbd0b5149	-0.034013066
115	0x3e218cad	0.1577632
116	0xbe88e08f	-0.26733825
117	0x3c8d8346	0.01727451
118	0x3d7e463c	0.0620787
119	0x3e0e55ee	0.13899967
120	0x3e8e422f	0.2778487
121	0xbe413e4b	-0.18871419
122	0xbdebdca4	-0.11516693
123	0xbcf7f956	-0.03027026
124	0x3cae2b27	0.021260811
125	0x3ea9b0d3	0.3314272
126	0x3ce35ec8	0.027755156
127	0xbde46208	-0.111515105
128	0x3dd38d58	0.103296936
129	0x3d42b023	0.04753126
130	0xbd1fea6f	-0.039041933
131	0xbde9f8d5	-0.11424414
132	0xbdee37c1	-0.11631728
133	0x3e2b8788	0.1675092
134	0x3eb47d6c	0.3525194
135	0xbe326719	-0.17422141
136	0xbe6ac935	-0.22928317
137	0x3d94397a	0.07237525
138	0x3d525f47	0.051360395
139	0xbe597b1c	-0.21238369
140	0x3e4e5269	0.20148624
141	0x3ea21534	0.31656802
142	0x3ea49734	0.3214661
143	0x3e88d409	0.2672427

fc.bias f4 [12]
0	0xbe7b3473	-0.24531727
1	0x3e02d0d8	0.1277498
2	0xbca62372	-0.020280574
3	0xbe018bff	-0.1265106
4	0xbe6825ee	-0.22670719
5	0xbe846b60	-0.2586317
6	0x3e2b9bbd	0.16758628
7	0xbc6aee04	-0.014338974
8	0xbe83e1c4	-0.25758183
9	0xbdd9251e	-0.10602783
10	0x3e1eae67	0.15496217
11	0xbea1f104	-0.31629193
