trained_weights/theia/gat12.pth (torch, 322516 bytes, 27 tensors)

convs.0.att_src f4 [1, 4, 64]
000000 18 ec 5a 3e 41 af 6a 3e b7 06 14 3d 5b 43 b2 3d
       0.21379125 0.22918417 0.036139216 0.08704253
000010 c9 95 d5 3d 55 0b 4c 3e e6 45 0b be 35 bc 69 3e
       0.1042896 0.19926198 -0.13600883 0.22825702
000020 d9 42 68 3e d4 ae ca bc f4 9b 2c be 54 83 68 be
       0.2268175 -0.024741568 -0.16856366 -0.22706348
000030 25 4f 8b bb 8c 01 f8 3d 15 3b 94 bb 6a f6 45 3d
       -0.004251378 0.1210967 -0.0045236447 0.048330702
000040 58 d8 ef bc 8b 9a 35 3e 69 52 00 bd ff ba 63 3e
       -0.029277965 0.17734735 -0.031328592 0.22239302
000050 43 a8 10 be fa ca 57 3e 96 fd 0c 3d dd 04 d5 bd
       -0.14126687 0.21073523 0.034421526 -0.10401318
000060 a9 9a 24 be 14 72 5f be d1 4a 22 3e 67 1c 63 3e
       -0.16074623 -0.21820861 0.15848853 0.22178803
000070 9c 37 51 be c6 f7 d5 3c e7 f9 5a be 54 98 7e be
       -0.2043137 0.026119124 -0.21384393 -0.24862796
000080 7c 61 fc 3d 9b 87 f2 3d ca c4 b3 bd 86 17 3c bd
       0.12323281 0.11842271 -0.08777769 -0.04592087
000090 37 c7 49 bd d6 91 12 3d 50 96 ef bd c2 ed 56 3e
       -0.04926225 0.03578361 -0.11698592 0.20989135
0000a0 7e f1 54 3e f1 8b 65 3e 27 10 d1 bd 45 7a fc 3d
       0.20795247 0.22416665 -0.10208159 0.123280086
0000b0 05 d7 3b be ec 81 19 3e 28 55 80 3e c8 48 46 be
       -0.18343742 0.14990968 0.2506497 -0.19363701
0000c0 ce be 82 3e 44 9e 82 be 33 60 2b 3d 10 8a b0 bd
       0.25536197 -0.25511372 0.04183979 -0.08620083
0000d0 58 5f a6 bd c9 94 8d 3d 2d ee ea 3d 8f 48 0e be
       -0.08123654 0.06913144 0.1147121 -0.13894866
0000e0 93 d5 e1 3d c8 35 36 bc e5 bf 76 bd cc 0d 76 3e
       0.11027064 -0.011121221 -0.0602416 0.240287
0000f0 8a 06 fd 3d 31 34 73 be 02 aa 3f bd 64 17 e3 bd
       0.12354763 -0.23750378 -0.04679299 -0.11088446
000100 8e a5 6b be 62 d4 60 3d 25 f1 13 3e e6 38 fc 3d
       -0.23012373 0.054890044 0.14447458 0.1231554
000110 d5 f5 54 3e 75 69 4a be 9d be 13 3e 3f 1f 76 3e
       0.20796902 -0.19766791 0.14428182 0.24035357
000120 f3 e0 f3 3c 6f 89 36 3e ee 49 df 3d 2d d8 42 3e
       0.02977035 0.17825864 0.10902773 0.19027777
000130 30 25 d4 3d cf 6e 65 3e 18 b1 8f 3d 91 0e 56 bd
       0.103586555 0.22405551 0.070162 -0.052259985
000140 e4 ee 29 bd c1 90 52 3e 13 82 1a be 35 e5 ea 3d
       -0.04148759 0.20563032 -0.15088682 0.11469499
000150 89 44 94 bd fa fa 93 3d b8 c3 85 be ad e9 53 be
       -0.072396345 0.07225604 -0.26125884 -0.20694609
000160 c3 c5 44 be 1f fc 49 bd f3 8f 7f 3e 27 97 a5 bd
       -0.19216065 -0.049312707 0.24957256 -0.08085471
000170 37 bc 21 3d 50 f6 61 bd 5b 49 8f 3d 2f 10 4f 3d
       0.039486136 -0.055166543 0.06996413 0.050552543
000180 57 e5 63 3e 77 d4 14 be ed fb e2 bd 41 83 76 3e
       0.22255455 -0.14534174 -0.11083207 0.24073507
000190 a1 3a 1e 3c d7 69 6a 3e 45 cb 33 3e 37 aa 7c be
       0.009657533 0.22891937 0.1755801 -0.24674307
0001a0 2a 89 b7 3c be 99 0d 3e e6 50 83 3e af be 36 3e
       0.022404272 0.13828179 0.25647658 0.17846178
0001b0 aa df fc 3c e7 79 14 be 04 bc d3 bd 9e 6b 92 be
       0.03086837 -0.14499627 -0.103385955 -0.2859773
0001c0 26 a3 18 3e 3c bb 53 be db 4e 17 3e 99 b5 8a 3e
       0.14905986 -0.20676893 0.14776175 0.27091673
0001d0 32 8c 94 3d 3b ba 10 be 88 cf 9b 3d 3a d8 18 bd
       0.07253303 -0.14133541 0.07607943 -0.037315585
0001e0 28 07 0f 3e 61 eb 1b bd 17 df dc bd 92 ef 4b 3d
       0.13967574 -0.03806627 -0.107847385 0.04978902
0001f0 1b a7 5f be 07 ae cd bb 77 26 02 be 98 90 13 be
       -0.2184109 -0.006276849 -0.12709986 -0.14410627
000200 b3 40 84 bb 06 56 ed bd de a1 f7 3d 9a ed ff bb
       -0.004036033 -0.11588673 0.120914206 -0.0078103067
000210 3d aa 30 3e 51 78 66 be 9f 6c 6f 3e 48 fd c0 bd
       0.17252441 -0.22506835 0.2338128 -0.094233096
000220 c8 da 0b 3e 38 46 41 be 5e 0e b6 3d 2a 86 b4 bc
       0.13657677 -0.18874443 0.08889459 -0.02203663
000230 22 0e db bc 66 2f ee bc 8c 42 42 be b6 f0 23 3e
       -0.026740137 -0.029075336 -0.18970698 0.16009793
000240 15 54 6f 3e 55 11 1f 3e a6 50 46 bd 64 d0 da 3c
       0.23371918 0.15533955 -0.048416756 0.026710697
000250 99 61 48 3e bf d0 6e 3e 9e 05 b0 bd 44 59 70 be
       0.1956848 0.23321818 -0.085948214 -0.23471552
000260 1b 25 3e 3e 74 ff 03 3e 62 41 9e 3d 5f 39 7d be
       0.18568842 0.12890416 0.077273145 -0.24728917
000270 f6 f4 b9 3d 17 56 1d be 26 99 5f 3e 10 d7 03 be
       0.09079926 -0.15364872 0.21835765 -0.12875009
000280 f1 22 40 be ff 41 1f be 79 f3 6a bd 37 d6 5a be
       -0.18763329 -0.1555252 -0.0573611 -0.21370779
000290 e8 98 2d 3e 1e 02 23 3e 74 78 5c be 6f 3a 07 3e
       0.1695286 0.15918776 -0.21530324 0.13205884
0002a0 ad 71 18 3e f6 c6 5e bd 9c 19 ff 3a 04 4e ea 3d
       0.14887114 -0.054388963 0.0019462588 0.114406615
0002b0 03 48 87 3d 97 99 6b bd 4f 4b f1 bd d4 89 e0 3c
       0.06605532 -0.05751952 -0.11781942 0.027409472
0002c0 fd 02 57 3e b5 ff 7a 3e 0f ae 64 be fa 32 44 be
       0.20997234 0.24511607 -0.22332023 -0.19160071
0002d0 3a 54 20 3e 83 f7 32 be 4f 97 26 bd 2b 57 a5 3d
       0.1565713 -0.1747723 -0.040671643 0.080732666
0002e0 55 82 f2 3d b0 76 d5 3c 38 43 e4 bc b9 52 5d 3e
       0.11841265 0.026057571 -0.027864084 0.21613587
0002f0 bc 1e 0e be 56 9e 4c be 26 09 9e 3c 35 56 2c be
       -0.13878912 -0.19982275 0.019291472 -0.1682976
000300 76 25 4f bd b0 06 64 be bd ea 81 3e e8 f6 2d 3e
       -0.050572835 -0.22268176 0.25374404 0.16988719
000310 c8 71 9d 3d fc 03 e8 3d fd 1a 13 be 6c d2 a0 3d
       0.07687718 0.11328885 -0.14365764 0.07852635
000320 28 fa 48 be 73 85 88 bc b5 69 77 3e a5 6d aa bd
       -0.19626677 -0.016665196 0.24161418 -0.08321694
000330 ce 92 be bd 01 06 75 be 64 b4 b0 bd c5 52 19 3e
       -0.093053445 -0.23928072 -0.08628157 0.1497298
000340 84 70 0f 3e cd eb 8e 3e c9 2f 22 3e a0 23 fa 3c
       0.14007765 0.27914277 0.15838541 0.030534565
000350 e5 ef 64 be f1 34 75 3e 89 50 0c 3e ef fb 1f bd
       -0.22357138 0.23945977 0.13702597 -0.039058622
000360 7d 32 b7 3d 02 e5 d3 3d 11 5c 08 be 0b 86 90 3d
       0.08945177 0.10346414 -0.1331637 0.07056817
000370 ab 3a f7 bd 48 79 fc 3a 6a 9f 7f be af d5 7f 3e
       -0.12071737 0.0019262219 -0.24963155 0.24983858
000380 ec b9 08 be fd a6 0d 3e f6 c9 a3 3d e2 e0 68 be
       -0.13352174 0.13833232 0.07997505 -0.22742036
000390 eb 48 6e 3e a2 ab cb bc f1 fb 80 3e fb 0a 1b 3e
       0.23270003 -0.024862114 0.25192216 0.15140907
0003a0 e9 19 89 3b eb 7e 4e 3e 43 b8 4c 3e 86 7d 7a bd
       0.004183997 0.20165603 0.19992165 -0.061154865
0003b0 18 65 cf 3c 97 97 30 3e 66 c2 8a be c6 f2 10 be
       0.02531676 0.17245327 -0.2710144 -0.1415511
0003c0 b2 23 b9 3d 0c 5b 2f 3e 52 89 a4 3d 84 79 49 be
       0.090400115 0.17124575 0.08034004 -0.19675261
0003d0 fd bc e2 bd 2e 5c 16 bc 45 f3 84 3e 26 06 42 be
       -0.11071203 -0.009177251 0.2596685 -0.18947658
0003e0 64 93 ac ba 4f b6 df 3c 8a e9 79 be bc 9f 82 3e
       -0.0013166484 0.027308611 -0.24405494 0.25512493
0003f0 b0 78 70 be 48 3b 1c be 6a ca e3 bd 24 f5 89 bd
       -0.23483539 -0.15256989 -0.11122592 -0.0673621

convs.0.att_dst f4 [1, 4, 64]
000000 3d 95 02 3e a4 12 28 bb 22 e2 58 3e c0 2b ab 3d
       0.12752242 -0.0025645876 0.21180013 0.08357954
000010 bf b8 fb bd bf 3c 6f be 40 f2 1e be 8a b4 71 bd
       -0.12291097 -0.23363017 -0.15522099 -0.059010066
000020 c2 eb 78 be c1 8d 80 3c c2 28 38 3e 42 bc 66 be
       -0.24308684 0.015692594 0.17984298 -0.22532752
000030 e5 46 2d 3e cd b4 3d 3e 0d a0 42 be 6e 3b 70 3e
       0.16921575 0.18526001 -0.19006367 0.2346017
000040 21 d3 0b be cc 04 04 be 2d 76 23 be 55 9e 4a be
       -0.13654758 -0.12892455 -0.15963049 -0.19786961
000050 ae ba 6d bd 0f 73 9b bd a4 c8 4c 3e 98 3e ae 3c
       -0.05803936 -0.07590305 0.19998413 0.021270081
000060 ff 40 78 3e 46 d4 ad 3c 7a 1d 15 be 77 b0 70 bd
       0.24243544 0.021219384 -0.14562026 -0.05876204
000070 cc 1b c4 3d 6f f2 06 bd 71 6f 29 3e 7d 8b bc 3d
       0.09575614 -0.032946046 0.16546418 0.09206293
000080 ad bf d6 bd 35 cb 3a bd 9a bd f4 3d 6a d1 b2 bd
       -0.10485778 -0.04560395 0.11950226 -0.08731349
000090 fe a5 6b 3b 5d 55 4d 3e 4c a1 83 bd de ab 3f 3e
       0.0035957093 0.20052095 -0.06427249 0.18717906
0000a0 92 13 25 3e eb 55 4a be 0a 28 6b 3e 13 df 94 3d
       0.16120747 -0.19759338 0.22964492 0.072691105
0000b0 f7 f5 3b be 1d 51 88 bc fe 15 41 bb 99 d9 c5 bc
       -0.18355547 -0.01664024 -0.0029462571 -0.02415161
0000c0 29 b7 f8 3d 3e 51 51 3e 07 40 00 3e 07 2e e3 3d
       0.1214431 0.20441148 0.12524424 0.110927634
0000d0 0a 13 93 3d 54 84 21 be cf bf c8 bd 0e b0 c8 3d
       0.07181366 -0.15773135 -0.098022096 0.09799205
0000e0 a6 a0 0c be 5c fb 95 bd f6 1d ad 3d 0a 4d 77 be
       -0.13733158 -0.073233336 0.0845298 -0.24150482
0000f0 54 06 99 bb df 6d 1a 3a 58 47 3e 3c 61 26 97 bd
       -0.004669944 0.0005891006 0.011613689 -0.07380367
000100 b1 1f b3 3d a1 db 26 bd f9 da f8 37 18 e8 bf 3d
       0.08746279 -0.0407368 2.966587e-05 0.0937044
000110 a7 14 b2 b8 9a 3b 15 be 5f 24 1f 3e d4 ba ff bc
       -8.491548e-05 -0.14573517 0.15541218 -0.031217016
000120 c8 85 83 37 d7 ae 0c be 39 4c c7 bd 6e 41 20 be
       1.5678714e-05 -0.13738571 -0.09731335 -0.1564996
000130 06 a1 10 be 9d 34 77 bd 3f 72 6d be e0 ea 89 bd
       -0.14123926 -0.06035291 -0.23188113 -0.06734252
000140 53 1c e0 bd 55 cc 1e 3e 4d e5 f4 bd 89 27 43 be
       -0.109429024 0.15507634 -0.11957798 -0.1905805
000150 ef 1e aa bd 4e 2a 53 3e d1 f8 33 be f9 b0 1d 3e
       -0.08306681 0.20621607 -0.17575385 0.15399541
000160 da fe 63 3c ee ad 59 be 18 5c 3d be 0b 87 01 3d
       0.013915742 -0.21257755 -0.18492162 0.031622928
000170 4f 6d b0 3d 8e f2 44 bd a9 b0 78 3e 6f a9 ad bd
       0.08614599 -0.04808288 0.2428614 -0.084795825
000180 96 aa 2d bd a4 00 49 3e c6 5a 75 bd b9 a3 7a 3e
       -0.04239901 0.1962915 -0.05990102 0.24476518
000190 b5 46 75 be a0 b7 2a b6 9b 83 55 b9 05 13 1c 3e
       -0.23952754 -2.5438858e-06 -0.0002036229 0.1524163
0001a0 9a a7 45 b9 1f 00 ce 3c 5e 90 32 be 48 37 6a be
       -0.0001884982 0.025146542 -0.17437884 -0.2287265
0001b0 36 ad 3f bc 14 bc 0f 3e d2 87 8e bc e9 5c 6c b8
       -0.011699012 0.1403659 -0.017398749 -5.6353314e-05
0001c0 2c bd 6d be 43 a5 3b 3e c4 9a f0 bd 31 95 08 be
       -0.23216695 0.18324761 -0.11748269 -0.13338162
0001d0 8a 16 c3 bd ab d4 5e 3e ad 80 1b 3e 14 4c 32 be
       -0.09525783 0.21760814 0.15185805 -0.17411834
0001e0 e9 5f 27 bc fa 56 4f 3e 63 b5 08 3e 91 b8 4c be
       -0.010215738 0.20248023 0.13350444 -0.19992281
0001f0 9f dc 6b bd dd 40 40 3e 1f 67 24 be 4c a4 b3 38
       -0.057583448 0.18774743 -0.16054963 8.565988e-05
000200 9c 4e ff bd 44 2a 05 b9 f3 a3 3e be c5 05 b1 3d
       -0.124661654 -0.00012699614 -0.18617229 0.086436786
000210 62 01 22 3e 2b 2a 8d bd f3 94 7a 3e 0a dd ba 3c
       0.1582084 -0.068928085 0.24470882 0.022810478
000220 0f 18 59 be 7b 28 44 be 5f 82 27 be 9d fb 5b be
       -0.21200584 -0.19156067 -0.16358326 -0.21482702
000230 cd 16 21 3e 57 19 29 be 11 48 c9 3d a6 64 03 3e
       0.15731354 -0.16513573 0.09828199 0.12831363
000240 e4 86 79 bd 7f af 52 be aa 76 38 3e b0 f8 44 3e
       -0.060919657 -0.20574759 0.18014017 0.19235492
000250 2b 5a 19 be 98 e6 50 3d 5c 96 16 be 7a 20 35 3e
       -0.14975803 0.05100116 -0.14705795 0.1768817
000260 90 62 24 3e 38 73 76 3e 7a 25 77 3d 83 93 24 bd
       0.16053224 0.2406739 0.060338475 -0.04017974
000270 f2 3d 01 3d fb 09 0d 3c 59 5e 4e 3e 4c 72 63 3e
       0.031553216 0.008608337 0.20153178 0.2221157
000280 cf 7e 0d be b2 c2 22 bc 8c 4d 96 3d 1e 38 a1 3d
       -0.13817905 -0.009934114 0.0733901 0.07872032
000290 5f fe 55 3e df 8a 4a bd 28 ae fc bd de a4 35 3e
       0.20897816 -0.049448844 -0.12337905 0.17738673
0002a0 8f 64 8f 3c 22 22 84 3a 7f 04 35 3e 8c eb ee bc
       0.017504005 0.0010080973 0.17677496 -0.029165052
0002b0 ac e6 33 be 54 87 6c be 73 59 9e 3d 47 46 2f be
       -0.17568463 -0.23098499 0.07731905 -0.17116652
0002c0 d8 f5 5e 3e 10 e1 5d be f3 92 76 3e a8 24 55 be
       0.2177347 -0.21667886 0.24079494 -0.20814764
0002d0 b2 be ba 3d c0 03 33 be 2f 12 40 be 88 1e 2c 3e
       0.091184035 -0.174819 -0.18756936 0.16808522
0002e0 b3 e4 99 3d a2 11 6e be 9d 4b 66 3c 54 e0 41 3e
       0.07514324 -0.23248914 0.014056114 0.1893323
0002f0 6b 2d 18 3e 37 b6 58 3e f0 46 a2 bc 2b 8f 20 3e
       0.14861076 0.2116326 -0.019809216 0.15679614
000300 52 11 29 3e 6d f2 92 bd ef c4 7b 3e 4e 79 7c 3e
       0.16510513 -0.07175145 0.24586843 0.24655649
000310 22 59 6d bd 79 85 59 be 2e f5 d4 3d bd 71 3f be
       -0.05794633 -0.21242322 0.10398327 -0.18695731
000320 de b5 8f bc ab 23 03 3b 9f 9d 6b be de 32 6d ba
       -0.017542776 0.0020010273 -0.23009346 -0.00090484123
000330 47 f5 2f 3e 6e 57 08 be 42 e1 45 3e f0 15 d0 3d
       0.1718341 -0.13314602 0.1932421 0.10160434
000340 c5 e8 c8 3d 17 fc 20 3c 68 c1 e1 bc 9f 0f 39 bd
       0.09810022 0.009825728 -0.027558044 -0.045180913
000350 6c b4 98 bd 72 e3 9e bd bf 89 78 3e 49 73 22 bc
       -0.07456288 -0.077582255 0.24271296 -0.009915181
000360 6f 04 dd 3d ef 4b f5 3c ec fd 81 bb 35 89 10 be
       0.10791861 0.029943435 -0.0039670374 -0.1411484
000370 01 52 fd 3c d9 58 2e be 24 d9 69 be 84 de 4f be
       0.030922892 -0.1702608 -0.22836739 -0.20299727
000380 fc b2 a5 bd 5d 50 55 3e 09 d1 57 3e 1b 64 9c bd
       -0.08090779 0.20831437 0.21075834 -0.07636281
000390 5d 0a 34 3e 3b 1d 81 3d f0 6c 40 be 50 cb ac bd
       0.17582078 0.063044034 -0.18791556 -0.08437216
0003a0 5c 54 9b bd 33 76 bd 3d dd 3f 84 3d 56 aa 50 3e
       -0.0758445 0.0925106 0.064574935 0.20377478
0003b0 fd 63 62 3e e8 f4 b3 3d bc db c1 3c 57 1f 2b 3e
       0.22108455 0.087869465 0.023664348 0.16711174
0003c0 92 3a 44 3c 97 0d fb bd 7a b8 55 be 9a 42 18 be
       0.011976855 -0.122584514 -0.20871153 -0.14869156
0003d0 2f 5a ea bd ff 7a 84 bd b7 4b 2b 3e c0 83 44 3e
       -0.114429824 -0.06468772 0.16728102 0.19190884
0003e0 b1 c1 e8 bd 69 f3 f2 bd 50 e4 35 be f4 86 ca bd
       -0.11365069 -0.11862833 -0.17762876 -0.098890215
0003f0 a4 93 64 bd 8f c0 5b 3d e4 74 b6 bd 91 5a 49 bd
       -0.055804864 0.053650435 -0.08909014 -0.049158636

convs.0.bias f4 [256]
000000 fe f8 56 3b 7d f7 22 3b 29 67 76 3a 04 52 45 bc
       0.003280222 0.0024866753 0.00093995273 -0.01204348
000010 c3 aa b2 bb ae a9 db ba 4a 21 fb 3b 5e 2b b2 ba
       -0.0054524853 -0.0016758943 0.0076638805 -0.0013593247
000020 d6 f7 6c 3a 87 6a e6 3b 82 d8 8b 3b fb 7f 09 39
       0.0009039616 0.007031742 0.004267753 0.00013113015
000030 16 91 ee 3a 9a 45 ee bb ad 6c c0 ba 33 63 3e b7
       0.0018201198 -0.0072714807 -0.0014680825 -1.1347979e-05
000040 ae 24 43 ba 07 bd 29 bb 9f b9 ab 3b 2b dc 16 3b
       -0.00074441254 -0.0025900023 0.0052406336 0.0023019414
000050 9b 49 ab ba c9 b1 55 3b ed 88 fc ba 4a 8c 2c 3b
       -0.0013068201 0.003260719 -0.0019266881 0.0026328736
000060 02 b2 ab bb 91 9c be bb c9 3d 60 ba a7 9b ae 39
       -0.005239726 -0.005817004 -0.00085541286 0.00033303836
000070 db bd 0d 3c 2e 4c a6 3b 6e e9 21 3b 48 75 2b bb
       0.008651222 0.0050749993 0.0024705785 -0.0026162434
000080 b7 af cc bb 02 4b 3d b9 b1 67 81 3a 92 be 8c 3b
       -0.006246533 -0.00018052387 0.0009872821 0.0042951787
000090 27 66 2e 3b fe 0c 14 3c e3 44 7c ba 20 e4 76 3b
       0.002661118 0.009036301 -0.0009623302 0.0037672594
0000a0 ce d4 58 3b 14 f3 e2 bb 30 23 8f 3b 10 77 02 bc
       0.0033085826 -0.00692595 0.0043682083 -0.007962957
0000b0 10 8b 1c bb d3 6d ea ba 38 a5 37 ba cd a7 3c bb
       -0.0023886599 -0.0017885513 -0.00070055155 -0.002878654
0000c0 f0 f3 18 3b 68 1b a1 3b a9 0a 63 bb 49 cc e0 ba
       0.0023338757 0.004916597 -0.0034643805 -0.0017150725
0000d0 85 bc 3d 3a 9c 83 6b 3c da cf c6 3b ad 05 7c 3a
       0.00072378694 0.01437464 0.0060672583 0.0009613883
0000e0 2c 20 a8 3b 5a 4d c2 3a aa 86 2d b9 45 3b 93 bb
       0.0051307883 0.0014824078 -0.00016548732 -0.0044931495
0000f0 f2 1a 29 ba 16 a3 68 3a 31 2b c8 3b d1 58 8e bb
       -0.00064508535 0.00088743994 0.0061086644 -0.004344084
000100 e8 c3 0b b9 5f b5 5b 3a ea 6a e7 ba 2b 06 20 bb
       -0.00013329054 0.00083812134 -0.0017655764 -0.002441774
000110 85 d5 0a 39 65 ea 95 bb 62 7d d5 39 87 ae c1 bb
       0.00013240248 -0.004575061 0.00040719943 -0.005910698
000120 2a 14 2a 3c 3d 6d d0 3a 43 50 ad 3b 62 97 6a 3b
       0.010380784 0.0015901696 0.005289109 0.0035795798
000130 46 bb d3 bb cb de 78 3b 5e 91 30 3a 28 77 a5 3b
       -0.0064615337 0.0037974592 0.00067355286 0.005049605
000140 65 57 dc bb d1 a0 95 3b e6 33 0a 3b 79 1e 6b bb
       -0.0067242854 0.00456629 0.0021088063 -0.0035876317
000150 da ac 22 bb 99 29 20 3a 75 1d 24 3c 0d e6 d2 bb
       -0.0024822266 0.0006109714 0.010016789 -0.0064361156
000160 50 5d 8e 39 4f f4 73 3a f2 a4 7b 3b c9 fc a1 bb
       0.00027153874 0.0009306119 0.0038397876 -0.0049434644
000170 44 96 0d 3b f2 13 60 bb d5 fa 83 bb 0f 31 13 bb
       0.0021604458 -0.0034191576 -0.0040277042 -0.002245966
000180 da df 17 3c 38 cf bd 3b 91 fc c8 b8 39 e0 8d 3a
       0.009269679 0.0057925247 -9.583787e-05 0.001082427
000190 0f 02 d1 3b 1a 24 49 bb 1d ba f2 bb 58 cf 18 ba
       0.006378419 -0.0030691684 -0.0074074403 -0.00058292365
0001a0 b6 40 73 3b 5c 4a 09 3a 10 1c 83 3b b4 8a 8b 3b
       0.0037117428 0.00052372157 0.004001148 0.004258478
0001b0 73 91 31 b9 33 69 fe b8 17 0e e6 ba 2f 81 c0 3a
       -0.0001693422 -0.00012131259 -0.0017551807 0.0014686937
0001c0 c4 2a a9 3a 50 3e f2 39 d5 bc 19 3c ec 78 77 ba
       0.0012906422 0.00046204263 0.0093834 -0.0009440321
0001d0 1e 3f 0f bc ac bc 15 3b 01 35 42 bb 1a 5c 6f 3b
       -0.008743076 0.0022848053 -0.0029633644 0.0036523403
0001e0 a9 36 4d 3b ca 13 fc ba 1c 99 4c bb 83 49 58 bb
       0.0031313098 -0.0019231972 -0.003121919 -0.00330028
0001f0 8a 24 c2 3a 76 a0 be 3c c1 34 b2 bb f5 5e 59 3a
       0.0014811915 0.023269873 -0.0054384177 0.0008292043
000200 96 61 d5 3a ba d2 b4 ba 96 bf 75 bb 9d ee 46 3b
       0.0016279693 -0.0013795712 -0.0037498227 0.0030354627
000210 aa 6a 66 bb 1d 36 b3 bb 06 94 6c 3b 98 5f dd 3b
       -0.0035158792 -0.0054690973 0.003609897 0.0067557804
000220 31 6c 3d 3a f9 50 0f 39 65 7f 20 3c d9 03 dd 3a
       0.00072258996 0.00013667707 0.009795998 0.0016862109
000230 be bc 8d bb a7 5d c8 ba 36 23 ac 3a 0a ea 9e 3c
       -0.0043254783 -0.00152867 0.0013133052 0.019398708
000240 b5 08 ab 3a f6 c6 3f bb db ae b2 ba e7 15 f3 3b
       0.001304886 -0.0029262877 -0.0013632433 0.0074183824
000250 a1 c7 d0 3a 32 0f af 3a e7 47 8f ba 0a 4d 1d 3b
       0.0015928635 0.0013355969 -0.0010931463 0.0024002218
000260 24 16 5e bb ba e1 f5 b8 9a 92 d9 39 10 cd 4a bc
       -0.0033887709 -0.00011724555 0.00041498692 -0.012377992
000270 b1 6e ba 3a c2 7c 92 3b 3c aa 23 bc d5 0e 8d 3b
       0.0014223662 0.0044704387 -0.0099893175 0.0043047466
000280 bd c4 da ba 53 ce fe bb 90 97 cd ba 87 40 c9 3a
       -0.0016690713 -0.0077760606 -0.0015685428 0.0015354314
000290 19 77 67 3b 45 b4 4a 39 8a 77 1c bc 1a f9 31 bb
       0.003531879 0.00019331377 -0.009549985 -0.0027156533
0002a0 24 6a 65 bb e7 9a f2 b9 86 46 23 bc d7 ec 97 3c
       -0.0035005892 -0.00046273248 -0.009965545 0.018545551
0002b0 9b 7a f0 ba a4 60 0c bc 62 a7 c8 3a 27 af 0e bb
       -0.0018347086 -0.008567963 0.0015308673 -0.002177188
0002c0 d4 9a 8a bb 6d 09 60 3a d2 41 31 3a 6b 8a 53 ba
       -0.0042298827 0.00085463264 0.0006761822 -0.0008069637
0002d0 36 96 64 bb 31 c3 04 3b 18 c1 83 3b 3c 45 ba bb
       -0.0034879572 0.0020257945 0.0040208213 -0.005684523
0002e0 43 5b 26 3b 3b e0 e8 bb d3 37 75 3a b6 77 db bb
       0.0025383986 -0.0071068085 0.0009354327 -0.0066976203
0002f0 81 c2 c9 37 e5 5b 13 3b 7b 72 44 bc 3c fc c5 bb
       2.405164e-05 0.0022485193 -0.011990185 -0.0060420316
000300 08 f3 d2 3a d8 dd c8 b9 d4 89 9c bb 22 5a 56 bc
       0.0016094157 -0.0003831226 -0.0047771726 -0.013083013
000310 6d b1 27 bc 64 7f 9f 38 e1 49 f6 3b d0 cb 38 bb
       -0.010235173 7.605439e-05 0.0075161313 -0.0028197654
000320 f4 38 39 3b ab a9 e0 3a ac 0f b3 ba 52 72 8a bb
       0.0028262706 0.0017140409 -0.0013661287 -0.004225054
000330 83 24 aa bb 20 6b 24 ba 4a fc 99 3b f1 14 57 3c
       -0.005192341 -0.00062720664 0.0046992647 0.013127551
000340 82 33 63 3a 5b 58 32 bb 99 c3 89 b9 20 9f 04 bc
       0.0008667038 -0.0027213308 -0.00026276408 -0.008094579
000350 b4 6a 0b 3c 49 23 81 bc 69 c5 d4 37 76 b6 53 bb
       0.008509327 -0.015763896 2.5364296e-05 -0.00323048
000360 2c 7b 1b ba e4 ad fa 39 50 c9 8b 3b 89 7e da 3a
       -0.0005931135 0.00047813274 0.0042659417 0.001666979
000370 a9 12 6e 3b 31 c6 4f ba b1 9b 10 3c d4 f7 92 3a
       0.003632704 -0.0007925956 0.008826182 0.0011212775
000380 7c e4 d1 ba 07 34 8b 3b 8e 3b 51 bc de 7c 1d bc
       -0.0016013528 0.0042481455 -0.012770547 -0.00961229
000390 a7 d3 bc 3b 33 9a f1 3a cc 12 a0 bb 5d 96 11 bb
       0.0057625356 0.0018432796 -0.0048850533 -0.0022214868
0003a0 82 65 ae ba 4c fb 1a bb b9 24 8d bc c4 a8 1c 3b
       -0.0013305398 -0.002364832 -0.017229425 0.0023904303
0003b0 1e f9 ed 3a 07 58 19 bb 9b 15 15 bc 1a 93 e4 bb
       0.0018155908 -0.0023398416 -0.009099389 -0.0069755437
0003c0 ad ec d8 3a 7d 5a 88 bc ec f4 93 3a 17 cf b4 bb
       0.0016550027 -0.01664471 0.0011288202 -0.005517851
0003d0 78 b8 8a 3b d6 95 84 bb 1e 2f 68 bb 0a ca 66 3b
       0.004233416 -0.004046182 -0.0035428475 0.003521564
0003e0 f8 7e 8c ba b0 1c 8a 3b 96 c1 77 bb d8 8d 07 3b
       -0.0010718992 0.0042148456 -0.0037804595 0.002068391
0003f0 84 37 51 bb 96 9e d8 bb 1c 07 d3 3a 2d 59 cd ba
       -0.003192396 -0.006610702 0.0016100141 -0.0015666835

convs.0.lin_src.weight f4 [256, 6]
000000 a4 cd 46 bd c0 e0 39 bd 83 02 2e 3d 1d bb 9c bd
       -0.048535958 -0.045380354 0.042482864 -0.076528765
000010 1e 9b 96 3d 16 8c 03 37 2f 2c ce 3d 8e 2c e1 3d
       0.07353805 7.840825e-06 0.10067021 0.10994826
000020 4d 1b 49 bd 0c 9a 71 bd ca 39 01 3d c5 9f 29 3d
       -0.0490983 -0.0589848 0.031549253 0.041412134
000030 71 44 2f bd 5d c3 bb bd ac e6 06 3e c7 43 03 3e
       -0.04278988 -0.09168122 0.13173932 0.12818824
000040 25 8a af bd a1 1d 45 3c ec 1a 05 3e 89 08 04 3c
       -0.08571271 0.01203099 0.12998551 0.008058676
000050 ac 53 be 3d 14 46 db 3d dd e7 b5 bd 83 71 a4 3d
       0.09293303 0.10706726 -0.08882115 0.08029463
000060 60 97 9d bd 85 9d c7 3d ea c5 47 3d 13 cf 58 bd
       -0.07694888 0.09746841 0.04877273 -0.052931856
000070 46 be 47 bc f7 45 14 3c 8e 1d 27 3d 8d cc 4a bd
       -0.012191361 0.009049884 0.04079967 -0.04951148
000080 20 76 99 bd 7c 29 cf 3d c1 69 b7 bd 9c d1 73 3d
       -0.07493234 0.101153344 -0.08955718 0.05952607
000090 44 10 83 bd 01 fc b2 bd f6 93 4e bd 4d 2d e3 3d
       -0.06399587 -0.08739472 -0.050434075 0.11092625
0000a0 0c ee 80 3c b8 c5 ef bc d5 96 c7 3d 45 3a c3 bd
       0.01573851 -0.029269084 0.09745566 -0.095325984
0000b0 24 26 fd bd 6c b3 00 3e 31 45 bb bd c6 9a 99 3d
       -0.1236079 0.12568444 -0.091440566 0.07500224
0000c0 e5 fd 0c be 8b 0f 85 3d 7b d2 bf 3d 72 ff 5b 3c
       -0.13768728 0.06497105 0.09366318 0.013427602
0000d0 98 7e 62 39 82 a0 c0 bd 49 e8 4f bd f2 9a b8 bc
       0.000216002 -0.094056144 -0.050758634 -0.022534821
0000e0 3b 99 ed 3d 03 7a eb 3d 50 1b 88 3c 0f 50 b8 3d
       0.11601492 0.11497881 0.016614586 0.08999645
0000f0 8a ec ae 3d 34 25 1c be 56 c4 84 bb 78 e7 0d bd
       0.0854121 -0.15248567 -0.0040517254 -0.034644574
000100 38 b6 b8 bd 35 4c 88 3c c0 8e b4 3d 16 bd 55 3d
       -0.090191305 0.0166379 0.0881629 0.05218228
000110 b2 70 98 3d f3 b1 c7 3d bf 2e 97 37 a2 3a b7 bd
       0.0744337 0.09750738 1.802237e-05 -0.0894673
000120 97 90 87 3d dc 04 19 be 4c cb f4 3d 5d 0b 36 bd
       0.06619375 -0.1494326 0.11952838 -0.04444443
000130 ec 51 51 b8 a1 1a d2 b8 27 40 12 bd 4d 0a ff 3d
       -4.990578e-05 -0.0001001854 -0.03570571 0.124531366
000140 d3 63 a7 bd 92 85 0a be 4f fa ee 37 fa 8c 96 b8
       -0.08173337 -0.13527516 2.848837e-05 -7.178816e-05
000150 ae 53 b3 bd 48 c7 c0 bd a5 ab ac 3d 0d 56 04 bd
       -0.08756195 -0.0941301 0.08431176 -0.032308627
000160 5b 45 04 bd a3 cc 19 3c 98 54 1c 3b d7 4d b9 3d
       -0.032292705 0.009387168 0.0023854133 0.0904805
000170 f0 aa 7e 3c 0b d5 d8 3d 46 31 b1 bd f2 b0 3d 39
       0.015543684 0.1058751 -0.08651976 0.00018090362
000180 2b 2e 29 bd 92 6e 07 bd 16 96 ee bd e6 34 ba bd
       -0.041303795 -0.033064432 -0.1164972 -0.09092121
000190 db 32 52 39 e3 c3 c6 3c ce 78 98 3d c8 81 57 bd
       0.00020046106 0.024263328 0.07444917 -0.052614003
0001a0 28 db b0 3d f6 43 91 3d d2 b3 67 bc dc 19 84 3d
       0.08635551 0.07093041 -0.014141994 0.06450245
0001b0 28 99 bc 3d 33 0a 61 3d e6 a8 0a be c7 ad fe 3d
       0.092089 0.054941367 -0.13540992 0.12435489
0001c0 53 1e 8b 3c 26 7d a6 bb be 8d 23 3d 64 7a 46 3b
       0.016982233 -0.005080837 0.039930098 0.0030285353
0001d0 9d 8f ea bd b8 b6 53 bc 19 9f ef 3c f3 25 02 3d
       -0.11453173 -0.0129219815 0.029250668 0.031774472
0001e0 5e 98 38 bd 79 82 fe 3d a6 62 00 be d5 7c 15 3c
       -0.045067184 0.124272294 -0.12537631 0.009124001
0001f0 ed 17 a1 b8 c6 f0 93 bc 71 e2 04 be 69 07 80 3d
       -7.681535e-05 -0.018059146 -0.12977006 0.062514134
000200 28 b5 92 3d 4a 37 7a 3d 1c ca 3e 3d 0a 21 b2 bd
       0.07163459 0.061087884 0.046579465 -0.08697708
000210 10 ba f9 bd f1 ac 16 be a6 02 fa 3d 6a d9 bd 3d
       -0.12193692 -0.1471441 0.122075364 0.09269984
000220 e1 dd c7 b9 86 25 84 bd cd 5c c0 bc 45 af ea bb
       -0.0003812155 -0.064524695 -0.02348175 -0.007162007
000230 68 1c a0 bd ef d9 08 bd 55 12 cb 3c 63 de 81 36
       -0.07817918 -0.033410963 0.024789015 3.870389e-06
000240 00 8a a3 3b 5b 7d 1b 3e db b0 10 be 84 19 ad 3d
       0.004990816 0.15184538 -0.14129965 0.08452132
000250 ba cc a5 bd 2b 21 f7 bb a1 d9 8c bd b2 e4 89 bd
       -0.08095689 -0.0075417957 -0.06877447 -0.06733073
000260 19 7b 10 3e 58 c5 be 3c a1 a3 c3 3d 6f c7 04 3a
       0.14109458 0.02328746 0.09552694 0.00050651183
000270 a0 77 f4 3d 7b 79 f6 bd fa da 23 be f7 2b 2e 3d
       0.11936879 -0.12034889 -0.16001502 0.042522397
000280 ff 09 a1 bc 27 33 c9 3d 09 be a5 bc 45 2f f9 3d
       -0.019658087 0.0982421 -0.020232217 0.12167219
000290 7b b4 df 3d 2f a7 03 be 80 09 48 b8 a9 84 63 bc
       0.10923096 -0.12856744 -4.7692563e-05 -0.013886609
0002a0 1f 89 b8 bd 19 be 0a be 4a df b5 bd 12 46 07 3d
       -0.09010529 -0.13549079 -0.0888048 0.03302581
0002b0 65 6c 1c 3d cb 3a b9 3d 5c 0e 03 3e 5b d1 a1 bd
       0.03818931 0.09044417 0.12798446 -0.079012595
0002c0 63 6e 7d bd f1 fa 5b bd 74 52 0d 3c ba 3e 84 bd
       -0.06187285 -0.053706113 0.008625615 -0.06457277
0002d0 c2 10 56 bd 1b e7 36 bd 6f da 0e 3d 6d e8 cb bd
       -0.052262075 -0.044653993 0.034876283 -0.09956441
0002e0 47 af 41 ba 30 8c 66 37 97 3b 0d 3e e5 a4 85 3d
       -0.0007388484 1.3741708e-05 0.13792263 0.06525592
0002f0 e7 d2 a8 bd f0 4f eb bc b2 01 13 3d ae 45 7d 38
       -0.082433514 -0.02872464 0.03589029 6.0384795e-05
000300 4f ba 31 3c e8 73 1a 3e fd 4a ca bc 52 d7 07 be
       0.010847642 0.15083277 -0.02469396 -0.13265732
000310 e4 a4 ce bd 95 d9 3a 39 57 a2 1b 3e 89 e8 98 3d
       -0.10090044 0.00017819398 0.15198646 0.074662276
000320 ef 9e 8b 3d 42 75 47 3d c2 aa 15 bd 56 c9 e9 bc
       0.068174236 0.04869581 -0.0365398 -0.028538387
000330 38 a6 cd bd 1d 70 a6 bd 36 8a 06 be 83 3a f1 bd
       -0.10041469 -0.08126853 -0.13138661 -0.11778738
000340 d9 7d d8 b7 12 2e 25 bd 2f 0e f5 bd d1 d9 06 bd
       -2.5807809e-05 -0.04032714 -0.11965596 -0.03292257
000350 3f bf e7 bd 53 8c d9 3d e1 37 ac 3d 04 f9 54 bd
       -0.11315774 0.10622468 0.084090956 -0.051995292
000360 ab 8c 79 3d 05 3d b6 bb 7a 62 e9 bb 92 7c ea bd
       0.060925167 -0.0055614733 -0.007122335 -0.11449541
000370 76 f9 97 3d 48 30 b7 bd 75 0f 83 3b e3 da 01 bd
       0.07420628 -0.08944756 0.0039996454 -0.031702887
000380 09 5a 02 be 6d 47 39 3d f6 af c6 bd cf 77 a3 36
       -0.12729658 0.045234133 -0.09701531 4.871726e-06
000390 a9 25 fc 3c 14 fa dd 3c fa 65 a9 bd 4a 53 56 3d
       0.030779677 0.027096786 -0.082714036 0.052325524
0003a0 b0 67 51 bd 1f 03 65 3c 28 ab 1e be 92 0a fc bd
       -0.051124275 0.013977795 -0.15494978 -0.123067036
0003b0 4b 50 fa 3d eb 66 af b9 a5 8b b5 3d 1e 22 e0 3a
       0.12222346 -0.0003345528 0.08864526 0.0017100011
0003c0 f9 b7 0e be 7f 4f 6b bd 06 ea c5 bd eb c6 9c 3c
       -0.13937367 -0.05744886 -0.09663777 0.01913782
0003d0 f5 cb 91 bc 4c 45 bc 3d 85 e3 c5 bd c3 01 1c 3e
       -0.01779745 0.09192905 -0.096625365 0.15235047
0003e0 87 0b b4 3d 5d 50 3c 3d e4 37 3b 39 ce dd 10 b5
       0.08791261 0.045975078 0.0001785453 -5.396695e-07
0003f0 18 58 1f be 00 b6 bd bd 12 f3 b9 3d 4f ac 89 3d
       -0.15560949 -0.09263229 0.09079565 0.067223184

convs.0.lin_dst.weight f4 [256, 6]
000000 a4 cd 46 bd c0 e0 39 bd 83 02 2e 3d 1d bb 9c bd
       -0.048535958 -0.045380354 0.042482864 -0.076528765
000010 1e 9b 96 3d 16 8c 03 37 2f 2c ce 3d 8e 2c e1 3d
       0.07353805 7.840825e-06 0.10067021 0.10994826
000020 4d 1b 49 bd 0c 9a 71 bd ca 39 01 3d c5 9f 29 3d
       -0.0490983 -0.0589848 0.031549253 0.041412134
000030 71 44 2f bd 5d c3 bb bd ac e6 06 3e c7 43 03 3e
       -0.04278988 -0.09168122 0.13173932 0.12818824
000040 25 8a af bd a1 1d 45 3c ec 1a 05 3e 89 08 04 3c
       -0.08571271 0.01203099 0.12998551 0.008058676
000050 ac 53 be 3d 14 46 db 3d dd e7 b5 bd 83 71 a4 3d
       0.09293303 0.10706726 -0.08882115 0.08029463
000060 60 97 9d bd 85 9d c7 3d ea c5 47 3d 13 cf 58 bd
       -0.07694888 0.09746841 0.04877273 -0.052931856
000070 46 be 47 bc f7 45 14 3c 8e 1d 27 3d 8d cc 4a bd
       -0.012191361 0.009049884 0.04079967 -0.04951148
000080 20 76 99 bd 7c 29 cf 3d c1 69 b7 bd 9c d1 73 3d
       -0.07493234 0.101153344 -0.08955718 0.05952607
000090 44 10 83 bd 01 fc b2 bd f6 93 4e bd 4d 2d e3 3d
       -0.06399587 -0.08739472 -0.050434075 0.11092625
0000a0 0c ee 80 3c b8 c5 ef bc d5 96 c7 3d 45 3a c3 bd
       0.01573851 -0.029269084 0.09745566 -0.095325984
0000b0 24 26 fd bd 6c b3 00 3e 31 45 bb bd c6 9a 99 3d
       -0.1236079 0.12568444 -0.091440566 0.07500224
0000c0 e5 fd 0c be 8b 0f 85 3d 7b d2 bf 3d 72 ff 5b 3c
       -0.13768728 0.06497105 0.09366318 0.013427602
0000d0 98 7e 62 39 82 a0 c0 bd 49 e8 4f bd f2 9a b8 bc
       0.000216002 -0.094056144 -0.050758634 -0.022534821
0000e0 3b 99 ed 3d 03 7a eb 3d 50 1b 88 3c 0f 50 b8 3d
       0.11601492 0.11497881 0.016614586 0.08999645
0000f0 8a ec ae 3d 34 25 1c be 56 c4 84 bb 78 e7 0d bd
       0.0854121 -0.15248567 -0.0040517254 -0.034644574
000100 38 b6 b8 bd 35 4c 88 3c c0 8e b4 3d 16 bd 55 3d
       -0.090191305 0.0166379 0.0881629 0.05218228
000110 b2 70 98 3d f3 b1 c7 3d bf 2e 97 37 a2 3a b7 bd
       0.0744337 0.09750738 1.802237e-05 -0.0894673
000120 97 90 87 3d dc 04 19 be 4c cb f4 3d 5d 0b 36 bd
       0.06619375 -0.1494326 0.11952838 -0.04444443
000130 ec 51 51 b8 a1 1a d2 b8 27 40 12 bd 4d 0a ff 3d
       -4.990578e-05 -0.0001001854 -0.03570571 0.124531366
000140 d3 63 a7 bd 92 85 0a be 4f fa ee 37 fa 8c 96 b8
       -0.08173337 -0.13527516 2.848837e-05 -7.178816e-05
000150 ae 53 b3 bd 48 c7 c0 bd a5 ab ac 3d 0d 56 04 bd
       -0.08756195 -0.0941301 0.08431176 -0.032308627
000160 5b 45 04 bd a3 cc 19 3c 98 54 1c 3b d7 4d b9 3d
       -0.032292705 0.009387168 0.0023854133 0.0904805
000170 f0 aa 7e 3c 0b d5 d8 3d 46 31 b1 bd f2 b0 3d 39
       0.015543684 0.1058751 -0.08651976 0.00018090362
000180 2b 2e 29 bd 92 6e 07 bd 16 96 ee bd e6 34 ba bd
       -0.041303795 -0.033064432 -0.1164972 -0.09092121
000190 db 32 52 39 e3 c3 c6 3c ce 78 98 3d c8 81 57 bd
       0.00020046106 0.024263328 0.07444917 -0.052614003
0001a0 28 db b0 3d f6 43 91 3d d2 b3 67 bc dc 19 84 3d
       0.08635551 0.07093041 -0.014141994 0.06450245
0001b0 28 99 bc 3d 33 0a 61 3d e6 a8 0a be c7 ad fe 3d
       0.092089 0.054941367 -0.13540992 0.12435489
0001c0 53 1e 8b 3c 26 7d a6 bb be 8d 23 3d 64 7a 46 3b
       0.016982233 -0.005080837 0.039930098 0.0030285353
0001d0 9d 8f ea bd b8 b6 53 bc 19 9f ef 3c f3 25 02 3d
       -0.11453173 -0.0129219815 0.029250668 0.031774472
0001e0 5e 98 38 bd 79 82 fe 3d a6 62 00 be d5 7c 15 3c
       -0.045067184 0.124272294 -0.12537631 0.009124001
0001f0 ed 17 a1 b8 c6 f0 93 bc 71 e2 04 be 69 07 80 3d
       -7.681535e-05 -0.018059146 -0.12977006 0.062514134
000200 28 b5 92 3d 4a 37 7a 3d 1c ca 3e 3d 0a 21 b2 bd
       0.07163459 0.061087884 0.046579465 -0.08697708
000210 10 ba f9 bd f1 ac 16 be a6 02 fa 3d 6a d9 bd 3d
       -0.12193692 -0.1471441 0.122075364 0.09269984
000220 e1 dd c7 b9 86 25 84 bd cd 5c c0 bc 45 af ea bb
       -0.0003812155 -0.064524695 -0.02348175 -0.007162007
000230 68 1c a0 bd ef d9 08 bd 55 12 cb 3c 63 de 81 36
       -0.07817918 -0.033410963 0.024789015 3.870389e-06
000240 00 8a a3 3b 5b 7d 1b 3e db b0 10 be 84 19 ad 3d
       0.004990816 0.15184538 -0.14129965 0.08452132
000250 ba cc a5 bd 2b 21 f7 bb a1 d9 8c bd b2 e4 89 bd
       -0.08095689 -0.0075417957 -0.06877447 -0.06733073
000260 19 7b 10 3e 58 c5 be 3c a1 a3 c3 3d 6f c7 04 3a
       0.14109458 0.02328746 0.09552694 0.00050651183
000270 a0 77 f4 3d 7b 79 f6 bd fa da 23 be f7 2b 2e 3d
       0.11936879 -0.12034889 -0.16001502 0.042522397
000280 ff 09 a1 bc 27 33 c9 3d 09 be a5 bc 45 2f f9 3d
       -0.019658087 0.0982421 -0.020232217 0.12167219
000290 7b b4 df 3d 2f a7 03 be 80 09 48 b8 a9 84 63 bc
       0.10923096 -0.12856744 -4.7692563e-05 -0.013886609
0002a0 1f 89 b8 bd 19 be 0a be 4a df b5 bd 12 46 07 3d
       -0.09010529 -0.13549079 -0.0888048 0.03302581
0002b0 65 6c 1c 3d cb 3a b9 3d 5c 0e 03 3e 5b d1 a1 bd
       0.03818931 0.09044417 0.12798446 -0.079012595
0002c0 63 6e 7d bd f1 fa 5b bd 74 52 0d 3c ba 3e 84 bd
       -0.06187285 -0.053706113 0.008625615 -0.06457277
0002d0 c2 10 56 bd 1b e7 36 bd 6f da 0e 3d 6d e8 cb bd
       -0.052262075 -0.044653993 0.034876283 -0.09956441
0002e0 47 af 41 ba 30 8c 66 37 97 3b 0d 3e e5 a4 85 3d
       -0.0007388484 1.3741708e-05 0.13792263 0.06525592
0002f0 e7 d2 a8 bd f0 4f eb bc b2 01 13 3d ae 45 7d 38
       -0.082433514 -0.02872464 0.03589029 6.0384795e-05
000300 4f ba 31 3c e8 73 1a 3e fd 4a ca bc 52 d7 07 be
       0.010847642 0.15083277 -0.02469396 -0.13265732
000310 e4 a4 ce bd 95 d9 3a 39 57 a2 1b 3e 89 e8 98 3d
       -0.10090044 0.00017819398 0.15198646 0.074662276
000320 ef 9e 8b 3d 42 75 47 3d c2 aa 15 bd 56 c9 e9 bc
       0.068174236 0.04869581 -0.0365398 -0.028538387
000330 38 a6 cd bd 1d 70 a6 bd 36 8a 06 be 83 3a f1 bd
       -0.10041469 -0.08126853 -0.13138661 -0.11778738
000340 d9 7d d8 b7 12 2e 25 bd 2f 0e f5 bd d1 d9 06 bd
       -2.5807809e-05 -0.04032714 -0.11965596 -0.03292257
000350 3f bf e7 bd 53 8c d9 3d e1 37 ac 3d 04 f9 54 bd
       -0.11315774 0.10622468 0.084090956 -0.051995292
000360 ab 8c 79 3d 05 3d b6 bb 7a 62 e9 bb 92 7c ea bd
       0.060925167 -0.0055614733 -0.007122335 -0.11449541
000370 76 f9 97 3d 48 30 b7 bd 75 0f 83 3b e3 da 01 bd
       0.07420628 -0.08944756 0.0039996454 -0.031702887
000380 09 5a 02 be 6d 47 39 3d f6 af c6 bd cf 77 a3 36
       -0.12729658 0.045234133 -0.09701531 4.871726e-06
000390 a9 25 fc 3c 14 fa dd 3c fa 65 a9 bd 4a 53 56 3d
       0.030779677 0.027096786 -0.082714036 0.052325524
0003a0 b0 67 51 bd 1f 03 65 3c 28 ab 1e be 92 0a fc bd
       -0.051124275 0.013977795 -0.15494978 -0.123067036
0003b0 4b 50 fa 3d eb 66 af b9 a5 8b b5 3d 1e 22 e0 3a
       0.12222346 -0.0003345528 0.08864526 0.0017100011
0003c0 f9 b7 0e be 7f 4f 6b bd 06 ea c5 bd eb c6 9c 3c
       -0.13937367 -0.05744886 -0.09663777 0.01913782
0003d0 f5 cb 91 bc 4c 45 bc 3d 85 e3 c5 bd c3 01 1c 3e
       -0.01779745 0.09192905 -0.096625365 0.15235047
0003e0 87 0b b4 3d 5d 50 3c 3d e4 37 3b 39 ce dd 10 b5
       0.08791261 0.045975078 0.0001785453 -5.396695e-07
0003f0 18 58 1f be 00 b6 bd bd 12 f3 b9 3d 4f ac 89 3d
       -0.15560949 -0.09263229 0.09079565 0.067223184

convs.1.att_src f4 [1, 4, 64]
000000 a6 12 11 3e ab 79 ae 3b 01 d8 33 be 8d 43 6f be
       0.1416727 0.0053245625 -0.17562868 -0.23365612
000010 95 1c 25 be 36 59 90 be 92 5d 88 be a2 c6 1d 3d
       -0.16124184 -0.28193063 -0.26633888 0.03851951
000020 eb d9 62 be dc ed bf 3d 6b 50 98 bd 5a 63 66 be
       -0.22153442 0.0937154 -0.074372135 -0.22498837
000030 84 fe 3f 3d 30 69 39 3e bb a9 9a 3e aa 11 25 be
       0.046873584 0.18106532 0.3020762 -0.1612002
000040 1b e7 62 3e 96 87 17 3e 94 dd 42 3d 82 ab db 3d
       0.22158472 0.14797816 0.047574595 0.10726072
000050 0e c0 e0 bd 0d ff 3a 3e ff c5 88 bd 91 06 3b be
       -0.109741315 0.18261357 -0.0667839 -0.18264224
000060 aa 0a 3a be d6 cc 0d 3e 5a 36 be bd 0b 92 9d bc
       -0.1816813 0.1384767 -0.092877105 -0.019234678
000070 56 fa dc bc 3f 39 f9 bd b1 0c 29 3e e6 06 60 3e
       -0.026974838 -0.12169122 0.16508748 0.21877632
000080 58 39 57 be e6 0d 19 be 83 28 29 be 35 a7 70 3e
       -0.21017969 -0.14946708 -0.1651936 0.23501284
000090 ce fc 36 bc a1 fe f5 bd e5 dc d3 3d b3 44 4f 3e
       -0.011168672 -0.12011457 0.10344867 0.2024105
0000a0 c6 21 5b bd 0e 11 74 be c3 c3 52 bd 0f 0e 01 be
       -0.053499006 -0.23834631 -0.051456224 -0.12603019
0000b0 50 3e 87 bd 83 1a 9f bd c1 db cb bd 34 b8 72 3e
       -0.06603682 -0.077687286 -0.09954024 0.2370308
0000c0 e0 67 34 3e 76 3c c4 3d b7 71 13 be 28 fb 92 3e
       0.1761775 0.095818445 -0.14398848 0.28707242
0000d0 df 73 d7 bd 04 e9 03 bd af 6b 08 3e 11 0e 72 3e
       -0.105201475 -0.032204643 0.13322328 0.23638178
0000e0 0e 0d 16 be 55 2c 3b 3e 72 0f 97 3e 91 ae ea bd
       -0.14653417 0.1827863 0.2950397 -0.11459077
0000f0 be 38 1d be ff f5 67 3e 0e 50 90 3e f3 d8 be 3d
       -0.15353677 0.22652434 0.28186077 0.093187235
000100 28 54 53 bd 88 9a 0f 3d 8e f9 a9 bc d6 8e 0b 3d
       -0.05159393 0.03505948 -0.02074888 0.034071766
000110 72 61 ad bd 31 2b 88 be d4 58 2a bd da 2a a6 bd
       -0.08465852 -0.26595452 -0.04158862 -0.08113642
000120 59 6e 96 be 43 9a f3 3c af 9b 01 be a0 d8 54 bd
       -0.29381064 0.029736644 -0.12657045 -0.051964402
000130 0c 81 30 3e 3e 87 3e be 9b c9 0e be a9 7c 37 bc
       0.17236727 -0.18606278 -0.13944094 -0.011199155
000140 b2 9b a7 3d 57 ce 4c ba 4c eb 8a 3e b5 c8 a3 bb
       0.081839934 -0.00078127295 0.27132642 -0.0049982914
000150 99 7d 2e 3e 85 64 6d bd 54 81 8e 3c 7e a8 49 3d
       0.17040099 -0.05795719 0.017395653 0.049232952
000160 25 a5 82 bd 8c 3e 28 3e 6c 2c 42 3e 00 ee 6c 3e
       -0.06379155 0.1643011 0.18962258 0.23137665
000170 55 d7 88 3e 0d 92 22 bc d4 e5 91 3e 67 62 77 be
       0.26726785 -0.0099225165 0.28495657 -0.24158631
000180 66 c7 34 3b a7 4f 89 bd 6f 7e 85 3e de 60 52 3e
       0.002758467 -0.067046456 0.26073024 0.20544764
000190 cc ff 89 bd c9 d0 69 3e 5c 63 ed bd d0 76 6f be
       -0.067382425 0.22833551 -0.11591217 -0.23385167
0001a0 10 6b f3 3c be 00 bd bc 10 b5 43 3b eb f2 90 be
       0.029714137 -0.023071643 0.002986256 -0.28310332
0001b0 33 7d 94 be da 0a f5 bd fe 9a 63 be bb d8 db bd
       -0.2900177 -0.119649604 -0.22227094 -0.107346974
0001c0 1b 65 9f bd 2e d3 12 be 4b 63 44 3d 55 a6 92 3e
       -0.07782956 -0.14338371 0.047946256 0.28642526
0001d0 00 b1 46 3e 05 20 14 be b0 2d 58 bd 65 e4 02 be
       0.19403458 -0.1446534 -0.052777946 -0.12782438
0001e0 a8 98 90 3e 9e e0 fb 3d a6 a7 a6 3c 6a 3c 3a be
       0.28241467 0.12298702 0.020343613 -0.18187109
0001f0 f9 8e 90 3e 47 24 74 be 2e 09 96 be 3c 67 84 3d
       0.2823408 -0.23841964 -0.2930388 0.06465003
000200 bc 0a 59 3b c8 81 3f 3c 58 ea 95 be 3d fb 16 bc
       0.003311797 0.011688657 -0.29280353 -0.009215173
000210 84 c5 0f 3e f0 a8 48 3c b9 40 a1 bd b2 a4 90 3b
       0.1404019 0.012247309 -0.07873673 0.0044141645
000220 74 fb 78 bd f0 bc 87 be a5 e7 62 be 9d e2 d6 3d
       -0.06078668 -0.26511335 -0.22158678 0.10492442
000230 56 7a 46 be be 6d 82 3e c2 14 1d be b8 77 7e be
       -0.19382605 0.25474352 -0.1533995 -0.24850357
000240 98 44 8e 3e c3 11 d8 bd a2 35 58 be 35 03 01 3e
       0.27786708 -0.10550263 -0.2111421 0.1259888
000250 db 1e e2 bd 69 ef 94 bd ce 33 14 be 4b 29 6d 3d
       -0.110410415 -0.07272226 -0.14472887 0.05790071
000260 e9 37 0e 3e 4f 60 5a 3e 53 2b 92 3d b3 15 8d be
       0.13888516 0.21325801 0.0713717 -0.27555618
000270 8f e6 02 be 1f 3e 49 be 52 09 5e be 0a 30 2c 3e
       -0.12783264 -0.19652604 -0.21683243 0.168152
000280 fe fa de bc a1 69 cf 3d c6 d2 73 be 63 0c 48 be
       -0.027219292 0.10127569 -0.23810872 -0.19535975
000290 d2 e6 76 3e 05 15 2a 3e 4e 43 27 3e a3 58 7d 3d
       0.24111488 0.16609581 0.16334268 0.06185211
0002a0 97 f8 70 3e 54 d8 49 3e 34 97 93 bc e7 90 8c 3e
       0.2353233 0.19711429 -0.018016435 0.27454302
0002b0 76 c4 98 3c ee db 51 bd 0d 6f e3 3d 5d bb 82 bd
       0.018648367 -0.051235132 0.11105166 -0.06383393
0002c0 d6 45 52 3e bf 64 6d 3e 39 85 ba 3d 1d 91 35 be
       0.20534453 0.23182963 0.091074415 -0.17731138
0002d0 b7 58 00 be f3 b4 27 3e 1d a6 3e be 37 9c 2a 3e
       -0.12533842 0.1637762 -0.18618055 0.16661154
0002e0 f4 c7 96 be 86 d4 64 3c a4 e7 0b be 77 49 1a 3d
       -0.29449427 0.013966685 -0.13662583 0.037667718
0002f0 67 4a e1 bd ef 3b 6a 3e 73 42 e2 3c 41 76 26 be
       -0.11000519 0.22874425 0.027619576 -0.16256048
000300 d9 91 d2 3d a8 6f 5c 3e e8 60 5b bd b3 cf 52 bd
       0.102817245 0.21526968 -0.053559214 -0.05146761
000310 1a 2e 0f be f5 3b d1 bd 79 70 5f 3e d3 7b 5f be
       -0.1398243 -0.10216514 0.21820249 -0.21824579
000320 0f 75 88 3e e7 bb 2b 3e c6 ba bd bd 18 bb 30 bd
       0.2665181 0.16770898 -0.0926414 -0.043147177
000330 f7 36 10 3e 88 78 43 be dc 62 00 be 38 bc 66 be
       0.14083467 -0.19088948 -0.12537712 -0.22532737
000340 91 91 32 3d 86 c3 5b be 64 94 55 3e c3 0c 6b 3e
       0.043595854 -0.21461305 0.20857388 0.22954087
000350 cc 15 a4 3d d4 e3 30 3d 6e 45 81 3d 0e 13 0d 3e
       0.0801197 0.043186024 0.06312071 0.137768
000360 a9 4e ec 3d d6 08 15 bd fd 25 46 be 25 3e 2c 3e
       0.11538441 -0.03638538 -0.19350429 0.16820581
000370 56 94 1a bc 61 d8 94 bd 03 a7 d6 bd eb f0 2b 3e
       -0.00943478 -0.072678335 -0.10481074 0.16791122
000380 bf 33 f4 3c 01 6c 64 be b2 ac 24 be c7 88 38 be
       0.02980983 -0.22306825 -0.16081503 -0.18020926
000390 6f f1 c0 3d 5b 44 47 be 5e e4 8d 3e be 1c 24 be
       0.0942105 -0.1945967 0.27713293 -0.1602659
0003a0 3d cf 0e 3e d6 45 0a bc 8e 8a c4 3d 6b 39 17 3c
       0.13946243 -0.008439502 0.0959674 0.009229998
0003b0 96 1c 13 3e 0f 9a 16 be 88 42 09 3e 8a 32 4f 3e
       0.14366373 -0.14707206 0.13404286 0.20234123
0003c0 91 28 03 3e a0 f5 58 bd f4 cb 8b 3e bd 0d 80 3e
       0.12808444 -0.05296862 0.2730404 0.2501048
0003d0 07 74 85 3e 9a fc e6 bd af 0d d0 3d 34 83 40 be
       0.26065084 -0.11278649 0.1015886 -0.1880005
0003e0 f3 4c 94 bd b7 b1 8b be e3 73 70 bd 0d 17 ab 3d
       -0.072412394 -0.27284023 -0.05870427 0.08354006
0003f0 3f 7e 93 be 3a a4 a1 bd 56 08 6e be 03 e6 ef 3d
       -0.28807256 -0.07892652 -0.23245367 0.11713793

convs.1.att_dst f4 [1, 4, 64]
000000 1b 52 e1 3c ad 2b 3e be a6 e6 8c 3e ef 84 73 3e
       0.027504971 -0.18571348 0.2751972 0.23781179
000010 af e6 21 3e f5 61 5f bd 35 2f eb bd 32 2e 83 be
       0.15810655 -0.05453678 -0.114836134 -0.25621182
000020 07 58 58 3d 1b 24 9a ba 04 15 3a be 39 3b 7b 3e
       0.052818324 -0.0011760028 -0.1817208 0.2453431
000030 8b 3f 17 be e5 52 8a be b9 94 7a be b5 d8 4f 3e
       -0.14770333 -0.27016369 -0.24470796 0.20297511
000040 58 11 16 be 5c e3 80 3c 41 5c c7 3d 4f 7e 94 be
       -0.14655054 0.015733413 0.09734393 -0.29002616
000050 cd 4b f3 bd 1d 41 6e 3d 0e f0 22 bd 73 6a a1 3d
       -0.11879692 0.058167566 -0.039779715 0.07881632
000060 0e 25 f1 3d 41 ac a0 3d 9c 4f b0 bd 8c e9 d0 bd
       0.11774646 0.07845355 -0.08608934 -0.102007955
000070 11 48 82 3e 3d e0 c6 bd 8a bc c1 bc e2 04 1b be
       0.25445607 -0.09710739 -0.023649473 -0.15138581
000080 45 80 60 bd 01 d3 af 3d 65 09 8d 3e f0 c8 7f be
       -0.054809827 0.08585168 0.2754623 -0.24978995
000090 15 eb 93 be 8b 85 37 be b4 68 dc 3d 6d 17 6f 3e
       -0.2889029 -0.17922036 0.10762158 0.2334878
0000a0 76 4b 64 be b3 f3 30 3e c8 51 1f be 20 cb b7 bc
       -0.22294411 0.17280464 -0.15558541 -0.022435725
0000b0 cf 7e b0 3d 2f 40 0d 3d 0f c5 68 bc 2f 43 8d 3e
       0.08617937 0.03448504 -0.014207139 0.2759032
0000c0 35 f7 70 3d 1d fa 13 3e 36 8a 2a 3e 49 ee b0 bd
       0.058829505 0.1445088 0.16654286 -0.08639199
0000d0 19 28 7d 3e dc c4 0e be 00 14 05 3c 44 24 76 3e
       0.24722327 -0.13942283 0.008122444 0.24037272
0000e0 e8 0e 54 3e e9 9b 8b 3e 99 a6 5c 3e 45 d4 8a be
       0.20708811 0.27267388 0.21547927 -0.27115074
0000f0 17 44 db 3d a1 72 20 bd 41 65 32 3e cf 5b 16 bc
       0.107063465 -0.03917182 0.17421438 -0.009177162
000100 43 5d 79 be dc 78 90 be 92 43 5a be 22 10 76 be
       -0.24351983 -0.28217208 -0.21314839 -0.24029592
000110 87 dd 6b be 20 71 38 3e aa fb 8e 3e 26 1f 8e 3e
       -0.23033725 0.18011904 0.2792638 0.2775814
000120 92 88 d7 3d 3c 56 3a 3d b0 07 40 be cc 4b 42 be
       0.105240956 0.045492396 -0.18752933 -0.18974227
000130 58 d1 83 be 6a f3 1e be 7b d9 8c be 01 cb 56 3e
       -0.25745654 -0.15522543 -0.27509674 0.20975877
000140 69 aa 8d be 85 0a 03 3e 07 9e 47 3e ba 05 70 3e
       -0.27669075 0.12796982 0.19493876 0.23439685
000150 5a 12 23 be e1 11 c3 3d 71 a1 7c bc 45 19 8f be
       -0.1592497 0.095248945 -0.01541935 -0.27948967
000160 95 90 1d be 8d a8 86 bd b7 38 13 3e 15 a4 32 be
       -0.15387185 -0.06575117 0.14377104 -0.17445405
000170 37 29 54 3e e0 7c 3b be 9a d4 b4 bb 24 4d 89 3e
       0.20718847 -0.18309355 -0.005518508 0.26816666
000180 3d 49 b6 bd b6 8c 20 3e 3c 36 94 3e f9 7d 4c be
       -0.08900688 0.15678677 0.28947628 -0.1996993
000190 96 b7 f0 3d 57 08 16 be 89 32 7c 3e 06 0a 18 3c
       0.11753766 -0.14651619 0.24628653 0.0092797335
0001a0 53 6a 50 be 68 32 19 3e e3 62 12 3e 66 7f 25 3e
       -0.2035306 0.14960635 0.14295535 0.1616188
0001b0 97 cb 93 3e ba 89 e5 3d be 79 6c bd 4b 95 f2 bd
       0.28866264 0.1120791 -0.05773329 -0.118448816
0001c0 58 ec c4 bd 8c 1d 73 be 77 b0 ec 3d 5b c7 82 3e
       -0.096153915 -0.2374174 0.115570955 0.2554272
0001d0 ba 16 07 3e 8f 24 62 3e 19 d0 8d be c6 cb cf bd
       0.13192263 0.22084258 -0.27697828 -0.101462886
0001e0 6b 86 f8 3d a9 23 2e 3e e5 a3 3c 3e c3 01 26 3e
       0.12135013 0.17005791 0.18421896 0.1621161
0001f0 fe 0f 16 be 97 02 f1 3d 50 ba 5a 3e 63 9f d4 bd
       -0.14654538 0.11768072 0.21360135 -0.10381963
000200 9f 2d 20 3c 82 ad 8b be 3d ac 22 be c0 5d 5d be
       0.009776502 -0.27280813 -0.15886016 -0.21617794
000210 8f 0a 61 be c6 7b 9d bd 56 a8 93 3c 9a 89 31 be
       -0.21976684 -0.076896235 0.018024605 -0.17337647
000220 5a 9a 12 3b 33 2f e1 3d c5 c3 f6 bd 38 81 25 3d
       0.0022369833 0.10995331 -0.12049059 0.040406436
000230 e9 f3 e6 3d bd 42 ea 3d a6 80 24 be 25 05 7e 3e
       0.11276991 0.114385106 -0.160647 0.2480665
000240 08 c3 09 be 0f c9 cf 3d eb fd f4 bd 6e 60 21 be
       -0.13453305 0.10145771 -0.119624935 -0.15759441
000250 8c 98 f3 3d 71 dd fe bc da 01 33 be 91 aa ad 3c
       0.118943304 -0.03111145 -0.17481175 0.021199496
000260 aa 6f 14 be 8d 80 5f 3e 78 45 86 be 92 78 6b be
       -0.14495721 0.21826382 -0.26224875 -0.22995213
000270 af ac 7d bc 4b 89 8b 3e 41 10 45 3e 76 16 5b 3e
       -0.0154830655 0.27253184 0.19244482 0.21395287
000280 d2 47 2f 3e 4b ff 0b be e9 49 68 3d 7d 32 3b 3d
       0.17117241 -0.13671605 0.05671111 0.045702446
000290 a1 76 1a be 39 14 ef 3d bb d5 74 be 5d 64 8f be
       -0.15084316 0.11673779 -0.23909657 -0.2800626
0002a0 2a 5f 89 be 12 ad 10 bc 0d a1 33 be 1f dd 36 3e
       -0.26830417 -0.008830326 -0.17541905 0.17857789
0002b0 18 00 5b 3e 54 8c 07 3d 0f b9 ad 3d c0 dd fd 3d
       0.21386755 0.03309281 0.08482563 0.12395811
0002c0 27 b9 1e 3e 2d 75 61 3e 74 63 85 3e 10 8b fe bd
       0.15500318 0.22017355 0.2605244 -0.12428868
0002d0 65 9f e5 bd d6 0a 1b be b3 b5 76 be 2c e0 27 3e
       -0.11212043 -0.15140852 -0.2409275 0.16394109
0002e0 19 31 32 3e d8 cc 82 3e fe cf 01 3e f4 4b 6e 3e
       0.17401542 0.25546908 0.12676999 0.23271161
0002f0 72 75 f8 3c 01 e2 39 3e 1f e4 44 be 32 f4 5d be
       0.03032944 0.1815262 -0.19227646 -0.21675184
000300 99 6e 2d be 16 26 d7 bc 18 af 14 3e 82 37 54 bd
       -0.16936721 -0.026263278 0.14519918 -0.05181075
000310 57 9f 5b 3e 60 18 7c be 62 79 32 3d f2 f2 07 3e
       0.21447502 -0.24618673 0.04357279 0.1327627
000320 f4 11 90 be d7 be 32 be f4 64 51 3e 74 72 28 3d
       -0.28138697 -0.17455612 0.20448667 0.041124776
000330 f5 42 89 3d 5f 89 4d 3e 0f d4 8d 3d a3 e8 85 3e
       0.06702224 0.20071934 0.069252126 0.2615405
000340 72 fa 94 3d 71 dd be bc b2 be 2b be bd b9 83 be
       0.07274331 -0.02329895 -0.16771963 -0.25727645
000350 20 be 46 3e 7e eb 8c be a3 39 0c be 21 69 85 be
       0.19408464 -0.27523416 -0.13693862 -0.2605677
000360 38 6b 83 3e a3 c4 82 3e aa 6d bf 3d cd a3 6a be
       0.2566774 0.25540647 0.09347089 -0.22914048
000370 2e dc e1 bd 74 53 28 bd f0 70 7a 3e f9 e8 64 3e
       -0.11028324 -0.041095212 0.24457145 0.22354497
000380 41 07 81 be 94 d7 a6 3d 98 4b d6 3d 92 b3 42 3e
       -0.25200847 0.08146587 0.10463637 0.19013813
000390 99 10 69 3e 73 18 47 3e 09 f8 8b be 93 c5 db bd
       0.22760238 0.1944292 -0.27337673 -0.10731044
0003a0 c6 e7 86 3e 16 0b 71 3d ac 82 8b 38 20 97 ce bd
       0.26348704 0.058848463 6.652376e-05 -0.100874186
0003b0 d9 9f 22 be 65 91 7e 3e 8f cf 88 3e a8 c1 ab 3d
       -0.1588129 0.24860151 0.26720855 0.083865464
0003c0 25 d3 87 3d cf f8 3a 3e f9 13 3f 3d 31 2b bd 3d
       0.066320695 0.18258975 0.046649907 0.09236754
0003d0 0b b9 0b bd 04 d0 83 3e 24 8a c1 3d 8f ca 8c be
       -0.034112018 0.2574464 0.09450176 -0.2749829
0003e0 7c 7c 35 be 01 d3 02 3e 23 5d bf bd d4 45 5e bd
       -0.17723268 0.12775804 -0.09343936 -0.054265812
0003f0 79 bd a3 3d f5 90 2c be 45 d6 e2 3c e7 a0 00 3d
       0.079951234 -0.16852172 0.027690062 0.03140345
