trained_weights/theia/gat4.pth (torch, 322516 bytes, 27 tensors)

convs.0.att_src f4 [1, 4, 64]
000000 dc 4e 70 3e a9 8f 7d 3e 67 90 1e 3d 3f 2a cf 3d
       0.23467582 0.24761833 0.03871193 0.1011548
000010 32 ad e4 3d c0 40 5f 3e 20 e9 1f be e3 58 7a 3e
       0.11165847 0.21802044 -0.15616274 0.2444797
000020 cf b6 74 3e d8 a4 f8 bc cc 68 37 be ac bb 7b be
       0.23897861 -0.030352041 -0.1791107 -0.2458331
000030 6c fc 4a bb 23 fe 06 3e 6d af 06 bc 59 cc 68 3d
       -0.003097321 0.13182883 -0.008220536 0.056835506
000040 8d 4b 01 bd c6 c3 48 3e f7 7f fd bc 8c 00 75 3e
       -0.03156619 0.19605932 -0.030944807 0.2392599
000050 87 2f 1f be e8 51 64 3e c0 e4 12 3d 9d 93 f8 bd
       -0.15545474 0.2229687 0.035862684 -0.1213753
000060 8e 1d 33 be fc 5e 6f be 61 b4 2e 3e 5a 2d 72 3e
       -0.17491743 -0.23376077 0.17060997 0.23650113
000070 98 ee 65 be 83 2a 05 3d 05 f4 6e be 3e 93 88 be
       -0.22454298 0.032511245 -0.23335274 -0.26674837
000080 d5 5b 0b 3e d9 d5 0c 3e a2 30 cc bd 52 09 5d bd
       0.1360925 0.13753451 -0.099702135 -0.053963967
000090 27 c4 6f bd 80 cf 32 3d 5b a9 08 be 9b 32 66 3e
       -0.058536675 0.04365492 -0.13345854 0.22480242
0000a0 8f 53 67 3e d6 77 70 3e 15 50 e9 bd 2b 79 11 3e
       0.22590469 0.23483214 -0.113922276 0.14206378
0000b0 1a 13 49 be 03 2b 28 3e 3d ee 89 3e 77 ed 5a be
       -0.19636193 0.16422658 0.26939574 -0.21379648
0000c0 2f 8b 8c 3e 99 88 8a be a6 0c 25 3d a6 f8 d3 bd
       0.2744994 -0.2705734 0.040295266 -0.1035016
0000d0 f8 b8 bb bd 27 5a aa 3d fc 09 05 3e cb b6 20 be
       -0.09166139 0.083179764 0.1299209 -0.1569473
0000e0 46 a2 fa 3d 90 e4 11 bc c6 ca 85 bd 17 fd 81 3e
       0.122379825 -0.008904591 -0.065328166 0.25388405
0000f0 87 58 0c 3e a3 6d 83 be 07 44 3e bd 8e 0a f9 bd
       0.13705646 -0.25669584 -0.046451595 -0.12160216
000100 dd 68 7d be 85 51 75 3d 91 6e 1f 3e 45 a1 05 3e
       -0.24747033 0.059892196 0.15569521 0.130498
000110 68 6e 69 3e 1a 1d 5d be 9d 50 19 3e 38 26 79 3e
       0.22796023 -0.21593133 0.14972158 0.24330986
000120 1a 4d 33 3d 08 1c 3e 3e dd 34 f7 3d b0 16 58 3e
       0.0437747 0.1856538 0.1207063 0.21102405
000130 dd 8d f5 3d 63 02 6f 3e 4b 8b 9a 3d 2f e5 4c bd
       0.11989949 0.23340754 0.07546099 -0.050023254
000140 3b 7c 3b bd 37 49 60 3e f4 e0 21 be 8e b3 ea 3d
       -0.045772772 0.21902929 -0.15808469 0.114600286
000150 74 17 9b bd 20 a3 a5 3d 14 de 8a be 26 fd 65 be
       -0.07572833 0.08087754 -0.27122557 -0.2245985
000160 66 6f 57 be 2c 85 41 bd 78 68 88 3e b9 80 b9 bd
       -0.21038589 -0.047246143 0.26642203 -0.09057755
000170 9f 58 3a 3d 76 5f 5b bd 4e 81 99 3d ca f5 69 3d
       0.045494672 -0.053557836 0.07495366 0.05711917
000180 73 e5 78 3e 7c 96 14 be 9c fc 01 be 4f 46 83 3e
       0.24306278 -0.1451053 -0.12694019 0.2563958
000190 22 6b 10 3c 1d 18 73 3e f3 e2 40 3e b4 2a 86 be
       0.008814605 0.23739667 0.18836574 -0.26204455
0001a0 b7 f9 d5 3c ef 6f 20 3e b8 d3 87 3e ea da 3f 3e
       0.02612005 0.156677 0.26528716 0.18735853
0001b0 07 a3 f0 3c b9 a5 2a be 12 22 fb bd 7c 26 94 be
       0.029374612 -0.1666478 -0.12262358 -0.2893561
0001c0 a9 87 1f 3e 8e 98 58 be 24 47 1f 3e 08 5d 91 3e
       0.15579094 -0.21151945 0.15554482 0.2839129
0001d0 d5 36 a6 3d 76 b6 1a be 53 97 a6 3d 8e 02 16 bd
       0.08115927 -0.15108666 0.081343316 -0.03662353
0001e0 1a 62 16 3e 55 7a 18 bd ab f9 e6 bd e0 b6 69 3d
       0.1468586 -0.03722604 -0.11278089 0.05705917
0001f0 3d a0 66 be 2d 45 8f bb 6e 2d 10 be 73 d6 1e be
       -0.22522064 -0.00437226 -0.1407983 -0.15511493
000200 6c af bf bb 89 46 0b be 4a 28 06 3e 4b aa 0b bc
       -0.0058497693 -0.13601126 0.13101307 -0.008524488
000210 bf 80 3b 3e 43 46 73 be be ec 80 3e b3 44 d5 bd
       0.18310831 -0.23757271 0.2518062 -0.10413494
000220 6d a4 1d 3e 6c 25 4c be 8f c5 bf 3d 6d 66 11 bd
       0.15394755 -0.1993615 0.09363853 -0.03549807
000230 c7 e2 34 bd 6f 73 1d bd e1 da 52 be 44 15 37 3e
       -0.044161584 -0.038440164 -0.20591308 0.17879206
000240 d6 d8 82 3e db 9f 2e 3e d1 ad 84 bd ee 16 f3 3c
       0.25556058 0.17053168 -0.06478465 0.02967402
000250 a9 0d 55 3e 23 41 80 3e 5f 4f d5 bd b8 18 7d be
       0.20805992 0.25049695 -0.104155295 -0.2471646
000260 ba 1f 52 3e 94 76 14 3e 95 03 b3 3d c7 1a 89 be
       0.20519915 0.14498359 0.087409176 -0.26778242
000270 43 a1 d5 3d 90 3f 30 be ca 95 6b 3e b1 97 1a be
       0.10431149 -0.17211747 0.23006359 -0.15096928
000280 a8 22 55 be 0c ff 34 be 1f 64 66 bd 42 24 68 be
       -0.20814002 -0.17675418 -0.056247827 -0.22670081
000290 3f a7 40 3e 51 2b 39 3e 40 1d 6a be 13 96 18 3e
       0.188138 0.1808293 -0.2286272 0.14900999
0002a0 c7 4e 2b 3e e5 a7 80 bd 01 2c 37 bb 65 55 02 3e
       0.1672927 -0.06282023 -0.0027949812 0.12727888
0002b0 8c 8c 9e 3d 86 82 86 bd c4 f3 05 be 1e 86 06 3d
       0.07741651 -0.06567864 -0.1308127 0.032842748
0002c0 18 d4 64 3e fe 63 84 3e 48 f5 6f be b4 03 55 be
       0.22346532 0.25857538 -0.23433411 -0.20802194
0002d0 d2 cd 31 3e a4 7c 46 be ff 97 12 bd 96 ea b2 3d
       0.1736367 -0.19383484 -0.035789486 0.0873615
0002e0 f9 23 01 3e 76 aa c1 3c d0 bf 41 bd 5f 74 6f 3e
       0.12611379 0.023640852 -0.047302067 0.23384236
0002f0 77 c5 1c be 31 a7 56 be 29 70 c1 3c 31 ca 3a be
       -0.15309702 -0.20962216 0.023613052 -0.18241192
000300 ce 30 4a bd 2d 45 74 be 79 ad 85 3e 32 9e 3d 3e
       -0.04936295 -0.23854513 0.26108912 0.18517378
000310 97 85 b2 3d 11 9b 02 3e a3 d4 23 be 6c bd aa 3d
       0.087168865 0.12754466 -0.15999083 0.083369106
000320 94 72 52 be e6 e8 7a bc 68 4e 82 3e 06 5e b0 bd
       -0.2055152 -0.015314316 0.25450444 -0.086116835
000330 9a 6a c2 bd f4 e1 82 be 71 55 c1 bd de 55 29 3e
       -0.09492989 -0.25563014 -0.09440125 0.16536662
000340 ad 07 18 3e c9 01 92 3e aa 5e 37 3e b8 06 3e 3d
       0.14846678 0.28516987 0.17907205 0.046393126
000350 0e cd 77 be 74 fc 81 3e b9 d9 17 3e 11 48 1d bd
       -0.24199316 0.2538792 0.14829148 -0.038398806
000360 13 8b c3 3d a9 0c e4 3d 25 83 09 be fb 06 9b 3d
       0.09548011 0.11135227 -0.13428934 0.07569691
000370 aa 11 0d be b7 77 27 3a 53 b1 86 be f9 4e 88 3e
       -0.1377627 0.00063883833 -0.26307163 0.2662275
000380 ca df 11 be 29 5b 13 3e cc e5 b1 3d 92 10 72 be
       -0.14245525 0.14390244 0.086864084 -0.23639134
000390 d8 cc 7d 3e ac 30 c3 bc a6 e4 86 3e d0 37 22 3e
       0.24785173 -0.02382692 0.2634632 0.15841603
0003a0 0f d5 b6 3b 9e cd 56 3e 8e 4e 5a 3e bc 15 94 bd
       0.005579598 0.20976874 0.21319029 -0.07230708
0003b0 8d df f6 3c 13 7f 40 3e 7f 81 90 be 0e 0b 1f be
       0.030135894 0.18798475 -0.28223798 -0.15531561
0003c0 c0 2b d2 3d d4 8a 35 3e 83 a1 b5 3d d4 e7 51 be
       0.10262251 0.1772874 0.088686965 -0.20498592
0003d0 29 4c e5 bd 56 09 0e bc 7e a3 8d 3e f5 03 48 be
       -0.11196167 -0.008669218 0.27663797 -0.1953276
0003e0 d9 5e ac 3a 30 0b 03 3d 7e bf 84 be 77 70 89 3e
       0.0013150825 0.03199309 -0.25927347 0.26843616
0003f0 c0 7b 78 be 75 d6 24 be da ef f6 bd f8 c0 a2 bd
       -0.24265957 -0.16097434 -0.12057467 -0.07946962

convs.0.att_dst f4 [1, 4, 64]
000000 73 2a 17 3e 17 f0 ae 3a 02 20 6c 3e 9f 50 c9 3d
       0.14762287 0.0013346699 0.23059085 0.098298304
000010 f1 42 10 be a3 89 82 be d5 46 34 be 9d db 8d bd
       -0.14088036 -0.25495633 -0.17605145 -0.069266535
000020 eb 18 86 be d0 7d 80 3c d6 97 4c 3e cf 56 7a be
       -0.26190886 0.015684992 0.19979796 -0.24447177
000030 a9 e3 3e 3e 39 90 50 3e 7d 14 56 be 87 2d 83 3e
       0.18641533 0.20367517 -0.20906253 0.25620672
000040 9a f8 1c be 1d 28 16 be ac a0 34 be e1 98 5e be
       -0.15329209 -0.1466374 -0.17639416 -0.21738006
000050 36 17 85 bd 5e e3 b6 bd f3 15 60 3e 29 31 f3 3c
       -0.06498568 -0.089300856 0.21883373 0.029686527
000060 30 51 85 3e bd b5 ae 3c 18 87 25 be 08 35 8b bd
       0.26038504 0.021326894 -0.16164815 -0.06797224
000070 39 dd e2 3d 59 8c 35 bd e0 9a 3e 3e e3 1e dd 3d
       0.11077351 -0.0443233 0.18613768 0.10796907
000080 d8 d4 fd bd 03 66 66 bd fa 1c 09 3e 7d e0 cb bd
       -0.12394112 -0.05624963 0.1338996 -0.09954927
000090 df 13 37 3c b0 4c 5f 3e a4 b6 9f bd 4c 92 52 3e
       0.011174171 0.21806598 -0.07798508 0.2056362
0000a0 5a 7f 36 3e 29 ea 5b be d5 0d 80 3e 68 ff b9 3d
       0.17822018 -0.21476044 0.25010553 0.09081918
0000b0 77 55 51 be 77 67 c7 bc 16 95 fd ba a9 6e 15 bd
       -0.20442759 -0.024341328 -0.0019346799 -0.036482487
0000c0 e6 de 0a 3e 05 57 64 3e b4 2e 12 3e 9d b5 02 3e
       0.13561592 0.2229882 0.14275628 0.12764592
0000d0 bb 71 b8 3d 4c cb 36 be 9c ce ea bd 58 8c ec 3d
       0.09006067 -0.17850989 -0.11465189 0.11550206
0000e0 d1 f1 1d be 7d 34 ac bd 2f 57 cc 3d f6 74 85 be
       -0.15424277 -0.08408449 0.099775665 -0.26065797
0000f0 8a 24 07 bc ef 0e b6 3a 92 72 7c 3c b8 c0 b0 bd
       -0.008248458 0.0013889949 0.015408175 -0.08630508
000100 77 26 db 3d 63 b2 6e bd 81 3b b6 38 13 3d e8 3d
       0.10700696 -0.05827559 8.68952e-05 0.11339774
000110 50 8d 41 3a f9 3e 2a be 95 42 34 3e bd 4e 44 bd
       0.0007383423 -0.16625585 0.17603524 -0.047926653
000120 d2 ea 86 bb 88 98 21 be de ca ef bd 7b 62 35 be
       -0.004117348 -0.15780842 -0.11708616 -0.17713349
000130 db 96 25 be 42 cb a1 bd 7d 8f 81 be 06 af b0 bd
       -0.16170828 -0.079000965 -0.25304785 -0.08627133
000140 6b 8b 04 be a7 e9 33 3e fa 1b 0f be 86 93 58 be
       -0.12943809 0.175696 -0.13975516 -0.21150026
000150 4e e9 d1 bd 74 b1 68 3e 3c 47 49 be 6b cb 32 3e
       -0.102495775 0.22723943 -0.1965608 0.1746041
000160 58 7e e4 3c 20 3f 6f be 49 bd 52 be d1 23 46 3d
       0.027892277 -0.23363924 -0.20580019 0.048374
000170 79 62 d8 3d a9 63 87 bd a5 35 87 3e 22 8c d5 bd
       0.10565657 -0.066108055 0.26408115 -0.10427119
000180 be fe 75 bd fb 76 5e 3e ff d3 a0 bd 58 30 88 3e
       -0.060057394 0.21725075 -0.07852935 0.26599383
000190 a1 7e 85 be ba f4 ca 37 94 e8 e1 3a 38 29 31 3e
       -0.26073173 2.4194236e-05 0.0017235451 0.1730088
0001a0 b7 58 27 3b 32 8a 28 3d d8 db 47 be c8 df 7f be
       0.0025535056 0.04114742 -0.19517457 -0.2498771
0001b0 78 70 cd bc 3a af 24 3e 3f ac 03 bd 0c df 7c 3b
       -0.025078043 0.16082469 -0.03214669 0.0038585095
0001c0 24 b5 81 be 26 03 51 3e 1f ee 0c be a0 71 1d be
       -0.25333512 0.20411357 -0.13762711 -0.15375376
0001d0 c2 7d eb bd 75 6d 74 3e 5d 95 30 3e fa 96 47 be
       -0.11498596 0.2386988 0.17244478 -0.19491187
0001e0 e2 7f bd bc f8 d7 64 3e 40 92 1d 3e 36 35 62 be
       -0.023132268 0.2234801 0.15387821 -0.22090611
0001f0 16 de 9b bd 82 a7 55 3e 7c 92 39 be 20 c7 44 ba
       -0.07610719 0.2086468 -0.18122286 -0.00075064786
000200 4a 5c 0f be 4d 76 d3 ba 8e 7c 4f be 97 e9 ca 3d
       -0.14000049 -0.0016133279 -0.20262358 0.09907835
000210 ca 0c 32 3e a4 8e a0 bd 5d a9 87 3e 0c d4 c6 3c
       0.17387691 -0.078397065 0.264964 0.024271034
000220 07 eb 6c be a2 74 58 be 50 91 36 be 50 5f 6e be
       -0.23136531 -0.21138242 -0.1782887 -0.23278546
000230 33 5e 35 3e e6 3d 3a be c1 06 ea 3d e4 e7 17 3e
       0.17711715 -0.18187675 0.114270695 0.14834553
000240 4a df 9b bd 2e e8 63 be 3a 9c 4d 3e 26 07 57 3e
       -0.076109484 -0.22256538 0.20079127 0.2099882
000250 59 77 2b be ab ce 64 3d 09 88 2b be ab e0 44 3e
       -0.16744746 0.055861156 -0.16751112 0.19226329
000260 9d 88 38 3e cc 5f 85 3e d1 ed a0 3d 17 4e 53 bd
       0.18020864 0.2604965 0.0785786 -0.051588144
000270 d3 a6 1c 3d 75 95 06 3c 33 4d 5f 3e f1 1b 79 3e
       0.038245033 0.008214344 0.21806793 0.24327065
000280 5b 31 1f be 8b d8 9a bc a0 a9 ab 3d 8a 2c b5 3d
       -0.15546171 -0.018902084 0.08381963 0.08846386
000290 03 fc 6a 3e 28 0e 8a bd 0c d9 0e be 19 2d 46 3e
       0.22947697 -0.06740981 -0.13949984 0.19353141
0002a0 88 6f a3 3c 71 e8 64 3b 56 7f 46 3e fa 42 00 bd
       0.019950643 0.0034928585 0.19384512 -0.031313874
0002b0 6a b8 43 be be 4e 7e be 06 5a b6 3d 03 c1 43 be
       -0.19113317 -0.24834725 0.08903889 -0.19116597
0002c0 42 81 74 3e 5f 60 70 be a3 a9 84 3e af 48 66 be
       0.23877433 -0.23474263 0.25910673 -0.22488664
0002d0 60 ec d1 3d 5a 52 48 be 1c 89 55 be 4d e8 3b 3e
       0.10250163 -0.19562665 -0.20853084 0.18350334
0002e0 7c 03 b4 3d 4c 0d 81 be c0 36 ad 3c 68 2b 55 3e
       0.08789727 -0.25205457 0.02114427 0.2081734
0002f0 c1 dc 28 3e ea 21 6e 3e b0 3c cf bc a8 1d 34 3e
       0.16490461 0.23255125 -0.025297493 0.17589438
000300 9c a9 3b 3e 46 76 b7 bd fd ba 88 3e eb 01 88 3e
       0.1832642 -0.08958106 0.2670516 0.26563963
000310 f9 20 92 bd 0f 7a 6d be ec eb f7 3d af 3c 51 be
       -0.07135195 -0.23191093 0.121055454 -0.20433305
000320 67 7e 9b bc d1 05 9d bb f0 b1 80 be 46 db 3f bc
       -0.018981172 -0.004791953 -0.25135756 -0.011709994
000330 d0 db 42 3e ad c7 1c be 71 85 5b 3e 8d 1e eb 3d
       0.19029164 -0.15310545 0.21437623 0.114804365
000340 d7 f9 e7 3d 2e e3 51 3c 20 e2 31 bd 96 2c 75 bd
       0.1132695 0.0128105115 -0.04342854 -0.059856974
000350 80 46 b7 bd 8c ef bb bd 18 56 87 3e 8d 83 50 bc
       -0.08948994 -0.09176549 0.26432872 -0.012726677
000360 6d f1 f9 3d e5 eb 09 3d 83 99 48 3b 68 ba 25 be
       0.122042514 0.033672232 0.0030609078 -0.1618439
000370 48 7f 05 3d 43 09 42 be db b5 7c be 27 b4 65 be
       0.032592088 -0.18948846 -0.24678747 -0.22432004
000380 6d c6 bf bd 2a cc 67 3e ce 56 6d 3e 3b 00 c5 bd
       -0.093640186 0.22636476 0.23177645 -0.096191846
000390 c0 ed 47 3e 12 55 a4 3d 6f 5b 54 be ca de cd bd
       0.19524288 0.080240384 -0.20738004 -0.10052259
0003a0 43 a7 c1 bd f3 40 e6 3d 1f bd 98 3d 4b 62 66 3e
       -0.09455731 0.11242857 0.07457947 0.22498433
0003b0 b1 61 77 3e 19 6c ce 3d f1 57 cf 3c fd a7 40 3e
       0.2415836 0.10079212 0.025310488 0.18814082
0003c0 41 41 bc 3c 7b 77 12 be 61 92 6a be 73 61 2d be
       0.022980334 -0.1430339 -0.22907402 -0.16931705
0003d0 a9 a1 06 be aa 2c 99 bd f8 99 3d 3e 18 b1 59 3e
       -0.13147606 -0.07479222 0.18515766 0.21258962
0003e0 14 f2 08 be 22 81 0a be 5d 30 4a be 33 c1 f4 bd
       -0.13373595 -0.13525823 -0.19745012 -0.11950912
0003f0 5a b5 94 bd ae a6 72 3d ef 8c d0 bd 13 35 88 bd
       -0.072611526 0.05924099 -0.10183131 -0.06650748

convs.0.bias f4 [256]
000000 12 21 d0 3a 86 39 ae 3b a1 b9 94 bb 58 fe 37 bc
       0.0015878996 0.005316916 -0.0045387303 -0.011230074
000010 ea 68 90 bb f4 59 89 bb 82 1a 82 3b 62 db 47 bb
       -0.004407038 -0.0041916315 0.003970445 -0.0030495753
000020 03 5c 8a 3a a7 ed ea 3b fd 62 1a bb f9 6b 3b b9
       0.0010555986 0.0071694436 -0.0023557537 -0.00017873933
000030 6e ed 8d 3b d1 9a cd bb 14 d9 7a bb 6f e6 88 3a
       0.0043312823 -0.006274559 -0.0038276361 0.0010444651
000040 a1 04 dc 3a 40 18 18 b9 08 89 23 3c d4 60 d4 39
       0.0016786047 -0.00014504883 0.009981401 0.00040507934
000050 8a 3d 15 bb 22 9b 55 3b 42 37 7d ba 71 11 15 3b
       -0.0022772276 0.0032593687 -0.0009659418 0.0022745992
000060 41 db 8a ba 86 c1 c8 bb f1 aa 37 bb dd b2 40 b9
       -0.0010593907 -0.0061265854 -0.0028025473 -0.00018377179
000070 65 be 9d 3b e9 68 8f 3b 05 5c b9 3b 39 61 54 ba
       0.0048139566 0.00437652 0.0056567215 -0.00081016455
000080 3b 6e 1e bc 36 d4 8e 39 67 ce a7 3a be 3e 4f ba
       -0.009669836 0.0002724246 0.0012802602 -0.00079057727
000090 0c ff fe 3a b0 80 cf 3b cc 3f 5f ba 66 af d6 3b
       0.0019454672 0.0063324794 -0.00085162814 0.006551671
0000a0 75 28 aa 3a fa 66 d1 bb 3e e0 d7 3a 0c 7f ed bb
       0.0012982028 -0.0063904496 0.0016470028 -0.007247811
0000b0 9e cb 3e b9 1c a6 21 bb 0b bb 62 bb c2 6d a8 ba
       -0.00018195665 -0.002466566 -0.003459635 -0.0012850093
0000c0 85 b6 2c 3b 6a a9 9b 3b f8 47 17 bb a2 76 4a bb
       0.0026353907 0.0047504203 -0.0023083668 -0.0030893465
0000d0 b2 75 36 ba 4d 01 0b 3c f5 16 3e 3b ad c9 0d 3b
       -0.0006960287 0.008484197 0.0029005383 0.00216351
0000e0 c3 06 a2 3b 4d 66 62 ba 76 c5 d0 ba 09 6f 4e bb
       0.0049446537 -0.000863646 -0.0015927989 -0.0031499288
0000f0 5f fc 19 ba 2b a1 68 3b 3d f3 a2 3b 8e 3d 84 bb
       -0.0005874093 0.0035496454 0.004972844 -0.004035658
000100 cc e3 64 3a 45 3f 2d 3b 6f 57 e9 b9 9c dc b9 ba
       0.0008731454 0.0026435417 -0.00044506366 -0.0014180127
000110 bb a3 f0 3a ae 04 69 bb 31 0c 08 39 ed 9a 89 bb
       0.0018359342 -0.0035555768 0.00012974512 -0.004199377
000120 d5 cb d9 3b 31 80 a2 b9 e8 d8 44 3b e3 5c 3f 3a
       0.006646613 -0.00030994558 0.0030036513 0.0007299913
000130 88 54 6b bb 2d 47 de 3a f6 00 a0 3a c7 70 bf 3a
       -0.003590854 0.0016958468 0.0012207318 0.0014605754
000140 8f fb 9e bb 55 c6 7e 3b c7 5a e5 3a cc f7 a7 bb
       -0.0048517655 0.003887554 0.0017498367 -0.0051259752
000150 db 78 33 ba 2b e6 1d bb 8e ba 98 3b ac b0 d7 bb
       -0.0006846317 -0.002409349 0.004660911 -0.00658234
000160 c0 40 e9 b8 c9 b2 2d 39 8d 97 89 3b b7 3a 51 bb
       -0.000111223664 0.00016565168 0.0041989745 -0.0031925866
000170 3f c3 50 39 8d cd 0c bb 2f d8 4c bb 9c 9e 76 b9
       0.0001990916 -0.0021484823 -0.0031256785 -0.00023519475
000180 f7 99 b2 3b 92 3e 72 3b 54 c4 08 bb c6 de 9e 3a
       0.005450483 0.0036963564 -0.0020868974 0.0012120835
000190 6b 70 b3 3b 73 e0 22 bb 6b 98 0f bc 80 85 8e 3a
       0.0054760478 -0.002485302 -0.008764367 0.0010873526
0001a0 f4 7a a4 3a a2 ce 55 bb cf d1 1f 3b 3b 4e 84 3b
       0.001254885 -0.0032624383 0.002438653 0.004037646
0001b0 c8 68 78 bb 2a 86 b7 39 7e 9a 8c ba d9 9f a6 ba
       -0.0037904251 0.0003500444 -0.0010727195 -0.0012712433
0001c0 7b 30 d1 3a ce b9 71 b9 ea a4 0c 3c 85 9e a8 ba
       0.0015959883 -0.00023052769 0.00858424 -0.0012864625
0001d0 8a b4 1d bc 4c 4f 15 38 23 02 79 bb f2 a1 87 3b
       -0.009625563 3.559822e-05 -0.0037995658 0.0041391784
0001e0 bb ef 46 3b bb 1d eb 37 61 0f 4b bb 69 8a 8c bb
       0.0030355293 2.8028027e-05 -0.0030984508 -0.0042889607
0001f0 e3 78 0c bb d7 91 64 3c 7e 20 c7 bb db 4b 16 ba
       -0.0021434359 0.013950787 -0.0060768714 -0.0005733349
000200 c6 e5 b9 ba 74 66 7b 39 34 85 56 bb 7c 9e 44 3b
       -0.0014182858 0.00023975392 -0.0032733204 0.003000169
000210 82 eb 89 ba 42 c5 08 bb 17 88 21 3b 05 a0 eb 3b
       -0.0010522457 -0.0020869528 0.0024647766 0.0071907067
000220 54 51 23 39 47 61 b9 3a 2e 04 db 3b 72 ab e2 3a
       0.00015575188 0.0014143371 0.006683848 0.0017293526
000230 34 65 9f bb 96 6b 16 3b 0d 5d 20 3b 6c 9a f6 3b
       -0.0048643593 0.002295231 0.0024469525 0.0075257327
000240 d1 7f 57 3a a7 c4 89 bb de a1 da 3a b4 a6 cd 3b
       0.0008220645 -0.004204351 0.001668032 0.006275976
000250 a5 83 33 3a 96 31 d1 3a d4 08 96 ba 58 97 96 3a
       0.00068479247 0.0015960212 -0.0011446723 0.0011489196
000260 d3 73 46 bb 0e 90 a1 39 7a 8e 45 3a be b9 00 bc
       -0.003028144 0.00030815642 0.0007536184 -0.007856784
000270 1a 1e 78 ba 8f ea 8a 3b 46 03 36 bc df 11 63 3b
       -0.00094649347 0.0042393873 -0.011109179 0.0034648103
000280 0b 71 7d 39 d8 0f 96 bb b4 e3 a2 bb 30 93 aa 3a
       0.00024170072 -0.0045795254 -0.004970992 0.0013013836
000290 85 a9 8d 3a 28 5a 2d bb 74 81 0c bc c8 92 55 bb
       0.0010807967 -0.0026451442 -0.008575786 -0.003258871
0002a0 fe 56 c6 b8 0d 75 d8 ba 65 00 cb bb de 0d 5f 3c
       -9.457579e-05 -0.0016514376 -0.0061951154 0.013614146
0002b0 f8 65 06 b9 54 55 dd bb b5 8b f4 3a 05 b2 03 bb
       -0.00012817222 -0.0067545567 0.0018657359 -0.0020095122
0002c0 b0 70 36 bb 32 d2 c2 3a a1 bc 0d 3a a2 6e 59 bb
       -0.0027838163 0.0014863668 0.0005406831 -0.0033177515
0002d0 1b 64 12 bb 5e dd 2a 39 3d 6b 5e 3b 70 62 be bb
       -0.00223375 0.00016294929 0.003393843 -0.0058100745
0002e0 70 9b 42 3b 27 f8 f3 bb 19 2b 71 3a e4 c4 b3 bb
       0.0029694699 -0.0074453535 0.00091998425 -0.0054861177
0002f0 eb e9 0c bb df 9c 03 3b c0 ac 18 bc 44 d4 91 bb
       -0.002150173 0.0020082516 -0.009318531 -0.004450353
000300 fb 0a 45 3b 1d bf 15 3b 60 4f 01 bb 70 53 68 bc
       0.003006636 0.0022849508 -0.001973115 -0.014180049
000310 0e e9 ad bb 83 1c 2c b9 81 55 ac 3b b8 f1 58 bb
       -0.0053073233 -0.0001641382 0.0052592163 -0.003310306
000320 f1 6d 66 3b da e5 23 3b 0c 9b 19 bb 7e c2 e4 ba
       0.0035160745 0.0025008828 -0.0023438362 -0.0017452983
000330 05 41 85 bb 23 43 cf ba a7 a8 3e 3b aa 0b f9 3b
       -0.004066589 -0.0015812855 0.0029092224 0.0076002674
000340 0e 0f ef ba 48 e4 7a bb e6 4a 27 3b 0d 9a ee b9
       -0.001823874 -0.003828304 0.002552682 -0.00045509674
000350 86 e4 c6 3b 92 a8 ea bb 88 af f7 38 e4 47 a9 bb
       0.0060697226 -0.0071612084 0.00011810573 -0.0051660407
000360 fa 93 14 bb f2 f7 a7 ba b7 ac 3a 3b a7 32 da b9
       -0.0022671209 -0.0012814982 0.0028484294 -0.0004161794
000370 1c 84 4e 3b c2 93 ed b9 25 f8 f0 3b f8 69 c8 3a
       0.0031511849 -0.0004531425 0.0073538 0.001529037
000380 79 1e 7c ba 7a 53 bc 3b f9 c1 10 bc 19 ad f2 bb
       -0.0009617578 0.005747256 -0.008835309 -0.0074058888
000390 0a 30 a6 39 17 54 56 3b 75 87 77 bb 4d 68 8e bb
       0.0003169778 0.003270393 -0.0037769948 -0.0043459297
0003a0 a1 8a b4 3a be f5 2e 3b 9b 4b 6d bc a5 3c 94 ba
       0.0013774225 0.0026696767 -0.014483358 -0.0011309577
0003b0 61 2e a2 3a e5 64 02 3b 13 de c7 bb 9a c6 57 bb
       0.0012373441 0.0019896564 -0.0060994714 -0.0032924772
0003c0 3d 52 24 3b 05 e7 61 bc e3 e8 82 3b cb fc ec bb
       0.0025073432 -0.0137879895 0.0039950474 -0.0072322837
0003d0 d9 93 4e 3a 46 2e 2a bb 47 10 29 bb 82 2a 85 3b
       0.00078803074 -0.0025967523 -0.0025797056 0.004063905
0003e0 d1 71 eb ba 52 c3 0f 3b b5 92 8c b8 4a e9 3a 3a
       -0.0017962997 0.0021936488 -6.7030465e-05 0.00071300997
0003f0 36 b2 ff ba a8 b8 9f ba 42 3e 0f 3a 76 77 31 ba
       -0.0019508067 -0.0012185769 0.0005464294 -0.0006769815

convs.0.lin_src.weight f4 [256, 6]
000000 74 53 43 bd 84 c7 3d bd 17 3f 10 3d 7e ac a8 bd
       -0.04768701 -0.04633285 0.035216417 -0.08236025
000010 f4 ca bd 3d 70 39 5c 39 63 ff ce 3d 35 b1 df 3d
       0.09267226 0.00021002232 0.10107305 0.109224714
000020 71 5a 5c bd ea ee 81 bd 6f d3 45 3d 47 aa 71 3d
       -0.05379719 -0.06344397 0.048297342 0.05900028
000030 3e d0 23 bd fd 27 be bd a9 cf 0b 3e cc 98 0a 3e
       -0.039993517 -0.09284971 0.13653435 0.1353485
000040 da 77 d7 bd 0c f2 d0 3c 8e 49 09 3e 51 45 23 3c
       -0.10520907 0.025506042 0.13406965 0.009965257
000050 60 de ba 3d 5f 41 db 3d c1 00 de bd 3f 13 cc 3d
       0.09124446 0.10705828 -0.108399875 0.099646084
000060 e3 88 9f bd 9b 3d c6 3d 26 79 47 3d ed f8 68 bd
       -0.07789781 0.09679719 0.04869952 -0.05687802
000070 88 9d d2 bc de 99 b0 3c ab 36 2f 3d a5 20 49 bd
       -0.025709882 0.021557745 0.042776745 -0.049103398
000080 39 ee 8b bd 8d c0 cc 3d f6 8d df bd c3 06 a0 3d
       -0.06832547 0.09997664 -0.10915749 0.0781379
000090 2f 4d 86 bd dc 74 ae bd 75 bc 57 bd 5f 00 e8 3d
       -0.0655769 -0.08518383 -0.05266996 0.11328196
0000a0 6f ed f6 3c b8 79 3b bd 7b d2 c7 3d fd f0 c5 bd
       0.030142514 -0.045770377 0.09756943 -0.096651055
0000b0 7d 7d e6 bd df 0b 0a 3e 8d 7e e3 bd ce e8 c0 3d
       -0.11254404 0.13481091 -0.11108122 0.09419404
0000c0 96 59 0d be 8e 03 85 3d 26 07 cb 3d 95 1b 1b 3c
       -0.13803706 0.06494819 0.09913473 0.009467025
0000d0 af 0d ac 3b a8 f9 e8 bd d2 88 57 bd a9 ab ab bc
       0.0052506546 -0.11375743 -0.052620716 -0.020955877
0000e0 6d 71 ed 3d 99 21 e8 3d e6 88 ff 3c 96 77 e0 3d
       0.115939 0.11334533 0.031193208 0.10960309
0000f0 62 73 c0 3d 12 ec 14 be ee 93 74 bc cc d8 3c bd
       0.093970075 -0.14543179 -0.014927847 -0.04610519
000100 90 e0 e0 bd 72 d9 ff 3c f7 8d b8 3d 34 d6 42 3d
       -0.10980332 0.031231616 0.09011453 0.04756756
000110 b9 69 96 3d ac e3 d8 3d ee 57 1d b9 6b 5b df bd
       0.07344384 0.105903 -0.00015005443 -0.109061085
000120 f5 aa 7e 3d 0a 81 1b be 39 87 05 3e 95 87 6a bd
       0.062174756 -0.15185943 0.13039865 -0.057258207
000130 76 0f 18 b8 1b f6 67 3b 38 83 16 bd 9a 62 fe 3d
       -3.6254023e-05 0.0035394493 -0.036746234 0.124211505
000140 f2 07 bc bd 46 21 07 be ae 89 ff 36 9f ee 27 3a
       -0.09181203 -0.13196287 7.6156202e-06 0.0006406102
000150 bd 66 b7 bd 42 38 be bd c1 70 a9 3d 17 eb f0 bc
       -0.08955143 -0.09288074 0.08273459 -0.029408975
000160 c3 29 49 bd c4 5e b4 3c 16 40 93 3b 7e 74 b4 3d
       -0.049112093 0.022017844 0.0044937236 0.088112816
000170 79 b3 9e 3c 9f b8 e0 3d 4d 2c d9 bd ec 26 98 ba
       0.019372689 0.10972714 -0.10604153 -0.0011608279
000180 56 87 25 bd 08 7d 07 bd a7 e3 f3 bd 5b f2 bb bd
       -0.04041227 -0.033078223 -0.119086556 -0.09177085
000190 f2 c0 a4 ba b1 6e 24 3d 03 57 9b 3d de bd 59 bd
       -0.0012569709 0.040144626 0.075849555 -0.053159587
0001a0 46 f6 9d 3d 01 6c a3 3d a2 ec e6 bc f6 a4 aa 3d
       0.077129886 0.079795845 -0.028189007 0.08332245
0001b0 03 1b bd 3d f7 ca 52 3d 5a eb 10 be 99 9f 01 3e
       0.09233668 0.051463094 -0.1415228 0.12658538
0001c0 94 a3 01 3d d8 f3 80 bc 23 eb 24 3d 92 92 81 3b
       0.03165014 -0.015741274 0.040263306 0.00395424
0001d0 a4 c4 e7 bd b6 8d f2 bc 14 5f 3b 3d cc d2 46 3d
       -0.11316803 -0.029608589 0.04574497 0.048540875
0001e0 ef 55 3b bd f1 18 ff 3d f6 70 00 be 63 f7 41 3c
       -0.04573625 0.12455929 -0.12543091 0.011838767
0001f0 b5 44 6b b9 43 e7 06 bd 80 5c 04 be 5d 04 7b 3d
       -0.00022436942 -0.032935392 -0.12925911 0.061283458
000200 60 24 9f 3d 70 28 89 3d 09 1f 84 3d 58 21 da bd
       0.0777061 0.06697166 0.06451232 -0.10650891
000210 b5 a4 00 be ad 59 14 be c1 83 fa 3d 96 cd b6 3d
       -0.12562831 -0.14487334 0.12232161 0.08925931
000220 97 a5 c1 bb 14 b1 aa bd d3 03 cd bc ca 82 4c bc
       -0.0059096324 -0.08334556 -0.025026238 -0.012482354
000230 90 2d 94 bd 92 aa f2 bc d9 0a 27 3d 62 db 37 b9
       -0.07235253 -0.02962235 0.04078183 -0.00017533966
000240 29 97 09 3c eb a5 15 3e d0 cc 17 be dc ac c7 3d
       0.008397856 0.14614074 -0.14824224 0.09749767
000250 48 78 cd bd 29 4e 9f bc 38 4d 91 bd 54 59 84 bd
       -0.100327075 -0.01944645 -0.070948064 -0.064623505
000260 08 b3 12 3e df bf a7 3c 5e 0d ec 3d 5b c7 cf 3b
       0.14326108 0.020477233 0.11525987 0.0063409037
000270 b7 01 fc 3d 35 01 f4 bd c7 f9 19 be ac 6e 51 3d
       0.123050146 -0.11914293 -0.15036689 0.051130936
000280 8f 99 0e bd 21 bc f1 3d b3 4a 9c bc 25 79 f5 3d
       -0.034814414 0.11803461 -0.019078588 0.11985997
000290 be 9b ff 3d 6a b5 05 be 77 e5 19 39 f0 31 e4 bc
       0.12480877 -0.13057485 0.000146767 -0.027855843
0002a0 2c c9 b9 bd e8 d2 0a be c5 ab bd bd 28 c5 ec 3c
       -0.090715736 -0.13557017 -0.09261278 0.028902605
0002b0 97 75 63 3d f1 67 e1 3d 83 73 07 3e 5f 94 9b bd
       0.055532064 0.110061534 0.13227658 -0.07596659
0002c0 75 39 72 bd de c5 7f bd 64 cc ab 3c 4c cb aa bd
       -0.059136827 -0.06244456 0.020971484 -0.08339557
0002d0 20 bc 49 bd 25 19 36 bd f8 b8 3c 3d 37 af dd bd
       -0.049251676 -0.044457573 0.046074837 -0.10824435
0002e0 5c 91 e8 bb 5a 10 07 b8 0e f2 08 3e c9 00 91 3d
       -0.0070974063 -3.2201737e-05 0.13373587 0.07080228
0002f0 eb 88 a5 bd ee 3e 22 bd f6 41 59 3d c5 1a 7b bb
       -0.08082756 -0.039610796 0.05304142 -0.0038315516
000300 c2 b9 1a 3c 2c 7a 1c 3e 8a 13 fe bc 1c d3 09 be
       0.009443702 0.1528098 -0.031015176 -0.13459438
000310 9c 4b f7 bd d9 dd 32 bb c9 6b 17 3e 77 aa a2 3d
       -0.12074968 -0.0027292876 0.1478721 0.0794267
000320 af 22 a3 3d d9 72 6b 3d 79 1e 5c bd 12 25 38 bd
       0.079656 0.057482574 -0.05374 -0.044957228
000330 c5 52 d5 bd 16 34 9f bd 96 51 07 be 1b d7 f2 bd
       -0.10416178 -0.077736065 -0.13214716 -0.11857434
000340 fd 69 39 3a e6 e4 6c bd ac 55 f1 bd 13 4b 02 bd
       0.00070729834 -0.057835482 -0.11783919 -0.031809878
000350 74 7e f8 bd 91 50 e0 3d c2 0f d4 3d 6c da 8f bd
       -0.12133494 0.10952867 0.10354568 -0.070240825
000360 8a f9 76 3d 9e 05 36 39 20 04 82 bc 24 c3 ee bd
       0.060296573 0.00017358965 -0.015871108 -0.11658314
000370 bd 3e bf 3d d3 50 df bd d2 7a 1a 3b 95 92 ea bc
       0.09338138 -0.10904088 0.0023571742 -0.028634349
000380 53 08 03 be 69 0e 5f 3d 68 2b ef bd b1 91 24 b8
       -0.12796144 0.054457102 -0.11678201 -3.9236333e-05
000390 a5 f1 fe 3c 52 c9 d1 3c b6 a1 a3 bd 80 bb 73 3d
       0.031121084 0.025608692 -0.07989828 0.059504986
0003a0 59 fa 8d bd 8c 20 e5 3c 3d d2 20 be f4 2c fa bd
       -0.06932516 0.027969621 -0.157052 -0.122156054
0003b0 7d ef fb 3d ad 6b 50 bb 4a a2 dd 3d 34 69 1c 3c
       0.12301538 -0.003180246 0.1082197 0.009546567
0003c0 ed ed 0d be 39 3f 78 bd d5 01 c9 bd 45 c2 88 3c
       -0.13860293 -0.06060717 -0.098148026 0.016694197
0003d0 e5 a0 05 bd dd 84 e4 3d 68 1a c5 bd 63 cc 1a 3e
       -0.032624144 0.11158154 -0.09624177 0.1511703
0003e0 93 bc d3 3d 0d f5 59 3d 19 aa a6 3b a3 cb 84 b9
       0.10338702 0.053212214 0.005086195 -0.00025328723
0003f0 c0 6f 1e be 0a 12 c2 bd e0 9c c1 3d 95 2c 90 3d
       -0.15472317 -0.09476097 0.0945375 0.07039753

convs.0.lin_dst.weight f4 [256, 6]
000000 74 53 43 bd 84 c7 3d bd 17 3f 10 3d 7e ac a8 bd
       -0.04768701 -0.04633285 0.035216417 -0.08236025
000010 f4 ca bd 3d 70 39 5c 39 63 ff ce 3d 35 b1 df 3d
       0.09267226 0.00021002232 0.10107305 0.109224714
000020 71 5a 5c bd ea ee 81 bd 6f d3 45 3d 47 aa 71 3d
       -0.05379719 -0.06344397 0.048297342 0.05900028
000030 3e d0 23 bd fd 27 be bd a9 cf 0b 3e cc 98 0a 3e
       -0.039993517 -0.09284971 0.13653435 0.1353485
000040 da 77 d7 bd 0c f2 d0 3c 8e 49 09 3e 51 45 23 3c
       -0.10520907 0.025506042 0.13406965 0.009965257
000050 60 de ba 3d 5f 41 db 3d c1 00 de bd 3f 13 cc 3d
       0.09124446 0.10705828 -0.108399875 0.099646084
000060 e3 88 9f bd 9b 3d c6 3d 26 79 47 3d ed f8 68 bd
       -0.07789781 0.09679719 0.04869952 -0.05687802
000070 88 9d d2 bc de 99 b0 3c ab 36 2f 3d a5 20 49 bd
       -0.025709882 0.021557745 0.042776745 -0.049103398
000080 39 ee 8b bd 8d c0 cc 3d f6 8d df bd c3 06 a0 3d
       -0.06832547 0.09997664 -0.10915749 0.0781379
000090 2f 4d 86 bd dc 74 ae bd 75 bc 57 bd 5f 00 e8 3d
       -0.0655769 -0.08518383 -0.05266996 0.11328196
0000a0 6f ed f6 3c b8 79 3b bd 7b d2 c7 3d fd f0 c5 bd
       0.030142514 -0.045770377 0.09756943 -0.096651055
0000b0 7d 7d e6 bd df 0b 0a 3e 8d 7e e3 bd ce e8 c0 3d
       -0.11254404 0.13481091 -0.11108122 0.09419404
0000c0 96 59 0d be 8e 03 85 3d 26 07 cb 3d 95 1b 1b 3c
       -0.13803706 0.06494819 0.09913473 0.009467025
0000d0 af 0d ac 3b a8 f9 e8 bd d2 88 57 bd a9 ab ab bc
       0.0052506546 -0.11375743 -0.052620716 -0.020955877
0000e0 6d 71 ed 3d 99 21 e8 3d e6 88 ff 3c 96 77 e0 3d
       0.115939 0.11334533 0.031193208 0.10960309
0000f0 62 73 c0 3d 12 ec 14 be ee 93 74 bc cc d8 3c bd
       0.093970075 -0.14543179 -0.014927847 -0.04610519
000100 90 e0 e0 bd 72 d9 ff 3c f7 8d b8 3d 34 d6 42 3d
       -0.10980332 0.031231616 0.09011453 0.04756756
000110 b9 69 96 3d ac e3 d8 3d ee 57 1d b9 6b 5b df bd
       0.07344384 0.105903 -0.00015005443 -0.109061085
000120 f5 aa 7e 3d 0a 81 1b be 39 87 05 3e 95 87 6a bd
       0.062174756 -0.15185943 0.13039865 -0.057258207
000130 76 0f 18 b8 1b f6 67 3b 38 83 16 bd 9a 62 fe 3d
       -3.6254023e-05 0.0035394493 -0.036746234 0.124211505
000140 f2 07 bc bd 46 21 07 be ae 89 ff 36 9f ee 27 3a
       -0.09181203 -0.13196287 7.6156202e-06 0.0006406102
000150 bd 66 b7 bd 42 38 be bd c1 70 a9 3d 17 eb f0 bc
       -0.08955143 -0.09288074 0.08273459 -0.029408975
000160 c3 29 49 bd c4 5e b4 3c 16 40 93 3b 7e 74 b4 3d
       -0.049112093 0.022017844 0.0044937236 0.088112816
000170 79 b3 9e 3c 9f b8 e0 3d 4d 2c d9 bd ec 26 98 ba
       0.019372689 0.10972714 -0.10604153 -0.0011608279
000180 56 87 25 bd 08 7d 07 bd a7 e3 f3 bd 5b f2 bb bd
       -0.04041227 -0.033078223 -0.119086556 -0.09177085
000190 f2 c0 a4 ba b1 6e 24 3d 03 57 9b 3d de bd 59 bd
       -0.0012569709 0.040144626 0.075849555 -0.053159587
0001a0 46 f6 9d 3d 01 6c a3 3d a2 ec e6 bc f6 a4 aa 3d
       0.077129886 0.079795845 -0.028189007 0.08332245
0001b0 03 1b bd 3d f7 ca 52 3d 5a eb 10 be 99 9f 01 3e
       0.09233668 0.051463094 -0.1415228 0.12658538
0001c0 94 a3 01 3d d8 f3 80 bc 23 eb 24 3d 92 92 81 3b
       0.03165014 -0.015741274 0.040263306 0.00395424
0001d0 a4 c4 e7 bd b6 8d f2 bc 14 5f 3b 3d cc d2 46 3d
       -0.11316803 -0.029608589 0.04574497 0.048540875
0001e0 ef 55 3b bd f1 18 ff 3d f6 70 00 be 63 f7 41 3c
       -0.04573625 0.12455929 -0.12543091 0.011838767
0001f0 b5 44 6b b9 43 e7 06 bd 80 5c 04 be 5d 04 7b 3d
       -0.00022436942 -0.032935392 -0.12925911 0.061283458
000200 60 24 9f 3d 70 28 89 3d 09 1f 84 3d 58 21 da bd
       0.0777061 0.06697166 0.06451232 -0.10650891
000210 b5 a4 00 be ad 59 14 be c1 83 fa 3d 96 cd b6 3d
       -0.12562831 -0.14487334 0.12232161 0.08925931
000220 97 a5 c1 bb 14 b1 aa bd d3 03 cd bc ca 82 4c bc
       -0.0059096324 -0.08334556 -0.025026238 -0.012482354
000230 90 2d 94 bd 92 aa f2 bc d9 0a 27 3d 62 db 37 b9
       -0.07235253 -0.02962235 0.04078183 -0.00017533966
000240 29 97 09 3c eb a5 15 3e d0 cc 17 be dc ac c7 3d
       0.008397856 0.14614074 -0.14824224 0.09749767
000250 48 78 cd bd 29 4e 9f bc 38 4d 91 bd 54 59 84 bd
       -0.100327075 -0.01944645 -0.070948064 -0.064623505
000260 08 b3 12 3e df bf a7 3c 5e 0d ec 3d 5b c7 cf 3b
       0.14326108 0.020477233 0.11525987 0.0063409037
000270 b7 01 fc 3d 35 01 f4 bd c7 f9 19 be ac 6e 51 3d
       0.123050146 -0.11914293 -0.15036689 0.051130936
000280 8f 99 0e bd 21 bc f1 3d b3 4a 9c bc 25 79 f5 3d
       -0.034814414 0.11803461 -0.019078588 0.11985997
000290 be 9b ff 3d 6a b5 05 be 77 e5 19 39 f0 31 e4 bc
       0.12480877 -0.13057485 0.000146767 -0.027855843
0002a0 2c c9 b9 bd e8 d2 0a be c5 ab bd bd 28 c5 ec 3c
       -0.090715736 -0.13557017 -0.09261278 0.028902605
0002b0 97 75 63 3d f1 67 e1 3d 83 73 07 3e 5f 94 9b bd
       0.055532064 0.110061534 0.13227658 -0.07596659
0002c0 75 39 72 bd de c5 7f bd 64 cc ab 3c 4c cb aa bd
       -0.059136827 -0.06244456 0.020971484 -0.08339557
0002d0 20 bc 49 bd 25 19 36 bd f8 b8 3c 3d 37 af dd bd
       -0.049251676 -0.044457573 0.046074837 -0.10824435
0002e0 5c 91 e8 bb 5a 10 07 b8 0e f2 08 3e c9 00 91 3d
       -0.0070974063 -3.2201737e-05 0.13373587 0.07080228
0002f0 eb 88 a5 bd ee 3e 22 bd f6 41 59 3d c5 1a 7b bb
       -0.08082756 -0.039610796 0.05304142 -0.0038315516
000300 c2 b9 1a 3c 2c 7a 1c 3e 8a 13 fe bc 1c d3 09 be
       0.009443702 0.1528098 -0.031015176 -0.13459438
000310 9c 4b f7 bd d9 dd 32 bb c9 6b 17 3e 77 aa a2 3d
       -0.12074968 -0.0027292876 0.1478721 0.0794267
000320 af 22 a3 3d d9 72 6b 3d 79 1e 5c bd 12 25 38 bd
       0.079656 0.057482574 -0.05374 -0.044957228
000330 c5 52 d5 bd 16 34 9f bd 96 51 07 be 1b d7 f2 bd
       -0.10416178 -0.077736065 -0.13214716 -0.11857434
000340 fd 69 39 3a e6 e4 6c bd ac 55 f1 bd 13 4b 02 bd
       0.00070729834 -0.057835482 -0.11783919 -0.031809878
000350 74 7e f8 bd 91 50 e0 3d c2 0f d4 3d 6c da 8f bd
       -0.12133494 0.10952867 0.10354568 -0.070240825
000360 8a f9 76 3d 9e 05 36 39 20 04 82 bc 24 c3 ee bd
       0.060296573 0.00017358965 -0.015871108 -0.11658314
000370 bd 3e bf 3d d3 50 df bd d2 7a 1a 3b 95 92 ea bc
       0.09338138 -0.10904088 0.0023571742 -0.028634349
000380 53 08 03 be 69 0e 5f 3d 68 2b ef bd b1 91 24 b8
       -0.12796144 0.054457102 -0.11678201 -3.9236333e-05
000390 a5 f1 fe 3c 52 c9 d1 3c b6 a1 a3 bd 80 bb 73 3d
       0.031121084 0.025608692 -0.07989828 0.059504986
0003a0 59 fa 8d bd 8c 20 e5 3c 3d d2 20 be f4 2c fa bd
       -0.06932516 0.027969621 -0.157052 -0.122156054
0003b0 7d ef fb 3d ad 6b 50 bb 4a a2 dd 3d 34 69 1c 3c
       0.12301538 -0.003180246 0.1082197 0.009546567
0003c0 ed ed 0d be 39 3f 78 bd d5 01 c9 bd 45 c2 88 3c
       -0.13860293 -0.06060717 -0.098148026 0.016694197
0003d0 e5 a0 05 bd dd 84 e4 3d 68 1a c5 bd 63 cc 1a 3e
       -0.032624144 0.11158154 -0.09624177 0.1511703
0003e0 93 bc d3 3d 0d f5 59 3d 19 aa a6 3b a3 cb 84 b9
       0.10338702 0.053212214 0.005086195 -0.00025328723
0003f0 c0 6f 1e be 0a 12 c2 bd e0 9c c1 3d 95 2c 90 3d
       -0.15472317 -0.09476097 0.0945375 0.07039753

convs.1.att_src f4 [1, 4, 64]
000000 e4 78 11 3e 77 44 9e 3b d0 0c 35 be d4 03 6e be
       0.14206272 0.004829939 -0.17680669 -0.23243648
000010 30 72 27 be 47 f6 8f be 93 6a 87 be 67 89 18 3d
       -0.16352153 -0.28117582 -0.26448497 0.037240412
000020 7a 11 64 be 69 f5 bd 3d 3a 79 95 bd 3f b2 66 be
       -0.22272292 0.09275324 -0.07298513 -0.22528933
000030 b2 72 37 3d fe c9 3a 3e 0d 09 9b 3e 3e b3 21 be
       0.044787116 0.18241116 0.30280343 -0.15791032
000040 2e af 63 3e b9 2a 17 3e b1 82 50 3d 81 e6 dc 3d
       0.22234794 0.14762391 0.050905887 0.10786153
000050 b1 16 e6 bd 0f f2 3c 3e 57 15 8b bd cd f8 3b be
       -0.11234797 0.18451713 -0.067911796 -0.18356629
000060 56 4d 37 be 9c d2 14 3e 2a d5 c1 bd 83 98 a5 bc
       -0.17900595 0.14533466 -0.09464486 -0.020214325
000070 a6 01 ea bc 21 fe f1 bd b9 ca 29 3e 2f 09 63 3e
       -0.02856524 -0.11816049 0.16581239 0.22171472
000080 8d b8 58 be 4c 11 18 be 44 98 27 be 91 70 70 3e
       -0.2116415 -0.14850348 -0.16366678 0.2348044
000090 27 1b 35 bc 83 db f3 bd c7 2b d5 3d 7d f5 4c 3e
       -0.011053837 -0.11907103 0.104087405 0.20015521
0000a0 b6 6d 67 bd bc cd 75 be 39 84 5f bd 5e 50 00 be
       -0.056501113 -0.24004263 -0.054569457 -0.12530658
0000b0 8d 94 8c bd b4 71 9c bd 8e 43 cb bd 86 f7 74 3e
       -0.06864271 -0.07638875 -0.099249944 0.23922548
0000c0 9f be 34 3e 35 88 ca 3d 06 e0 10 be 34 33 96 3e
       0.17650841 0.09889261 -0.14147958 0.2933594
0000d0 bb 0f cf bd c1 a1 f9 bc 83 1f 08 3e 42 cc 72 3e
       -0.10110422 -0.030472638 0.13293271 0.2371073
0000e0 fe 16 19 be 17 82 39 3e 91 2f 97 3e 6d 18 e5 bd
       -0.14950177 0.18116032 0.29528478 -0.111862995
0000f0 9e 3c 19 be 24 b9 6a 3e a5 46 91 3e b9 4f c5 3d
       -0.1496453 0.22922188 0.2837421 0.096343465
000100 36 9b 56 bd 91 29 07 3d 33 c4 bc bc b0 29 07 3d
       -0.052394114 0.032998625 -0.023042774 0.03299874
000110 08 a7 ad bd f5 58 89 be 7a a0 2f bd 77 1c a8 bd
       -0.08479124 -0.2682568 -0.04287765 -0.08208554
000120 1a ff 96 be 5a 9a f5 3c a0 cd 00 be db 94 58 bd
       -0.29491502 0.029980827 -0.1257844 -0.052876335
000130 46 94 31 3e 84 f5 3f be f1 e5 10 be 9a d1 34 bc
       0.17341718 -0.18746 -0.14150216 -0.011036301
000140 89 bf a9 3d fe 9b 2f bb f1 75 8c 3e cd 39 aa bb
       0.082884856 -0.002679586 0.27433732 -0.0051948787
000150 cb 26 2e 3e 5b 51 74 bd 2f 02 84 3c e1 ee 4e 3d
       0.17006986 -0.0596479 0.016114322 0.05052078
000160 11 78 86 bd a2 00 29 3e 57 45 41 3e c4 ed 6e 3e
       -0.065658696 0.16504148 0.18874107 0.23332888
000170 58 b3 88 3e 01 f9 d8 bb a7 be 92 3e db b1 79 be
       0.26699328 -0.0066214805 0.2866108 -0.24384253
000180 fe 02 14 3b 71 ec 8e bd ff c9 85 3e dc 52 50 3e
       0.0022584791 -0.06978691 0.26130673 0.20344108
000190 b4 b1 8c bd ec 8c 6b 3e dd 53 eb bd 6f 61 72 be
       -0.06869832 0.23002976 -0.11490605 -0.2366998
0001a0 17 60 e7 3c 48 d7 b9 bc 2e 86 e7 3a 05 f1 91 be
       0.028244061 -0.022685662 0.001766389 -0.28504196
0001b0 59 07 96 be 75 a1 f3 bd 57 12 64 be ef 7a db bd
       -0.2930248 -0.1189603 -0.22272621 -0.10716807
0001c0 5a cf 9f bd cc 26 11 be ba 09 47 3d d0 01 93 3e
       -0.07803221 -0.14174956 0.04859326 0.2871232
0001d0 4c f7 48 3e ed 06 14 be 54 b8 52 bd 4f 1d 04 be
       0.19625586 -0.14455767 -0.05144532 -0.12901805
0001e0 d0 28 91 3e 72 42 ff 3d f3 ca 9c 3c fc 4a 39 be
       0.2835145 0.12463845 0.019139742 -0.1809501
0001f0 d9 7d 90 3e b5 5e 76 be 49 07 97 be bb 6f 82 3d
       0.28221014 -0.24059565 -0.29497746 0.06368967
000200 84 b8 04 3b 1f cc 33 3c 72 8a 97 be 97 dd 14 bc
       0.0020251581 0.010973959 -0.29597813 -0.009086034
000210 d7 be 0f 3e 3d ea 4b 3c 28 71 9f bd 56 d5 17 3b
       0.14037643 0.0124459835 -0.07785255 0.002316793
000220 d4 01 81 bd 67 59 89 be 63 30 63 be 15 f6 d9 3d
       -0.06299177 -0.2682602 -0.22186427 0.106426395
000230 47 71 4a be ae 65 84 3e 1c fe 1e be d5 2b 7f be
       -0.19769774 0.25858825 -0.15526623 -0.24919064
000240 e1 45 8e 3e 7e 76 de bd 57 c6 58 be 36 40 00 3e
       0.27787688 -0.10862444 -0.2116941 0.12524495
000250 ae 07 e4 bd f9 16 93 bd 10 40 11 be 5c 84 67 3d
       -0.11134277 -0.07182116 -0.14184594 0.056522712
000260 0d 15 0f 3e 4f c0 5c 3e 63 9b 94 3d fb 15 8e be
       0.13972874 0.21557735 0.072562 -0.27751145
000270 e5 3c 03 be b3 d1 4a be 97 3a 60 be d2 2f 31 3e
       -0.12816198 -0.19806556 -0.2189735 0.17303398
000280 83 ef f0 bc 30 86 cc 3d 95 a2 75 be f5 fd 46 be
       -0.029411083 0.09986532 -0.23987801 -0.19432814
000290 d9 b5 77 3e 9b 11 28 3e bf b6 29 3e 53 03 7d 3d
       0.24190463 0.16412966 0.16573618 0.06177075
0002a0 ab 9a 70 3e 07 e3 49 3e 19 21 a0 bc 48 c1 8c 3e
       0.23496501 0.1971551 -0.019547032 0.27491212
0002b0 67 c5 98 3c 61 d8 4e bd fd dd e1 3d 4a ee 7a bd
       0.018648816 -0.050499324 0.11028669 -0.061262406
0002c0 39 ef 51 3e 6d 4b 6c 3e 58 8e bb 3d 81 e5 35 be
       0.20501412 0.23075648 0.09158009 -0.1776333
0002d0 bd a6 02 be fd af 25 3e 1c 5f 3c be c5 9c 29 3e
       -0.12758918 0.16180415 -0.18395656 0.16563709
0002e0 dc cc 96 be a2 08 46 3c be 62 0f be 17 66 15 3d
       -0.2945317 0.012087019 -0.14002511 0.036474314
0002f0 6e 42 e7 bd 18 56 6a 3e b5 41 eb 3c 0a d8 29 be
       -0.11291967 0.22884405 0.028717855 -0.16586319
000300 fd 51 dc 3d 9b 97 5c 3e f6 ba 57 bd c1 b1 54 bd
       0.107578255 0.21542208 -0.052668534 -0.05192733
000310 68 21 0f be 03 0a d4 bd 28 0c 60 3e eb d8 61 be
       -0.13977587 -0.10353472 0.21879637 -0.22055404
000320 8b 4e 89 3e 5e 26 2c 3e a8 91 c1 bd d9 25 33 bd
       0.26817736 0.16811511 -0.0945161 -0.043737266
000330 f7 af 12 3e 59 dc 45 be 27 d2 00 be 3b f1 65 be
       0.14324938 -0.19322337 -0.12580167 -0.22455303
000340 ef 51 2e 3d b9 fe 5d be 12 11 59 3e 78 f0 69 3e
       0.042558607 -0.216792 0.21197918 0.22845638
000350 45 07 a2 3d 8f 2b 2d 3d 7c de 7e 3d 21 87 0b 3e
       0.07911543 0.04227787 0.062223896 0.13625766
000360 14 e3 ec 3d 6d 2e 19 bd c1 2d 4a be 5d ec 2b 3e
       0.11566749 -0.03739779 -0.19744016 0.16789384
000370 69 9c 14 bc b5 dd 97 bd 8d c7 d6 bd a8 4d 2b 3e
       -0.009070494 -0.07415334 -0.1048728 0.16728842
000380 0a 25 f7 3c 57 20 64 be ab 36 25 be 29 9c 3a be
       0.030169029 -0.22277962 -0.16134135 -0.18223633
000390 85 78 c2 3d a5 64 46 be f1 d1 8c 3e b6 7b 25 be
       0.094956435 -0.1937433 0.27503923 -0.16160473
0003a0 fc 08 0f 3e a5 77 15 bc db 46 c0 3d a7 e3 1d 3c
       0.13968271 -0.009122764 0.093885146 0.009636796
0003b0 4a 48 14 3e 29 da 15 be 4a 2d 09 3e a2 df 50 3e
       0.14480701 -0.14634003 0.13396183 0.20397809
0003c0 e5 b6 02 3e 75 08 57 bd 16 db 8c 3e c4 59 80 3e
       0.12765081 -0.0524983 0.275109 0.25068486
0003d0 79 4f 85 3e 27 bd e6 bd a1 43 d1 3d bf 7d 41 be
       0.26037195 -0.11266547 0.10217977 -0.18895625
0003e0 fa ff 94 bd 1e 77 8c be 6c 13 7b bd a6 6d aa 3d
       -0.07275386 -0.2743463 -0.06129782 0.08321695
0003f0 8a 7e 93 be 81 17 9b bd be 9c 6e be 82 c1 ec 3d
       -0.2880748 -0.075728424 -0.2330198 0.11560346

convs.1.att_dst f4 [1, 4, 64]
000000 33 43 e2 3c bd 9c 3f be 3a 07 90 3e 5d c9 74 3e
       0.027619934 -0.18712135 0.28130513 0.23904939
000010 19 a4 23 3e 6d 83 62 bd 12 47 eb bd 11 c1 86 be
       0.15980567 -0.05530112 -0.11488165 -0.26319173
000020 98 45 58 3d f2 40 33 bb da ab 3c be 14 95 80 3e
       0.052800745 -0.0027351943 -0.18424931 0.25113738
000030 2c 9a 1b be 48 23 8e be d4 4e 7f be 89 f4 53 3e
       -0.1519553 -0.27761292 -0.24932414 0.20698752
000040 7d c7 15 be dd 63 63 3c 48 e1 cc 3d 30 7f 96 be
       -0.1462688 0.01387879 0.100039065 -0.2939391
000050 10 13 f6 bd 54 37 78 3d 75 aa 26 bd 6c 27 a6 3d
       -0.12015355 0.06059964 -0.040689904 0.08112988
000060 cb 04 fb 3d f7 49 a3 3d 05 b1 b3 bd d3 b6 cf bd
       0.122567736 0.07973092 -0.08773998 -0.10142293
000070 5c 38 84 3e 8c a4 c8 bd 62 42 ca bc 61 4a 1d be
       0.2582425 -0.0979701 -0.024689857 -0.15360405
000080 fa 13 71 bd 7c 2c b7 3d 26 dd 8e 3e c8 e2 81 be
       -0.05885694 0.089440316 0.27903098 -0.25368333
000090 88 cb 95 be 93 e0 3a be 7e 62 dc 3d e4 6d 71 3e
       -0.29256845 -0.18249731 0.107609734 0.23577076
0000a0 a6 60 65 be b0 b6 34 3e c5 2d 24 be b5 c4 b8 bc
       -0.2240015 0.17647815 -0.16033085 -0.022554735
0000b0 ae 12 af 3d 02 b8 0f 3d ca 7f 5c bc 2d 4f 91 3e
       0.08548485 0.035087593 -0.013458202 0.2838072
0000c0 77 2d 6a 3d 9e c4 14 3e 1a 14 2e 3e 77 af b3 bd
       0.057172265 0.14528129 0.16999856 -0.08773702
0000d0 b7 d7 80 3e 82 73 0d be d3 99 c4 3b 5c ee 77 3e
       0.25164577 -0.13813594 0.0059997826 0.2421202
0000e0 63 f6 58 3e 0a 1b 8d 3e 9f 5d 5f 3e 88 0c 8d be
       0.21187739 0.27559692 0.21813057 -0.27548623
0000f0 8d e9 df 3d 5f 17 1d bd 85 e5 34 3e fd 13 0f bc
       0.10933218 -0.038352367 0.1766568 -0.008732793
000100 9d 48 81 be a6 13 92 be ff 19 5d be 1b 29 7c be
       -0.25250712 -0.28530616 -0.21591948 -0.24625055
000110 40 45 6e be 12 2f 39 3e 65 68 90 3e bc 56 90 3e
       -0.23268604 0.18084362 0.28204647 0.28191173
000120 78 0e db 3d 37 e6 3d 3d 54 d9 41 be 6e 26 48 be
       0.10696119 0.046362128 -0.1893056 -0.1954591
000130 22 41 86 be 86 3c 21 be 98 71 8e be b5 49 59 3e
       -0.26221567 -0.15745744 -0.2782104 0.21219523
000140 9a 8a 8f be e0 74 03 3e 5b 2b 4a 3e 1d 7f 73 3e
       -0.28035432 0.12837553 0.19743101 0.23778959
000150 7e 51 26 be 70 69 c3 3d 01 fb 8a bc d0 5a 90 be
       -0.16242024 0.09541595 -0.016965391 -0.28194284
000160 4f 9e 1e be 95 0e 88 bd 82 31 14 3e 7d 10 36 be
       -0.15490077 -0.06643406 0.1447201 -0.17779727
000170 99 e2 54 3e c5 cf 3d be 48 eb cc bb 06 d7 89 3e
       0.20789565 -0.18536289 -0.0062536336 0.26921862
000180 49 6f b9 bd 86 e0 22 3e ee a9 95 3e 46 f3 51 be
       -0.09054429 0.15905961 0.2923121 -0.20502958
000190 15 f3 f3 3d 65 e4 17 be 14 11 81 3e a1 88 13 3c
       0.119115986 -0.1483322 0.25208342 0.009004743
0001a0 9b 89 53 be 66 56 1b 3e 0b 28 13 3e 8a d7 26 3e
       -0.20657961 0.15169677 0.14370744 0.16293159
0001b0 ec ad 96 3e 5e 0a eb 3d 25 ce 6c bd b7 8b f3 bd
       0.29429567 0.11476587 -0.057813782 -0.11891883
0001c0 65 3f c5 bd 99 83 73 be 0b 7e ed 3d 1a 99 84 3e
       -0.09631232 -0.2378067 0.115963064 0.25898057
0001d0 0b 04 08 3e 4d 50 66 3e d7 09 90 be bd 8d d1 bd
       0.13282792 0.2249157 -0.28132507 -0.102321126
0001e0 b1 98 f9 3d 05 01 2f 3e b8 2a 3e 3e 0f c6 28 3e
       0.12187327 0.17090233 0.18570983 0.16481803
0001f0 17 36 19 be 02 c4 f3 3d 9e 12 61 3e 20 75 d8 bd
       -0.1496204 0.1190262 0.21979758 -0.10569215
000200 97 89 03 3c 47 d4 8e be a2 ec 26 be bb d1 61 be
       0.008028409 -0.2789633 -0.16301206 -0.22052662
000210 ec 58 65 be 80 f7 a0 bd 0b 62 8f 3c 6b 04 37 be
       -0.22397202 -0.07859707 0.017502805 -0.17872779
000220 e2 bd 25 3b 29 2b e6 3d f2 e1 f8 bd 93 8d 2a 3d
       0.002529018 0.11238701 -0.12152471 0.041638922
000230 87 48 ea 3d 05 32 ec 3d 8d d5 26 be bf b9 80 3e
       0.11439615 0.11532978 -0.162924 0.25141713
000240 c3 ea 0c be bd bd d1 3d b4 4e f9 bd 50 0e 24 be
       -0.1376143 0.10241268 -0.121732146 -0.16021085
000250 1e 26 fb 3d 35 6b 07 bd ed fa 33 be a1 06 ac 3c
       0.1226313 -0.033061225 -0.1757619 0.020999255
000260 fc ca 18 be 92 c3 64 3e a4 8d 88 be 4d 2f 6d be
       -0.14921182 0.22340229 -0.26670563 -0.23162575
000270 3d 72 7f bc ee 26 8d 3e b9 92 48 3e e8 7b 5e 3e
       -0.015591201 0.27568763 0.1958722 0.21726954
000280 29 2f 32 3e 51 55 0e be 63 a3 69 3d e7 aa 3e 3d
       0.17400803 -0.13899733 0.057040583 0.046549704
000290 a3 c8 1c be c3 3c f0 3d 34 4b 79 be b7 39 92 be
       -0.15310912 0.117303394 -0.24345094 -0.28559658
0002a0 fc 5e 8b be 50 9d ef bb 8b 7f 36 be ea aa 3a 3e
       -0.27220905 -0.0073124543 -0.17822091 0.18229261
0002b0 05 25 5f 3e 3e 71 07 3d 5b d2 b2 3d 7d 53 01 3e
       0.21791466 0.03306698 0.08731528 0.12629505
0002c0 cf dc 20 3e 80 30 67 3e 23 fb 86 3e 43 7e ff bd
       0.15709232 0.22577095 0.26363477 -0.124752544
0002d0 60 91 e8 bd 29 47 1e be 9f ea 79 be a1 26 29 3e
       -0.11355853 -0.15456833 -0.24405907 0.16518642
0002e0 25 00 36 3e 2f 6e 83 3e 15 d9 02 3e af 31 73 3e
       0.17773493 0.2567 0.12778123 0.23749422
0002f0 ee 3a f9 3c 10 34 3e 3e 16 3b 49 be a8 87 63 be
       0.030423608 0.18574548 -0.19651446 -0.22219718
000300 5c d5 2d be 25 16 e9 bc 26 bb 18 3e 1f 89 5a bd
       -0.16975921 -0.028452942 0.14915141 -0.053353425
000310 d5 24 62 3e c9 c3 7f be f3 34 2b 3d ac 6f 0a 3e
       0.22084363 -0.2497703 0.041798543 0.13519162
000320 38 dd 90 be 73 a3 36 be ee cf 52 3e 14 8b 2a 3d
       -0.28293777 -0.17835788 0.20587131 0.04163654
000330 9c 46 89 3d 4d 41 4e 3e a1 2c 8c 3d 57 3e 89 3e
       0.06702921 0.20142098 0.0684445 0.26805374
000340 8e 79 93 3d 95 65 bb bc c1 01 2d be a2 2c 86 be
       0.07200919 -0.022875587 -0.168952 -0.26205927
000350 64 6e 49 3e 15 b2 8f be 1f e5 11 be fd 0b 88 be
       0.19671017 -0.28065553 -0.14247559 -0.26571646
000360 4e ae 86 3e 37 ca 83 3e d8 6c bb 3d 39 34 6d be
       0.2630486 0.25740215 0.0915162 -0.23164453
000370 78 b2 e2 bd 0f 49 33 bd 27 04 7e 3e ad 37 67 3e
       -0.110691965 -0.043770846 0.24806271 0.22579832
000380 e1 77 82 be 1e 80 ab 3d 2c 46 d5 3d ed 9c 44 3e
       -0.25482085 0.08374046 0.10413775 0.19200487
000390 3e 66 69 3e 91 6c 4a 3e 00 6e 8e be b9 6d df bd
       0.22792909 0.19767977 -0.27818298 -0.109096
0003a0 4d ec 88 3e dc 1b 6e 3d b9 31 ac ba 96 07 d6 bd
       0.26742783 0.058132038 -0.0013137377 -0.10450666
0003b0 17 e9 25 be 13 26 81 3e 26 ac 89 3e e5 f4 b1 3d
       -0.16202198 0.2522436 0.2688915 0.08689288
0003c0 19 39 86 3d a7 f5 3c 3e 20 90 44 3d c0 7f ba 3d
       0.06553859 0.18453084 0.04798901 0.09106398
0003d0 bc 14 0d bd 70 f3 84 3e 89 9a c6 3d 6d 4f 8d be
       -0.034443602 0.25966978 0.09697444 -0.2759966
0003e0 34 d1 36 be 3d c3 03 3e c4 56 c5 bd cb 48 60 bd
       -0.17853242 0.12867446 -0.0963569 -0.05475692
0003f0 1f 84 a6 3d 7b 76 2d be fb df ea 3c f6 04 eb 3c
       0.08130669 -0.16939728 0.028671255 0.028688889
