trained_weights/theia/gat6.pth (torch, 322516 bytes, 27 tensors)

convs.0.att_src f4 [1, 4, 64]
00000000: 0aa3 643e 46a1 733e a23a 193d 5a1d c13d
00000010: 5731 db3d 9f4b 553e 2ccf 14be 7f12 723e
00000020: f091 6d3e 117e e2bc 2c04 31be 0945 71be
00000030: d120 3cbb ce8e 003e f794 d3bb 9b81 533d
00000040: 8a80 f9bc 54d5 3e3e 6fc1 fcbc 3501 6c3e
00000050: b8e0 17be 5922 5d3e 9ef4 0e3d 9b37 e5bd
00000060: efa3 2bbe 1d0a 67be 5dd2 283e c9e4 693e
00000070: 26c7 5abe fded f53c 4f56 64be 4864 83be
00000080: 47cc 033e a6f0 023e 677f bfbd b0da 4ebd
00000090: e616 58bd 674d 223d 8fa3 febd 2da2 5d3e
000000a0: 5b16 5d3e df2d 6a3e 2e77 ddbd cbf1 063e
000000b0: d35b 41be c8ad 1f3e e412 853e 9920 50be
000000c0: 4d53 873e 4118 86be 2d13 253d fe90 c1bd
000000d0: 3dd3 aebd 08e0 983d 4612 f93d 1f29 17be
000000e0: 9580 ee3d 34fd 21bc 8305 7ebd de15 7c3e
000000f0: 008c 053e eef9 7bbe 2c5f 3cbd 0fbf eebd
00000100: 431a 74be fe75 683d c4a9 193e 973c 013e
00000110: 367b 5e3e 1f84 53be 67e3 163e cb28 783e
00000120: b6fa 113d dbc3 393e 52eb e93d 4528 4c3e
00000130: 2f4d e33d 829a 693e e197 953d 277b 53bd
00000140: 2eb4 30bd 178e 583e 3fa5 1dbe 08e5 eb3d
00000150: 508c 98bd 65d3 9b3d f176 88be faf6 5bbe
00000160: 73c3 4dbe 81ec 47bd 2bdb 833e e75f aebd
00000170: 2229 2c3d 53f5 60bd 0eb5 953d 3f06 5a3d
00000180: 8256 6d3e 4038 15be 705b f2bd e8ea 7d3e
00000190: 57c2 173c 480d 6f3e 773d 3a3e c6e7 81be
000001a0: 3d8e c23c b03e 163e 5e47 853e 43c9 3a3e
000001b0: 2dc0 fa3c 9b96 1ebe c116 e5bd 3285 93be
000001c0: 5584 1b3e ca8e 56be 71a4 1a3e 7a07 8e3e
000001d0: 8027 9e3d 7236 15be 2017 a03d afc9 19bd
000001e0: a02a 123e bbcf 1bbd c6bf e0bd 676b 5a3d
000001f0: 309f 63be 990d c5bb ec14 09be 5595 18be
00000200: d20c 85bb e4d3 ffbd 6e37 003e 64cc 05bc
00000210: 7a8b 353e 9720 6cbe 03d9 773e c455 c9bd
00000220: 6cd2 133e 64c0 46be de11 b93d b395 e9bc
00000230: 376b 10bd 130f 09bd 4c8f 49be 6d60 2c3e
00000240: b7e5 793e bad7 253e df06 69bd ead7 dd3c
00000250: ae5b 4e3e 199b 773e 2fc8 c0bd dbbb 76be
00000260: 18c4 473e 4ecd 0b3e e18b a73d cd73 83be
00000270: 4680 c73d edd7 25be 91ac 643e dad3 0ebe
00000280: 7adc 49be 84a1 29be 810d 69bd 82f7 60be
00000290: a09d 363e c343 2d3e ce2c 62be 4d2e 0f3e
000002a0: 87de 213e 5c97 72bd 28ac 2839 40be f63d
000002b0: 3c87 913d ead4 79bd 600b ffbd 22f9 f83c
000002c0: f55a 5d3e 9195 803e df76 69be 2f04 4cbe
000002d0: af6a 283e cc28 3cbe f29d 19bd b2ff aa3d
000002e0: b140 f93d e1fe cd3c 6125 1bbd 556f 663e
000002f0: 0661 14be 5ed6 50be d791 b53c 098f 32be
00000300: 9ac2 49bd 37ee 6cbe 873b 833e e943 353e
00000310: 24fb a93d 3953 f83d 2a5d 1cbe bf6e a73d
00000320: 3949 4ebe 10cf 6fbc ff0a 7d3e ed03 abbd
00000330: f228 bfbd 4b3e 7dbe d131 bdbd 254c 213e
00000340: 3575 123e d31f 903e f3bd 2c3e 812b 203d
00000350: 60fb 6ebe a4a1 7d3e deae 123e 909c 1abd
00000360: 7045 ba3d c41c d83d 8d0e 08be e0e3 973d
00000370: 7629 04be e912 d0b9 cded 82be f0a6 833e
00000380: 49d4 0dbe fd42 103e edee ab3d 53fb 6dbe
00000390: 7198 763e d35e c6bc 4011 843e 9149 1f3e
000003a0: ee0c 493b d15b 533e cb73 533e 1d55 85bd
000003b0: 6ebf d43c 7e55 373e b87b 8dbe dc40 17be
000003c0: 7730 c23d d7f7 313e b0f6 a93d 3763 4ebe
000003d0: 285e e2bd 1c86 1ebc 8e82 893e b47b 44be
000003e0: ec64 693a c44d f73c 4b09 80be ec45 863e
000003f0: cda9 73be 64e2 20be 2996 eabd 2c3b 92bd
0.2232782 0.2379199 0.037409432 0.094294265 0.1070277 0.20829628 -0.14532155 0.23639868
0.23200202 -0.027648004 -0.17286748 -0.23561491 -0.0028706084 0.12554476 -0.006456967 0.051637273
-0.0304568 0.18636066 -0.030853955 0.23047335 -0.14831817 0.21595134 0.034901254 -0.111922465
-0.16761754 -0.22562452 0.16486497 0.22841181 -0.21365032 0.030020708 -0.22298549 -0.25662446
0.12870894 0.12787113 -0.09350472 -0.050501525 -0.052756213 0.039624598 -0.1243354 0.21643896
0.21590559 0.22869061 -0.10813747 0.13178174 -0.18882684 0.15593636 0.25990975 -0.20324935
0.2643074 -0.2619038 0.04030149 -0.09451483 -0.08536384 0.074646056 0.121616885 -0.1476178
0.11645619 -0.0098870285 -0.062016975 0.24617717 0.13041687 -0.2460706 -0.0459892 -0.11657535
-0.23838143 0.05675315 0.15006167 0.1262077 0.21726689 -0.20655869 0.14735185 0.24234311
0.035639487 0.18141119 0.11421837 0.19937237 0.11098706 0.22812846 0.07304359 -0.05163112
-0.043140583 0.21147953 -0.15395068 0.115182936 -0.074486375 0.0760868 -0.26653245 -0.21480933
-0.20094089 -0.048809532 0.2575315 -0.08514386 0.042031415 -0.05492146 0.07309924 0.053228613
0.23177531 -0.14572239 -0.118338466 0.24796641 0.009262643 0.2334491 0.1818751 -0.25372142
0.023749465 0.14672351 0.2603101 0.18240838 0.030609215 -0.15487139 -0.111859806 -0.28812557
0.151872 -0.20952907 0.15101792 0.2774008 0.07722378 -0.1457155 0.07816911 -0.037545856
0.14274073 -0.038039904 -0.10974078 0.053325083 -0.22228694 -0.006013584 -0.13386887 -0.14900716
-0.004060366 -0.12491587 0.12521145 -0.008166406 0.17728987 -0.23059307 0.24203877 -0.098308116
0.14435738 -0.19409329 0.09036611 -0.028513765 -0.035258498 -0.03346164 -0.1968357 0.16833659
0.24404036 0.16195574 -0.05689132 0.027080495 0.2015216 0.24180259 -0.09413182 -0.24095099
0.19508398 0.13652536 0.08180977 -0.25674286 0.09741263 -0.1619565 0.22331454 -0.13948002
-0.19713011 -0.1656552 -0.056897644 -0.21969417 0.17833567 0.1692038 -0.22087404 0.13982506
0.15807544 -0.05922638 0.00016085862 0.12048006 0.07105872 -0.060994066 -0.124533415 0.030392233
0.21616729 0.2511411 -0.22799252 -0.19923471 0.16446947 -0.18374938 -0.037504144 0.08349551
0.12170542 0.02514595 -0.037877444 0.22503407 -0.14490137 -0.20394275 0.022164268 -0.17437376
-0.049257852 -0.23137747 0.25631353 0.17701687 0.082998544 0.121252485 -0.15269914 0.0817542
-0.2014512 -0.01463677 0.24711226 -0.08350358 -0.093339816 -0.24730794 -0.09238017 0.15751703
0.14302523 0.2814928 0.16869335 0.03910399 -0.2333808 0.24768692 0.14324519 -0.037746966
0.090952754 0.105523616 -0.132868 0.074165106 -0.12906441 -0.0003968694 -0.25572053 0.257133
-0.13850512 0.14088054 0.08395181 -0.23240404 0.2408159 -0.024215138 0.2579441 0.15555407
0.0030677873 0.20640494 0.2064964 -0.06510375 0.025970187 0.17903706 -0.27633452 -0.14770836
0.094819 0.173797 0.08299005 -0.20155035 -0.11053115 -0.009675529 0.26857418 -0.19187814
0.0008903283 0.030188449 -0.2500709 0.2622522 -0.23795243 -0.15711361 -0.11454422 -0.071401924

convs.0.att_dst f4 [1, 4, 64]
00000000: dcc8 0b3e e50b 5bb9 d288 613e c4c6 b83d
00000010: 3126 06be f84b 79be e2d7 28be 0dc3 82bd
00000020: 62ec 80be e7a6 7f3c a947 413e 6ed0 6fbe
00000030: 500d 353e 15aa 463e 1dcf 4bbe 7389 7a3e
00000040: f2b6 13be e08a 0cbe 102e 2bbe bbba 53be
00000050: 4e2d 79bd cdeb a7bd 8352 553e da99 cd3c
00000060: ca82 803e ccb7 ac3c d1c8 1cbe 5caa 80bd
00000070: 7eba d13d 73eb 1cbd a607 333e 79f2 cb3d
00000080: 036f e7bd bc00 4ebd 7122 013e 687c bebd
00000090: 52b9 d03b 96b2 553e 07cd 8fbd 5711 483e
000000a0: da22 2d3e de5c 52be 9b9a 743e 2b02 a63d
000000b0: e4fd 45be d294 9dbc 0a56 45bb 9272 ebbc
000000c0: 2ee3 023e a410 5a3e b395 083e 09d1 f23d
000000d0: 0229 a33d b562 2bbe bc19 d9bd 166e d93d
000000e0: 4d9c 14be 458b a0bd 3fac bb3d 8a21 80be
000000f0: d07f d1bb 5706 3cb8 5af6 533c 1ae0 a2bd
00000100: 3a40 c53d b57f 46bd 3faa c539 8434 d23d
00000110: 69df f338 56db 1ebe 1fd3 283e fc99 1dbd
00000120: c07a 5cba 3440 16be 04b0 d9bd c3f1 29be
00000130: 2f39 1abe feb2 8cbd 9b70 77be 4256 9bbd
00000140: 93c5 f2bd 957a 283e f9df 03be c101 4dbe
00000150: 951d bcbd b113 5d3e 84c2 3dbe 9d5d 273e
00000160: 2607 a13c ed9c 63be 4730 47be f15b 1f3d
00000170: f683 c23d 04b5 65bd 645b 813e b9b5 bfbd
00000180: 0f95 4dbd a5e0 523e 44c0 8bbd 9255 823e
00000190: 8b4a 7fbe d6be 8b37 ad33 0fb9 48bd 253e
000001a0: e97b 1739 0c1d 033d 6b58 3cbe 4833 74be
000001b0: 3b2f 8cbc bc52 193e 610c c1bc 9906 3b3a
000001c0: bebb 77be 9a77 453e e5b5 01be 221f 12be
000001d0: 316d d5bd e6c7 683e 192a 253e cf13 3cbe
000001e0: dfef 7bbc ed3c 593e 923f 123e 179c 56be
000001f0: 60e2 86bd 1918 4a3e 391d 2ebe 2233 ceb8
00000200: 6cac 06be d3d5 f2b9 6b00 47be 3867 bc3d
00000210: a72d 293e c56b 95bd 6109 823e b3cb c53c
00000220: 4398 62be 7ad6 4dbe 251a 2fbe 6052 64be
00000230: cba8 2a3e 09d9 30be 73f0 d73d 44c3 0c3e
00000240: 11ea 8bbd 3836 5bbe e326 423e 8928 4d3e
00000250: b684 21be c3c0 5c3d 844d 20be 5436 3c3e
00000260: 63f4 2d3e c915 803e 9e1c 8c3d 7914 3cbd
00000270: 273e 103d c863 133c 1800 563e f682 6d3e
00000280: 827c 15be 4ade 69bc c584 9f3d 86cb ab3d
00000290: 5ee2 5f3e 1a06 6bbd acbf 05be 1415 3d3e
000002a0: aeac 9d3c fdad d53a e89a 3d3e 32e3 fbbc
000002b0: a6d0 3bbe b097 74be 03ba a83d b79b 38be
000002c0: e306 693e dfe6 66be 2cb7 7f3e 0ae4 5cbe
000002d0: 7acc c43d 73e7 3cbe 6ef6 49be 2334 333e
000002e0: ee64 a53d 0539 77be e2c2 8f3c a82e 4b3e
000002f0: a46d 203e 2794 623e 7409 b3bc 5ce4 293e
00000300: f047 333e 2509 a3bd e71d 833e 786c 823e
00000310: 5acb 81bd 773d 62be 41bc e63d 3fe6 46be
00000320: c08b a6bc 804f 66bb d757 76be c24a c7bb
00000330: 0866 383e 1bed 11be 56cd 503e 08f0 d93d
00000340: f3b1 d43d fcf8 0e3c 5f79 11bd 621c 55bd
00000350: bf81 a5bd 189c b0bd d670 813e a093 61bc
00000360: 8559 e73d b10b 0a3d eeeb 293a fd52 1bbe
00000370: 1249 ef3c 8ee0 37be 0fba 71be 5180 5abe
00000380: a51f afbd 0008 5d3e 926c 623e 4dd9 b0bd
00000390: 4b12 3d3e 0ca3 8f3d 8842 49be bf8b b9bd
000003a0: ce52 acbd 9793 d03d 5a94 8a3d 817a 5b3e
000003b0: c7d6 6b3e 3383 c43d ebd2 d93c 3b76 353e
000003c0: cdd5 893c de73 07be d54f 5fbe c927 22be
000003d0: bd74 f8bd 3ed5 89bd e8d5 323e 1568 4e3e
000003e0: 357a fbbd 9f2a 03be 5fbc 3fbe a127 dfbd
000003f0: 73a2 80bd eb65 603d ad1f bfbd 6a36 68bd
0.1365084 -0.00020889899 0.22024849 0.090222865 -0.13100506 -0.24345386 -0.16488603 -0.06384859
-0.25180346 0.015603757 0.18874992 -0.23419353 0.1768086 0.19400819 -0.19903226 0.24466495
-0.14425257 -0.13724852 -0.1671679 -0.20676701 -0.06083422 -0.08199272 0.20832257 0.025097776
0.25099784 0.021083735 -0.1531098 -0.062824935 0.10240649 -0.03831048 0.17483386 0.09958357
-0.11300471 -0.05029367 0.12610795 -0.09301072 0.006369748 0.20868906 -0.07021528 0.19537865
0.16907826 -0.20543239 0.23887102 0.08105882 -0.19335133 -0.019236002 -0.0030111098 -0.028741155
0.12781975 0.2129541 0.13338356 0.118562765 0.07966806 -0.16736872 -0.106006116 0.106167
-0.14512749 -0.078390636 0.09163713 -0.25025588 -0.0063934103 -4.4828597e-05 0.012937153 -0.079529
0.09631391 -0.048461635 0.0003770161 0.10263923 0.00011628756 -0.15513358 0.16486786 -0.03847693
-0.0008410625 -0.14672929 -0.106292754 -0.16596131 -0.15060876 -0.068700776 -0.2416405 -0.07584812
-0.118540905 0.16453011 -0.12878408 -0.200202 -0.0918533 0.21589543 -0.18531233 0.16344304
0.019656729 -0.22227831 -0.1945201 0.03890604 0.09497826 -0.056080833 0.25265038 -0.09360833
-0.05019098 0.20593508 -0.06823781 0.2545591 -0.2493078 1.6658956e-05 -0.00013656793 0.16185486
0.00014446642 0.032010123 -0.18393104 -0.23847687 -0.017112365 0.14972967 -0.023565473 0.0007134467
-0.24192712 0.19283906 -0.12667044 -0.14269689 -0.10421217 0.22732505 0.1612934 -0.18366931
-0.015377014 0.21214648 0.14282063 -0.20957981 -0.06586146 0.19735755 -0.17003335 -9.83237e-05
-0.13151711 -0.00046317148 -0.19433753 0.09199375 0.16521321 -0.07295946 0.2539778 0.024144983
-0.22128396 -0.20101348 -0.17099817 -0.22297049 0.16665952 -0.17270292 0.10543909 0.13746363
-0.06831754 -0.21407402 0.18960147 0.20034994 -0.15773281 0.05389477 -0.1565457 0.183801
0.16987757 0.2501662 0.06841396 -0.04591796 0.035215523 0.008995958 0.20898473 0.23194489
-0.14598277 -0.014274189 0.07788996 0.083884284 0.21863696 -0.057378866 -0.13061398 0.18465072
0.01924738 0.0016302463 0.18516123 -0.030747984 -0.18341312 -0.23885989 0.08238604 -0.1802815
0.22756533 -0.22549008 0.24972218 -0.21571365 0.09609313 -0.18447666 -0.19722912 0.17500357
0.080758914 -0.24142845 0.017548982 0.19842017 0.15666825 0.22126828 -0.021855094 0.16591018
0.1750791 -0.079607286 0.2560875 0.2547338 -0.06337614 -0.2209376 0.11266375 -0.1942377
-0.02033031 -0.00351426 -0.24056946 -0.00608191 0.18007672 -0.14250605 0.2039083 0.106414855
0.103855036 0.008726355 -0.03551614 -0.05202902 -0.08081388 -0.086235225 0.252814 -0.013768107
0.11296371 0.033702556 0.00064819946 -0.15168376 0.029209647 -0.17956755 -0.23606132 -0.21338011
-0.085509576 0.21585083 0.22111729 -0.08635197 0.1846401 0.070135206 -0.19654286 -0.090598576
-0.08414231 0.101844005 0.06766577 0.2143345 0.2303115 0.09595337 0.026589831 0.17720883
0.016825581 -0.13227794 -0.21807797 -0.1583549 -0.12131641 -0.06730126 0.17464411 0.20156892
-0.122791685 -0.12809227 -0.18724202 -0.108962305 -0.06280985 0.054784697 -0.093322136 -0.05669252

convs.0.bias f4 [256]
00000000: 9bc6 cf3a 6578 ce3b a460 0cbb eed3 17bc
00000010: 974d acbb 5b3e 32bb a08a ba3b 3f35 e5ba
00000020: 39c3 633a aa39 053c 3f3f 1db9 45c4 0839
00000030: 7052 1e3b ae81 eebb bec3 3cbb de59 8639
00000040: 46a2 3e3a 654d 43bb 487d 1a3c edbb 5fb9
00000050: f633 5dba acba 183b 4e05 9bba 9acf 1b3b
00000060: 1bb4 50bb e9cb d2bb 6d42 b1ba 3d1a f53a
00000070: efb8 d43b e251 a93b fa10 ac3b 8051 4dba
00000080: 44af 16bc e20e 54b8 14dd 373a 48f3 0b3b
00000090: aaa8 ab3a e8e0 ef3b 09b7 feba d13a c03b
000000a0: c0c1 293b b8cf d8bb fdb0 aa3b 995a 08bc
000000b0: fb2c 09bb f5bc a1ba 9859 d9ba 40d7 ccba
000000c0: 871c ef3a 574c 9d3b d8c6 26bb 50a9 38bb
000000d0: 1bd4 a6ba abf3 543c cab0 ef3b 98c6 1b3b
000000e0: 04ba a83b f32d 16b8 3a8d b6ba f6e5 88bb
000000f0: 42a0 03ba 2d39 633b f326 8b3b c260 9bbb
00000100: 0df8 f539 6f1f 3d3a dd8f c7ba d488 24bb
00000110: e8cf 5f3a 041d 92bb f220 9339 5de9 a7bb
00000120: 6afc 133c b3e5 533a c09b 883b 7c8f 983b
00000130: 0531 bdbb 0ec5 db3a a19d a53a e449 603b
00000140: e50b a9bb 313b 923b 40a6 3f3b 0454 76bb
00000150: aeaa 93ba 7b05 d5ba 9ee3 f63b a122 efbb
00000160: 51e5 beb7 114f 823a 8058 a13b 26d3 89bb
00000170: 8d08 9338 d94a 3fbb fb22 1cbb 58c2 5dba
00000180: 7557 053c 43a2 9b3b bbcf 9dba ae0f 803a
00000190: a9ad f33b f697 f9ba 3484 f5bb 23f8 8db9
000001a0: 8ce3 033b 2279 29bb e306 4f3b 0978 803b
000001b0: 2d65 cdba 7837 62b8 0d64 c2ba b357 9c3a
000001c0: 9d34 923a f8d1 b9ba 470c 143c 8f61 b539
000001d0: 568c 1dbc 788b 7b3b 3871 9abb 9c77 823b
000001e0: dab3 0a3b ce9b d4ba 75f1 66bb 6c0f 3abb
000001f0: f9e9 85ba c92d 9d3c 4b80 efbb 567b 89b8
00000200: 5fd6 95ba 95c5 133a 5388 6cbb 54c1 303b
00000210: f360 15bb cf91 44bb e2e5 633b 392a db3b
00000220: 1606 193a 9a6e c139 7a07 1b3c bf3d d43a
00000230: c0a8 90bb dcda 7c3a 1f71 13b9 fd65 5e3c
00000240: bf77 983a f682 73bb 4e5c 6bb7 6b45 fc3b
00000250: 42d3 4c3a facb c63a c1ea bfba 462f c13a
00000260: 98e8 1fbb e76e 52ba 80a6 073a 432c 27bc
00000270: c47f 45b9 1e03 7f3b 932b 44bc 6d6d a53b
00000280: 07c3 08ba c27c 06bc 3949 6bbb 34f7 083b
00000290: 6338 f83a 5598 b5ba 5223 27bc 1552 6ebb
000002a0: 9090 25bb 0558 b4ba 0f0e 03bc 5b8f 863c
000002b0: e737 19ba bb57 08bc 6480 b43a 6989 a2ba
000002c0: 52a4 2fbb 7568 7a3a 419a fe38 25db f8ba
000002d0: 9edf 85bb fe8d 703a 85ee 793b 4052 b8bb
000002e0: 63a1 503b 692b c3bb 16fa ef3a 8cc0 bbbb
000002f0: 4c67 a1ba ba29 1c3b 61cf 50bc a8d1 a6bb
00000300: 5e4b f03a 5131 c33a 60f9 68bb 5d83 7ebc
00000310: 2f3a c8bb 7912 18b9 e88c bf3b 0ab4 5abb
00000320: 32bc 1f3b 4f44 ff3a a988 ecba 4a1d 29bb
00000330: 56f0 7dbb ad35 3cba d0eb b43b 71f9 253c
00000340: 235c ce39 9a21 ceba a6a7 b33a a7f3 5fbb
00000350: 9357 f83b a43a 25bc 589a 77b8 810e 9dbb
00000360: 549a f6ba 7974 bdba 4643 563b 4a31 403b
00000370: 25b0 743b c35f 27ba 4e92 033c 9168 083b
00000380: 676f 33ba e549 a43b a8ef 51bc e4b0 fdbb
00000390: bacb 17b8 3c93 023b c086 92bb 3fe6 92bb
000003a0: 357a 3a3a 1825 0439 edc8 98bc 2f23 a33a
000003b0: ecf6 de3a 3886 0a3a 6a86 b3bb 345d 95bb
000003c0: ac74 ed3a 62c6 78bc a8fd 593b 2e95 c5bb
000003d0: b084 293b 2334 14bb 3b94 9ebb 1ffc 853b
000003e0: dd8d cdba 75ba 4f3b bf09 67bb dd36 8d3a
000003f0: 1417 2ebb 0c3b 91bb e7a0 4a39 0c1d 41ba
0.0015852036 0.0063009732 -0.0021419907 -0.009266837 -0.005258273 -0.0027197811 0.005692795 -0.0017487182
0.0008688453 0.008131424 -0.00014996248 0.00013043087 0.0024158023 -0.0072786426 -0.0028803195 0.00025625428
0.00072721054 -0.002980077 0.009429283 -0.00021336945 -0.0008438224 0.0023304624 -0.0011827142 0.0023774863
-0.0031845632 -0.0064329994 -0.0013523825 0.0018699836 0.0064917724 0.005167232 0.005251047 -0.0007832274
-0.00919706 -5.05586e-05 0.0007013839 0.0021354724 0.001309653 0.007320512 -0.0019433211 0.0058663865
0.0025902838 -0.006616559 0.005209087 -0.008322381 -0.0020931351 -0.0012339639 -0.0016582487 -0.0015628114
0.0018242755 0.00480036 -0.002544811 -0.002817709 -0.0012728007 0.012997548 0.007314776 0.0023769494
0.005149128 -3.580558e-05 -0.0013927587 -0.004177804 -0.00050211337 0.003467153 0.0042465865 -0.004741759
0.00046914854 0.0007214462 -0.001522537 -0.002510597 0.00085377553 -0.0044590253 0.0002806257 -0.0051242546
0.009032348 0.0008083239 0.0041689575 0.0046557765 -0.005773666 0.0016767101 0.0012635478 0.003422373
-0.0051588886 0.0044626226 0.002924338 -0.0037586698 -0.0011266076 -0.0016252244 0.0075344583 -0.0072978293
-2.2756549e-05 0.0009941777 0.00492388 -0.004206079 7.011099e-05 -0.00291889 -0.002382456 -0.00084594404
0.008138527 0.0047495677 -0.0012040058 0.0009770298 0.0074364734 -0.001904248 -0.0074925665 -0.00027078492
0.0020124642 -0.0025859554 0.0031589798 0.0039205593 -0.0015670412 -5.3934258e-05 -0.0014830843 0.0011927992
0.0011154596 -0.0014176955 0.00903613 0.00034595697 -0.009615978 0.003838269 -0.0047132038 0.0039815437
0.0021164329 -0.001622075 -0.0035239134 -0.002839054 -0.0010216824 0.019186871 -0.007308995 -6.555642e-05
-0.0011431685 0.0005637047 -0.0036091998 0.0026970701 -0.0022793382 -0.0029994135 0.0034774472 0.006688383
0.00058373937 0.00036894233 0.009462232 0.0016192718 -0.004414648 0.00096456497 -0.00014061153 0.013574121
0.0011632367 -0.0037156916 -1.4028583e-05 0.007698705 0.0007813462 0.0015166991 -0.0014642106 0.001473882
-0.0024400111 -0.000802739 0.0005174652 -0.010203424 -0.0001883498 0.003891177 -0.0119732795 0.005048445
-0.00052170496 -0.0082084555 -0.0035901798 0.0020899298 0.0018937703 -0.0013854603 -0.010201292 -0.0036364843
-0.0025263168 -0.0013759142 -0.007998957 0.01642578 -0.0005844817 -0.008321698 0.0013771174 -0.001240057
-0.0026800823 0.00095523085 0.00012140396 -0.0018986209 -0.004085495 0.0009176432 0.0038136553 -0.0056250393
0.0031834475 -0.0059561026 0.0018308784 -0.0057297405 -0.001231411 0.0023828582 -0.0127447555 -0.005090911
0.0018333008 0.0014892017 -0.003554903 -0.015534249 -0.0061104516 -0.00014502731 0.0058456548 -0.0033371472
0.0024373648 0.0019475314 -0.0018046099 -0.002580481 -0.0038747988 -0.0007179629 0.005521275 0.010130272
0.0003936003 -0.0015726567 0.0013706579 -0.0034172328 0.007578799 -0.010084782 -5.9033133e-05 -0.0047929888
-0.0018814304 -0.0014454267 0.0032693907 0.0029326254 0.0037336436 -0.0006384814 0.008030487 0.002081428
-0.00068449083 0.0050136917 -0.012813486 -0.0077420343 -3.619094e-05 0.0019924184 -0.00447163 -0.004483014
0.0007113547 0.0001260232 -0.018650496 0.0012446399 0.0017010844 0.00052842824 -0.00547867 -0.00455823
0.0018116436 -0.015184017 0.0033262763 -0.0060297465 0.0025866441 -0.0022614084 -0.004839448 0.004088893
-0.0015682537 0.003169683 -0.0035253612 0.0010773797 -0.0026564049 -0.0044320878 0.00019324162 -0.0007366694

convs.0.lin_src.weight f4 [256, 6]
00000000: 2ea0 41bd 151d 40bd be50 1b3d 1089 a4bd
00000010: 5a45 a83d 18b3 bc39 8052 ce3d 22f4 df3d
00000020: bf28 58bd dc38 82bd eb0b 1f3d e960 493d
00000030: 1ffd 26bd 45e0 bdbd 2166 093e e4af 073e
00000040: 939c c1bd 8a55 8f3c deef 073e 82de 2b3c
00000050: 8ccb ba3d 4c46 d83d da12 c8bd 5659 b63d
00000060: ba0b 9ebd c265 c73d e6d8 4d3d 3ad2 5bbd
00000070: c1d2 90bc 9234 653c 14f1 2c3d d76c 4abd
00000080: 880b 92bd 6515 cc3d 3d9b c9bd d4f6 8a3d
00000090: 38cb 84bd 036e b0bd 176d 4dbd d6ce e63d
000000a0: 16e2 b13c 2225 15bd 77a2 c73d 4e07 c5bd
000000b0: 6c41 f0bd cac5 053e f881 cdbd 9853 ab3d
000000c0: 5d74 0dbe 969a 843d 7c2f c53d 0548 1b3c
000000d0: 78e2 bd3a 45ef d2bd 4e28 57bd 494c aebc
000000e0: ff28 ed3d 423d e63d f6e5 b93c fb82 ca3d
000000f0: f173 ba3d 8f88 17be a100 1bbc 6310 1bbd
00000100: f9ea cabd c71d ba3c f311 b83d 29d6 483d
00000110: 7208 953d ce0c d13d e218 bbb6 c569 c9bd
00000120: 23e1 833d 9e6d 19be cd83 013e 7e5b 52bd
00000130: c7b0 bf38 3568 133a 61e8 14bd 4434 ff3d
00000140: 2226 b5bd 4b61 06be 52ab 9b37 2e6d 5839
00000150: 87e6 b4bd c2eb bfbd 2f9d ab3d 4dec f1bc
00000160: 0b3e 22bd f9d1 6b3c 284e 733b 68f8 b43d
00000170: 0aad 993c 4a38 df3d 764b c3bd ac4f 9239
00000180: ddc4 28bd b4bf 08bd 643d efbd c202 bbbd
00000190: 3d71 8c39 e371 fe3c c30e 9d3d ee72 52bd
000001a0: ac6e a23d 1968 9d3d 652b a3bc 3465 953d
000001b0: f547 bb3d 2a4d 5d3d 0559 0fbe 277c fd3d
000001c0: 4e45 bd3c 4d0b 14bc 58ac 2a3d 7bf6 713b
000001d0: 913f e5bd 87e2 b7bc f411 153d dc03 203d
000001e0: 905d 3cbd f90a fd3d f60a 01be 88cd cf3b
000001f0: badc 0e39 690a c7bc efe4 02be a3a7 803d
00000200: f459 9a3d 4498 883d 7b56 5f3d f03d c4bd
00000210: 14f6 fdbd 4912 15be ea8b fb3d d94e b93d
00000220: b6c1 efba 1f71 95bd 44d2 cabc 5eae 2dbc
00000230: c0e3 97bd 2d66 04bd d4a0 013d 0b43 6137
00000240: f57f 003c 1302 193e 90d5 13be 19fa b73d
00000250: 1eba b7bd 2d2d 47bc 81f7 8dbd 5199 87bd
00000260: 625a 123e b23c c73c a1fb d53d 68ee 083b
00000270: 1093 f83d 6ebb f5bd c6ee 1cbe e0d8 3c3d
00000280: 3073 d5bc be9c db3d c4e0 a9bc bce4 f33d
00000290: d701 ed3d 87e4 05be 5866 dab7 93c1 a0bc
000002a0: 6fdc babd d3d4 09be 6cf2 bebd 4861 e63c
000002b0: 8a9c 3b3d dd70 cb3d 285b 043e 513e a0bd
000002c0: 5e2f 7abd db11 6fbd 6ed5 5c3c e48a 95bd
000002d0: 14da 4cbd 2981 36bd 0be4 283d 9d93 d9bd
000002e0: fab3 27bb 4b46 ed37 fa96 0a3e 7ec6 8c3d
000002f0: 4198 a3bd d8d1 12bd 83c0 313d 8e9b 37ba
00000300: 4bce 0f3c 3312 1c3e 824e f6bc a03c 08be
00000310: a71e e1bd ee4b 5fb9 74c1 193e 6541 9d3d
00000320: 93e3 953d e149 633d 3d88 34bd 91f6 11bd
00000330: 7ce5 d0bd d10f a4bd 5b90 07be 28de edbd
00000340: b65f 08b9 3cc0 44bd 1966 f1bd 6c39 0abd
00000350: 1fb2 f1bd 5a1f dc3d 1d3e be3d 463d 76bd
00000360: 29d7 7b3d 6aa7 10bb 5318 4fbc 74c3 eabd
00000370: 87ac a93d 465f c9bd 7186 303b c97a f2bc
00000380: 6d04 03be c8bc 503d 8a11 d9bd d417 37b7
00000390: ef60 f73c 9c23 e63c b982 a5bd 30b8 653d
000003a0: 5c8d 72bd de9a a13c daf7 20be 6475 f8bd
000003b0: 6d57 fa3d 105a e5ba 2eb5 c73d 7daf 8a3b
000003c0: 2a02 0ebe 3eda 72bd c19c c7bd 1502 8b3c
000003d0: 2aaa c4bc b485 ce3d ae48 c5bd 9355 1b3e
000003e0: a1e4 c43d 10fc 433d 6b18 b23a b5f4 4b38
000003f0: 1528 20be 1500 bebd d713 b93d 7355 8a3d
-0.0472719 -0.046902735 0.0379188 -0.08033955 0.08216353 0.0003599159 0.100743294 0.109352365
-0.052773234 -0.06358501 0.038829725 0.049164686 -0.04076874 -0.09271292 0.13417865 0.1325069
-0.09453692 0.017496843 0.13275096 0.010490062 0.09120855 0.10560283 -0.09769221 0.08903758
-0.077170804 0.09736206 0.05025568 -0.053667285 -0.01767862 0.0139895845 0.042222098 -0.049420204
-0.07131106 0.09965018 -0.098440625 0.0678536 -0.064840734 -0.08614733 -0.050152864 0.112699196
0.021714251 -0.036412366 0.097477846 -0.09620534 -0.11731228 0.13063732 -0.10034555 0.083655536
-0.1381392 0.064747974 0.096281976 0.00947762 0.0014487049 -0.10299543 -0.052528672 -0.02127661
0.11580085 0.11242153 0.022692662 0.09888264 0.09104145 -0.14798187 -0.009460599 -0.037857424
-0.09908099 0.022719277 0.089877985 0.049032364 0.072770014 0.102075204 -5.575931e-06 -0.09834627
0.06439426 -0.14983222 0.12647934 -0.051356785 9.140517e-05 0.0005623133 -0.036354426 0.12461141
-0.08845164 -0.13123052 1.8557217e-05 0.00020640038 -0.08833032 -0.09371139 0.0837959 -0.029531622
-0.03960995 0.014393323 0.0037125442 0.08836442 0.01875927 0.10899408 -0.095358774 0.0002790665
-0.04120337 -0.033385947 -0.11681631 -0.091313854 0.0002678725 0.031060165 0.07668831 -0.051379137
0.07931265 0.07685871 -0.019918153 0.072946936 0.09144584 0.054028668 -0.13998802 0.12377196
0.023104336 -0.009035897 0.041668266 0.0036920595 -0.11193765 -0.022446884 0.036394075 0.03906618
-0.045987666 0.123556085 -0.12601838 0.00634164 0.00013624402 -0.024296956 -0.12782644 0.06281974
0.075366884 0.06669667 0.054525834 -0.09582126 -0.12400451 -0.14557756 0.12282546 0.09048242
-0.0018291983 -0.07296967 -0.024758466 -0.010600654 -0.07416487 -0.032324005 0.03164752 1.3426655e-05
0.007843007 0.14942198 -0.14436936 0.08983249 -0.08971046 -0.012156767 -0.06931973 -0.0662104
0.14292291 0.024320934 0.10448385 0.0020894054 0.12137425 -0.1199864 -0.1532546 0.046105266
-0.026055902 0.107232556 -0.02073706 0.11908862 0.115726165 -0.13075458 -2.6035283e-05 -0.019623553
-0.091240756 -0.13460092 -0.09323582 0.02812256 0.045803584 0.09933636 0.12925398 -0.07824386
-0.06108033 -0.058366638 0.01347862 -0.07301882 -0.050012663 -0.04455677 0.041233104 -0.10623858
-0.0025589452 2.8285334e-05 0.13534155 0.06873797 -0.079880245 -0.035844654 0.043396484 -0.00070040755
0.008777211 0.15241317 -0.030066732 -0.13304377 -0.109921746 -0.00021295223 0.15015203 0.07678489
0.07318797 0.05549038 -0.04407524 -0.035635535 -0.10200021 -0.08010829 -0.13238661 -0.116146386
-0.00013005626 -0.04803489 -0.11787052 -0.033746168 -0.11801552 0.10748167 0.09289191 -0.06011703
0.06148449 -0.0022072443 -0.012640077 -0.11463061 0.0828486 -0.09832625 0.0026935602 -0.029599564
-0.12794657 0.050961286 -0.105990484 -1.0913198e-05 0.030197589 0.028093152 -0.08081574 0.056083858
-0.059216842 0.019727167 -0.15719548 -0.121317655 0.122237064 -0.0017498154 0.09751354 0.0042323456
-0.13868013 -0.059290163 -0.09746695 0.016968766 -0.024006922 0.100840956 -0.09633003 0.15169363
0.0961392 0.047847807 0.0013587599 4.8626873e-05 -0.1564029 -0.092773594 0.09036987 0.067545794

convs.0.lin_dst.weight f4 [256, 6]
00000000: 2ea0 41bd 151d 40bd be50 1b3d 1089 a4bd
00000010: 5a45 a83d 18b3 bc39 8052 ce3d 22f4 df3d
00000020: bf28 58bd dc38 82bd eb0b 1f3d e960 493d
00000030: 1ffd 26bd 45e0 bdbd 2166 093e e4af 073e
00000040: 939c c1bd 8a55 8f3c deef 073e 82de 2b3c
00000050: 8ccb ba3d 4c46 d83d da12 c8bd 5659 b63d
00000060: ba0b 9ebd c265 c73d e6d8 4d3d 3ad2 5bbd
00000070: c1d2 90bc 9234 653c 14f1 2c3d d76c 4abd
00000080: 880b 92bd 6515 cc3d 3d9b c9bd d4f6 8a3d
00000090: 38cb 84bd 036e b0bd 176d 4dbd d6ce e63d
000000a0: 16e2 b13c 2225 15bd 77a2 c73d 4e07 c5bd
000000b0: 6c41 f0bd cac5 053e f881 cdbd 9853 ab3d
000000c0: 5d74 0dbe 969a 843d 7c2f c53d 0548 1b3c
000000d0: 78e2 bd3a 45ef d2bd 4e28 57bd 494c aebc
000000e0: ff28 ed3d 423d e63d f6e5 b93c fb82 ca3d
000000f0: f173 ba3d 8f88 17be a100 1bbc 6310 1bbd
00000100: f9ea cabd c71d ba3c f311 b83d 29d6 483d
00000110: 7208 953d ce0c d13d e218 bbb6 c569 c9bd
00000120: 23e1 833d 9e6d 19be cd83 013e 7e5b 52bd
00000130: c7b0 bf38 3568 133a 61e8 14bd 4434 ff3d
00000140: 2226 b5bd 4b61 06be 52ab 9b37 2e6d 5839
00000150: 87e6 b4bd c2eb bfbd 2f9d ab3d 4dec f1bc
00000160: 0b3e 22bd f9d1 6b3c 284e 733b 68f8 b43d
00000170: 0aad 993c 4a38 df3d 764b c3bd ac4f 9239
00000180: ddc4 28bd b4bf 08bd 643d efbd c202 bbbd
00000190: 3d71 8c39 e371 fe3c c30e 9d3d ee72 52bd
000001a0: ac6e a23d 1968 9d3d 652b a3bc 3465 953d
000001b0: f547 bb3d 2a4d 5d3d 0559 0fbe 277c fd3d
000001c0: 4e45 bd3c 4d0b 14bc 58ac 2a3d 7bf6 713b
000001d0: 913f e5bd 87e2 b7bc f411 153d dc03 203d
000001e0: 905d 3cbd f90a fd3d f60a 01be 88cd cf3b
000001f0: badc 0e39 690a c7bc efe4 02be a3a7 803d
00000200: f459 9a3d 4498 883d 7b56 5f3d f03d c4bd
00000210: 14f6 fdbd 4912 15be ea8b fb3d d94e b93d
00000220: b6c1 efba 1f71 95bd 44d2 cabc 5eae 2dbc
00000230: c0e3 97bd 2d66 04bd d4a0 013d 0b43 6137
00000240: f57f 003c 1302 193e 90d5 13be 19fa b73d
00000250: 1eba b7bd 2d2d 47bc 81f7 8dbd 5199 87bd
00000260: 625a 123e b23c c73c a1fb d53d 68ee 083b
00000270: 1093 f83d 6ebb f5bd c6ee 1cbe e0d8 3c3d
00000280: 3073 d5bc be9c db3d c4e0 a9bc bce4 f33d
00000290: d701 ed3d 87e4 05be 5866 dab7 93c1 a0bc
000002a0: 6fdc babd d3d4 09be 6cf2 bebd 4861 e63c
000002b0: 8a9c 3b3d dd70 cb3d 285b 043e 513e a0bd
000002c0: 5e2f 7abd db11 6fbd 6ed5 5c3c e48a 95bd
000002d0: 14da 4cbd 2981 36bd 0be4 283d 9d93 d9bd
000002e0: fab3 27bb 4b46 ed37 fa96 0a3e 7ec6 8c3d
000002f0: 4198 a3bd d8d1 12bd 83c0 313d 8e9b 37ba
00000300: 4bce 0f3c 3312 1c3e 824e f6bc a03c 08be
00000310: a71e e1bd ee4b 5fb9 74c1 193e 6541 9d3d
00000320: 93e3 953d e149 633d 3d88 34bd 91f6 11bd
00000330: 7ce5 d0bd d10f a4bd 5b90 07be 28de edbd
00000340: b65f 08b9 3cc0 44bd 1966 f1bd 6c39 0abd
00000350: 1fb2 f1bd 5a1f dc3d 1d3e be3d 463d 76bd
00000360: 29d7 7b3d 6aa7 10bb 5318 4fbc 74c3 eabd
00000370: 87ac a93d 465f c9bd 7186 303b c97a f2bc
00000380: 6d04 03be c8bc 503d 8a11 d9bd d417 37b7
00000390: ef60 f73c 9c23 e63c b982 a5bd 30b8 653d
000003a0: 5c8d 72bd de9a a13c daf7 20be 6475 f8bd
000003b0: 6d57 fa3d 105a e5ba 2eb5 c73d 7daf 8a3b
000003c0: 2a02 0ebe 3eda 72bd c19c c7bd 1502 8b3c
000003d0: 2aaa c4bc b485 ce3d ae48 c5bd 9355 1b3e
000003e0: a1e4 c43d 10fc 433d 6b18 b23a b5f4 4b38
000003f0: 1528 20be 1500 bebd d713 b93d 7355 8a3d
-0.0472719 -0.046902735 0.0379188 -0.08033955 0.08216353 0.0003599159 0.100743294 0.109352365
-0.052773234 -0.06358501 0.038829725 0.049164686 -0.04076874 -0.09271292 0.13417865 0.1325069
-0.09453692 0.017496843 0.13275096 0.010490062 0.09120855 0.10560283 -0.09769221 0.08903758
-0.077170804 0.09736206 0.05025568 -0.053667285 -0.01767862 0.0139895845 0.042222098 -0.049420204
-0.07131106 0.09965018 -0.098440625 0.0678536 -0.064840734 -0.08614733 -0.050152864 0.112699196
0.021714251 -0.036412366 0.097477846 -0.09620534 -0.11731228 0.13063732 -0.10034555 0.083655536
-0.1381392 0.064747974 0.096281976 0.00947762 0.0014487049 -0.10299543 -0.052528672 -0.02127661
0.11580085 0.11242153 0.022692662 0.09888264 0.09104145 -0.14798187 -0.009460599 -0.037857424
-0.09908099 0.022719277 0.089877985 0.049032364 0.072770014 0.102075204 -5.575931e-06 -0.09834627
0.06439426 -0.14983222 0.12647934 -0.051356785 9.140517e-05 0.0005623133 -0.036354426 0.12461141
-0.08845164 -0.13123052 1.8557217e-05 0.00020640038 -0.08833032 -0.09371139 0.0837959 -0.029531622
-0.03960995 0.014393323 0.0037125442 0.08836442 0.01875927 0.10899408 -0.095358774 0.0002790665
-0.04120337 -0.033385947 -0.11681631 -0.091313854 0.0002678725 0.031060165 0.07668831 -0.051379137
0.07931265 0.07685871 -0.019918153 0.072946936 0.09144584 0.054028668 -0.13998802 0.12377196
0.023104336 -0.009035897 0.041668266 0.0036920595 -0.11193765 -0.022446884 0.036394075 0.03906618
-0.045987666 0.123556085 -0.12601838 0.00634164 0.00013624402 -0.024296956 -0.12782644 0.06281974
0.075366884 0.06669667 0.054525834 -0.09582126 -0.12400451 -0.14557756 0.12282546 0.09048242
-0.0018291983 -0.07296967 -0.024758466 -0.010600654 -0.07416487 -0.032324005 0.03164752 1.3426655e-05
0.007843007 0.14942198 -0.14436936 0.08983249 -0.08971046 -0.012156767 -0.06931973 -0.0662104
0.14292291 0.024320934 0.10448385 0.0020894054 0.12137425 -0.1199864 -0.1532546 0.046105266
-0.026055902 0.107232556 -0.02073706 0.11908862 0.115726165 -0.13075458 -2.6035283e-05 -0.019623553
-0.091240756 -0.13460092 -0.09323582 0.02812256 0.045803584 0.09933636 0.12925398 -0.07824386
-0.06108033 -0.058366638 0.01347862 -0.07301882 -0.050012663 -0.04455677 0.041233104 -0.10623858
-0.0025589452 2.8285334e-05 0.13534155 0.06873797 -0.079880245 -0.035844654 0.043396484 -0.00070040755
0.008777211 0.15241317 -0.030066732 -0.13304377 -0.109921746 -0.00021295223 0.15015203 0.07678489
0.07318797 0.05549038 -0.04407524 -0.035635535 -0.10200021 -0.08010829 -0.13238661 -0.116146386
-0.00013005626 -0.04803489 -0.11787052 -0.033746168 -0.11801552 0.10748167 0.09289191 -0.06011703
0.06148449 -0.0022072443 -0.012640077 -0.11463061 0.0828486 -0.09832625 0.0026935602 -0.029599564
-0.12794657 0.050961286 -0.105990484 -1.0913198e-05 0.030197589 0.028093152 -0.08081574 0.056083858
-0.059216842 0.019727167 -0.15719548 -0.121317655 0.122237064 -0.0017498154 0.09751354 0.0042323456
-0.13868013 -0.059290163 -0.09746695 0.016968766 -0.024006922 0.100840956 -0.09633003 0.15169363
0.0961392 0.047847807 0.0013587599 4.8626873e-05 -0.1564029 -0.092773594 0.09036987 0.067545794

convs.1.att_src f4 [1, 4, 64]
00000000: 4d90 113e 8f2e ae3b 7943 34be 85e7 6ebe
00000010: f8f2 25be 3787 90be 33e2 87be fdfe 1a3d
00000020: 3a74 63be 5cec bd3d b261 97bd 9a3e 66be
00000030: 82d9 3b3d 16c2 393e cad8 9a3e 028c 23be
00000040: 9c8e 633e 6e63 173e bda4 493d aa98 dd3d
00000050: f4e9 e2bd 5737 3c3e 21f6 87bd 9baa 3abe
00000060: 5409 39be c171 103e fa3c c0bd 4d18 9fbc
00000070: 21a8 e0bc bc46 f6bd 3840 293e 132c 613e
00000080: 929a 58be dbaa 18be d88b 27be a088 703e
00000090: 13f4 34bc c0d7 f3bd 14a9 d23d a29e 4e3e
000000a0: d2c4 60bd 8d57 74be 70b3 57bd eb9d 00be
000000b0: daa9 88bd 8e4f 9ebd fe90 cbbd b252 733e
000000c0: bf08 343e f61a c73d 5346 12be b31b 943e
000000d0: bf15 d4bd 4d94 fabc 4484 083e 7c1b 723e
000000e0: 1066 17be c002 3a3e 530c 973e b162 e8bd
000000f0: 715d 1abe 1b09 693e febb 903e 9b1e c33d
00000100: 1c4a 54bd 81e2 0c3d c804 b3bc a14c 0a3d
00000110: 3c83 adbd 6b94 88be 2740 2bbd 47b5 a6bd
00000120: 21c6 96be 689a f33c 5f6f 01be d08c 55bd
00000130: aca7 313e 6925 3fbe d93c 10be fd02 36bc
00000140: eb4e a83d aba9 9dba aa88 8b3e 97b7 a5bb
00000150: 958d 2e3e fc09 6fbd 89b3 8a3c a1a8 4b3d
00000160: 7e48 83bd 8792 283e 2aee 413e abe0 6d3e
00000170: b5c0 883e f25b 12bc bf60 923e 8322 78be
00000180: f95a 2d3b 5e78 8bbd 1c98 853e 05fe 513e
00000190: 0e88 8abd 1485 6a3e 50bd edbd 4c76 70be
000001a0: 8318 ef3c 2430 bbbc 876b 2b3b 48b7 91be
000001b0: 2f0a 95be 1df0 f4bd 20cc 63be 7406 dcbd
000001c0: 27e5 9fbd f07b 12be 0acb 443d 81f8 923e
000001d0: 2675 473e 7755 14be f72a 57bd d59c 03be
000001e0: 82dc 903e b57b fd3d 5524 a63c 700b 3abe
000001f0: 47a5 903e 8639 75be a592 96be ee11 853d
00000200: 5c95 603b 8f04 3e3c ffca 96be 6b7a 1abc
00000210: ec50 0f3e 8eb6 3f3c b592 a0bd e173 733b
00000220: 2dca 7dbd 4a72 88be fdf4 62be b208 d83d
00000230: 2d56 48be 0167 833e 5efb 1dbe 7131 7fbe
00000240: 874f 8e3e 8a4b dabd e30d 58be 888a 003e
00000250: 12e8 e2bd e628 94bd 6eaf 12be 7fdb 6a3d
00000260: 1985 0e3e bd33 5b3e c5b5 933d 2299 8dbe
00000270: 2025 03be 83ff 49be 3252 5fbe f987 2e3e
00000280: 2eb1 ebbc 38c8 cd3d 0d81 74be aab4 47be
00000290: bc6c 773e a028 293e 623e 283e 4cec 7b3d
000002a0: cb6d 703e 3bac 493e 93ad 95bc c366 8c3e
000002b0: c9fe 963c f253 50bd 5708 e33d 986d 7fbd
000002c0: 9bd1 513e 0f97 6c3e a0eb bb3d dacc 35be
000002d0: cb22 01be 81c1 263e 6c5e 3dbe 9648 2a3e
000002e0: 872e 97be f7fe 563c 2707 0dbe 8c2d 173d
000002f0: 3212 e4bd aa41 6a3e d152 e83c aa75 28be
00000300: 9dcf d63d c146 5c3e bd99 58bd 9d6f 53bd
00000310: 4013 10be 0862 d1bd 2103 603e b4b3 60be
00000320: a0d9 883e 8e0c 2c3e 07b6 c0bd 6fa8 30bd
00000330: 626a 113e 4b69 44be d07d 00be 2c75 66be
00000340: 1530 333d d721 5dbe 8e12 573e c130 6a3e
00000350: b7e7 a23d b8e4 303d 8ac1 803d fd5d 0c3e
00000360: 2ab0 ed3d a508 18bd 4cdf 47be c2f5 2b3e
00000370: 736e 13bc 686d 96bd 1159 d7bd c5a4 2b3e
00000380: c499 f33c 526d 64be a1a4 25be 7ae5 39be
00000390: 5cfc c03d d8b5 46be cccb 8d3e e881 24be
000003a0: 9e5b 0e3e 65ff 10bc 14eb c13d bdf6 183c
000003b0: 9753 133e d5a0 16be 5b0a 093e 0016 503e
000003c0: 47e1 023e e165 59bd 1d24 8c3e a49c 803e
000003d0: 1557 853e 7661 e7bd 4819 d23d f3b5 40be
000003e0: 0c02 94bd bb0d 8cbe a7f0 73bd b550 aa3d
000003f0: f775 93be 1cd3 9ebd 9a1b 6ebe 809e ee3d
0.14215203 0.005315609 -0.17603864 -0.23330505 -0.16205966 -0.2822816 -0.26539764 0.037840832
-0.22212306 0.092735976 -0.07391681 -0.22484818 0.04586173 0.18140444 0.30243522 -0.15971377
0.2222237 0.14784023 0.049229372 0.10820134 -0.11079779 0.18380485 -0.06638742 -0.18229143
-0.18069965 0.14105894 -0.0938663 -0.019420767 -0.02742392 -0.1202521 0.16528404 0.21989469
-0.21152714 -0.14908926 -0.1636194 0.23489618 -0.01104452 -0.119063854 0.10286155 0.20177701
-0.054875202 -0.23861523 -0.05266136 -0.12560241 -0.066730216 -0.077300176 -0.099397644 0.23762015
0.17581461 0.09721939 -0.14284639 0.28927383 -0.1035571 -0.030588293 0.13331705 0.23643297
-0.14785028 0.18165112 0.2950159 -0.11346949 -0.15074708 0.2275738 0.28268427 0.09527322
-0.05182849 0.0343957 -0.021852866 0.033764485 -0.084722966 -0.26675734 -0.041809227 -0.08140045
-0.29448035 0.029736713 -0.12640141 -0.052136242 0.17349118 -0.18666615 -0.14085712 -0.011109111
0.082181774 -0.0012028714 0.27252704 -0.005057286 0.17046197 -0.05835913 0.016931312 0.049721364
-0.06410311 0.16462146 0.18938509 0.23230235 0.26709524 -0.008933054 0.28589436 -0.24231915
0.002645193 -0.068100676 0.26092613 0.20507057 -0.067642316 0.22902328 -0.11608374 -0.23482627
0.029186493 -0.022850104 0.002615662 -0.28460145 -0.29109332 -0.119598605 -0.22245836 -0.10743418
-0.07807379 -0.14305091 0.048045196 0.28705218 0.19478282 -0.14485727 -0.05253121 -0.12852795
0.28293234 0.12377111 0.020280996 -0.18168426 0.28251097 -0.23947725 -0.29408756 0.064975604
0.0034268713 0.011597767 -0.2945175 -0.009428601 0.13995713 0.011701239 -0.07840482 0.0037147927
-0.061960388 -0.26649696 -0.22163768 0.105485335 -0.19564123 0.25664523 -0.1542792 -0.24921204
0.2779505 -0.10658939 -0.21099047 0.12552845 -0.1107942 -0.07234363 -0.14324734 0.057338234
0.1391796 0.21406455 0.07212404 -0.27655894 -0.12807131 -0.19726376 -0.21808699 0.17044057
-0.02877101 0.10047954 -0.23877354 -0.19502512 0.24162573 0.16519403 0.16430047 0.061504647
0.23479383 0.19694607 -0.018271243 0.2742215 0.018432038 -0.050861306 0.11085575 -0.062360376
0.20490114 0.231045 0.09175801 -0.17753926 -0.12610929 0.16284753 -0.1849305 0.16629252
-0.29527685 0.013122312 -0.1377226 0.03690867 -0.11136283 0.22876611 0.028359802 -0.16451135
0.10488818 0.21511365 -0.05288099 -0.051620115 -0.14069843 -0.10223776 0.21876194 -0.21943551
0.26728535 0.16801664 -0.09409719 -0.04312938 0.14200738 -0.19180791 -0.12547994 -0.22505635
0.043747026 -0.2159494 0.21003172 0.2287016 0.07954352 0.043186873 0.06286915 0.13707729
0.11605866 -0.03711762 -0.19518775 0.16792968 -0.008998501 -0.07345086 -0.10515035 0.16762073
0.029736407 -0.22307327 -0.16176082 -0.18153945 0.09423134 -0.19405305 0.27694547 -0.1606518
0.13902137 -0.008849953 0.09468666 0.009336171 0.14387356 -0.1470979 0.13382857 0.20320892
0.12781249 -0.053075675 0.27371302 0.25119507 0.26043 -0.11297886 0.10258728 -0.18819408
-0.07226953 -0.27354226 -0.059555676 0.08316175 -0.28800938 -0.0775511 -0.23252717 0.11651325

convs.1.att_dst f4 [1, 4, 64]
00000000: c12a e53c 7625 3fbe f92f 8e3e f2f2 733e
00000010: 56ac 223e e73d 5fbd c062 eabd 18c5 84be
00000020: 3fa1 593d 8975 35bb 889c 3bbe 73cd 7e3e
00000030: 4c78 19be 140d 8cbe d252 7dbe 730f 523e
00000040: b1f8 15be 2196 6b3c b109 cb3d 623f 95be
00000050: 69e9 f4bd e515 733d 3415 23bd 1937 a43d
00000060: b54f f53d 077c a23d 1141 b1bd ac2e d0bd
00000070: 1847 833e b4b8 c7bd fade c6bc b527 1cbe
00000080: 6b85 68bd 4063 b33d 787a 8e3e 7ffb 80be
00000090: feaf 94be 9739 39be 6fd6 dc3d e4a8 6f3e
000000a0: ad99 64be a613 323e 4a88 22be a442 b0bc
000000b0: 45a7 b03d 52f0 0d3d 16dc 68bc 3b27 8f3e
000000c0: d981 6e3d 4dee 133e 1688 2c3e bd2c b2bd
000000d0: 8daa 7f3e 12f5 0dbe e22f eb3b 6431 773e
000000e0: 3270 563e 3d0b 8c3e b2e0 5d3e 99c9 8bbe
000000f0: 55c1 de3d 33c9 1dbd 94e1 333e 4353 11bc
00000100: ac8b 7dbe 4c0a 91be a178 5bbe 99ac 78be
00000110: 61e8 6cbe cb0c 393e 6b05 903e b641 8f3e
00000120: 0ce1 d83d 0d27 3c3d b4d4 40be 096b 44be
00000130: afee 84be 65f7 1fbe f3a1 8dbe 061b 583e
00000140: af7f 8ebe d090 033e 419e 483e d546 723e
00000150: ef5b 24be 5c85 c33d 32f8 80bc ac2a 90be
00000160: faed 1dbe fe80 87bd 2fa9 143e fc16 34be
00000170: 4b1a 553e 91fd 3cbe a3c1 b8bb 4ea4 893e
00000180: deb9 b7bd 618e 223e e400 953e 9717 4ebe
00000190: d02e f23d 19fe 16be a0a7 7e3e f74a 1b3c
000001a0: 8cec 51be d6b0 1a3e eb25 133e 1560 263e
000001b0: 407c 953e b93e e73d a81b 6bbd 47f8 f2bd
000001c0: c7df c5bd ed99 73be 2051 ed3d b1b8 833e
000001d0: ca86 073e e26a 643e 150c 8fbe 9113 d1bd
000001e0: ea2c f93d 7cc4 2e3e 4ffe 3d3e be08 273e
000001f0: dd79 17be 796a f13d 3558 5d3e 3faa d5bd
00000200: 5f09 0f3c 12b0 8dbe 3418 25be 6647 5fbe
00000210: 66d7 62be ff26 a0bd 1cae 933c 0cf2 33be
00000220: ff58 2d3b 5c0c e53d 1492 f8bd 1f0a 283d
00000230: 5ce3 e83d 5c35 e93d aab5 25be bff3 7f3e
00000240: 1771 0bbe 982d d13d c2e5 f8bd 8893 22be
00000250: 2d57 f73d 9db2 00bd 2031 33be 7620 aa3c
00000260: 9a7e 16be ce4d 623e 9509 88be 049b 6cbe
00000270: 62d8 78bc 2b71 8c3e ef64 463e 7a7c 5c3e
00000280: 48ff 313e 5735 0dbe 5670 6c3d 7d31 403d
00000290: 1218 1cbe 970d f03d e6fe 76be bb74 90be
000002a0: 06f2 89be f58d ebbb 2517 35be 30cb 383e
000002b0: 6527 5e3e f9d8 073d 9b13 b03d e275 ff3d
000002c0: 70f4 1f3e 5c0d 643e e416 863e da4c febd
000002d0: aecd e6bd 0b95 1cbe 1ad8 77be 5c47 283e
000002e0: bbb1 343e bf29 833e cc4e 023e 4b5f 703e
000002f0: d8d8 f93c 1e50 3b3e abff 46be 2302 60be
00000300: fcd3 2dbe c724 e7bc 877c 163e f2a1 57bd
00000310: 8346 5e3e 2e33 7dbe f582 2e3d ce77 093e
00000320: 728f 90be 82cf 35be 5b4e 513e 2227 293d
00000330: 4a40 893d d62d 4f3e e902 8c3d ae87 873e
00000340: dd93 923d 6c4f c4bc 40eb 2cbe 0953 85be
00000350: 6465 473e 0c5c 8ebe ec2f 0fbe 491a 86be
00000360: 1747 843e 25fd 823e 8610 bc3d 94be 6cbe
00000370: ecaf dfbd ccb0 30bd 65ae 7c3e 1b0c 653e
00000380: 8122 82be 3e5e a83d 196d d63d ab85 423e
00000390: 1024 693e 1c9f 493e f855 8dbe fd4f dbbd
000003a0: 8be2 873e 5ed0 6a3d 645d 4fba eefb d3bd
000003b0: 1c66 26be b86b 803e 9cd5 883e 7b78 b03d
000003c0: 9b6d 853d 114e 3b3e 158e 443d 63e5 bc3d
000003d0: e411 0bbd b3fd 833e ac71 c53d 7eb8 8cbe
000003e0: 5b24 37be 56f3 023e 63b1 c2bd de17 5fbd
000003f0: 33d8 a53d ff80 2cbe a570 ee3c e852 fc3c
0.027974488 -0.18666634 0.27770975 0.23823145 0.15886053 -0.054502394 -0.11444616 -0.2593162
0.053132292 -0.0027688465 -0.1832143 0.2488306 -0.14987296 -0.27353728 -0.24738625 0.20513706
-0.1464565 0.014379055 0.09913958 -0.2914992 -0.11958582 0.059347052 -0.039815143 0.080183215
0.119780935 0.079338126 -0.086549886 -0.10165152 0.25640178 -0.09752026 -0.024276245 -0.15249522
-0.056767862 0.08759165 0.2782781 -0.25191876 -0.2904052 -0.18088375 0.107830875 0.2340427
-0.22324248 0.17390308 -0.15872303 -0.021516152 0.08625654 0.034653015 -0.014212629 0.27959618
0.0582293 0.14446373 0.16848788 -0.086999394 0.24967404 -0.13863018 0.007177339 0.24139935
0.20941237 0.27352324 0.21667746 -0.27302244 0.10876719 -0.038521957 0.1756652 -0.008869949
-0.24760312 -0.28328168 -0.21432735 -0.24284591 -0.2313552 0.18071286 0.28129134 0.2797982
0.10589799 0.04593568 -0.1883114 -0.19181456 -0.2596335 -0.15621717 -0.2766262 0.21104059
-0.2783179 0.1284821 0.19591619 0.23659833 -0.16050695 0.09546921 -0.015743349 -0.28157556
-0.15422812 -0.066164 0.14517663 -0.17586893 0.20810811 -0.18456103 -0.0056383177 0.26883167
-0.08970998 0.15874626 0.29102242 -0.20126186 0.11825335 -0.14745368 0.24868631 0.009478322
-0.20500392 0.1510652 0.14369933 0.1624759 0.29196358 0.1129126 -0.057399422 -0.118637614
-0.09661823 -0.23789187 0.11587739 0.25726846 0.13235012 0.22306398 -0.27938905 -0.1020881
0.1216677 0.1706714 0.18554042 0.16311929 -0.14792581 0.11787886 0.2161568 -0.104328625
0.008730262 -0.27673393 -0.16122514 -0.2180458 -0.2215248 -0.07819938 0.018027358 -0.17572802
0.002645075 0.11183998 -0.12137237 0.041025277 0.1137149 0.113871306 -0.1618258 0.24995326
-0.13617359 0.102137744 -0.12153198 -0.15876591 0.12077174 -0.03142034 -0.17499208 0.020767432
-0.14696732 0.22099993 -0.2656981 -0.23106009 -0.015188308 0.2743009 0.1937444 0.21531859
0.17382538 -0.13789879 0.05772432 0.046922196 -0.15243557 0.11721342 -0.24120674 -0.28214058
-0.26942462 -0.0071885535 -0.1768461 0.1804626 0.21694715 0.033165906 0.085974894 0.12473656
0.1562059 0.22270721 0.2618934 -0.12417002 -0.11269699 -0.1529123 -0.2420353 0.16433471
0.17645924 0.25617787 0.12725371 0.23473851 0.030498907 0.18292281 -0.19433467 -0.21875815
-0.16975397 -0.028215779 0.14695941 -0.052644677 0.21706586 -0.24726555 0.04260536 0.13424608
-0.2823444 -0.17754939 0.20440046 0.041297086 0.06701715 0.20232329 0.068364926 0.26470703
0.07157109 -0.023963653 -0.16886616 -0.26039913 0.19472271 -0.278046 -0.13983124 -0.2619193
0.25835487 0.2558376 0.09182839 -0.23119575 -0.10922226 -0.043137357 0.24675901 0.22367899
-0.2541695 0.082211 0.104700275 0.18996303 0.22767663 0.19689602 -0.2760465 -0.10708616
0.26540026 0.05732762 -0.00079103396 -0.10350786 -0.16249889 0.25082183 0.2672547 0.0861673
0.06515046 0.18291499 0.047987062 0.092234395 -0.03395261 0.25779495 0.09640822 -0.27484506
-0.17884962 0.12788138 -0.0950649 -0.05446612 0.08097877 -0.16846083 0.029106447 0.030801252
