trained_weights/theia/selfattention15.pth (torch, 20623 bytes, 8 tensors)

multihead_self_attention.multihead_attn.in_proj_weight f4 [96, 32]
0.13192023 -0.05397766 0.00016109219 -0.034249343 0.01270539 -6.676015e-05 0.15892705 0.10236904
-0.11086338 -0.035204746 -0.032332722 0.15810241 -0.073644936 0.07187844 0.044616062 -0.011901255
0.060613915 -0.06477294 0.13207877 -0.08763776 -0.10413141 -0.08618675 0.08196082 -0.044967994
0.16283563 0.013918439 7.5745247e-06 0.055840816 0.0003934497 -0.12815285 0.071979634 0.05346189
0.058961987 -0.037632752 0.081932016 0.1633036 -0.00078803865 -0.075237356 0.078758486 0.026935691
0.024878858 0.04904007 -0.10234109 -0.018157389 -0.06260894 -6.7329456e-05 -0.07033561 0.1532919
8.63182e-06 0.006951032 0.025429519 -0.13393039 -0.00025017763 0.0342236 -0.04111955 0.019876568
0.072457984 -3.9264643e-05 -0.079812065 0.094943866 0.11550564 0.15803254 0.052624777 -9.653987e-06
-0.068641305 -3.8473663e-05 0.14380486 0.018556025 0.02113732 -2.0278705e-05 0.011825565 -0.037347153
0.15322067 -0.07453003 -0.15247776 0.012510859 -0.15739353 -0.015019813 -0.00016169947 1.3463444e-05
-0.11784995 5.6336547e-05 -0.017171528 0.105660506 0.1568409 -0.1275898 -0.016746603 -6.633973e-05
0.13527335 -0.10654065 0.0004635609 0.025031468 -0.011546451 0.06327534 0.056002825 -0.052252874
-0.13384385 0.09960046 -0.012018297 -0.011129942 0.14437017 0.14492765 -0.033097714 -0.13436194
0.052215815 -6.008049e-05 -0.15463166 0.10002159 2.004451e-05 1.9332532e-05 0.09569297 0.019659042
-6.908589e-05 4.881281e-05 -0.03879549 -0.1626342 -0.0032295275 0.061912026 -2.5610701e-05 -0.10472911
-0.072160214 -0.080044754 0.05715918 -0.007839339 -0.000110968474 -1.230321e-05 0.005507306 0.102313876
-0.028265087 0.1576788 -0.1342598 0.0030931802 0.09864299 0.025654435 0.051148023 0.034970034
0.13173008 -0.0016327087 -0.10513059 0.086811386 -0.024502678 -0.12644307 0.0146001605 0.0773635
-0.12806244 -2.7430566e-05 -0.06505894 -0.08764787 -0.14367767 -0.0052670124 0.058046043 -2.5485826e-05
-0.03137002 0.038992357 -4.9539693e-05 -0.08178177 0.13145822 0.15869397 -6.205261e-05 -0.13337766
0.063993275 -0.12937179 0.09641198 -7.879227e-05 0.016795538 -0.12845893 -0.039360777 0.14372921
-0.035673246 0.11633407 -0.07256904 -0.0060775136 0.14617932 0.073256366 0.079674385 0.12045646
-0.10881224 0.013083073 0.15475497 0.0067365314 0.14792897 0.028708687 0.009571071 0.088565126
0.10983603 -0.11629838 0.007163572 -0.10953238 0.16019586 0.09846957 0.087804064 -0.04286199
0.0029658175 0.042722363 -0.02118042 -0.09713065 0.105516925 -0.0938857 -0.08798946 -0.054081213
0.000103177175 -0.085706584 -0.0101021705 -4.8405967e-05 -0.05802529 -0.12946528 -0.0339707 -6.3185184e-06
-0.16301212 -0.05572148 -0.03580794 0.125118 0.043480936 0.118737906 0.05874547 -0.052916504
0.11976804 -0.149942 -0.048430126 -0.046772473 -0.08849954 -0.13393101 -0.115374416 -0.10076279
0.03494251 0.06501088 0.10133754 0.09008165 0.15490538 0.004250867 0.08561233 -0.08097233
0.07686569 -0.122182325 -0.10293659 -0.07573237 0.10359516 -0.12347314 0.07756803 0.02826668
0.0047668885 0.031920943 -0.11447101 0.09170667 0.038366098 -0.06188578 -0.08222722 -6.871233e-05
-0.050765038 0.0013718492 0.14096819 -0.0772809 0.015183136 0.1465848 0.12609193 -0.045242745
00000000: 1916 073e ae17 5dbd dbea 2839 0a49 0cbd
00000010: 452a 503c 9501 8cb8 c6bd 223e dca6 d13d
00000020: 570c e3bd da32 10bd 516f 04bd 99e5 213e
00000030: 28d3 96bd 0135 933d 55bf 363d 7bfd 42bc
00000040: 4c46 783d ada7 84bd a83f 073e 6d7b b3bd
00000050: d942 d5bd ae82 b0bd 13db a73d 5c30 38bd
00000060: 62be 263e 2a0a 643c ac28 fe36 57b9 643d
00000070: ed47 ce39 803a 03be 0f6a 933d dbfa 5a3d
00000080: 2082 713d cd24 1abd f9cb a73d 0f39 273e
00000090: 6194 4eba 0b16 9abd 214c a13d 3da8 dc3c
000000a0: bfce cb3c 3ede 483d 3598 d1bd cebe 94bc
000000b0: 1e39 80bd 3a33 8db8 1e0c 90bd 8df8 1c3e
000000c0: 62d1 1037 7cc5 e33b 9151 d03c 0c25 09be
000000d0: 462a 83b9 0c2e 0c3d f96c 28bd 2fd4 a23c
000000e0: da64 943d 17b0 24b8 8274 a3bd ee71 c23d
000000f0: 398e ec3d 48d3 213e 148d 573d 8ff7 21b7
00000100: d093 8cbd c85e 21b8 9541 133e ce02 983c
00000110: 2c28 ad3c 301c aab7 04c0 413c 54f9 18bd
00000120: e1e5 1c3e 33a3 98bd 2123 1cbe 59fa 4c3c
00000130: c52b 21be a915 76bc df8d 29b9 0de1 6137
00000140: 515b f1bd e84a 6c38 4eab 8cbc 8964 d83d
00000150: e79a 203e e7a6 02be 2c30 89bc df1f 8bb8
00000160: 1985 0a3e fc31 dabd 170a f339 cb0e cd3c
00000170: 532d 3dbc 8096 813d 3863 653d 1c07 56bd
00000180: 5d0e 09be 53fb cb3d 64e8 44bc 5c5a 36bc
00000190: c6d5 133e ea67 143e 7891 07bd 2d96 09be
000001a0: 40e0 553d effe 7bb8 c357 1ebe 1fd8 cc3d
000001b0: 4225 a837 4c2c a237 adfa c33d 000c a13c
000001c0: 34e2 90b8 5bbc 4c38 05e8 1ebd 9489 26be
000001d0: 7ba6 53bb 7797 7d3d 90d6 d6b7 377c d6bd
000001e0: bcc8 93bd 81ee a3bd bf1f 6a3d 9270 00bc
000001f0: bfb7 e8b8 e269 4eb7 a276 b43b f089 d13d
00000200: 2f8c e7bc 8d76 213e 677b 09be f4b6 4a3b
00000210: 5605 ca3d 4029 d23c 9780 513d bd3c 0f3d
00000220: 40e4 063e 9d00 d6ba b54e d7bd 2bca b13d
00000230: d7b9 c8bc 4b7a 01be 8335 6f3c c170 9e3d
00000240: cd22 03be b11a e6b7 9f3d 85bd ba80 b3bd
00000250: 3d20 13be e796 acbb b0c1 6d3d 65ca d5b7
00000260: da7d 00bd 73b6 1f3d d7c8 4fb8 337d a7bd
00000270: fc9c 063e ac80 223e 3e22 82b8 2794 08be
00000280: e80e 833d 0a7a 04be a573 c53d 473d a5b8
00000290: cc96 893c bd8a 03be c438 21bd c02d 133e
000002a0: 1c1e 12bd 8f40 ee3d 149f 94bd e125 c7bb
000002b0: 08b0 153e 6f07 963d 532c a33d e0b1 f63d
000002c0: f4d8 debd 635a 563c 1678 1e3e 1fbe dc3b
000002d0: b17a 173e 7b2e eb3c fbcf 1c3c a261 b53d
000002e0: b6f1 e03d d82d eebd 66bc ea3b 8352 e0bd
000002f0: 620a 243e 6aaa c93d 9ed2 b33d 0e90 2fbd
00000300: 295e 423b a5fd 2e3d 8f82 adbc 6fec c6bd
00000310: 4219 d83d 2547 c0bd d133 b4bd 4384 5dbd
00000320: d360 d838 ef86 afbd 9383 25bc 8307 4bb8
00000330: edab 6dbd 8c92 04be dc24 0bbd a903 d4b6
00000340: a6ec 26be 353c 64bd 59ab 12bd ef1e 003e
00000350: 1119 323d dc2c f33d 179f 703d fabe 58bd
00000360: f248 f53d 658a 19be ab5e 46bd 7e94 3fbd
00000370: 3f3f b5bd 3625 09be 6c49 ecbd b95c cebd
00000380: e11f 0f3d 6d24 853d 0e8a cf3d ba7c b83d
00000390: 849f 1e3e db4a 8b3b 8455 af3d d2d4 a5bd
000003a0: c26b 9d3d ba3a fabd 6bd0 d2bd 9319 9bbd
000003b0: b329 d43d 7cdf fcbd fddb 9e3d 868f e73c
000003c0: 8f33 9c3b 89bf 023d c76f eabd b5d0 bb3d
000003d0: c525 1d3d f27b 7dbd bf66 a8bd a719 90b8
000003e0: 00ef 4fbd 9fcf b33a f759 103e 7345 9ebd
000003f0: b0c2 783c 531a 163e 3e1e 013e 7550 39bd

multihead_self_attention.multihead_attn.in_proj_bias f4 [96]
0.0 0.0 0.0 0.0 0.0 0.0 0.0 0.0
0.0 0.0 0.0 0.0 0.0 0.0 0.0 0.0
0.0 0.0 0.0 0.0 0.0 0.0 0.0 0.0
0.0 0.0 0.0 0.0 0.0 0.0 0.0 0.0
0.0 0.0 0.0 0.0 0.0 0.0 0.0 0.0
0.0 0.0 0.0 0.0 0.0 0.0 0.0 0.0
0.0 0.0 0.0 0.0 0.0 0.0 0.0 0.0
0.0 0.0 0.0 0.0 0.0 0.0 0.0 0.0
-0.0026525594 -0.010884899 0.02773327 -0.00915516 0.006964564 -0.0044541387 -0.015668621 -0.0022895664
-0.0072430144 -0.009915865 0.0034704076 0.031366277 0.009331768 -0.01091117 0.018145144 0.016550414
0.016083743 -0.009563366 0.0057395957 0.010177825 0.011907557 0.011200036 -0.011003354 -0.020713817
-0.0068525765 0.0042281547 -0.010249257 0.017484318 -0.0003852836 0.009285605 0.018329944 -0.006815742
00000000: 0000 0000 0000 0000 0000 0000 0000 0000
00000010: 0000 0000 0000 0000 0000 0000 0000 0000
00000020: 0000 0000 0000 0000 0000 0000 0000 0000
00000030: 0000 0000 0000 0000 0000 0000 0000 0000
00000040: 0000 0000 0000 0000 0000 0000 0000 0000
00000050: 0000 0000 0000 0000 0000 0000 0000 0000
00000060: 0000 0000 0000 0000 0000 0000 0000 0000
00000070: 0000 0000 0000 0000 0000 0000 0000 0000
00000080: 0000 0000 0000 0000 0000 0000 0000 0000
00000090: 0000 0000 0000 0000 0000 0000 0000 0000
000000a0: 0000 0000 0000 0000 0000 0000 0000 0000
000000b0: 0000 0000 0000 0000 0000 0000 0000 0000
000000c0: 0000 0000 0000 0000 0000 0000 0000 0000
000000d0: 0000 0000 0000 0000 0000 0000 0000 0000
000000e0: 0000 0000 0000 0000 0000 0000 0000 0000
000000f0: 0000 0000 0000 0000 0000 0000 0000 0000
00000100: 90d6 2dbb 9356 32bc e230 e33c 86ff 15bc
00000110: ff36 e43b 06f4 91bb 7b5b 80bc 8d0c 16bb
00000120: cf56 edbb 2776 22bc c76f 633b ed79 003d
00000130: 46e4 183c c4c4 32bc 20a5 943c bc94 873c
00000140: 0ec2 833c aaaf 1cbc 3813 bc3b e4c0 263c
00000150: ea17 433c 5b80 373c 6947 34bc 06b0 a9bc
00000160: 948b e0bb 558c 8a3b 80ec 27bc 463b 8f3c
00000170: e4ff c9b9 a622 183c ae28 963c 9656 dfbb

multihead_self_attention.multihead_attn.out_proj.weight f4 [32, 32]
-0.09766557 -0.18101637 -0.016725065 -0.12138835 0.11801767 0.09061799 0.09825703 -0.017439697
-0.06972477 -0.087696075 0.069375284 -0.14923622 -0.10672354 -0.14550243 0.15077233 0.012534835
0.07937491 -0.098990805 0.06797572 -0.18679646 0.044368733 0.1386487 -0.02259454 0.13389337
0.10591862 0.1741066 0.04459568 -0.08504472 -0.017864281 0.106201306 0.14099155 -0.13470139
0.016719883 0.0020216901 0.02824376 -0.09316358 -0.009165258 -0.116469584 -0.002570245 0.13987201
-0.09236304 -0.012016695 -0.164895 0.13125582 -0.014245676 0.06817658 -0.07261174 -0.120376095
-0.028663954 0.09200885 -0.01047588 0.09390417 0.031978395 -0.03799014 0.09103445 -0.1164677
-0.16503179 -0.0082851 -0.026793284 0.08620964 0.01921309 -0.09518716 0.0386486 -0.12091419
-0.14435846 0.15003821 0.022343216 -0.14346641 0.06606802 0.06021226 -0.04234804 -0.11959436
0.02135575 -0.14984486 -0.049840458 0.08399636 -0.039493002 -0.14843705 0.07766129 0.09270076
-0.17726564 -0.018643377 -0.10736532 -0.0966312 -0.072257906 0.13795966 0.14459129 0.1334062
-0.024404863 0.07790117 -0.18031289 -0.023310635 -0.11649044 0.11450376 -0.080853485 0.12267998
-0.028837835 -0.17111273 -0.042807057 0.16812481 0.12681329 0.14111663 -0.13860044 -0.09640568
-0.050422534 0.0381987 0.111955635 -0.004017038 -0.11557262 -0.07410874 0.063909724 0.05290826
-0.08088417 -0.1546358 0.006593577 0.012834405 0.052633975 0.101140834 -0.09561916 0.14901324
-0.11087352 0.16418429 -0.14126857 -0.13259988 0.082573496 0.13057183 -0.11515483 -0.1098524
0.052724846 -0.008462381 0.049471416 0.05780095 0.11130342 -0.13382842 0.12481873 0.1566845
-0.017432079 -0.119889125 0.032157127 -0.15391831 0.081734195 0.13408622 0.13564618 -0.0154466815
-0.07827081 0.033599682 0.032899432 -0.045432016 0.034485057 0.038145944 0.036893934 0.105299376
-0.028458947 0.098012716 -0.059271418 -0.092034616 0.005730345 -0.178571 0.08587644 0.00938426
-0.07559514 0.028900765 -0.09192212 -0.12512824 0.12969795 -0.12754829 0.12986422 0.11313721
0.089261755 -0.093512245 -0.16057843 -0.13667172 -0.035736628 -0.10243252 -0.11245357 0.12272957
0.066416174 -0.012911441 -0.09940281 -0.16404158 0.07026348 0.16865994 -0.016200192 -0.07350074
0.0054636043 -0.08096476 0.0029265988 -0.11809426 -0.066709235 -0.020945163 0.087900385 -0.14367406
0.12081503 -0.14048216 0.028410606 -0.14963944 -0.06514354 -0.027341457 -0.12958254 0.11873321
0.12811257 -0.10664646 -0.00995901 0.09146772 -0.120540634 -0.0859004 0.02835011 0.15687998
-0.097523555 0.1546116 0.10388563 -0.13738015 0.050198488 0.0014275258 -0.15414777 0.0819721
-0.023757972 -0.1822328 0.18497021 -0.032393716 -0.1007334 0.03148326 0.026149482 0.027936673
-0.13805076 -0.10087339 0.036481574 0.09293735 -0.064384885 0.10919312 -0.051455386 -0.08209881
-0.1333187 -0.019051488 0.1341736 0.11258259 -0.11430045 -0.028515644 0.014680327 0.026985072
-0.14900093 -0.17652555 0.15664653 -0.051898748 0.034902208 -0.038439523 0.09648162 -0.07734154
0.10065516 -0.08407784 -0.015853366 -0.022968203 -0.109797195 -0.16553426 -0.18076664 -0.13790807
00000000: e304 c8bd 5b5c 39be 0103 89bc 759a f8bd
00000010: 40b3 f13d ed95 b93d fb3a c93d b2dd 8ebc
00000020: dccb 8ebd 009a b3bd a114 8e3d 61d1 18be
00000030: df91 dabd 97fe 14be 1064 1a3e e95e 4d3c
00000040: 508f a23d b1bb cabd db36 8b3d 9247 3fbe
00000050: fdbb 353d edf9 0d3e 2f18 b9bc 581b 093e
00000060: ddeb d83d 0049 323e f6a9 363d ed2b aebd
00000070: 1d58 92bc 1280 d93d 1760 103e 29ef 09be
00000080: 23f8 883c 557e 043b 755f e73c 8ccc bebd
00000090: e129 16bc 9b87 eebd 8e71 28bb 9c3a 0f3e
000000a0: d528 bdbd ace1 44bc 3cda 28be ed67 063e
000000b0: b266 69bc 2aa0 8b3d 77b5 94bd be87 f6bd
000000c0: abd0 eabc 236f bc3d 06a3 2bbc d450 c03d
000000d0: c7fb 023d 8d9b 1bbd 4570 ba3d 9e86 eebd
000000e0: 18fe 28be 3abe 07bc 977d dbbc ae8e b03d
000000f0: c564 9d3c 7cf1 c2bd ff4d 1e3d dca1 f7bd
00000100: b4d2 13be 9ea3 193e 1f09 b73c dce8 12be
00000110: ac4e 873d 21a1 763d 2375 2dbd e3ed f4bd
00000120: 41f2 ae3c ee70 19be 8225 4cbd 4906 ac3d
00000130: 6ac3 21bd e2ff 17be e20c 9f3d e5d9 bd3d
00000140: 2085 35be ffb9 98bc 59e2 dbbd 94e6 c5bd
00000150: f4fb 93bd 4c45 0d3e bd0f 143e a39b 083e
00000160: b5ec c7bc a68a 9f3d f1a3 38be f2f5 bebc
00000170: 8a92 eebd f380 ea3d 8396 a5bd a43f fb3d
00000180: 533d ecbc 2d38 2fbe 7456 2fbd e928 2c3e
00000190: 58db 013e e180 103e 46ed 0dbe 5770 c5bd
000001a0: dc87 4ebd 3d76 1c3d ff48 e53d 5ba1 83bb
000001b0: 56b1 ecbd 53c6 97bd 1ae3 823d 55b6 583d
000001c0: 9aa6 a5bd d958 1ebe ef0e d83b 6547 523c
000001d0: b996 573d ed22 cf3d fad3 c3bd ed96 183e
000001e0: a811 e3bd ed1f 283e b5a8 10be 43c8 07be
000001f0: 4b1c a93d 9fb4 053e 4cd6 ebbd 4cfa e0bd
00000200: 02f6 573d cca5 0abc 8aa2 4a3d b0c0 6c3d
00000210: 0cf3 e33d 510a 09be f6a0 ff3d e771 203e
00000220: b8cd 8ebc 6e88 f5bd 31b7 033d c39c 1dbe
00000230: 4264 a73d e64d 093e d5e6 0a3e 1414 7dbc
00000240: 724c a0bd d29f 093d 8ec1 063d ec16 3abd
00000250: 3440 0d3d ec3e 1c3d 181e 173d 33a7 d73d
00000260: bd22 e9bc e4ba c83d 96c6 72bd a57c bcbd
00000270: 9ec5 bb3b 51db 36be fddf af3d 70c0 193c
00000280: a0d1 9abd 4cc1 ec3c aa41 bcbd 9e21 00be
00000290: 8acf 043e 059c 02be 20fb 043e 7bb4 e73d
000002a0: dece b63d 5983 bfbd ac6e 24be acf3 0bbe
000002b0: 9260 12bd 24c8 d1bd 0f4e e6bd a459 fb3d
000002c0: 3405 883d 828a 53bc b393 cbbd 84fa 27be
000002d0: 4de6 8f3d 31b5 2c3e 44b6 84bc 8e87 96bd
000002e0: 0908 b33b dad0 a5bd 2ecc 3f3b 67db f1bd
000002f0: da9e 88bd 3195 abbc 1e05 b43d 4b1f 13be
00000300: df6d f73d 8eda 0fbe 5cbd e83c 153b 19be
00000310: fa69 85bd 31fb dfbc 49b1 04be 662a f33d
00000320: f12f 033e 7669 dabd 1e2b 23bc 6e53 bb3d
00000330: 02de f6bd 8dec afbd 7d3e e83c 25a5 203e
00000340: 6eba c7bd 8152 1e3e fdc1 d43d 62ad 0cbe
00000350: ee9c 4d3d d11b bb3a ead8 1dbe fde0 a73d
00000360: 14a0 c2bc 3c9b 3abe d568 3d3e 46af 04bd
00000370: 504d cebd 97f4 003d 7037 d63c 73db e43c
00000380: 2e5d 0dbe b596 cebd b46d 153d f055 be3d
00000390: 39dc 83bd a4a0 df3d e2c2 52bd 6c23 a8bd
000003a0: b384 08be de11 9cbc ce64 093e b391 e63d
000003b0: 5b16 eabd a499 e9bc c185 703c cc0f dd3c
000003c0: b393 18be 1dc3 34be f367 203e c893 54bd
000003d0: 9ef5 0e3d c372 1dbd 2898 c53d 3e65 9ebd
000003e0: 4b24 ce3d 0131 acbd ebde 81bc d027 bcbc
000003f0: 5add e0bd d081 29be e41a 39be c637 0dbe

multihead_self_attention.multihead_attn.out_proj.bias f4 [32]
0.0012221268 -0.0013684815 0.003473278 0.0016300454 -0.018622236 0.002525293 -0.013760997 0.010590907
0.0088160895 -0.008233839 0.012544799 0.0090469625 -0.013775456 0.007144999 0.011848614 0.008075663
0.0038760402 -0.019889325 0.014516691 0.015374211 -0.0071344655 -0.008417696 0.007966224 -0.03399125
-0.0103126215 -0.019624144 -0.01632343 -0.007870076 0.01316686 0.0072062165 -0.01242289 0.014615889
00000000: c52f a03a 9f5e b3ba ef9f 633b 3fa7 d53a
00000010: a98d 98bc 637f 253b ce75 61bc 7c85 2d3c
00000020: 5c71 103c 39e7 06bc b388 4d3c b639 143c
00000030: 73b2 61bc 9920 ea3b b020 423c c94f 043c
00000040: 2a05 7e3b f0ee a2bc 6ad7 6d3c 1de4 7b3c
00000050: 3cc8 e9bb 60ea 09bc c484 023c 693a 0bbd
00000060: 45f6 28bc d0c2 a0bc b7b8 85bc 7ef1 00bc
00000070: d0b9 573c 2022 ec3b 6189 4bbc 7b77 6f3c

multihead_self_attention.fc.weight f4 [6, 32]
-0.030578295 -0.09062159 0.045886602 -0.115297414 0.088581696 0.1569641 0.10859516 0.0010532388
0.0260671 0.08731797 -0.18124062 0.16111414 0.05548241 -0.17369546 -0.10864606 -0.17185928
0.109111264 -0.020479443 0.12016032 -0.08700047 0.008960546 -0.07942516 -0.069593936 -0.028967539
0.12611008 0.0665078 -0.10161193 0.08007823 0.13928726 -0.17699464 -0.05544817 -0.09396723
-0.035267323 -0.17320889 0.007031606 -0.09947141 -0.06391356 -0.010483422 -0.07809086 0.024338413
-0.0974751 0.09024704 -0.013675954 -0.09831464 -0.11841375 -0.005762148 0.11344505 0.01728151
0.060131755 -0.12347145 0.041065946 0.05157766 0.003034214 -0.06195473 0.15524971 -0.18366599
-0.112302676 -0.19407918 -0.060800098 0.0008789278 0.022119308 -0.053166285 -0.107366495 0.17145455
-0.025155047 0.06445526 -0.04106892 -0.17891149 -0.019585585 -0.12452552 0.059396937 -0.1776286
0.110854015 -0.044925075 -0.038506053 -0.1629426 0.00027403556 -0.113363765 -0.13837127 0.018375624
0.07942834 0.061226603 -0.06652743 -0.119801536 -0.040841177 0.14607395 0.12104428 0.13511199
0.1826574 0.022360997 0.16533697 0.08277601 -0.077083394 -0.112333074 0.13083576 -0.106724024
-0.013223897 -0.13165426 -0.15586339 0.12481994 -0.02252058 -0.098036006 0.14123979 0.16475822
0.015308802 -0.14168717 0.038663153 0.17014118 -0.11948433 -0.15004912 0.079599366 0.10961884
0.14184678 0.14537585 0.06555076 0.004379767 -0.13276403 -0.044701643 -0.06641226 0.07837793
-0.12558919 -0.120571986 -0.054373257 0.12214841 0.024428284 -0.1329805 0.11852463 -0.18104091
0.16332813 0.10256131 0.054448973 0.040247828 0.1066861 0.088566706 0.08250159 -0.050550938
-0.12886545 0.08787958 -0.11858585 -0.03284093 0.089539364 0.09596408 -0.08054072 0.012733702
-0.13818316 0.15927449 -0.13090558 -0.1287033 0.0025512544 -0.092502475 -0.2037536 0.06828346
-0.00017770065 0.1250609 0.12015343 -0.07656704 -0.083110385 0.09557058 -0.043458417 -0.07201698
-0.12292534 -0.14066288 -0.08555437 0.11217106 -0.0094797965 0.019631436 0.1321062 -0.02422538
-0.09364179 0.14841187 -0.032042142 -0.099576436 0.17136118 -0.0844293 -0.10359689 -0.15577012
0.029288644 0.06590089 -0.103420444 0.012798245 0.005269401 0.1207811 0.018315226 -0.12251809
0.07186628 -0.107398815 0.018852828 0.1585104 -0.13212426 -0.19128995 -0.067828014 -0.1250093
00000000: 557f fabc d097 b9bd 97f3 3b3d 0d21 ecbd
00000010: 526a b53d 32bb 203e 2467 de3d d40c 8a3a
00000020: ac8a d53c c4d3 b23d 2497 39be 1bfb 243e
00000030: 8641 633d 39dd 31be d381 debd e1fb 2fbe
00000040: ba75 df3d 81c4 a7bc 9d16 f63d 4d2d b2bd
00000050: 41cf 123c a9a9 a2bd 4487 8ebd 554d edbc
00000060: 0023 013e 3e35 883d ea19 d0bd 0e00 a43d
00000070: 52a1 0e3e 153e 35be 9f1d 63bd e471 c0bd
00000080: 7874 10bd ac5d 31be 6369 e63b abb7 cbbd
00000090: 1de5 82bd a9c2 2bbc 1aee 9fbd 5a61 c73c
000000a0: 06a1 c7bd 71d3 b83d 1c11 60bc 3059 c9bd
000000b0: e882 f2bd 67d0 bcbb e155 e83d f491 8d3c
000000c0: b74c 763d 99de fcbd c434 283d 1943 533d
000000d0: aad9 463b 3ec4 7dbd c8f9 1e3e f012 3cbe
000000e0: f2fe e5bd b1bc 46be 8609 79bd d967 663a
000000f0: 8d33 b53c e4c4 59bd f7e2 dbbd c891 2f3e
00000100: f511 cebc 1f01 843d e237 28bd 9334 37be
00000110: f371 a0bc 3c07 ffbd 344a 733d 46e4 35be
00000120: 6e07 e33d 5b03 38bd 86b8 1dbd 6dda 26be
00000130: 6eac 8f39 432b e8bd 33b1 0dbe 7a88 963c
00000140: 53ab a23d bfc8 7a3d 893f 88bd 825a f5bd
00000150: 1449 27bd 6994 153e 10e6 f73d cc5a 0a3e
00000160: 8b0a 3b3e 692e b73c 184e 293e 7886 a93d
00000170: e6dd 9dbd e20e e6bd cff9 053e 2092 dabd
00000180: 0ba9 58bc 60d0 06be a79a 1fbe 99a1 ff3d
00000190: 147d b8bc 1ac7 c8bd 2aa1 103e 61b6 283e
000001a0: c5d1 7a3c 7116 11be 415d 1e3d 7d39 2e3e
000001b0: 33b4 f4bd 7aa6 19be fe04 a33d d87f e03d
000001c0: 4840 113e 68dd 143e 7a3f 863d 2684 8f3b
000001d0: 4bf3 07be 1219 37bd 2703 88bd 9c84 a03d
000001e0: 749a 00be 72ee f6bd 7eb6 5ebd f228 fa3d
000001f0: d31d c83c 0a2c 08be 0bbd f23d ca62 39be
00000200: 7d3f 273e aa0b d23d e305 5f3d e8da 243d
00000210: 3e7e da3d 7662 b53d 98f6 a83d 800e 4fbd
00000220: 4ef5 03be 36fa b33d 23dd f2bd 3684 06bd
00000230: 6a60 b73d d188 c43d 88f2 a4bd 04a1 503c
00000240: e37f 0dbe da18 233e 1d0c 06be ccca 03be
00000250: f232 273b f071 bdbd c9a4 50be 33d8 8b3d
00000260: 2855 3ab9 f70f 003e 0013 f63d 2ecf 9cbd
00000270: c735 aabd 82ba c33d 7401 32bd a37d 93bd
00000280: 48c0 fbbd ee09 10be 2137 afbd f1b9 e53d
00000290: 2651 1bbc 1bd2 a03c d946 073e 4e74 c6bc
000002a0: 44c7 bfbd 48f9 173e 9f3e 03bd bbee cbbd
000002b0: 4e79 2f3e 45e9 acbd 9b2a d4bd 3482 1fbe
000002c0: bdee ef3c 0cf7 863d 19ce d3bd bbaf 513c
000002d0: f0aa ac3b 155c f73d d009 963c c4ea fabd
000002e0: a12e 933d e9f3 dbbd 3f71 9a3c 8d50 223e
000002f0: 954b 07be 83e1 43be 6ae9 8abd 7002 00be

multihead_self_attention.fc.bias f4 [6]
0.14890887 0.08806341 0.08409093 0.16613527 0.11608649 0.02103161
00000000: 917b 183e 975a b43d de37 ac3d 5d1f 2a3e
00000010: c1be ed3d 7c4a ac3c

fc.weight f4 [6, 6]
-0.25355047 0.24346542 0.100061536 -0.41453794 0.07066657 0.11849708 -0.11558741 7.601073e-05
-0.17679818 0.038927753 0.1018587 -0.14577098 0.29867753 0.04173892 -0.104988776 0.28387368
-0.25063458 0.18835185 -0.11209633 0.17171557 0.13904811 0.17679119 -0.30170104 -0.14902407
0.2097187 -0.070749626 0.21984357 -0.3338939 0.3619663 0.34959787 -0.39141303 -0.11190346
0.30760083 0.26810098 0.0022189096 0.07949345
00000000: 5ed1 81be 004f 793e 10ed cc3d 513e d4be
00000010: a2b9 903d 99ae f23d 18b9 ecbd f367 9f38
00000020: 950a 35be b572 1f3d 4b9b d03d fd44 15be
00000030: 43ec 983e 6ef6 2a3d 5b04 d7bd e457 913e
00000040: 2d53 80be 4fdf 403e c392 e5bd 35d6 2f3e
00000050: a162 0e3e c008 353e 8f78 9abe c499 18be
00000060: 80c0 563e 2ee5 90bd ac1e 613e 24f4 aabe
00000070: a653 b93e 7efe b23e 4a67 c8be a42d e5bd
00000080: db7d 9d3e 8844 893e 206b 113b 76cd a23d

fc.bias f4 [6]
-0.0050769597 0.2748462 0.046127815 -0.043448463 0.3893173 -0.34487966
00000000: a05c a6bb a4b8 8c3e 85f0 3c3d 04f7 31bd
00000010: 9954 c73e 1194 b0be
