trained_weights/theia/selfattention4.pth (torch, 20623 bytes, 8 tensors)

multihead_self_attention.multihead_attn.in_proj_weight f4 [96, 32]
0	0x3e1ea064	0.15490872
1	0xbd98ec20	-0.07466912
2	0xbafad1be	-0.0019135994
3	0xbd5acdfb	-0.053419095
4	0x3ce67c02	0.028135303
5	0x3a15f126	0.0005719833
6	0x3e3aa47e	0.18226811
7	0x3dff9b54	0.12480798
8	0xbe08affd	-0.13348384
9	0xbd5f1de1	-0.054471854
10	0xbd521ca5	-0.05129685
11	0x3e39c9e0	0.18143415
12	0xbdc31161	-0.09524799
13	0x3dbf5015	0.09341446
14	0x3d847eab	0.064694725
15	0xbcddd946	-0.027081143
16	0x3da73ccf	0.08165895
17	0xbdb027bc	-0.08601329
18	0x3e1eca95	0.15506966
19	0xbde0aa26	-0.10969953
20	0xbe01a606	-0.12660989
21	0xbddd9b2f	-0.108206145
22	0x3dd4af96	0.10385053
23	0xbd8544d0	-0.065072656
24	0x3e3eb058	0.18621957
25	0x3cf34a11	0.029698404
26	0xb82306d0	-3.8868573e-05
27	0x3d9cf40b	0.07663735
28	0x3bde0c7f	0.006776392
29	0xbe1ab562	-0.15108255
30	0x3dbf872b	0.09351953
31	0x3d97ce03	0.074123405
32	0x3da3af4a	0.07992418
33	0xbd6a04a4	-0.057133332
34	0x3dd49fff	0.10382079
35	0x3e3f2c56	0.18669257
36	0xbc05cf01	-0.008167029
37	0xbdc672ee	-0.0968989
38	0x3dcde987	0.100543074
39	0x3d394608	0.045232803
40	0x3d2fa2cc	0.042879865
41	0x3d8e301a	0.069427684
42	0xbdff8c56	-0.12477939
43	0xbd0f32fc	-0.034960732
44	0xbdab8516	-0.083749935
45	0x3a3c7904	0.00071896636
46	0xbdbc0772	-0.091811076
47	0x3e34ce38	0.17656791
48	0xb94808ac	-0.00019076717
49	0x3ca4f288	0.02013518
50	0x3d323a1a	0.04351244
51	0xbe20b742	-0.15694907
52	0xbbca0df5	-0.0061662146
53	0x3d5ab034	0.053390697
54	0xbd798bdd	-0.0609244
55	0x3d17a95f	0.03702676
56	0x3dc08b98	0.094016254
57	0xb9e49a28	-0.00043602404
58	0xbdd02468	-0.10163194
59	0x3df00897	0.117203884
60	0x3e0d8897	0.13821636
61	0x3e39b75c	0.18136352
62	0x3d95fd33	0.073236845
63	0x39140327	0.00014115554
64	0xbdb86b1f	-0.09004807
65	0xb98481df	-0.00025273763
66	0x3e2af80d	0.16696186
67	0x3d112c71	0.035442773
68	0x3d1dc984	0.03852226
69	0xba221011	-0.00061822037
70	0x3cdd0779	0.026981102
71	0xbd68bd65	-0.056821246
72	0x3e34bb53	0.17649584
73	0xbdc4f296	-0.09616582
74	0xbe33f63b	-0.17574398
75	0x3ce46821	0.027881684
76	0xbe390df2	-0.18071726
77	0xbcfeb684	-0.03109289
78	0x3b433231	0.0029784555
79	0xb94d0d48	-0.00019555271
80	0xbe0ffa83	-0.14060406
81	0xbb8ee19b	-0.0043603904
82	0xbd0a4822	-0.033760197
83	0x3e033fa3	0.12817244
84	0x3e387b6b	0.1801583
85	0xbe1a1f70	-0.15051055
86	0xbd08256f	-0.033238824
87	0x3a14084d	0.0005646989
88	0x3e221c7b	0.15831177
89	0xbe042b55	-0.12907155
90	0x3be6fcb1	0.007049166
91	0x3d305ad7	0.04305538
92	0xbcd9ff35	-0.02661095
93	0x3dacf2c7	0.084447436
94	0x3d9d4daa	0.07680829
95	0xbd952e81	-0.072842605
96	0xbe20a03b	-0.15686123
97	0x3df9ce11	0.12197507
98	0xbcdf1d12	-0.027235541
99	0xbcd570b2	-0.026054714
100	0x3e2b8e32	0.16753462
101	0x3e2c223f	0.16809939
102	0xbd5596a9	-0.052145634
103	0xbe212a11	-0.15738703
104	0x3d9519e8	0.07280332
105	0x3a4752be	0.0007603577
106	0xbe363191	-0.17792346
107	0x3dfab016	0.12240617
108	0xb90ab94d	-0.00013229735
109	0x3a236e2f	0.0006234375
110	0x3df19b4b	0.11797198
111	0x3d169923	0.036767136
112	0x3a242b62	0.0006262568
113	0xb9bdee4f	-0.00036226443
114	0xbd6f363f	-0.058401342
115	0xbe3e7afa	-0.186016
116	0xbc63a194	-0.013893504
117	0x3daa0661	0.08301998
118	0xb9956c0e	-0.00028500002
119	0xbe024628	-0.12722075
120	0xbdbfe980	-0.093707085
121	0xbdd0a270	-0.101872325
122	0x3d9fccbc	0.07802722
123	0xbcafc795	-0.021457473
124	0x3a8d4ec1	0.0010780917
125	0x39807b77	0.0002450605
126	0x3c9274c4	0.017877944
127	0x3dff7db9	0.124751516
128	0xbd3f7297	-0.04674014
129	0x3e395993	0.18100576
130	0xbe210ee3	-0.15728335
131	0x3c5f4fd4	0.013629872
132	0x3df7cc11	0.120994695
133	0x3d33486e	0.043770246
134	0x3d92c7cf	0.07167017
135	0x3d5e0f05	0.054213542
136	0x3e1e6dc5	0.15471561
137	0xbc2bc118	-0.010483049
138	0xbe02b1b7	-0.12763105
139	0x3ddeec4f	0.10884916
140	0xbd2ddc70	-0.042446554
141	0xbe18edf4	-0.14934522
142	0x3cfa6197	0.030564113
143	0x3dcaf51c	0.09910032
144	0xbe1a9d55	-0.1509908
145	0xb9ac39ca	-0.00032849453
146	0xbdb0c462	-0.08631207
147	0xbde0af98	-0.10970992
148	0xbe2ad644	-0.16683298
149	0xbc8f3f2d	-0.01748618
150	0x3da1b645	0.07896093
151	0x39250ae2	0.0001573968
152	0xbd4db8fa	-0.050225236
153	0x3d7016f3	0.058615636
154	0x39f3d265	0.00046505328
155	0xbdd44eb7	-0.10366576
156	0x3e1e256b	0.15443961
157	0x3e3a66b2	0.18203238
158	0x3a457b65	0.0007533341
159	0xbe202432	-0.15638807
160	0x3dae7c7e	0.08519839
161	0xbe1bfa00	-0.15232086
162	0x3df31db7	0.11870902
163	0x3b885470	0.0041604564
164	0x3d086488	0.033299
165	0xbe1b06ec	-0.15139359
166	0xbd71bb2d	-0.059016395
167	0x3e2ae3f7	0.16688524
168	0xbd6139fc	-0.05498694
169	0x3e0e65d2	0.13906029
170	0xbdc0c808	-0.09413153
171	0xbc99e8ec	-0.018787824
172	0x3e2d6e9d	0.16936727
173	0x3dc23e05	0.094844855
174	0x3dcfd9cf	0.101489656
175	0x3e12b20a	0.14325729
176	0xbe068b55	-0.13139088
177	0x3cea7f97	0.028625293
178	0x3e365242	0.17804816
179	0x3ca24685	0.019809017
180	0x3e2f3f1f	0.17113923
181	0x3d417fc1	0.047240976
182	0x3cc40207	0.023926748
183	0x3de29e43	0.11065342
184	0x3e079d39	0.1324357
185	0xbe0e5c48	-0.1390239
186	0x3ca79278	0.020455584
187	0xbe074bfe	-0.13212582
188	0x3e3bf4cd	0.18355103
189	0x3df76ef7	0.12081712
190	0x3de103d8	0.10987061
191	0xbd80a0e1	-0.06280685
192	0x3c5b37fe	0.013380049
193	0x3d8051f2	0.0626563
194	0xbd1dfed9	-0.03857312
195	0xbdf49fdb	-0.119445525
196	0x3e03192f	0.12802576
197	0xbdedcf82	-0.116118446
198	0xbde167d7	-0.11006134
199	0xbd99258d	-0.07477865
200	0xba819406	-0.0009886033
201	0xbddc97fc	-0.10771176
202	0xbcca04ee	-0.024660554
203	0x3b910b02	0.004426361
204	0xbda1aacc	-0.07893905
205	0xbe1c12e7	-0.15241586
206	0xbd598b66	-0.053111456
207	0x38aef723	8.342999e-05
208	0xbe3edf1d	-0.18639798
209	0xbd9cb204	-0.07651141
210	0xbd61d51a	-0.05513487
211	0x3e178ce7	0.14799844
212	0x3d81fe90	0.06347382
213	0x3e10e781	0.14150812
214	0x3da337f4	0.079696566
215	0xbd969f3d	-0.07354591
216	0x3e11fa5f	0.14255665
217	0xbe315567	-0.17317735
218	0xbd8cdb25	-0.06877736
219	0xbd893ab6	-0.06700651
220	0xbde27ae8	-0.11058599
221	0xbe20b76c	-0.1569497
222	0xbe0d6588	-0.13808262
223	0xbdfc3dcc	-0.12316474
224	0x3d5def3c	0.05418323
225	0x3db0aa0f	0.08626186
226	0x3dfd721f	0.123752825
227	0x3de5cfa3	0.11221244
228	0x3e367a28	0.17820036
229	0x3c812368	0.015763953
230	0x3ddc6512	0.10761465
231	0xbdd298ab	-0.10283025
232	0x3dc9e704	0.09858516
233	0xbe147e57	-0.1450132
234	0xbe0065cf	-0.12538837
235	0xbdc77fc6	-0.09741168
236	0x3e011654	0.12606174
237	0xbe15d67d	-0.14632602
238	0x3dcb6412	0.09931196
239	0x3d3f7477	0.04674193
240	0x3c886b87	0.016652836
241	0x3d503c88	0.050838977
242	0xbe0c7438	-0.13716209
243	0x3de93adf	0.11388182
244	0x3d6d4bb6	0.05793353
245	0xbda9f7f9	-0.0829925
246	0xbdd53fb4	-0.10412541
247	0x3a2106fc	0.00061427034
248	0xbd91f27b	-0.071263276
249	0x3c2104a1	0.009827764
250	0x3e280672	0.16408709
251	0xbdcac84a	-0.09901483
252	0x3d00322e	0.031297855
253	0x3e2dda48	0.16977799
254	0x3e189068	0.14898837
255	0xbd85df6e	-0.065367565

multihead_self_attention.multihead_attn.in_proj_bias f4 [96]
0	0x00000000	0.0
1	0x00000000	0.0
2	0x00000000	0.0
3	0x00000000	0.0
4	0x00000000	0.0
5	0x00000000	0.0
6	0x00000000	0.0
7	0x00000000	0.0
8	0x00000000	0.0
9	0x00000000	0.0
10	0x00000000	0.0
11	0x00000000	0.0
12	0x00000000	0.0
13	0x00000000	0.0
14	0x00000000	0.0
15	0x00000000	0.0
16	0x00000000	0.0
17	0x00000000	0.0
18	0x00000000	0.0
19	0x00000000	0.0
20	0x00000000	0.0
21	0x00000000	0.0
22	0x00000000	0.0
23	0x00000000	0.0
24	0x00000000	0.0
25	0x00000000	0.0
26	0x00000000	0.0
27	0x00000000	0.0
28	0x00000000	0.0
29	0x00000000	0.0
30	0x00000000	0.0
31	0x00000000	0.0
32	0x00000000	0.0
33	0x00000000	0.0
34	0x00000000	0.0
35	0x00000000	0.0
36	0x00000000	0.0
37	0x00000000	0.0
38	0x00000000	0.0
39	0x00000000	0.0
40	0x00000000	0.0
41	0x00000000	0.0
42	0x00000000	0.0
43	0x00000000	0.0
44	0x00000000	0.0
45	0x00000000	0.0
46	0x00000000	0.0
47	0x00000000	0.0
48	0x00000000	0.0
49	0x00000000	0.0
50	0x00000000	0.0
51	0x00000000	0.0
52	0x00000000	0.0
53	0x00000000	0.0
54	0x00000000	0.0
55	0x00000000	0.0
56	0x00000000	0.0
57	0x00000000	0.0
58	0x00000000	0.0
59	0x00000000	0.0
60	0x00000000	0.0
61	0x00000000	0.0
62	0x00000000	0.0
63	0x00000000	0.0
64	0xbc48ff4f	-0.012267902
65	0xbc44eb07	-0.0120189255
66	0x3c9d6dca	0.01921739
67	0xbc4e0de8	-0.012576558
68	0x3b8e1822	0.004336373
69	0x3be0c976	0.0068599535
70	0xbc1c0f0d	-0.009525073
71	0x3b2d5ac6	0.002645181
72	0xbc4b379e	-0.012403397
73	0xbc5e0534	-0.013551045
74	0xbb0a5640	-0.0021108538
75	0x3c6b9c3d	0.014380512
76	0x3c3af47f	0.0114108315
77	0xbc379d17	-0.011206887
78	0x3c8be3b0	0.017076343
79	0x3c667eaa	0.014068285
80	0x3c5f37c8	0.013624139
81	0xbc4f7935	-0.012663175
82	0x3c1dd89e	0.009634165
83	0x3c2ef01f	0.0106773665
84	0x3c4ebabb	0.012617762
85	0x3c4bbbb0	0.012434885
86	0xbc1bfc40	-0.00952059
87	0xbc288f62	-0.010288091
88	0xbc41ebcb	-0.011836003
89	0x3c2ca209	0.010536679
90	0xbc561ccd	-0.01306839
91	0x3b6994d6	0.0035641692
92	0xbc44f075	-0.01202022
93	0x3c3606fa	0.011110062
94	0x3c220cbb	0.0098907305
95	0xbc439657	-0.011937699

multihead_self_attention.multihead_attn.out_proj.weight f4 [32, 32]
0	0xbdc2f78f	-0.09519874
1	0xbe3e1362	-0.18562081
2	0xbc2256ae	-0.009908361
3	0xbdfc5943	-0.12321713
4	0x3ddba407	0.10724645
5	0x3d9b0c15	0.07570664
6	0x3dc1a9f6	0.094562456
7	0xbd0c0b2f	-0.034190353
8	0xbd8c30c9	-0.068452425
9	0xbdb84428	-0.08997375
10	0x3da9ab50	0.082846284
11	0xbe010644	-0.12600046
12	0xbdd25474	-0.102700144
13	0xbe05d6a0	-0.13070154
14	0x3e1aafb4	0.15106088
15	0x3cc94f46	0.024573933
16	0x3dc89609	0.09794242
17	0xbdd54994	-0.104144245
18	0x3d5ea97e	0.05436086
19	0xbe39417f	-0.18091391
20	0x3d81e392	0.06342234
21	0x3e1c6fd5	0.15277036
22	0xbd130ae1	-0.035899047
23	0x3de72c15	0.11287705
24	0x3e050292	0.12989262
25	0x3e28db56	0.1648992
26	0x3d1d29a7	0.0383698
27	0xbd9c1076	-0.07620327
28	0x3aef4734	0.0018255473
29	0x3dc98afd	0.09840963
30	0x3e1b5688	0.15169728
31	0xbe01f5b2	-0.12691382
32	0x3caac31c	0.020844989
33	0x3a50ede5	0.00079700194
34	0x3d027031	0.031845275
35	0xbdb9c53d	-0.09070823
36	0xbc8d2a0c	-0.017231964
37	0xbe0301ff	-0.1279373
38	0xbc0776a4	-0.008268032
39	0x3e01b34f	0.12666057
40	0xbdbc4768	-0.09193307
41	0xbc399637	-0.011327318
42	0xbe1dc899	-0.15408553
43	0x3e190ccf	0.14946292
44	0xbc433516	-0.011914512
45	0x3db200c2	0.08691551
46	0xbd9c6647	-0.07636695
47	0xbde0024c	-0.10937938
48	0xbc5a7293	-0.013332981
49	0x3db8f58c	0.09031209
50	0xbca0deaa	-0.019637424
51	0x3dd5459b	0.10413667
52	0x3d3bbd99	0.04583511
53	0xbcd28c12	-0.025701556
54	0x3da1eec2	0.079068676
55	0xbe07fa86	-0.13279161
56	0xbe12fcd9	-0.14354266
57	0xbca7f9dd	-0.020504886
58	0xbcfdb497	-0.030969901
59	0x3dc165f6	0.09443276
60	0x3d11a48c	0.035557315
61	0xbddf3fda	-0.109008506
62	0x3d30701d	0.04307567
63	0xbdee374c	-0.11631641
64	0xbe0d7b6b	-0.13816611
65	0x3e1b601b	0.1517338
66	0x3ca972b3	0.020684576
67	0xbe0cc84a	-0.13748279
68	0x3d7e3d90	0.06207043
69	0x3d57cf98	0.05268821
70	0xbd3cf9d6	-0.0461367
71	0xbe04b3c1	-0.12959196
72	0x3ce034b3	0.027368879
73	0xbe16cd5d	-0.14726777
74	0xbd304f5e	-0.04304444
75	0x3dcbe352	0.09955467
76	0xbd2e8087	-0.042603042
77	0xbe062114	-0.13098556
78	0x3d998b79	0.074973054
79	0x3dd16978	0.10225195
80	0xbe27749d	-0.16353078
81	0xbc8aab7c	-0.016927473
82	0xbde6edc0	-0.11275816
83	0xbda5ac10	-0.08089459
84	0xbd7aa761	-0.06119478
85	0x3e139a36	0.14414296
86	0x3e056078	0.13025081
87	0x3df5e2a5	0.1200612
88	0xbbb104b1	-0.0054021706
89	0x3d895684	0.06705955
90	0xbe3826c3	-0.17983536
91	0xbc8134fa	-0.015772332
92	0xbdd09bb1	-0.10185946
93	0x3ddc162d	0.10746417
94	0xbd9e9916	-0.077440426
95	0x3e03fb39	0.12888803
96	0xbcfb7c76	-0.030698996
97	0xbe3ad0f3	-0.1824377
98	0xbcfc615b	-0.030808141
99	0x3e20974b	0.15682714
100	0x3de80617	0.113292865
101	0x3dfe9eb2	0.124326125
102	0xbe0b3593	-0.13594656
103	0xbdeb5c99	-0.11492271
104	0xbd4e3897	-0.050346937
105	0x3cf03058	0.029319927
106	0x3e02d737	0.1277741
107	0x3cb8089a	0.022465039
108	0xbdddb71b	-0.1082594
109	0xbd97d883	-0.07414343
110	0x3d9397d6	0.07206695
111	0x3d82a797	0.063796215
112	0xbd7b7fd2	-0.061401196
113	0xbe2aa5aa	-0.16664758
114	0xbc4f609e	-0.012657313
115	0x3c2df543	0.010617557
116	0x3d9bf90e	0.07615863
117	0x3de84a2f	0.113422744
118	0xbddd3e86	-0.10802941
119	0x3e00a096	0.12561259
120	0xbdb4180c	-0.08793649
121	0x3e281fad	0.16418333
122	0xbe1a95d1	-0.15096213
123	0xbdffd65d	-0.124920584
124	0x3dd59958	0.104296386
125	0x3e0fa3ff	0.14027403
126	0xbdc7478c	-0.09730443
127	0xbdc8a38f	-0.09796821
128	0x3d4e5dc9	0.05038241
129	0xbcb7f900	-0.0224576
130	0x3d84d1c1	0.0648532
131	0x3d32a341	0.043612722
132	0x3dc793ea	0.09745009
133	0xbe1b9afa	-0.15195838
134	0x3e04e485	0.12977798
135	0x3e08e87d	0.13369937
136	0xbca93207	-0.020653738
137	0xbe041a10	-0.12900567
138	0x3d420e6b	0.04737703
139	0xbdfe8946	-0.124285266
140	0x3dba11da	0.09085436
141	0x3e084b25	0.13309915
142	0x3e130a11	0.14359309
143	0xbc13efc8	-0.009029336
144	0xbd7feed5	-0.062483627
145	0x3c877b97	0.016538424
146	0x3c65cf6a	0.014026502
147	0xbd2f13c2	-0.042743452
148	0x3d76d5af	0.06026238
149	0x3d338218	0.04382524
150	0x3cf55d39	0.029951679
151	0x3d9f198c	0.077685446
152	0xbc503bef	-0.012709602
153	0x3dcc1d33	0.09966507
154	0xbd940b9c	-0.07228777
155	0xbdb3400d	-0.08752451
156	0x3cb9bff6	0.022674542
157	0xbe2e04a9	-0.16993965
158	0x3dc73775	0.097273745
159	0x3c8a7d5a	0.016905475
160	0xbd98bd6d	-0.07458005
161	0x3caa0ac0	0.02075708
162	0xbdb0c25c	-0.08630821
163	0xbe0c77ca	-0.13717571
164	0x3df885bd	0.121348836
165	0xbe0e9646	-0.13924512
166	0x3e0ad908	0.13559353
167	0x3dc967ea	0.09834273
168	0x3dc33dbd	0.0953326
169	0xbdcc7496	-0.099831745
170	0xbe1b6cec	-0.15178269
171	0xbde9d25c	-0.11417076
172	0xbd150c37	-0.036388602
173	0xbdd725d3	-0.10505261
174	0xbdd12292	-0.10211672
175	0x3e065e25	0.13121851
176	0x3db275d5	0.08713881
177	0xbcb2e734	-0.021838762
178	0xbde5ec1f	-0.11226677
179	0xbe1bfad0	-0.15232396
180	0x3db5fd94	0.08886257
181	0x3e287eab	0.1645457
182	0xbd05018d	-0.032472182
183	0xbdc11011	-0.094268925
184	0x3cb991c5	0.022652516
185	0xbda40166	-0.08008079
186	0xbaea10d5	-0.00178578
187	0xbde490a9	-0.11160404
188	0xbd56f954	-0.05248387
189	0xbbb9cbd8	-0.005670052
190	0x3dd4daa2	0.103932634
191	0xbe063f08	-0.13109982
192	0x3ded60dd	0.11590741
193	0xbe170827	-0.14749204
194	0x3d1035c2	0.035207517
195	0xbe26befe	-0.16283795
196	0xbd8a45de	-0.06751607
197	0xbce57ccd	-0.028013611
198	0xbdfecd8b	-0.12441548
199	0x3df4b319	0.11948223
200	0x3df80fd6	0.121123955
201	0xbde5cdc3	-0.112208866
202	0xbc1fcb69	-0.009753087
203	0x3daf0525	0.08545903
204	0xbded2e0e	-0.1158105
205	0xbdc8a4da	-0.09797068
206	0x3d0ad06b	0.03389017
207	0x3e1ea298	0.15491712
208	0xbdc7a62c	-0.09748492
209	0x3e15882e	0.1460273
210	0x3dcf064a	0.101086214
211	0xbe10a4c8	-0.14125359
212	0x3d45b259	0.04826579
213	0xba8aa6d1	-0.001057828
214	0xbe1bf0b3	-0.15228538
215	0x3dafd2c6	0.08585124
216	0xbce68579	-0.028139817
217	0xbe311d07	-0.1729623
218	0x3e38095a	0.17972317
219	0xbd0b24d4	-0.03397067
220	0xbddd780a	-0.10813911
221	0x3d250327	0.04028621
222	0x3cf36a44	0.029713757
223	0x3cecc979	0.028904663
224	0xbe0f18e5	-0.1397434
225	0xbddac967	-0.10682946
226	0x3d353307	0.044238117
227	0x3dad8d84	0.084742576
228	0xbd8ef7bc	-0.06980845
229	0x3dd26b65	0.1027439
230	0xbd517e21	-0.051145677
231	0xbdb61645	-0.08890966
232	0xbe08af8b	-0.13348214
233	0xbcbc54b6	-0.022989612
234	0x3e0ec5ef	0.13942693
235	0x3dfebc04	0.12438205
236	0xbddfa5a9	-0.10920269
237	0xbcfd555c	-0.030924492
238	0x3c8fad70	0.017538756
239	0x3cf2387d	0.029567951
240	0xbe128ce2	-0.14311555
241	0xbe3bed5f	-0.18352269
242	0x3e175ecb	0.14782254
243	0xbd6c4074	-0.057678655
244	0x3d3fa44a	0.046787538
245	0xbd075135	-0.03303643
246	0x3dc1cd43	0.09462979
247	0xbdb2c1b3	-0.087283514
248	0x3ddb5f9c	0.107115954
249	0xbda84e91	-0.0821811
250	0xbca8fdad	-0.020628775
251	0xbcac4af3	-0.021031832
252	0xbdcd2070	-0.100159526
253	0xbe252b06	-0.16129693
254	0xbe31556c	-0.17317742
255	0xbe09eec0	-0.13469982

multihead_self_attention.multihead_attn.out_proj.bias f4 [32]
0	0x3c2ee4be	0.010674654
1	0x3bf1ad4d	0.0073753954
2	0x3c178fe8	0.0092506185
3	0x3c3d91a5	0.011570369
4	0xbc047404	-0.008084301
5	0x3c387b56	0.011259874
6	0xbc488ef8	-0.012241118
7	0x3c4bd9c3	0.012442055
8	0xba33c58c	-0.0006857745
9	0xbc06ff4f	-0.008239581
10	0x3c1fcdf9	0.009753698
11	0x3c532c00	0.012888908
12	0xbc3424ab	-0.01099507
13	0x3c3fab9f	0.0116986325
14	0x3c410ce3	0.011782858
15	0x3c1b19ea	0.009466628
16	0xbba52344	-0.0050396044
17	0xbc5c5a7f	-0.01344931
18	0x3c4d6e0d	0.012538445
19	0x3c4641a3	0.01210061
20	0xbba33af1	-0.0049813916
21	0xbc575b46	-0.01314432
22	0xbbe1d120	-0.0068913847
23	0xbca8c748	-0.020602837
24	0xbc4347d6	-0.0119189825
25	0xbbb9040d	-0.005646235
26	0xbc6a2e04	-0.014293198
27	0xbc418a8d	-0.011812818
28	0x3c55fc5f	0.013060658
29	0x3c3d8af2	0.011568772
30	0xbc72a5f2	-0.014810072
31	0x3c50ddb9	0.012748175

multihead_self_attention.fc.weight f4 [6, 32]
0	0xbc5e3cb5	-0.013564278
1	0xbdc424a4	-0.09577301
2	0x3d62f32f	0.0554077
3	0xbddc2810	-0.10749829
4	0x3dbc26aa	0.09187062
5	0x3e22cbcf	0.1589806
6	0x3dd793b8	0.10526222
7	0xb983ecd0	-0.00025162706
8	0x3ca3152d	0.019907558
9	0x3d93e038	0.07220501
10	0xbe2d1ab8	-0.16904724
11	0x3e220759	0.15823115
12	0x3d53b393	0.051684927
13	0xbe26f73a	-0.16305247
14	0xbdeb2187	-0.11481004
15	0xbe199ea4	-0.15001923
16	0x3dc17f6f	0.09448134
17	0xbc738091	-0.014862196
18	0x3ded93e4	0.116004735
19	0xbd97ceb7	-0.074124746
20	0x3ccc3d77	0.024931652
21	0xbdabbc0b	-0.08385476
22	0xbda13c07	-0.078727774
23	0xbccff4de	-0.025385316
24	0x3df7afce	0.12094079
25	0x3d961749	0.0732866
26	0xbdd79735	-0.10526887
27	0x3d9a7315	0.075414814
28	0x3e19c634	0.15017015
29	0xbe20a969	-0.15689625
30	0xbd356c18	-0.04429254
31	0xbdb815cc	-0.089885324
32	0xbd4016e7	-0.04689684
33	0xbe340545	-0.17580135
34	0x3a31ba88	0.00067798095
35	0xbde8af3b	-0.113615476
36	0xbd5faa2b	-0.054605644
37	0xbc168f45	-0.009189432
38	0xbd83aa2b	-0.06428941
39	0x3c265096	0.010151049
40	0xbdaffb56	-0.085928604
41	0x3da9b5b3	0.082866095
42	0xbcde130d	-0.027108693
43	0xbdf0e9e8	-0.11763364
44	0xbe0c877f	-0.13723563
45	0xbba54339	-0.005043414
46	0x3dac7990	0.08421624
47	0x3cb02c23	0.021505421
48	0x3d33c857	0.04389223
49	0xbdc39343	-0.09549572
50	0x3caa8a58	0.02081792
51	0x3d0473ac	0.032336876
52	0xbc621b0e	-0.013800396
53	0xbd55fc7d	-0.052242745
54	0x3e08116b	0.13287894
55	0xbe2030a8	-0.15643561
56	0xbdc95e81	-0.09832478
57	0xbe2d193c	-0.16904157
58	0xbd3aec98	-0.04563579
59	0x3c8933ba	0.016748298
60	0x3ba10920	0.004914418
61	0xbd406f9a	-0.04698143
62	0xbd9b5110	-0.07583821
63	0x3e191b31	0.14951779
64	0xbccbe652	-0.024890099
65	0x3d83298a	0.06404407
66	0xbd1ed305	-0.038775463
67	0xbe389728	-0.18026412
68	0xbc73c472	-0.014878379
69	0xbdfd6b46	-0.123739764
70	0x3d770aa5	0.060312886
71	0xbe36cca1	-0.17851497
72	0x3de20f96	0.11038129
73	0xbd491b31	-0.049098197
74	0xbd239775	-0.039939363
75	0xbe2e2074	-0.17004567
76	0xbbb7353c	-0.005591063
77	0xbdd698c1	-0.10478354
78	0xbe214846	-0.15750226
79	0x3cce7043	0.025200015
80	0x3d888d60	0.0666759
81	0x3d9c1047	0.07620292
82	0xbd95a199	-0.07306213
83	0xbe00515d	-0.12531038
84	0xbd37ebb3	-0.044902515
85	0x3e136690	0.14394593
86	0x3dde5e1d	0.108577944
87	0x3e18da93	0.1492713
88	0x3e3c7b02	0.18406299
89	0x3d0df59f	0.03465807
90	0x3e2b47fe	0.16726682
91	0x3dae4dbb	0.0851092
92	0xbda59475	-0.080849566
93	0xbdd66013	-0.104675435
94	0x3e19a6fc	0.15005106
95	0xbdeb3372	-0.11484422
96	0xb9847863	-0.00025266697
97	0xbe088229	-0.13330902
98	0xbe14ac20	-0.14518785
99	0x3e0996d7	0.13436447
100	0xbca221c8	-0.019791499
101	0xbdc0459f	-0.09388279
102	0x3e08e367	0.13367997
103	0x3e2de0c0	0.16980267
104	0x3bdb09bc	0.00668451
105	0xbe187f5f	-0.14892338
106	0x3d5092c7	0.050921228
107	0x3e318a03	0.17337804
108	0xbdef42eb	-0.116826855
109	0xbe10ac26	-0.1412817
110	0x3db1983d	0.08671615
111	0x3df64939	0.12025685
112	0x3e098619	0.1343006
113	0x3e103010	0.14080834
114	0x3d8ec43e	0.06971024
115	0x3c83cb9c	0.0160883
116	0xbdf63ff3	-0.12023916
117	0xbd54b647	-0.051931646
118	0xbd8c35fe	-0.06846236
119	0x3d91d391	0.07120431
120	0xbe064832	-0.13113478
121	0xbe0004fb	-0.125019
122	0xbd7d7dde	-0.061887614
123	0x3dead744	0.1146684
124	0x3d12c7ce	0.03583508
125	0xbe0156d4	-0.12630779
126	0x3e0064b5	0.12538417
127	0xbe2dbd8f	-0.16966842
128	0x3e22dc07	0.15904246
129	0x3dde4ca7	0.10854464
130	0x3d42cfc6	0.04756143
131	0x3d2f4631	0.04279155
132	0x3dbd2916	0.09236352
133	0x3da89ab7	0.082326345
134	0x3da01fed	0.07818589
135	0xbd3291a9	-0.043595944
136	0xbe05497a	-0.1301631
137	0x3dd29ff0	0.10284412
138	0xbdf3f369	-0.11911661
139	0xbc9ef47a	-0.019403685
140	0x3dd1ae7b	0.10238358
141	0x3daee828	0.08540374
142	0xbd6f5aca	-0.058436193
143	0xbb88016a	-0.004150559
144	0xbdeaff61	-0.11474491
145	0x3e0caefe	0.13738629
146	0xbdeb7e74	-0.114987284
147	0xbdfc94e4	-0.12333086
148	0x3ba0d94b	0.004908716
149	0xbdbdd861	-0.092697866
150	0xbe360b5e	-0.17777774
151	0x3d4f2d14	0.0505801
152	0xbbbbd15a	-0.0057317438
153	0x3ddc9c20	0.10771966
154	0x3deaa94a	0.114580706
155	0xbda9333d	-0.08261726
156	0xbda1c5fc	-0.07899091
157	0x3da65909	0.08122451
158	0xbd9d6343	-0.07684948
159	0xbd806dc9	-0.0627094
160	0xbdeed92d	-0.11662517
161	0xbe130e72	-0.14360979
162	0xbda8b533	-0.08237686
163	0x3de7cc13	0.11318221
164	0xbbe35328	-0.006937403
165	0x3ca3a6b2	0.019976947
166	0x3e080c3d	0.13285919
167	0xbce2255d	-0.027605707
168	0xbdc21592	-0.094767705
169	0x3e0ef1ef	0.13959478
170	0xbcece40c	-0.028917335
171	0xbdd7fc7d	-0.10546205
172	0x3e295754	0.1653722
173	0xbd9d95d2	-0.076945916
174	0xbdf09dfc	-0.11748883
175	0xbe1095a0	-0.14119577
176	0x3c9b0d60	0.018927276
177	0x3d9c81e9	0.07641966
178	0xbde0701c	-0.10958883
179	0x3c83fa36	0.01611052
180	0x3c265e47	0.010154313
181	0x3df57711	0.11985601
182	0x3c25b563	0.010114047
183	0xbde3b40e	-0.11118327
184	0x3d9080ff	0.07055854
185	0xbdc21843	-0.09477284
186	0x3ca2b199	0.019860076
187	0x3e2296cd	0.15877838
188	0xbe057fcd	-0.13037033
189	0xbe357552	-0.17720535
190	0xbd6cbb8f	-0.057796057
191	0xbe052d95	-0.1300567

multihead_self_attention.fc.bias f4 [6]
0	0x3e16e565	0.14735945
1	0x3d94927c	0.07254502
2	0x3da55d92	0.08074488
3	0x3e2a9a04	0.16660315
4	0x3e04a435	0.12953265
5	0x3c9d4afc	0.019200794

fc.weight f4 [6, 6]
0	0xbe838a04	-0.25691235
1	0x3e5d06d0	0.2158463
2	0x3deaec95	0.11470906
3	0xbecead28	-0.40366483
4	0x3dcf276f	0.10114943
5	0x3e003695	0.12520821
6	0xbdd24c47	-0.10268455
7	0x3c9b68cc	0.01897087
8	0xbe399408	-0.18122876
9	0x3d19753b	0.037465315
10	0x3da4f2dc	0.08054134
11	0xbe104ac1	-0.14091016
12	0x3e8d8d8e	0.2764706
13	0x3cdae00f	0.026718168
14	0xbdd4db07	-0.10393339
15	0x3e8da322	0.27663523
16	0xbe6a7d67	-0.228994
17	0x3e387f39	0.18017282
18	0xbdf1769e	-0.117902026
19	0x3e193ac4	0.14963824
20	0x3e157f77	0.14599405
21	0x3e3a8c73	0.1821764
22	0xbe8bf448	-0.2733481
23	0xbe1b6b1d	-0.15177579
24	0x3e54bf15	0.20776017
25	0xbd745d63	-0.059659373
26	0x3e53c9e0	0.20682478
27	0xbeab9fef	-0.33520457
28	0x3eb786bc	0.35844982
29	0x3eafe173	0.34351692
30	0xbec9ed95	-0.39439073
31	0xbdce331e	-0.100683436
32	0x3e98eff6	0.29870576
33	0x3e88c569	0.26713112
34	0xbac2c729	-0.001486038
35	0x3d953426	0.07285337

fc.bias f4 [6]
0	0xbc9711fd	-0.018441195
1	0x3e8f5c2c	0.2800001
2	0x3d22d0b1	0.039749805
3	0xbd62581b	-0.055259805
4	0x3ec8da61	0.3922911
5	0xbeaed65d	-0.3414792
